wkey/openwakeword_models/onnx/hey_lama.onnx (onnx, 859394 bytes, 9 tensors)

layer1.weight f4 [128, 1536]
0	0x3d27bf2a	0.040953793
1	0x3cdc4a3d	0.026890868
2	0xbbf5aca7	-0.0074973884
3	0x3c422fcd	0.011852217
4	0xbc8eec18	-0.017446563
5	0x3c3cf4d3	0.01153298
6	0xbc39dda4	-0.011344347
7	0xbd33fe64	-0.043943778
8	0xbc97dbc7	-0.018537415
9	0x3b66e15e	0.0035229544
10	0x3bfc1edf	0.00769411
11	0xbbabc069	-0.005241443
12	0xbb5bb113	-0.0033522293
13	0xbc89a696	-0.016803067
14	0xbd26d065	-0.040726084
15	0x3b9a697b	0.0047122813
16	0x3cf441dd	0.029816562
17	0xbd2289f3	-0.03968234
18	0xbc79c5f2	-0.015244948
19	0xbc3b89ed	-0.011446458
20	0x3c437308	0.011929281
21	0x3c72a3f0	0.014809594
22	0x3cef34f4	0.029200055
23	0xbc2fcd7a	-0.010730142
24	0xbbcd9088	-0.006273333
25	0x3d01901c	0.031631574
26	0x3a87ac7f	0.001035109
27	0x3c429a2c	0.011877578
28	0x3bba0c6d	0.005677751
29	0xbcb9ce98	-0.02268152
30	0x3c80e4f1	0.015734168
31	0x3b2ec60f	0.0026668345
32	0x3c440c5e	0.011965839
33	0xbadd31d0	-0.0016875807
34	0xbd0b24f9	-0.033970807
35	0x3c448717	0.011995099
36	0x3c6a311f	0.014293938
37	0xbc6f3ad0	-0.014601424
38	0x3d09f578	0.033681363
39	0xb92e93cd	-0.00016648993
40	0xbc6ab43b	-0.014325197
41	0xbce6e925	-0.028187344
42	0x3c8568bd	0.016285295
43	0xbb109bd0	-0.0022065528
44	0x3b69651e	0.003561325
45	0xbbf1b7ae	-0.0073766327
46	0x3c3e5c7d	0.011618731
47	0xbc96d03f	-0.018409846
48	0x3bb5c722	0.00554742
49	0x3c37d161	0.011219353
50	0x3c2abe3b	0.010421331
51	0x3d070743	0.03296591
52	0xbc02afe7	-0.007976509
53	0x3bc830cc	0.0061093327
54	0xbc8812b9	-0.01661049
55	0x38cdb035	9.807983e-05
56	0x3cdda88c	0.027057908
57	0xbc68c00f	-0.014205947
58	0xbc1065a9	-0.0088133
59	0xbc61a77b	-0.013772841
60	0x3ca2d749	0.019878047
61	0xbcfb1c70	-0.030653208
62	0x3b9c1893	0.0047636717
63	0xbb36abb1	-0.0027873332
64	0x3b841da2	0.004031853
65	0x3cbb585f	0.022869287
66	0x3ce34aa2	0.027745549
67	0xbcb6aae0	-0.022298276
68	0xbba91b27	-0.0051607075
69	0x3b38c067	0.0028190853
70	0x3ba2126f	0.004946045
71	0xbc14c626	-0.009080445
72	0x3b829424	0.003984945
73	0xbc3573f4	-0.011075009
74	0x3bb3d171	0.005487614
75	0x3ace7804	0.001575232
76	0xbc9cc52c	-0.019136988
77	0xbbed2c1d	-0.0072379247
78	0xbc7859fe	-0.015158175
79	0xbcb526e0	-0.022113264
80	0x3ce50220	0.027955115
81	0x3c18e9fe	0.009333132
82	0x3d00af64	0.031417266
83	0x3b80ca07	0.0039303335
84	0x3bfc9d01	0.007709146
85	0xbc8bf6fe	-0.017085548
86	0xbc92623b	-0.017869106
87	0xbac02f36	-0.0014662507
88	0x3bfc8400	0.0077061653
89	0x3ca940af	0.020660726
90	0x3bb158cb	0.0054121963
91	0x3be9c724	0.007134335
92	0x3cacf1d8	0.021111414
93	0x3cca41c3	0.02468956
94	0x3ca465ed	0.020068133
95	0x3ae19f5b	0.0017213629
96	0x3bf3d6f9	0.007441398
97	0x3cd1f9e3	0.02563185
98	0xbc6aade7	-0.014323688
99	0xbcb81a2c	-0.022473417
100	0xbbb07a71	-0.00538569
101	0xbad8c1ae	-0.0016537213
102	0x3ca14b0a	0.019689102
103	0x3b0fd833	0.0021948933
104	0x3ca648b5	0.020298341
105	0x3c96ad80	0.018393278
106	0xb9f3bcc9	-0.00046489228
107	0xbcfc86c0	-0.030825973
108	0xbb6ec910	-0.003643576
109	0x3ba3f58d	0.005003637
110	0xbc983a26	-0.018582415
111	0xbd4c358e	-0.04985576
112	0xbb4585c7	-0.0030139552
113	0xbce2ac88	-0.02767016
114	0xbbeddcc8	-0.007258985
115	0x3c01fa2a	0.007933179
116	0xbba12884	-0.00491816
117	0xbba3bdcd	-0.0049969913
118	0xbc1672a6	-0.009182608
119	0x3c1a5237	0.009419016
120	0x3b81b671	0.0039585163
121	0x3cd8dadb	0.026471546
122	0xbc07e86c	-0.00829516
123	0xbc605950	-0.013693169
124	0xbc9e3935	-0.019314388
125	0x3c039908	0.008032091
126	0xba1f00cd	-0.0006065488
127	0xbc2f8644	-0.010713164
128	0x3b4ba8a9	0.003107587
129	0xbcb3d834	-0.02195368
130	0xbcbbe347	-0.022935523
131	0x3b6f7ea4	0.003654399
132	0x3b756dcc	0.0037449477
133	0xbc1f5260	-0.00972423
134	0x3d21d7ab	0.039512318
135	0x3c69c26c	0.014267545
136	0xbce422a4	-0.02784855
137	0x3cefdce8	0.029280141
138	0xbcbc03ef	-0.022951094
139	0xbc201e7e	-0.009772895
140	0xbbbef7f9	-0.0058279005
141	0xbb99c174	-0.004692251
142	0x3b98f29b	0.0046675927
143	0x3aca329f	0.0015426463
144	0x3c2ad66d	0.0104271
145	0x3c35c475	0.011094202
146	0xbb8ba874	-0.0042620245
147	0x3b1067e2	0.0022034575
148	0x3c584829	0.013200798
149	0xba911372	-0.0011068417
150	0x3b9de065	0.0048180097
151	0x3b2e35e4	0.0026582414
152	0x3c93c633	0.018038845
153	0x3c30154a	0.010747263
154	0xbabc2ad3	-0.0014356024
155	0xbc745ee9	-0.0149152065
156	0x3b097f4b	0.0020980414
157	0x3c7d96ce	0.015477849
158	0x3d14b152	0.03630192
159	0x3bae965c	0.005327983
160	0xbb5fc4ec	-0.0034144474
161	0x3d0a982d	0.033836532
162	0xba6f652a	-0.0009132201
163	0xbce173d4	-0.027521051
164	0xbc790be3	-0.015200588
165	0x3cff9d2a	0.031202871
166	0x3cadef4d	0.021232272
167	0xbbb9d410	-0.005671032
168	0xbc9182d6	-0.017762583
169	0x39dcb5e1	0.0004209718
170	0x3c1aaaf1	0.00944017
171	0xbbb53bd4	-0.0055308137
172	0x3d196b8e	0.037456088
173	0x3c15210e	0.009102119
174	0xbc9934c3	-0.018701917
175	0xbcc70764	-0.024295516
176	0x3c2b8a2b	0.0104699535
177	0x3bea6804	0.007153513
178	0x3c4a878a	0.012361417
179	0xbc0afcd1	-0.008483128
180	0xbc5daab8	-0.013529472
181	0x3c2d09d8	0.010561429
182	0x3c536a07	0.012903697
183	0x3ac2e3f5	0.0014868962
184	0x3be19b25	0.0068849497
185	0x3cab8550	0.020937592
186	0x3bbfba51	0.005851068
187	0x3c68316b	0.014171938
188	0x3cc0decd	0.02354374
189	0x3ba77183	0.005109967
190	0xba27939c	-0.000639254
191	0x3c17e0b5	0.009269883
192	0xbb69331b	-0.003558344
193	0xbc919d08	-0.017775074
194	0x3c42007e	0.011840938
195	0xbd04cdc9	-0.032422815
196	0xbbc66574	-0.0060545746
197	0x3cecc107	0.028900636
198	0x3c9f9c08	0.019483581
199	0xbc76bb54	-0.015059311
200	0xbbf61004	-0.0075092334
201	0xbc4a2080	-0.01233685
202	0x3aa1731f	0.0012317634
203	0xbd032dfe	-0.032026283
204	0xbc98b28a	-0.018639822
205	0xbd18f32a	-0.037341274
206	0x3c33f98e	0.010984791
207	0xbd14ac3c	-0.036297068
208	0x3c8ecd9e	0.01743203
209	0xbb9a6bd9	-0.0047125635
210	0xbc9e25d8	-0.019305155
211	0xba34970c	-0.0006888963
212	0x3adc9eb5	0.0016831966
213	0x3c835613	0.016032254
214	0xbb98360b	-0.0046451143
215	0xbc02c18d	-0.007980716
216	0xbb258031	-0.002525341
217	0x3b8f2960	0.004368946
218	0xbcde1aeb	-0.027112445
219	0xbb549e2f	-0.0032442918
220	0xbcf2f795	-0.029659072
221	0xbba80d41	-0.005128533
222	0xba02dcd0	-0.000499201
223	0xbc946036	-0.018112283
224	0xbc4d720e	-0.0125394
225	0xbc8e2cda	-0.017355371
226	0xbcb72d68	-0.022360519
227	0xbb83e245	-0.004024776
228	0xbbc39987	-0.0059692296
229	0xbc1b52f2	-0.009480225
230	0x3d727219	0.059190843
231	0xbc2cf7a6	-0.010557091
232	0xbc88eb20	-0.016713679
233	0x3d009d65	0.031400103
234	0x3bfb5ff3	0.00767135
235	0xbc80e21d	-0.01573282
236	0xbc81f294	-0.01586274
237	0xbd01f6cf	-0.031729516
238	0x3cf55849	0.029949324
239	0x3cfdf5e4	0.031001039
240	0xbd107d01	-0.035275463
241	0x3d2447f9	0.0401077
242	0xbc37de21	-0.011222393
243	0xbca3946e	-0.019968238
244	0x3b4902ec	0.0030671908
245	0x3c04a2c1	0.008095444
246	0xbc920221	-0.01782328
247	0xbba53927	-0.0050422135
248	0xbcb2dd25	-0.021833966
249	0xbb7acafd	-0.0038267963
250	0x3879a7f1	5.9522634e-05
251	0xbcd11746	-0.025523793
252	0x3bd8cd8c	0.0066163
253	0xbbd3b00a	-0.0064601945
254	0x3d399284	0.045305744
255	0xbb6d0e0f	-0.003617171

layer1.bias f4 [128]
0	0xbca124b7	-0.019670827
1	0x3c1b59f3	0.009481895
2	0xbb30b4f9	-0.0026963337
3	0xbccfe378	-0.02537702
4	0x3d051f83	0.032500755
5	0x3ca141f9	0.019684779
6	0xbb925ce0	-0.004466638
7	0xbc8ad3d7	-0.016946716
8	0x3be3670c	0.0069397744
9	0x39ebd695	0.0004498257
10	0xbb5ba0a4	-0.0033512497
11	0xbca3c87b	-0.019993057
12	0xbc9167ec	-0.01774975
13	0xbc9d8b13	-0.019231355
14	0x3cb57b88	0.02215363
15	0xbac54174	-0.0015049414
16	0xbbe52025	-0.0069923573
17	0xbb5e1aff	-0.0033890603
18	0x3c11af28	0.008891858
19	0x3cad2eb6	0.021140438
20	0xbba1940f	-0.00493098
21	0x3c1f582a	0.00972561
22	0x3ba65457	0.005075972
23	0xba2645e5	-0.00063428126
24	0xbc39bbaa	-0.0113362465
25	0x3cb4273c	0.021991365
26	0x3afb6815	0.0019180799
27	0xbc21476c	-0.009843688
28	0x3c49d3c5	0.012318556
29	0x3cb3f9e9	0.021969752
30	0xbc2f0d11	-0.010684268
31	0x3cc83630	0.024439901
32	0x3c1179ee	0.008879168
33	0x3cc742b2	0.024323795
34	0xbc2d2dae	-0.010569973
35	0x3cb505be	0.022097465
36	0xbb2531ae	-0.0025206613
37	0x3c8c81cc	0.017151736
38	0xbc7ee3b3	-0.015557217
39	0x3d1b3856	0.037895523
40	0x3cbff8c4	0.02343405
41	0x3a625eac	0.0008635323
42	0x3ba7d90c	0.0051223096
43	0xba9f058b	-0.0012132389
44	0xbbaf69b5	-0.0053531774
45	0xba90668e	-0.0011016892
46	0x3c8a163d	0.016856307
47	0x38132d00	3.508944e-05
48	0xba802b9f	-0.0009778625
49	0x3c97095f	0.018437086
50	0x3ca3cc8c	0.019994996
51	0x3c746f94	0.01491918
52	0xbcb97c8c	-0.022642396
53	0xbb2776c4	-0.0025552968
54	0xbcaa96c6	-0.020823848
55	0x3c85b42d	0.016321266
56	0x3b33d46c	0.0027439846
57	0x3cc3a379	0.02388166
58	0x3b0e3b3c	0.0021702787
59	0xbbf7a15f	-0.0075570787
60	0x3ac6ac49	0.0015157546
61	0x3cc259a5	0.023724386
62	0x3cbf38d6	0.023342531
63	0x3ca3bf9b	0.019988826
64	0x3ccb5e4a	0.024825234
65	0x3bba92e1	0.005693779
66	0x3a27efa8	0.0006406256
67	0x3c5b694f	0.013391807
68	0x3cd135e7	0.025538398
69	0xbc5a466d	-0.013322455
70	0x3a585476	0.0008252332
71	0x3c502ad9	0.012705528
72	0xbc5db5e7	-0.013532138
73	0x3cb5485c	0.02212923
74	0x3c97f510	0.018549472
75	0xba514796	-0.00079833844
76	0x3aa974ef	0.0012928526
77	0xbc695bb8	-0.014243059
78	0x3a8e620c	0.001086296
79	0x3cb515e3	0.022105163
80	0xbca2c593	-0.019869601
81	0xbbb1964a	-0.005419527
82	0xbbbb40aa	-0.0057144957
83	0xbb140ae9	-0.002258951
84	0xbc3f4ae5	-0.011675571
85	0x3cb75e01	0.022383692
86	0x3c5c4552	0.013444262
87	0x3baa4bb0	0.005197011
88	0xbc0080e4	-0.00784323
89	0xbc081e25	-0.008307968
90	0x3c40d52e	0.011769576
91	0x3c3a1eb5	0.01135986
92	0xbc88adb9	-0.0166844
93	0x3b919884	0.00444323
94	0xbbb0a464	-0.0053906906
95	0xbba84bab	-0.0051359734
96	0x3c78a770	0.015176639
97	0xbc3d0ccc	-0.011538696
98	0xbca4d086	-0.020118963
99	0xbbb531d7	-0.005529623
100	0xbbb7970e	-0.005602724
101	0xbca091fd	-0.019600863
102	0xb94c1a00	-0.00019464642
103	0x3bf08931	0.0073405732
104	0x3cbb1b5c	0.022840194
105	0x3ce1ace7	0.027548267
106	0x3cc76db7	0.024344308
107	0x3cc3b158	0.023888275
108	0xbcb5b63c	-0.022181623
109	0x3cbc82f5	0.023011664
110	0x3c9ac8c2	0.018894557
111	0xbcc47f64	-0.023986526
112	0x3c8ef634	0.017451383
113	0x3c4af24a	0.012386868
114	0x3ba790c0	0.005113691
115	0xbbc4d3b6	-0.006006683
116	0xbc538914	-0.0129111
117	0x3cbc4bef	0.022985427
118	0xbcced7ea	-0.02524944
119	0x3cc83d38	0.024443254
120	0xbcd0bcf7	-0.02548073
121	0xbba44044	-0.005012544
122	0xbb5233a3	-0.0032074235
123	0x3c4a096f	0.012331351
124	0xbc04decf	-0.008109762
125	0x3c5d0678	0.013490312
126	0x3bd2b6bb	0.0064304746
127	0xbb941d53	-0.0045200973

layernorm1.weight f4 [128]
0	0x3f7df10c	0.99195933
1	0x3f7b7cb5	0.9823716
2	0x3f7aba8b	0.9794089
3	0x3f7dc208	0.99124193
4	0x3f809f0e	1.004854
5	0x3f80a88d	1.0051438
6	0x3f79c394	0.97564054
7	0x3f7ca6e5	0.9869216
8	0x3f7dc9d3	0.99136084
9	0x3f84bfab	1.0370992
10	0x3f7c224d	0.9848984
11	0x3f7cdc68	0.98773813
12	0x3f80367a	1.0016625
13	0x3f7a6ef7	0.9782557
14	0x3f7e6820	0.9937763
15	0x3f80eabd	1.0071636
16	0x3f80f82a	1.0075734
17	0x3f826c25	1.0189253
18	0x3f7d78e3	0.99012583
19	0x3f7d6eef	0.98997396
20	0x3f7fdff0	0.99951077
21	0x3f7c9d57	0.9867758
22	0x3f7b3207	0.9812321
23	0x3f85c714	1.0451379
24	0x3f82beb3	1.0214447
25	0x3f7ba9b4	0.9830582
26	0x3f808000	1.0039062
27	0x3f7e85b3	0.9942276
28	0x3f7d2234	0.98880315
29	0x3f7805f9	0.96884114
30	0x3f77002f	0.96484655
31	0x3f7b68cc	0.9820678
32	0x3f7b408f	0.98145384
33	0x3f7cd9a5	0.987696
34	0x3f7bb58a	0.9832388
35	0x3f843e81	1.0331575
36	0x3f78bab8	0.9715991
37	0x3f7e69ea	0.9938036
38	0x3f7b99ec	0.9828174
39	0x3f8be781	1.0930024
40	0x3f855511	1.0416585
41	0x3f7835ba	0.9695698
42	0x3f7cd7b1	0.9876662
43	0x3f80668b	1.0031294
44	0x3f82d25c	1.0220447
45	0x3f7cdd2c	0.9877498
46	0x3f81e931	1.0149289
47	0x3f77d846	0.9681438
48	0x3f7f817c	0.9980695
49	0x3f751d40	0.95747757
50	0x3f78cc55	0.97186786
51	0x3f82abc3	1.0208668
52	0x3f7d6c37	0.9899325
53	0x3f7cda66	0.9877075
54	0x3f7be4e4	0.98396134
55	0x3f7df2aa	0.991984
56	0x3f7c6abd	0.9860037
57	0x3f884b1d	1.0647923
58	0x3f7aa4a7	0.9790749
59	0x3f7f0827	0.99621814
60	0x3f7cd855	0.98767596
61	0x3f8724a8	1.0558062
62	0x3f828b4a	1.0198758
63	0x3f77c581	0.9678574
64	0x3f7f4b0d	0.99723893
65	0x3f7cd0c8	0.98756075
66	0x3f7b3ab1	0.9813643
67	0x3f82d620	1.0221596
68	0x3f7f1707	0.9964451
69	0x3f816ad5	1.0110728
70	0x3f77ecc5	0.96845657
71	0x3f805f22	1.0029032
72	0x3f7effc4	0.9960902
73	0x3f7c1d5e	0.9848231
74	0x3f7ceb2b	0.9879634
75	0x3f7e6d7d	0.99385816
76	0x3f7c4315	0.9853986
77	0x3f8176e9	1.0114413
78	0x3f779c26	0.9672264
79	0x3f7d8c96	0.9904264
80	0x3f7c99d3	0.9867222
81	0x3f7f27f8	0.9967036
82	0x3f8780e2	1.0586207
83	0x3f7e6a3f	0.9938087
84	0x3f7dc48a	0.9912802
85	0x3f80a4e9	1.0050327
86	0x3f80764a	1.0036099
87	0x3f795830	0.9740019
88	0x3f825710	1.0182819
89	0x3f7a0dda	0.97677386
90	0x3f8412ac	1.0318198
91	0x3f812804	1.0090337
92	0x3f83f49b	1.0309023
93	0x3f7ea7e0	0.99474907
94	0x3f83f2ae	1.0308435
95	0x3f7c7aa6	0.98624647
96	0x3f85e161	1.0459405
97	0x3f817d02	1.0116274
98	0x3f7bce5c	0.98361754
99	0x3f800194	1.0000482
100	0x3f84da7b	1.0379175
101	0x3f7e9d63	0.99458903
102	0x3f81accb	1.0130857
103	0x3f8166d7	1.0109509
104	0x3f7e79bd	0.9940451
105	0x3f84209c	1.0322452
106	0x3f861b89	1.0477153
107	0x3f7f52c2	0.99735653
108	0x3f7ad14e	0.97975624
109	0x3f806c77	1.0033101
110	0x3f83b2bf	1.0288924
111	0x3f8017f2	1.0007308
112	0x3f7cac6d	0.987006
113	0x3f81834c	1.0118194
114	0x3f7a7021	0.97827345
115	0x3f7e381d	0.9930437
116	0x3f7e3ff6	0.99316347
117	0x3f7f973d	0.99840146
118	0x3f80dc02	1.0067141
119	0x3f840ecb	1.0317014
120	0x3f83c228	1.0293627
121	0x3f7520d8	0.9575324
122	0x3f80719f	1.0034674
123	0x3f755d22	0.95845234
124	0x3f816f79	1.0112144
125	0x3f7c0ea6	0.9845985
126	0x3f808309	1.0039989
127	0x3f7d3b3c	0.9891851

layernorm1.bias f4 [128]
0	0xb908479f	-0.00012996652
1	0xbc2bb95a	-0.010481203
2	0x3b16d449	0.0023014715
3	0xbc733f3f	-0.014846622
4	0x3acc23f3	0.0015574679
5	0xbb82fe28	-0.003997583
6	0x3ada7a3c	0.0016668509
7	0x3c028c1f	0.007967978
8	0xbc6fce44	-0.01463658
9	0xbae9f4d1	-0.001784945
10	0xbbf4a194	-0.0074655507
11	0xbc332477	-0.010933987
12	0x3a734037	0.0009279283
13	0xbcb4acc5	-0.02205504
14	0x3b91bb12	0.0044473493
15	0xbb960dc5	-0.004579278
16	0x3b9540ba	0.004554835
17	0xba1a69a2	-0.00058903743
18	0xbad57ed8	-0.0016288413
19	0xbc4111d4	-0.011784036
20	0xbc5b58b8	-0.013387851
21	0xbc428319	-0.011872076
22	0xbc75099d	-0.014955905
23	0x3c2a6a96	0.010401389
24	0x3c0eff00	0.008727789
25	0xbc991154	-0.01868502
26	0xbb67c12d	-0.0035362944
27	0x3b1c8a27	0.0023886056
28	0xbb9b23e9	-0.0047345054
29	0xbc524140	-0.01283294
30	0xbc909165	-0.017647455
31	0xbc6d58ee	-0.0144865345
32	0xbc82a95f	-0.015949903
33	0xbc7eb723	-0.015546593
34	0xbb18ad7a	-0.002329676
35	0x3c0fa0c3	0.008766356
36	0x3b092136	0.0020924336
37	0xbb0dc27f	-0.0021630821
38	0xbc9350aa	-0.0179828
39	0x3c470795	0.012147804
40	0x3c5b89eb	0.013399581
41	0xbbc7db31	-0.0060991277
42	0xba1e19b2	-0.00060310506
43	0xbc2ff92e	-0.010740561
44	0x3a0ed877	0.0005449126
45	0xbca83dc1	-0.020537259
46	0x3afb7440	0.0019184425
47	0xbb8caf49	-0.0042933566
48	0xbb9a0217	-0.004699956
49	0xbca21bb2	-0.019788597
50	0xbcc38702	-0.023868088
51	0x3b1338d7	0.00224643
52	0xbb8f4d7e	-0.0043732515
53	0xbc4c4865	-0.012468432
54	0xbc4ee8e2	-0.012628766
55	0xbc8ed5ca	-0.017435927
56	0xbbbae85b	-0.0057039685
57	0x38fb0991	0.000119703946
58	0xbc822651	-0.015887411
59	0xba2182d8	-0.000616116
60	0x3b9ba48f	0.0047498415
61	0x3b7a3bb1	0.0038182552
62	0xb9aaf146	-0.0003260469
63	0xbb29e673	-0.0025924712
64	0xbb8fedca	-0.0043923603
65	0xbc67f8a0	-0.014158398
66	0xbc433b12	-0.011915939
67	0x3b9166cf	0.0044373046
68	0xbb05c670	-0.0020412467
69	0x3bf0a757	0.007344167
70	0xbc86bb8f	-0.016446857
71	0xbb0048c3	-0.001957462
72	0x3b66b1c4	0.0035201171
73	0xbccffadb	-0.025388172
74	0xbc38e8a9	-0.011285939
75	0xbc3f499f	-0.0116752675
76	0xbc82530c	-0.01590874
77	0x3b8d155e	0.0043055257
78	0xbcc090d1	-0.023506554
79	0x3b3570d9	0.002768567
80	0xbb4741d4	-0.0030404227
81	0xbb6f63eb	-0.0036528062
82	0x3c0b23be	0.008492408
83	0xbc203ac9	-0.0097796405
84	0xbc62e2d0	-0.013848022
85	0x3b6e778c	0.0036387173
86	0x3b726775	0.0036987935
87	0xbbd61169	-0.006532837
88	0xbb51e971	-0.003203001
89	0xbcaecdb8	-0.021338329
90	0xbbec67aa	-0.007214506
91	0x3c3bca24	0.011461768
92	0x3b92a216	0.0044748886
93	0xbbe4507d	-0.0069676028
94	0x3be65000	0.0070285797
95	0xbc4d072a	-0.012513915
96	0x3bc73566	0.0060793636
97	0xbaebdcf2	-0.0017994924
98	0xbbe00b0f	-0.006837256
99	0xbab90bc9	-0.0014117892
100	0x3c22f56c	0.009946208
101	0xb827788c	-3.992817e-05
102	0x3b646f8e	0.003485653
103	0xbbd5ab40	-0.0065206587
104	0xbc1fbd9b	-0.009749795
105	0x3c51bbd8	0.012801133
106	0x3bfb83aa	0.0076756077
107	0x3bba939e	0.005693867
108	0xbcc6e400	-0.02427864
109	0xbb42c1ed	-0.002971764
110	0x3bc8768a	0.0061176466
111	0x3bb570c8	0.005537126
112	0xbc7c1960	-0.015386909
113	0x3c398e7a	0.011325473
114	0xbb44a7ba	-0.00300072
115	0xbc5ab3af	-0.013348504
116	0xbb07219e	-0.0020619403
117	0xbb8ebb88	-0.0043558516
118	0xbbbeea0a	-0.0058262395
119	0x3c731215	0.014835854
120	0x3c234ca2	0.009967001
121	0xbc3edb5e	-0.011648981
122	0x3bdff41f	0.0068345214
123	0xbc8af5ff	-0.016963003
124	0xbbace179	-0.005275902
125	0xbcc033c1	-0.023462178
126	0x3bc3c696	0.005974601
127	0xbc358823	-0.011079821

blocks.0.fcn_layer.weight f4 [128, 128]
0	0xbbf31fb6	-0.0074195517
1	0x3d66cb8d	0.056346465
2	0xbd5b38d9	-0.05352101
3	0xbd3a564e	-0.045492463
4	0x3d674013	0.05645759
5	0xbd47a720	-0.048743367
6	0xbb3c67d0	-0.00287484
7	0xbc8e30bb	-0.01735722
8	0x3d81bbe0	0.063346624
9	0x3dad895e	0.08473466
10	0x3c3b76e9	0.011441925
11	0x3d8af14d	0.06784306
12	0x3d1befa2	0.03807033
13	0x3d3efaa6	0.046625756
14	0xbdb0c978	-0.08632177
15	0x3cd7a0a2	0.026321713
16	0xb83bd492	-4.4782246e-05
17	0xbd0e5c88	-0.034756213
18	0xbc299184	-0.010349635
19	0x3d2c67bd	0.04209112
20	0x3d781caa	0.06057421
21	0xbd559503	-0.05214406
22	0xbc82854f	-0.015932707
23	0xbd621444	-0.055195108
24	0x3c6e3d11	0.014540927
25	0x3d83f56e	0.064432964
26	0x3c56fea6	0.013122236
27	0x3cd8314e	0.026390698
28	0x3c4bb9ab	0.012434403
29	0x3cd94f83	0.026527172
30	0xbbdc1281	-0.006716073
31	0xbd9424b6	-0.072335646
32	0x3cd0b7c7	0.025478257
33	0x3cda6d01	0.026663305
34	0x3ae9b46d	0.001783026
35	0x3d9477d4	0.07249418
36	0xbaf90af8	-0.0019000461
37	0xbd17b39f	-0.037036534
38	0xbb6b6d60	-0.0035923347
39	0x3b84c1c6	0.00405142
40	0xbd0e3634	-0.03471966
41	0x3d2415df	0.04005992
42	0x3d3a4eb8	0.04548523
43	0x3ad8998e	0.0016525255
44	0x3db1c924	0.08680943
45	0x3cfc109a	0.030769635
46	0x3b15e97b	0.002287476
47	0xbc8846a1	-0.016635241
48	0x3daad9cc	0.08342323
49	0x3be28b8c	0.006913608
50	0xbcfc11ee	-0.030770268
51	0xbc244094	-0.010025162
52	0xbd8d0745	-0.06886152
53	0x3cd1a85a	0.025592972
54	0x3d877768	0.06614572
55	0x3b5b9cc7	0.0033510195
56	0x3d157438	0.036487788
57	0x3c841e61	0.016127767
58	0x3d2e4fec	0.04255669
59	0x3d012557	0.03152975
60	0xbd031439	-0.032001708
61	0x3db7b3d6	0.08969848
62	0xbd6fc4d2	-0.05853731
63	0xbce6e067	-0.028183175
64	0x3c03835f	0.008026927
65	0x3d8b30ae	0.06796394
66	0xbcb182eb	-0.021668872
67	0x3d82603a	0.0636601
68	0x3d5899bc	0.052880988
69	0xbd0e39aa	-0.03472296
70	0xbd3c0dc8	-0.04591158
71	0xbd61e50b	-0.055150073
72	0xbd78a7d6	-0.060706936
73	0x3d09a078	0.0336003
74	0x3dc0c660	0.09412837
75	0x3ce58559	0.028017687
76	0x3d1833a4	0.037158623
77	0x3cae7bdc	0.021299295
78	0x3d922d83	0.07137587
79	0xbdacc8ca	-0.08436735
80	0xbca8f319	-0.02062373
81	0x3d0a1dec	0.033719942
82	0xbdcc3ddd	-0.09972737
83	0x3d138fd0	0.036025822
84	0xbd465361	-0.04841936
85	0xbd500506	-0.05078604
86	0x3c55e6ca	0.013055513
87	0x3bbbc882	0.0057306895
88	0x3cea9ca1	0.02863914
89	0xbceb2f86	-0.028709184
90	0xbd109bbb	-0.035304766
91	0xbd38af33	-0.045088958
92	0x3d57f63e	0.05272507
93	0xbd3a8821	-0.04553998
94	0x3c59505c	0.013263788
95	0xbd0c1be9	-0.034206305
96	0xbd519566	-0.051167868
97	0xbc3b384d	-0.011426997
98	0xbd1950d2	-0.037430592
99	0x3d6a60b3	0.057221126
100	0x3d4be840	0.049782038
101	0xbd3f20f4	-0.046662286
102	0xbd64a5e8	-0.055822283
103	0xbc34aeb4	-0.011027981
104	0x3d6a8cd8	0.057263225
105	0xbcd6bc3b	-0.026212802
106	0x3b19660d	0.0023406774
107	0xbda1f1f5	-0.07907478
108	0x3d26a641	0.040685896
109	0x3db869cc	0.09004554
110	0x3b4424d2	0.0029929173
111	0x3de55a17	0.11198824
112	0xbd007e57	-0.031370487
113	0x3cbe167c	0.02320408
114	0x3d23b314	0.039965704
115	0x3c3911df	0.011295765
116	0x3c78c780	0.015184283
117	0x3c9a3166	0.018822383
118	0x3da7a8b4	0.081864744
119	0x3d63f458	0.055652946
120	0xbd9776af	-0.07395684
121	0xbd18797a	-0.037225224
122	0x3d7d8745	0.06189658
123	0x3b9c1157	0.0047628093
124	0x3d8259b3	0.06364765
125	0xbd53ee09	-0.05174068
126	0x3c959eb7	0.018264158
127	0x3d7a2473	0.061069917
128	0x3d3bb63f	0.0458281
129	0x3c55cc0b	0.013049136
130	0xbda2ab5a	-0.07942839
131	0x3d4dc98b	0.050241034
132	0x3d0ae727	0.03391185
133	0x3d70aea4	0.0587603
134	0xbda097d6	-0.078414604
135	0xbd53b84a	-0.051689424
136	0x3aa4c6ca	0.0012571451
137	0xbbe646a8	-0.007027466
138	0xbc326aa3	-0.010889682
139	0xbd830949	-0.063982554
140	0xbc86397a	-0.016384829
141	0x3d228261	0.03967512
142	0xbdae86a1	-0.08521772
143	0xbd03da4f	-0.032190617
144	0x3b94331f	0.0045226957
145	0x3d283e78	0.0410752
146	0x3b5888bf	0.0033040491
147	0xbd45fd7f	-0.048337456
148	0xbd82adcd	-0.06380806
149	0x3cf3a6c7	0.029742612
150	0x3c6a9908	0.014318712
151	0xbd20028b	-0.039064925
152	0xbd2eb2a9	-0.042650852
153	0x3d98a725	0.07453755
154	0xbc9c1c57	-0.019056482
155	0x3c4090ba	0.0117532555
156	0x3b527c52	0.0032117558
157	0xbd74bbec	-0.05974953
158	0x3d8ff7d6	0.07029693
159	0x3d1c5d66	0.03817501
160	0xbcf4d179	-0.02988504
161	0x3c41735b	0.011807288
162	0x3d1c314d	0.038132954
163	0xbc22de39	-0.009940677
164	0x3d34d9b5	0.044152934
165	0xbd86e65f	-0.065869085
166	0x3cfcfabd	0.03088128
167	0x3c1ff219	0.00976231
168	0x3d5d66b4	0.054053023
169	0x3c322157	0.010872207
170	0x3bdf8e9b	0.00682242
171	0xbd04ee29	-0.03245369
172	0x3d897039	0.06710858
173	0xbb4709a4	-0.0030370736
174	0xbd5ef032	-0.054428287
175	0x3c12098f	0.008913412
176	0x3cad4dbf	0.021155236
177	0xbd752258	-0.059847206
178	0xbca534ff	-0.020166872
179	0x3cb8a89c	0.022541337
180	0xbc01983f	-0.007909833
181	0x3d9b2a0c	0.07576379
182	0x3d85407d	0.06506441
183	0xbda3af75	-0.0799245
184	0x3cd46095	0.02592496
185	0xbbebddf8	-0.0071980916
186	0x3d5c6dc2	0.05381561
187	0xbc90f24a	-0.017693657
188	0x3bcced7c	0.0062538963
189	0x3c564a5a	0.01307925
190	0xbd80af16	-0.06283395
191	0x3ce2e48e	0.027696874
192	0x3d4624b5	0.04837485
193	0x3c91178f	0.017711429
194	0x3d0b75eb	0.034048002
195	0x3d1b011a	0.037842847
196	0xbd0db728	-0.0345985
197	0xbd16abb4	-0.036784843
198	0x3c87b01e	0.016563471
199	0xbaf24136	-0.0018482569
200	0xbc83d446	-0.01609243
201	0xbd6ea63d	-0.058264006
202	0x3d8ed5cd	0.06974373
203	0xbd7f0e94	-0.062269762
204	0x3d215ca8	0.039395005
205	0x3d00233f	0.031283613
206	0x3ccb10bd	0.024788255
207	0x3c84b7ed	0.016200984
208	0x3d95a20c	0.073062986
209	0x3c5842b1	0.013199494
210	0x39b100d2	0.00033760682
211	0x3d144dad	0.03620689
212	0x3d87b9f4	0.066272646
213	0x3c3d46b5	0.011552502
214	0xbcfed23b	-0.031106105
215	0xbdb27efb	-0.08715626
216	0xbcd7beab	-0.026336035
217	0x3d9cf4cb	0.07663878
218	0xbd2f85e2	-0.04285229
219	0x3b9925fc	0.0046737175
220	0xbc7bfbf5	-0.015379895
221	0x3d8b543c	0.06803176
222	0xbdbde0d2	-0.09271397
223	0x3d890c0c	0.06691751
224	0xbd61d023	-0.055130135
225	0x3d925a19	0.07146091
226	0xbcaeb88d	-0.021328235
227	0xbc72ba13	-0.014814871
228	0x3cfcb0a5	0.03084595
229	0xbd3c3bdc	-0.045955524
230	0xbdaf3915	-0.085558094
231	0xbd8f5e0f	-0.07000362
232	0xbb85127c	-0.0040610414
233	0x3d0f82bb	0.035036784
234	0xbd9ce1f1	-0.076602824
235	0x3cfa7fee	0.03057858
236	0xbd06420c	-0.03277783
237	0x3da56fa8	0.08077937
238	0x3d4350da	0.047684528
239	0x3cbdf66e	0.023188796
240	0x3d68adcc	0.05680637
241	0xbd5a4816	-0.053291403
242	0x3d854411	0.06507123
243	0xbcf873aa	-0.03032859
244	0x3cf0b4da	0.029383112
245	0x3d0a45e9	0.033758078
246	0xbb3da5d0	-0.0028937943
247	0x3b08f68c	0.0020898907
248	0x3d429606	0.047506355
249	0x3d9201c3	0.07129242
250	0x3d1a8823	0.037727486
251	0xbdc439fd	-0.09581373
252	0x3c2e05e5	0.010621523
253	0xbd0b2b89	-0.033977065
254	0xbcc4902b	-0.023994526
255	0xbd4e5a42	-0.050379045

blocks.0.fcn_layer.bias f4 [128]
0	0xbd922fce	-0.07138024
1	0x3d2a19a6	0.041528367
2	0xbd8d2d7c	-0.06893441
3	0xbda1e1f8	-0.07904428
4	0xbd172903	-0.036904346
5	0xbb6f229e	-0.003648914
6	0x3cb18d79	0.021673905
7	0x3c9f81f1	0.01947114
8	0x3cbb6eb2	0.022879932
9	0xbd9b544e	-0.07584439
10	0xbc79dad5	-0.0152499275
11	0xbc54ad66	-0.0129807945
12	0x3dad9205	0.08475117
13	0xbd96d54e	-0.073649034
14	0x3da8b2d2	0.08237232
15	0xbca5ee80	-0.020255327
16	0xbd264f09	-0.040602718
17	0xbbc107c9	-0.0058908206
18	0xbd97cd6e	-0.074122295
19	0xbd29df87	-0.041472938
20	0x3da0f200	0.07858658
21	0x3da83fa5	0.08215264
22	0x3d7ceb32	0.061747737
23	0x3d2e6bd2	0.042583294
24	0xbd8ce8af	-0.068803184
25	0x3d9be025	0.076111116
26	0x3bddcd42	0.0067688534
27	0x3cfb08ce	0.030643847
28	0xbd6537d0	-0.05596143
29	0xbcc57f64	-0.024108596
30	0x3d527964	0.0513853
31	0xba25bdeb	-0.00063225505
32	0xbd824ee5	-0.06362704
33	0x3d39ff5c	0.045409545
34	0xbd916c33	-0.071007155
35	0xbd9b0688	-0.07569605
36	0xbccbe4db	-0.0248894
37	0x3c9f0ab7	0.019414289
38	0xbd58de19	-0.052946184
39	0xbd139192	-0.0360275
40	0xbd8c5e0c	-0.068538755
41	0xbcd41b14	-0.025891818
42	0xbd7afd6a	-0.06127683
43	0xbca69416	-0.020334285
44	0xbd7220b0	-0.059113204
45	0xbd699b75	-0.05703302
46	0x3d4c20d2	0.049835987
47	0xbc0858ad	-0.008321923
48	0xbd9cf891	-0.07664598
49	0xbd9eab86	-0.07747559
50	0x3d9c4cd4	0.07631841
51	0x3d4c6135	0.04989739
52	0xbc590188	-0.013244994
53	0xbd68e6b1	-0.05686063
54	0x393a00c7	0.00017738632
55	0xbbcf02f6	-0.0063174916
56	0xbc893974	-0.016751029
57	0x3d85eb97	0.06539076
58	0xbd968bd7	-0.07350891
59	0x3db9c09c	0.090699404
60	0xbc0a8186	-0.008453732
61	0xbcc8c17e	-0.024506327
62	0x3d6595c6	0.05605104
63	0xbdb29bc8	-0.08721119
64	0x3d804ca2	0.062646165
65	0xbcb6532d	-0.022256458
66	0x3b4d0f63	0.0031289689
67	0xbd895b89	-0.06706912
68	0xbd428f8d	-0.047500182
69	0x3d155a77	0.036463227
70	0x3d3c14e1	0.04591835
71	0xbd970417	-0.07373827
72	0xbd9bf4e6	-0.0761507
73	0x3c698b53	0.014254409
74	0x3d1ae51a	0.037816145
75	0xbd123f85	-0.03570511
76	0x3cbe6a7a	0.023244131
77	0x3d82a235	0.06378595
78	0xbc9701ee	-0.018433537
79	0x3d890992	0.066912785
80	0xbc5d0139	-0.013489061
81	0x3d80cf2a	0.062895134
82	0xbd1bc3fa	-0.038028695
83	0x3c2d0142	0.010559382
84	0x3d7f14e3	0.06227578
85	0xbd3c1828	-0.045921475
86	0xbda6d8cc	-0.081468195
87	0x3db3eaed	0.08785043
88	0xbc9add91	-0.01890448
89	0xbd970ff3	-0.07376089
90	0x3d0ca96c	0.03434126
91	0x3b9a6b0f	0.0047124694
92	0x3cfe4fbb	0.031043878
93	0x3c75ecf3	0.015010106
94	0xbd3d5f61	-0.04623354
95	0xbbb64ea8	-0.005563576
96	0xbbd28d75	-0.0064255544
97	0xbc914305	-0.017732153
98	0xbcf45efc	-0.029830448
99	0xbd0dd846	-0.034630083
100	0xbd4d2e94	-0.05009325
101	0xbd53d3fd	-0.05171584
102	0xbda95d65	-0.08269767
103	0x3d3b8ce3	0.045788657
104	0xbcd7e7db	-0.026355674
105	0x3cdaaf84	0.02669502
106	0xbcf0159b	-0.029307177
107	0x3bf44bf0	0.0074553415
108	0xbd87c1a5	-0.06628732
109	0xbdaa7671	-0.08323372
110	0x3d78442e	0.060611896
111	0xbcf52ad7	-0.029927654
112	0x3ccf9fe2	0.025344793
113	0xbc80c49b	-0.015718749
114	0xbd9e10fa	-0.07718082
115	0xbd818310	-0.06323826
116	0x3da2171a	0.079145625
117	0xbcbec4b3	-0.023287153
118	0x3bea96c2	0.007159085
119	0x3c13ad65	0.009013508
120	0xbd25b998	-0.0404602
121	0x3c7047f6	0.014665594
122	0xbd54465e	-0.05182492
123	0xbd48f94c	-0.049065873
124	0xbca907b2	-0.020633552
125	0x3d82be88	0.06383997
126	0xbd11fbf5	-0.035640676
127	0x3d820bf1	0.06349934

blocks.0.layer_norm.weight f4 [128]
0	0x3f7b9ade	0.98283184
1	0x3f7e7a0d	0.99404985
2	0x3f8296a0	1.0202217
3	0x3f8c1bb5	1.0945956
4	0x3f8d7ef6	1.105437
5	0x3f76af84	0.96361566
6	0x3f837421	1.0269815
7	0x3f82f143	1.0229877
8	0x3f84db64	1.0379453
9	0x3f82631b	1.0186495
10	0x3f85a694	1.0441461
11	0x3f874297	1.0567197
12	0x3f81036a	1.0079167
13	0x3f8fc156	1.1230876
14	0x3f82ce66	1.0219238
15	0x3f880497	1.0626401
16	0x3f8dd241	1.1079789
17	0x3f7f4428	0.99713373
18	0x3f8d54bb	1.1041483
19	0x3f948a35	1.1604677
20	0x3f791327	0.9729485
21	0x3f734b21	0.9503651
22	0x3f8785f4	1.0587754
23	0x3f8a0dc5	1.0785452
24	0x3f89a082	1.0752108
25	0x3f8cc9d2	1.0999091
26	0x3f91513c	1.1352916
27	0x3f850bdd	1.0394245
28	0x3f8f177d	1.1179043
29	0x3f7c0207	0.98440593
30	0x3f82a136	1.0205448
31	0x3f85b273	1.0445083
32	0x3f91038b	1.1329206
33	0x3f8aadde	1.083431
34	0x3f7ddab2	0.9916183
35	0x3f8e7773	1.1130203
36	0x3f84ba88	1.0369425
37	0x3f83ad8a	1.0287335
38	0x3f7ee6db	0.9957101
39	0x3f8e35a6	1.1110122
40	0x3f8373d0	1.0269718
41	0x3f84ba7e	1.0369413
42	0x3f8184ee	1.0118692
43	0x3f8b482c	1.08814
44	0x3f782585	0.9693225
45	0x3f8725c9	1.0558406
46	0x3f85f0cd	1.0464112
47	0x3f86bd8c	1.0526595
48	0x3f90fc00	1.1326904
49	0x3f8f0413	1.1173118
50	0x3f7b3f79	0.98143727
51	0x3f8ce198	1.1006346
52	0x3f87465f	1.056835
53	0x3f841998	1.032031
54	0x3f83a43d	1.0284497
55	0x3f880dfb	1.0629267
56	0x3f85a771	1.0441724
57	0x3f8bb093	1.0913261
58	0x3f9245fa	1.1427605
59	0x3f885e34	1.0653749
60	0x3f8b1901	1.0867006
61	0x3f924900	1.1428528
62	0x3f8a4cd8	1.0804701
63	0x3f8641ee	1.048887
64	0x3f7afcc2	0.9804193
65	0x3f8b4608	1.0880747
66	0x3f90ca33	1.1311706
67	0x3f845a15	1.0339991
68	0x3f8b1048	1.0864344
69	0x3f85cc80	1.0453033
70	0x3f7ff595	0.99984103
71	0x3f8dd971	1.1081983
72	0x3f86cfdf	1.0532187
73	0x3f808653	1.0040992
74	0x3f8b468b	1.0880903
75	0x3f8b4dbe	1.08831
76	0x3f827765	1.0192686
77	0x3f89af2d	1.0756584
78	0x3f85ad12	1.0443442
79	0x3f84444c	1.0333343
80	0x3f8c5aa3	1.096516
81	0x3f88ae2a	1.0678151
82	0x3f7a081a	0.9766861
83	0x3f85ecf2	1.0462935
84	0x3f828413	1.0196556
85	0x3f89f747	1.0778588
86	0x3f7d4a17	0.9894118
87	0x3f89ac2a	1.0755665
88	0x3f8493eb	1.0357641
89	0x3f852a10	1.0403461
90	0x3f85ce34	1.0453553
91	0x3f829417	1.0201443
92	0x3f828046	1.0195396
93	0x3f88048b	1.0626386
94	0x3f85a4fa	1.0440972
95	0x3f845cbb	1.0340799
96	0x3f844314	1.0332971
97	0x3f8230e0	1.0171165
98	0x3f81587f	1.0105132
99	0x3f87aced	1.0599648
100	0x3f90616f	1.1279734
101	0x3f8db01f	1.1069373
102	0x3f81dd17	1.0145596
103	0x3f9280d1	1.1445562
104	0x3f82d601	1.0221559
105	0x3f8bfde1	1.0936853
106	0x3f86607e	1.0498197
107	0x3f82700c	1.0190444
108	0x3f84840c	1.0352798
109	0x3f84b45b	1.036754
110	0x3f852b19	1.0403777
111	0x3f85d541	1.0455705
112	0x3f80f146	1.0073631
113	0x3f8753c9	1.0572444
114	0x3f86b2f1	1.0523359
115	0x3f86eda0	1.0541267
116	0x3f8263e6	1.0186737
117	0x3f90b607	1.130555
118	0x3f80c258	1.0059309
119	0x3f91d571	1.1393262
120	0x3f86ede5	1.054135
121	0x3f850a56	1.0393779
122	0x3f8d1f5e	1.1025198
123	0x3f864bda	1.0491898
124	0x3f90cd13	1.1312584
125	0x3f80dd81	1.0067598
126	0x3f83e9e4	1.0305753
127	0x3f8a4771	1.0803052

blocks.0.layer_norm.bias f4 [128]
0	0xbd03d125	-0.032181878
1	0x3b24f41d	0.0025169917
2	0xb9326779	-0.0001701395
3	0x3d9a972f	0.07548367
4	0x3d91be72	0.07116403
5	0xbc0c001c	-0.008544948
6	0x3ca3dd5a	0.02000301
7	0x3cbe0cb9	0.023199426
8	0x3cd03223	0.025414532
9	0x3cbbbf6f	0.022918431
10	0x3cbd84e9	0.023134666
11	0x3cdc2479	0.02687286
12	0xba4e2dc3	-0.00078650954
13	0x3da38a71	0.0798539
14	0x3d8aa033	0.06768837
15	0x3d4049dc	0.046945438
16	0x3d955323	0.07291248
17	0xbc54f54c	-0.012997936
18	0x3d081da9	0.03323141
19	0x3de716b2	0.11283626
20	0xbca7699d	-0.020436103
21	0xbd7f38ef	-0.062310155
22	0x3d9e56ba	0.077313855
23	0x3cee882f	0.029117672
24	0x3d97ea4c	0.074177355
25	0x3d0fd6da	0.035117008
26	0x3dabd62f	0.08390462
27	0x3bba01d5	0.005676488
28	0x3dbc8873	0.09205713
29	0x3a3419d5	0.00068703044
30	0xbbbf362e	-0.005835316
31	0x3cbe299b	0.023213198
32	0x3dbaa2f0	0.09113109
33	0x3cdf2e19	0.02724366
34	0xbc808902	-0.01569033
35	0x3daa5e08	0.08318716
36	0x3c6f6520	0.014611512
37	0x3c729c57	0.014807782
38	0xbb82dfa1	-0.003993944
39	0x3d947ff3	0.07250967
40	0x3ca42724	0.020038195
41	0x3d16cf9a	0.036819078
42	0x3d3a2418	0.045444578
43	0x3d8a8ee9	0.06765539
44	0xbcf6fbd2	-0.030149374
45	0x3cd05ecb	0.025435826
46	0x3c8d6fc1	0.017265202
47	0x3d99b32e	0.07504879
48	0x3d913b2c	0.07091364
49	0x3d715027	0.05891433
50	0xbc6e2792	-0.0145358015
51	0x3d8e3039	0.069427915
52	0x3d144e6d	0.036207605
53	0x3c5b1e59	0.013373935
54	0x3cab01e6	0.020874929
55	0x3d19aa20	0.03751576
56	0x3ceb5682	0.028727774
57	0x3d64715b	0.055772167
58	0x3db81f8f	0.08990394
59	0x3d0b46f0	0.0340032
60	0x3da302c4	0.07959512
61	0x3db48502	0.08814432
62	0x3cbe0a01	0.02319813
63	0x3cadf039	0.021232711
64	0xbc891b0d	-0.016736532
65	0x3d3d08b8	0.046150893
66	0x3db7d20d	0.08975611
67	0x3bf10662	0.007355497
68	0x3d101d36	0.035184108
69	0x3cf40ee0	0.02979225
70	0x3bea1caa	0.0071445303
71	0x3db0863b	0.086193524
72	0x3c83ad2a	0.016073782
73	0xbaaddfdb	-0.0013265567
74	0x3d9423dd	0.07233403
75	0x3d312364	0.04324664
76	0x3c0bf202	0.008541586
77	0x3d1de37d	0.038547028
78	0x3cb1a715	0.021686116
79	0x3c53f633	0.012937116
80	0x3d97e952	0.07417549
81	0x3da11326	0.078649804
82	0xbcd20d65	-0.025641153
83	0x3cce00bf	0.02514684
84	0x3bb798ef	0.005602948
85	0x3db47577	0.08811467
86	0xbc37dcf5	-0.011222114
87	0x3d20966f	0.039205965
88	0x3c8a90c7	0.016914738
89	0x3bd9814c	0.006637728
90	0x3c82d6c5	0.01597155
91	0x3c338f36	0.010959437
92	0x3c1efc05	0.009703641
93	0x3caff9d8	0.02148144
94	0x3ba24a62	0.004952715
95	0x3d1025bc	0.035192236
96	0x3c512251	0.012764529
97	0x3c53bf21	0.012923987
98	0x3b2fc8a5	0.0026822474
99	0x3c9034a1	0.01760322
100	0x3db1fb52	0.08690514
101	0x3daab38b	0.08335026
102	0x3b8779e9	0.004134406
103	0x3dd316e9	0.10307104
104	0x3c0d913d	0.008640585
105	0x3cf8a1bb	0.030350557
106	0x3ca8dcb6	0.020613056
107	0x3be8b9e6	0.007102239
108	0x3b6710f0	0.0035257898
109	0x3c987f5f	0.018615423
110	0x3cc0d34f	0.02353826
111	0x3c5f7c49	0.013640472
112	0x3d075997	0.033044424
113	0x3d1d6ec7	0.038435724
114	0x3d10a2a8	0.03531137
115	0x3cf8c90d	0.030369306
116	0x3c657344	0.014004532
117	0x3dbeff33	0.09326019
118	0x3c0b9a96	0.008520743
119	0x3d689e8c	0.056791827
120	0x3d072baa	0.033000626
121	0x3c615e10	0.013755336
122	0x3d75e351	0.06003124
123	0x3cdd4c0b	0.0270138
124	0x3dc96983	0.09834578
125	0x3c340f27	0.010989941
126	0x3bff4c8b	0.007791107
127	0x3d8ca707	0.068677954

last_layer.weight f4 [1, 128]
0	0x3c24e9b7	0.010065488
1	0xbbaa947f	-0.0052056904
2	0x3d52abd2	0.051433392
3	0xbe1379d6	-0.14401945
4	0xbe185359	-0.14875545
5	0x3b28be91	0.0025748352
6	0x3de3c908	0.11122328
7	0x3d8528ab	0.065018974
8	0x3d5f0f3a	0.05445788
9	0x3d4a1880	0.04933977
10	0x3d675ef6	0.056487046
11	0x3da742f7	0.081670694
12	0xbd99e790	-0.0751487
13	0xbe12267c	-0.14272493
14	0xbd4b16b4	-0.0495822
15	0x3d97a86d	0.074051715
16	0xbe315168	-0.1731621
17	0x3bcae932	0.00619235
18	0x3dfb68ad	0.12275825
19	0xbe6f7ea9	-0.23388161
20	0xbc96172b	-0.018321594
21	0xbc8e9937	-0.017407043
22	0xbdb19691	-0.086712964
23	0x3d5255c3	0.05135132
24	0xbe108d5e	-0.14116427
25	0x3e17dd7d	0.14830585
26	0xbe2580f6	-0.16162476
27	0x3d72f801	0.059318546
28	0xbe3210aa	-0.1738917
29	0xbaa04b9a	-0.0012229562
30	0x3d4594dd	0.04823767
31	0x3d7a2b17	0.06107625
32	0xbe13d3de	-0.1443629
33	0x3e158eba	0.14605227
34	0xbc6cf4bf	-0.014462649
35	0xbe3d15f2	-0.18465403
36	0x3d9160af	0.07098519
37	0x3dd78b7c	0.105246514
38	0x3c3bfc09	0.011473664
39	0xbe2a618c	-0.16638774
40	0x3dabd6b9	0.083905645
41	0x3cc63f1c	0.024200015
42	0xbc4e3e58	-0.012588106
43	0xbe238fe5	-0.1597286
44	0xbcddd505	-0.027079115
45	0x3d6a24fc	0.057164177
46	0x3d3c4131	0.04596061
47	0xbd9a47b5	-0.07533208
48	0x3df71219	0.12063999
49	0x3dc538ef	0.0963
50	0x3bbbcd94	0.005731294
51	0xbe1f7d8e	-0.15575239
52	0x3d6b129f	0.057390805
53	0x3d8ea641	0.06965304
54	0x3d53728a	0.051622905
55	0x3d33ee98	0.043928713
56	0x3d792e5b	0.060835224
57	0x3e298ede	0.16558406
58	0xbe2f6398	-0.17127836
59	0x3dadf507	0.08494001
60	0xbdcec7c2	-0.100966945
61	0xbe177219	-0.14789619
62	0x3da2dfd8	0.07952851
63	0x3dde23f6	0.10846703
64	0xbcc9112e	-0.024544325
65	0x3d9b2520	0.075754404
66	0xbe20ed1f	-0.15715455
67	0x3df42251	0.11920608
68	0x3dfb2b03	0.12264063
69	0x3df151c5	0.117831744
70	0xbc520de2	-0.012820693
71	0xbe0e37d8	-0.1388849
72	0x3ddc15d8	0.10746354
73	0x3dae4ef6	0.08511154
74	0xbe28dc9d	-0.16490407
75	0x3e106bdd	0.14103647
76	0x3d44f6cd	0.04808693
77	0x3d66517e	0.05623006
78	0x3d388bd7	0.045055237
79	0x3daded62	0.08492543
80	0xbe19bf6a	-0.15014425
81	0xbdac2029	-0.084045716
82	0xbccfa117	-0.025345368
83	0x3da952e7	0.082677655
84	0x3dc597e0	0.096481085
85	0xbdbe36b2	-0.09287776
86	0x3b05d53b	0.0020421285
87	0x3df40e58	0.11916798
88	0x3dc9ec72	0.098595515
89	0x3deec13f	0.116579525
90	0x3dccffa7	0.10009699
91	0x3dd29751	0.102827676
92	0x3d0d96e6	0.034567736
93	0x3d40c6fc	0.047064766
94	0x3d828602	0.06373216
95	0x3cca8c9e	0.024725255
96	0x3d98d151	0.07461799
97	0x3cc11572	0.023569796
98	0x3cfca9b2	0.030842636
99	0x3d702bef	0.05863565
100	0xbe162370	-0.14661956
101	0xbe336f9e	-0.17523047
102	0x3ccac1a2	0.024750534
103	0xbe50ec2e	-0.20402595
104	0x3ddc0099	0.107423015
105	0x3da0fa48	0.07860237
106	0x3dc3528c	0.09537229
107	0x3daf7a7f	0.08568286
108	0x3d668803	0.056282055
109	0x3d1c1f80	0.03811598
110	0x3dd17b8e	0.10228644
111	0x3d21f382	0.039538868
112	0xbcf8f47a	-0.030390013
113	0x3e0c6073	0.13708667
114	0x3deb89ba	0.11500879
115	0x3daf4b9d	0.08559344
116	0x3db6874a	0.08912523
117	0xbe38ed32	-0.18059233
118	0xbc7cc426	-0.015427625
119	0x3e548d9e	0.20757148
120	0x3d2763af	0.04086655
121	0x3dfd486c	0.12367329
122	0x3de5ad2e	0.11214672
123	0x3d75740b	0.05992512
124	0xbe06f875	-0.13180716
125	0x3c60ee26	0.013728654
126	0x3d8abb76	0.067740366
127	0xbe1c1169	-0.15241016
