wkey/openwakeword_models/onnx/hey_computer10.onnx (onnx, 859394 bytes, 9 tensors)

layer1.weight f4 [128, 1536]
000000 9a 48 c1 3b 6e 9d 33 bc f6 04 ec bc 3a e9 af bc
       0.0058985474 -0.010962827 -0.02881096 -0.021473516
000010 90 11 d3 3c 9f 96 b3 3c a0 07 19 3b de ff 19 bc
       0.02576521 0.021922408 0.0023350492 -0.009399382
000020 1f 1a d9 bc b1 73 ce 3c 17 98 d2 bb e6 ad 2e bc
       -0.026501713 0.02520165 -0.006426822 -0.010661578
000030 a0 a1 5e bc 5f aa 06 3d a1 f2 ea ba bb 61 61 bc
       -0.013588339 0.032877322 -0.0017925092 -0.013756211
000040 0c d6 7d bd 49 57 ab 3a f9 bf a1 3c da eb 16 bc
       -0.06197171 0.0013072278 0.01974486 -0.009211505
000050 e5 84 38 3c 54 71 77 bc f2 4f a8 bc df d4 b1 bc
       0.011262153 -0.015102703 -0.020545933 -0.02170795
000060 3c 74 1e bc 03 75 b3 3c 0a 62 83 ba 37 b9 4f 3c
       -0.009671267 0.021906381 -0.0010023725 0.012678436
000070 d4 55 66 3c fe 9f 26 bd 8d 02 89 3b 9e 3d ab 3c
       0.014058549 -0.040679924 0.0041812123 0.020903405
000080 e1 cd 3b bc 9a 30 a3 ba b2 fa 11 3d 99 d5 5a bc
       -0.01146266 -0.0012450397 0.035639472 -0.01335659
000090 61 b5 29 bb a3 9f d7 3b 89 0b 22 bc e5 df d4 bb
       -0.0025895464 0.0065803095 -0.0098904455 -0.006496417
0000a0 c6 89 4e bc 92 10 8a bc 77 77 28 3c fa 05 43 bc
       -0.01260609 -0.016853604 0.010282389 -0.01190328
0000b0 46 d3 0c bc fa 3c 0e bd 38 5f 84 3c 19 9e 10 3c
       -0.008595293 -0.03472612 0.016158685 0.008826756
0000c0 87 d3 d0 bc 1f 01 34 3c a8 12 dc 3c 18 16 dd bc
       -0.02549149 0.010986595 0.026864365 -0.026988074
0000d0 dd 04 2d bb 9f d8 9e 3a 6f 4a e2 3c 00 02 a7 3c
       -0.0026400604 0.0012119001 0.027623383 0.020386696
0000e0 18 c8 64 3c 69 2d 96 bc c0 32 85 bb d3 f8 ea 3b
       0.013963722 -0.0183322 -0.0040648878 0.0071707754
0000f0 d6 cf d1 3c af 98 57 bc d0 83 0f 3c 84 5d f2 3c
       0.0256118 -0.013158961 0.008759454 0.029585607
000100 25 5f a2 bc 18 8e fa 3c 0e 5e 78 bc f6 89 9b bc
       -0.01982076 0.030585334 -0.015159143 -0.018986683
000110 2b 67 0b 3b da df 84 3c 47 45 d5 3c bb c5 86 3c
       0.002127121 0.016220022 0.02603401 0.016451707
000120 c2 31 76 3b 6d 05 4a 3d 74 2a 2a bc 68 5b 42 3b
       0.003756628 0.04932158 -0.010386098 0.0029656533
000130 48 f0 b9 3c a1 d8 3f bd 2a 9c 2d bc cb be 41 bc
       0.022697583 -0.046837453 -0.010596314 -0.011825274
000140 8a 4d 58 3c 6e 16 2d 3c 60 a9 00 3c 35 e0 ad 3c
       0.0132020805 0.01056443 0.007852882 0.021225074
000150 08 f1 eb bc 13 7a 04 3d 91 91 9e 3b af f7 7e 3c
       -0.028801456 0.03234298 0.00483913 0.015561982
000160 08 ea ff bb 34 77 72 3c 2f 0b 4b 3c 2e 8f e0 3b
       -0.007809881 0.014798928 0.012392803 0.006853006
000170 69 68 ca bc 71 4d da b9 2a e8 d2 bc 27 20 30 3c
       -0.02470799 -0.00041637899 -0.02574547 0.010749853
000180 00 ff 07 3c a7 c1 25 3c 38 bd f8 bb fc 0e 22 3c
       0.008300543 0.010116971 -0.007590916 0.009891268
000190 26 41 4a bb 8d 0d e2 bc a6 d1 17 3c 38 f5 79 3c
       -0.0030861585 -0.027594352 0.009266293 0.015256219
0001a0 05 5d 1b bd 59 18 a7 3c c0 e8 2c bc 9e 73 2c 3b
       -0.037930507 0.020397352 -0.010553539 0.002631403
0001b0 9c d4 e2 3c c2 c6 d2 3b 4f 80 2b 3c 6e 2c e0 bb
       0.02768927 0.006432385 0.010467603 -0.006841234
0001c0 d2 5d 1d bd 9e 30 93 3c c4 12 f5 3b 68 8e 48 39
       -0.038419552 0.017967518 0.0074790437 0.00019126537
0001d0 2d 36 20 3b 4f 7a 43 bb 8b 70 61 3b 00 ee 97 bc
       0.0024446354 -0.002982754 0.0034399356 -0.018546104
0001e0 27 de a4 3c 34 b8 15 bc ed 51 e2 bc ae 7e 38 3b
       0.020125462 -0.009138156 -0.027626956 0.002815168
0001f0 c7 c4 b9 3c 7a ff 99 bc 38 69 19 bc 5c 97 ba bb
       0.022676839 -0.018798579 -0.009363465 -0.005694313
000200 8b 27 a2 bc 0a 2c 96 3b 16 12 af bc 29 e9 d2 ba
       -0.019794246 0.0045828866 -0.021370929 -0.0016091216
000210 87 de 48 3b 38 b1 a6 3c 7e 8e 07 3c 34 44 da 3c
       0.0030650215 0.020348176 0.008273719 0.02664385
000220 50 e2 3a bc 73 6e 7d 3b c1 d2 01 bc 37 30 aa bc
       -0.011406496 0.003867057 -0.007923783 -0.020774944
000230 94 a2 2a bc 97 5a 74 bc 86 b8 c0 bc 15 61 c1 3b
       -0.010414738 -0.014914176 -0.023525488 0.0059014657
000240 a0 27 98 bc 0f e4 2a bc 46 12 68 bc 24 d9 7e bc
       -0.018573582 -0.01043035 -0.014164513 -0.0155547
000250 7e ee de bc 00 5e ff 3c 0c 45 04 3d de cc 8b bc
       -0.027213331 0.031172752 0.03229241 -0.017065462
000260 50 e2 d6 3c d3 df f8 bb 33 81 41 bc 90 fd 14 bc
       0.026230961 -0.0075950413 -0.011810589 -0.009093657
000270 31 af ac 3c 25 85 b5 3c c2 98 26 bc 1c 9e bc bc
       0.021079632 0.022158215 -0.010168256 -0.023024611
000280 38 21 c1 bc cf 67 aa bc 03 94 b5 bb 33 ee 8d bc
       -0.02357541 -0.020801453 -0.005541326 -0.017325496
000290 bf d6 df 3c 1d fa 0c bd 2a 8d 12 bc 26 f7 b3 3c
       0.027324079 -0.034418214 -0.008944789 0.021968435
0002a0 e7 dd b1 3c 64 33 7e 3b 63 37 a8 bc 9d 01 17 3c
       0.021712257 0.0038787955 -0.020534223 0.009216693
0002b0 89 93 94 ba 00 0a d5 bc 09 c4 95 3c cd e1 78 bb
       -0.0011335473 -0.026005745 0.018281953 -0.0037976385
0002c0 ee 2d fd 3c 13 11 63 3c 08 d9 cf bb 31 cf 9b ba
       0.03090569 0.013859051 -0.006343011 -0.0011887309
0002d0 11 40 1a bd c1 56 39 bc d7 e2 95 bb 44 b9 ab bc
       -0.037658755 -0.011312188 -0.0045741606 -0.020962365
0002e0 36 1d ca bc c1 e1 82 3c e3 e2 10 3d 2f c2 9c 3b
       -0.024672132 0.015976788 0.035372626 0.0047838907
0002f0 5a 1f 51 3a 33 46 c1 3c 9e d9 38 3b 0f 61 9f 3c
       0.0007977389 0.023593044 0.0028205882 0.01945546
000300 f5 4a 01 3d a5 04 dc 3c 17 a9 0f 3c a7 f1 c8 bb
       0.031565625 0.026857683 0.0087683415 -0.006132323
000310 ff 96 87 3c ca ce c2 bb a0 52 90 3c 5a 0c b9 bc
       0.016551493 -0.0059450613 0.017617524 -0.022588897
000320 30 d6 c8 bc 68 4e e1 bc 0e 3a 8b 3c a0 a1 bf 3c
       -0.024516195 -0.027503207 0.016995456 0.023392498
000330 f6 e3 96 37 10 d9 08 3d 66 18 db 3c cb 59 1e bc
       1.7987546e-05 0.033410132 0.026745033 -0.009664963
000340 45 96 bf bc 06 b4 e4 3c 6f 33 85 bc 53 db ab 3c
       -0.023387084 0.027917873 -0.016259877 0.020978605
000350 e6 f6 0a 3b 6b ed 2c 3c c0 a6 06 3d 04 2f 99 3c
       0.0021204292 0.010554652 0.03287387 0.018699177
000360 dd c3 43 bc 39 da 08 3c 77 1a b2 bc 48 f9 97 bc
       -0.011948553 0.00835281 -0.021741135 -0.018551484
000370 df e3 c6 bb f6 87 c2 3c 99 7d b5 3c 7b db 35 3b
       -0.006069645 0.023746472 0.022154616 0.0027749229
000380 fe a2 a5 bb 35 88 73 3c 67 52 86 bc 1e de b0 3c
       -0.0050548306 0.014864017 -0.016396714 0.021590289
000390 d9 da 50 3c 00 00 28 bc 0b 8c 3c 3c 91 67 de 3c
       0.01274749 -0.010253906 0.011507998 0.027148994
0003a0 e8 d9 9f 3c ed 26 56 bc a2 6a 7e bc 71 88 1a bc
       0.019513085 -0.013070804 -0.015528353 -0.009431944
0003b0 64 61 03 bc 98 57 08 bd f1 14 20 bc 30 3e 0e bd
       -0.008018825 -0.03328666 -0.009770618 -0.034727275
0003c0 3a af d8 bc c6 a9 0c bb 23 78 2e bc 4f dd ce 3c
       -0.026450742 -0.0021463498 -0.01064876 0.025252013
0003d0 7d f7 35 3c 70 ff 1a 3c 5e a1 45 bc 8d 0e 01 3b
       0.011106369 0.009460315 -0.012062399 0.001969251
0003e0 08 36 a4 bc 9b be 72 3a 91 15 fd ba 5d bc 92 bc
       -0.020045295 0.000925997 -0.0019308795 -0.017912084
0003f0 5c b2 9e bc fc 10 77 bc cd 3c cb 3c c4 8b 03 bd
       -0.019372158 -0.015079733 0.024809266 -0.032115713

layer1.bias f4 [128]
000000 9f 10 04 bc 7c 5b d8 39 ea aa 18 bb ba 48 31 bc
       -0.008060603 0.00041266892 -0.0023295232 -0.010820562
000010 30 9b 02 3d 9b 70 6c bc f7 90 19 bc 11 0e a9 3c
       0.03188628 -0.014431144 -0.009372941 0.02063659
000020 1f f6 7c 3c c7 56 83 bc da 37 d5 bc b8 2a b3 bc
       0.015439539 -0.01603259 -0.026027609 -0.021870956
000030 a6 db cd 3a 8d ad 07 36 45 c8 86 3c 34 28 3e 3c
       0.0015705719 2.0217587e-06 0.016452918 0.011606265
000040 9c 28 d9 3c 35 36 f7 3c 87 62 dc 3c c2 24 27 bb
       0.026508622 0.030177215 0.02690245 -0.0025504087
000050 b5 28 0f bc ee 89 d8 3c 4e 39 ae bc 29 9f 9d 3b
       -0.008737733 0.026432958 -0.02126756 0.004810233
000060 61 ec 89 ba 78 e1 1b bc 84 ef 9b bc de 44 06 bc
       -0.0010522717 -0.009514205 -0.019035108 -0.00819513
000070 11 f0 b4 3c e2 68 e6 3c 4a 0f 96 3c 70 61 dd 3b
       0.022087129 0.028126184 0.018317837 0.006756
000080 15 91 92 3c ac a9 3f 3c d9 e0 8d 3a 29 bb cb 3c
       0.017891446 0.011698168 0.0010824456 0.024869518
000090 10 78 9b 3c 88 94 81 3c 9e 9e a4 3b ad 8b b2 3c
       0.018978149 0.015817896 0.0050237915 0.021795118
0000a0 c2 32 b6 bc d4 76 29 3c 5c 1d bf bc a7 41 0f 3c
       -0.022241 0.010343272 -0.02332943 0.00874368
0000b0 17 43 97 bb c0 35 95 3c bc f6 de 3b 6a 39 06 b9
       -0.004616152 0.018214107 0.0068043154 -0.00012800624
0000c0 f1 a7 0c 3c ae 8c b9 3b 6a 2e 83 bb 42 9a 11 bb
       0.008584962 0.0056625223 -0.0040033357 -0.002221719
0000d0 4d 9a 20 bc 14 a2 7d 3c 09 ad a1 3c 02 ff a5 bc
       -0.009802413 0.015480537 0.01973583 -0.020263199
0000e0 e0 c0 ae bc 52 48 f5 3a 08 7c 4b bc ad 21 e9 3b
       -0.021332204 0.001871357 -0.012419708 0.00711461
0000f0 87 92 e4 3a 07 a2 ad 3c 31 8c f6 bb 4f c0 c2 bb
       0.0017438688 0.021195425 -0.0075240363 -0.005943335
000100 6c 84 ad bc 25 ed 53 3c 54 78 90 bb 23 50 b7 bb
       -0.021181308 0.012934958 -0.0044088755 -0.00559427
000110 45 6e ab 3c 71 04 88 3c 6b 8f 17 3c 82 e6 fc 3b
       0.020926604 0.01660368 0.009250502 0.0077179084
000120 a1 ee ae bc bb 9b cd 3c 5c 37 8f ba 24 12 ae 3a
       -0.021354022 0.025098672 -0.0010926533 0.0013280553
000130 2f a7 c6 bb 43 79 21 bc 12 71 1e bc 67 41 7f 3c
       -0.0060624103 -0.009855571 -0.009670513 0.015579558
000140 bb 3f 4b 3c f9 12 2a bc 91 eb 0e bc 86 42 92 bc
       0.012405331 -0.0103805 -0.008723156 -0.017853986
000150 f5 6d 29 3c 5a 34 de b9 77 52 a6 bc 0d 0a af 3c
       0.010341157 -0.00042382145 -0.020302994 0.021367097
000160 c9 32 d3 bb 0b 86 0e 3c 21 8d 70 3c 86 c8 c6 3c
       -0.006445263 0.0086989505 0.014682085 0.024265539
000170 d3 45 86 3a 6f 6a c5 3c 23 15 8f bc 19 b9 8a bc
       0.0010244198 0.024098603 -0.017466133 -0.016933965
000180 57 19 93 b9 a6 11 6e 3c 88 07 e4 3b 6a 62 a5 3b
       -0.00028056905 0.014530575 0.0069589056 0.0050471323
000190 47 50 c4 3c 4d a7 b5 3c 19 dc 8d 39 3c 27 b2 bb
       0.02396406 0.022174502 0.000270576 -0.005436806
0001a0 ca 03 11 3c 0f 8c 0b 3c 96 56 0c 3c 23 ff 95 3c
       0.008851001 0.008517279 0.008565566 0.018310135
0001b0 ca 88 27 3c 76 d6 be 3c 7d c8 2e 39 5d bb 04 3d
       0.010225484 0.023295622 0.00016668621 0.032405246
0001c0 47 e5 34 bb 70 22 d2 3c 15 c9 b0 bb da 95 66 3a
       -0.002760248 0.025651187 -0.0053950646 0.00087961333
0001d0 0a 07 d2 bc f5 37 44 bc 5c 37 9e 3a bd d4 7c bc
       -0.025638122 -0.011976232 0.0012070942 -0.01543158
0001e0 72 8c 77 bc 6d 4c 88 3a 32 e8 19 bc 20 c6 a9 3a
       -0.015109168 0.0010398753 -0.009393739 0.0012952723
0001f0 08 3d 8e 3c 14 28 00 3d 94 7c 9b bc 14 26 b0 3c
       0.017363086 0.03128822 -0.018980302 0.021502532

layernorm1.weight f4 [128]
000000 71 51 7e 3f 10 88 84 3f 95 5e 81 3f 07 a7 7e 3f
       0.9934302 1.0354023 1.0106989 0.99473614
000010 29 fd 7e 3f 2c 4a 81 3f 34 ee 8a 3f dd 98 7e 3f
       0.9960504 1.010076 1.0853944 0.99452
000020 89 10 75 3f aa 77 7f 3f f8 00 87 3f 56 62 83 3f
       0.95728356 0.9979197 1.0547171 1.0264385
000030 34 59 83 3f b4 b1 7f 3f 96 2b 81 3f 93 f7 81 3f
       1.0261598 0.9988053 1.0091426 1.0153679
000040 61 dd 7e 3f 44 3b 78 3f 07 d6 80 3f d1 cd 80 3f
       0.9955655 0.9696543 1.0065316 1.006281
000050 60 36 77 3f d8 2e 7d 3f b1 d9 78 3f 4a 60 86 3f
       0.96567345 0.988996 0.9720717 1.0498135
000060 5f c7 85 3f 8c 66 7d 3f ae e7 7b 3f 35 4e 80 3f
       1.0451468 0.989846 0.9840039 1.0023867
000070 94 27 82 3f 84 b2 7c 3f 26 42 7c 3f d4 c4 80 3f
       1.0168328 0.98709893 0.98538435 1.0060067
000080 6f 87 82 3f 8e 7c 7c 3f 41 57 7b 3f 1c 73 80 3f
       1.0197581 0.98627555 0.98180014 1.0035129
000090 83 6c 7c 3f bf 8f 83 3f 0f ec 72 3f 7c 6d 7f 3f
       0.98603076 1.0278243 0.94891447 0.99776435
0000a0 ab 18 7f 3f be a7 79 3f e6 65 83 3f c4 69 82 3f
       0.99647015 0.9752158 1.0265472 1.0188527
0000b0 d7 5e 7c 3f 46 53 7d 3f de f1 87 3f 9a 7c 7d 3f
       0.98582214 0.9895519 1.0620687 0.9901825
0000c0 5d 80 7c 3f 1e c4 80 3f 8f cc 87 3f 57 b4 82 3f
       0.98633367 1.005985 1.0609301 1.0211285
0000d0 79 6e 83 3f 8e 12 80 3f ff 77 79 3f be 47 7f 3f
       1.0268089 1.0005662 0.97448725 0.99718845
0000e0 d9 05 80 3f 8b bb 7c 3f aa db 86 3f 1f 8c 7f 3f
       1.0001785 0.9872367 1.0535786 0.9982318
0000f0 d0 39 7e 3f 03 d7 79 3f 2b 56 7b 3f 3c 49 77 3f
       0.99306965 0.97593707 0.98178357 0.9659612
000100 b4 a2 7b 3f d1 ec 7d 3f 59 c1 85 3f 6b b5 7a 3f
       0.9829514 0.9918948 1.044963 0.9793307
000110 a7 f7 78 3f 43 44 79 3f fc d6 7e 3f 6f d2 81 3f
       0.9725289 0.97369784 0.9954679 1.0142344
000120 00 35 7a 3f 1c 31 7c 3f a8 10 81 3f 70 b8 86 3f
       0.9773712 0.98512435 1.0083208 1.0525036
000130 8e 22 82 3f cb 33 77 3f 55 84 76 3f 72 6f 73 3f
       1.0166795 0.96563405 0.9629567 0.9509193
000140 c9 b5 81 3f 15 dd 78 3f 88 f3 7d 3f 45 7a 84 3f
       1.0133601 0.97212344 0.99199724 1.0349814
000150 7b 45 7b 3f 67 ae 7c 3f bd 3d 76 3f b0 b4 7b 3f
       0.98152894 0.98703617 0.96187955 0.9832258
000160 b8 76 81 3f 6d 42 72 3f a0 51 81 3f 24 ad 81 3f
       1.0114355 0.9463261 1.0103035 1.0130963
000170 88 60 7d 3f dc d2 73 3f 2c 18 7e 3f 2c 65 83 3f
       0.9897542 0.9524362 0.99255633 1.026525
000180 0f 7f 77 3f 05 b1 7b 3f af 30 7d 3f ed 2f 83 3f
       0.9667825 0.98316985 0.9890241 1.0249001
000190 e8 7e 80 3f 03 66 7b 3f ae 10 84 3f 81 c2 84 3f
       1.0038729 0.9820253 1.031759 1.0371858
0001a0 80 96 82 3f cd 58 81 3f 61 8e 81 3f 31 82 74 3f
       1.0202179 1.0105225 1.0121576 0.95511156
0001b0 e9 37 82 3f 34 f5 7d 3f e9 e4 7c 3f 53 b5 74 3f
       1.0173312 0.99202275 0.9878679 0.9558918
0001c0 bd 6c 82 3f 06 bd 80 3f ad 45 7d 3f a5 79 81 3f
       1.0189434 1.0057685 0.9893444 1.0115248
0001d0 c3 fe 81 3f 98 ec 7e 3f 2d 8f 78 3f f1 67 83 3f
       1.0155872 0.99579763 0.9709347 1.0266095
0001e0 85 d5 82 3f af 7f 7f 3f bc 32 7b 3f 32 53 80 3f
       1.0221411 0.99804205 0.9812429 1.0025389
0001f0 a1 63 7d 3f 47 7e 80 3f c5 f8 82 3f 46 16 83 3f
       0.98980147 1.0038537 1.0232168 1.0241172

layernorm1.bias f4 [128]
000000 71 57 7c bc 76 0a d3 3b a3 73 46 3a 74 38 8c bc
       -0.015401707 0.006440456 0.0007570332 -0.017116763
000010 75 d0 88 bb ef 26 02 3a ad c8 54 bb e9 92 89 bb
       -0.0041752406 0.0004964908 -0.0032468245 -0.0041984213
000020 1c 4b d8 bc e0 5d e5 bc 19 1e 22 bb c1 9f 44 bc
       -0.026403002 -0.027998865 -0.0024737178 -0.012000979
000030 94 22 c9 ba 14 74 28 bc 0f 86 d6 bb 72 9f 04 bd
       -0.0015345388 -0.010281581 -0.0065467427 -0.03237862
000040 df 7f b4 bc 99 48 5a bc 66 37 15 3a c6 2d a7 3c
       -0.02203363 -0.013322973 0.0005692154 0.020407569
000050 43 7c 92 bc 0b dc 90 bc b1 4e 9a bc f8 d2 1b 3b
       -0.017881518 -0.01768305 -0.018836351 0.002377687
000060 5a db e7 bb d1 b4 9f bb 4d 52 31 bc 66 aa d3 3b
       -0.0070757093 -0.00487385 -0.010822845 0.006459522
000070 ca 99 cc ba 7d 66 85 bb 39 1d 3e bc 6e 46 01 bb
       -0.0015609798 -0.0040710554 -0.011603647 -0.0019725817
000080 34 ca 2f bc 2c db 6b bc 3b 0d d2 bc 37 af 4e bc
       -0.010729361 -0.014395516 -0.025641074 -0.012615017
000090 3f 20 d6 bb 68 e1 79 bc 1b 31 15 bd 61 63 e4 ba
       -0.0065346058 -0.015251495 -0.036423784 -0.0017424637
0000a0 b4 34 bc bb 84 19 8b bc 98 76 26 bc 9c b1 ba 3b
       -0.0057435874 -0.01697994 -0.010160111 0.005697442
0000b0 68 2e 24 bc c2 8f 8f bb 02 f5 04 3b 9b f1 8a bb
       -0.01002083 -0.004381151 0.0020287638 -0.0042402274
0000c0 07 23 b3 bb 15 25 13 bc 1d dd e2 bb 92 ec 3b 3b
       -0.005466822 -0.008981009 -0.0069233314 0.0028674942
0000d0 53 f0 ee 3b 8e 69 0e bb e6 ea 7d bc 51 2d 25 bc
       0.0072918325 -0.0021730396 -0.015497899 -0.010081605
0000e0 81 d3 8e bb f8 7e df bc f3 e3 ee b9 56 45 86 bc
       -0.0043587093 -0.027282223 -0.00045564733 -0.016390484
0000f0 5b 1f 34 bc b3 a6 b6 bc 17 1b be ba 37 03 0f bd
       -0.010993804 -0.022296285 -0.0014503923 -0.034915175
000100 b8 a2 7e bc 36 de dc bb b1 1c a8 bc 11 31 a4 bc
       -0.015541725 -0.006740357 -0.020521494 -0.020042928
000110 da 51 c7 bc a3 f9 38 bc 10 b3 71 bc 62 3b 65 b8
       -0.024331022 -0.011289987 -0.0147521645 -5.465316e-05
000120 d7 41 7c bc 2f 33 0a bc 93 d5 8b bb f3 5f f9 3b
       -0.015396557 -0.008435055 -0.0042674034 0.007610315
000130 aa 50 93 bc d0 c7 a0 bc 2e 9e d7 bc a8 8f 13 bd
       -0.0179828 -0.019626528 -0.026320543 -0.036025673
000140 c9 d0 d4 bb e2 01 11 bc 8c 46 55 bc 07 d6 39 3c
       -0.0064946157 -0.008850547 -0.013017308 0.011342532
000150 55 eb 93 bc 8b 50 16 bc e2 e3 2c bd 13 cb 72 bc
       -0.018056551 -0.009174476 -0.042209513 -0.0148189245
000160 1f 9a 45 bc 42 fe 95 bc 09 55 f7 bb 94 78 6d bc
       -0.012060671 -0.018309716 -0.007547979 -0.01449408
000170 50 4c b8 bc 77 e9 10 bd 9c a7 02 3c 05 15 29 bc
       -0.022497326 -0.0353789 0.0079745315 -0.010319953
000180 fc ce c4 bc 7c 36 14 bc 5d 99 03 bc 8d b6 64 3a
       -0.02402448 -0.009046193 -0.00803217 0.0008724712
000190 19 fb 53 b8 5e 84 a1 bb d3 64 39 bc ce a8 f7 ba
       -5.0540173e-05 -0.0049291095 -0.011315542 -0.0018894912
0001a0 49 a4 1a 3b c1 59 f4 3a 13 a8 bb bb 74 d0 f3 bc
       0.0023596457 0.0018642471 -0.005726823 -0.029762484
0001b0 f5 69 75 38 05 59 57 bc 18 22 80 bc d4 c6 08 bc
       5.8511232e-05 -0.0131437825 -0.015641257 -0.008348186
0001c0 a8 18 ad bb 05 41 38 bb 36 68 90 bb af 57 a8 bc
       -0.0052824803 -0.0028114927 -0.004406954 -0.020549623
0001d0 c5 23 8d bb 27 45 5c bb 41 8d 08 bc e9 98 bc bb
       -0.0043072426 -0.0033610554 -0.008334459 -0.005755533
0001e0 94 fc 97 3a 66 f9 85 bc 1b 07 27 bc 80 5c 51 bb
       0.001159566 -0.016354274 -0.010194565 -0.0031946003
0001f0 95 e5 01 bc d4 1d da ba 30 24 18 bb f8 d0 0e 3c
       -0.007928272 -0.001664097 -0.0023214929 0.008716814

blocks.0.fcn_layer.weight f4 [128, 128]
000000 0b fb 46 3d 0e 8e ca bd c7 04 3f bc ed 30 bd 3b
       0.048579257 -0.09890376 -0.011658854 0.0057736547
000010 0a 40 e1 3a ac 7a 26 bd 2f 83 de 3d da de d1 bc
       0.0017185223 -0.040644333 0.10864865 -0.02561896
000020 42 2b 9a 3d 25 67 2b bd 6e cc c5 3d dd 6a 8f 3d
       0.07527782 -0.041846413 0.096581325 0.070028044
000030 e9 5f d8 3d 3b 2a c8 3d 3b 28 70 3c 4e 96 06 3d
       0.105651684 0.0977368 0.014658029 0.032858185
000040 62 4c c1 3c 51 b4 76 bd 80 70 66 bd aa a2 8c 3d
       0.023595992 -0.060230557 -0.056259632 0.06866963
000050 49 1d 30 3c 04 a2 92 bd 6e 85 2e bd e4 c8 f0 3c
       0.01074917 -0.07159808 -0.042607717 0.029392667
000060 e2 9b 3a 3d 5d 88 3f bd 17 2a 45 3d 83 b1 bd 3c
       0.045558818 -0.046760906 0.048135843 0.023155933
000070 01 8f bc 3d 08 78 d4 ba 62 ae 90 3d 8f b4 cc 3c
       0.09206963 -0.0016210089 0.07064511 0.02498844
000080 33 8b 9a bd 44 e7 36 3c 43 fe 83 bd 04 bb fa bc
       -0.075460814 0.011163536 -0.06444981 -0.030606754
000090 2e c0 ba 3c 26 04 0a 3d 8f 5f 9d bc 11 0b 37 3d
       0.022796717 0.033695363 -0.019210605 0.044688288
0000a0 02 77 a8 3c 57 0d 1e 3d f7 99 ca 3d 9e 0b c0 bc
       0.02056456 0.03858694 0.09892648 -0.02344304
0000b0 cd 19 72 bd 60 d8 06 bd bc 32 6d 3b 12 7e 11 3d
       -0.059106637 -0.032921195 0.003619357 0.03552062
0000c0 d5 22 8d 3d bf e6 eb 3d 92 43 21 bc a2 43 d0 bc
       0.06891409 0.11518621 -0.00984277 -0.025422875
0000d0 f5 df 91 3d 21 f9 e3 bc 27 71 10 bd f4 8e 11 bc
       0.071227945 -0.027828755 -0.03526416 -0.00888418
0000e0 95 04 ba bc 3b c1 fc bc d2 35 ae 3d fd 1e 0f 3d
       -0.022707263 -0.030853858 0.08506359 0.034941662
0000f0 23 78 6e 3d a5 7e 3a bd ee 00 20 3d 5b 6f 7a bd
       0.05822004 -0.045530934 0.039063387 -0.061141353
000100 1c 0a a2 3d 0a 56 0a bd 7b 9a bb 3d 43 d1 82 3d
       0.079120845 -0.03377346 0.09160324 0.0638757
000110 50 4a 86 3d 51 d2 64 3d cb bd 4e bd ab e7 25 3c
       0.06557143 0.055864636 -0.05047397 0.010126035
000120 09 d0 70 3d 68 64 0e bd 6f db 89 bd 51 fa 8c bc
       0.058792148 -0.034763724 -0.06731307 -0.017209204
000130 95 2f 5f 3d d5 11 7d bc 70 8b a5 3d 58 2f c0 3d
       0.054488737 -0.015446146 0.08083236 0.0938403
000140 24 f7 e9 bc 28 ab 09 bd 18 77 d8 39 f1 13 bd bc
       -0.028560229 -0.033610493 0.00041287462 -0.023080798
000150 76 85 53 3c 50 2c e7 bc 9e ff 54 bd 58 d3 90 bb
       0.012910238 -0.028219372 -0.052001588 -0.0044197254
000160 17 72 a2 3c b6 40 20 bc 2e 26 e3 3d 00 57 2d 3b
       0.019829793 -0.009781053 0.110912666 0.002644956
000170 3b 13 d1 bc 22 9e 57 3b ef 81 c5 3c d7 00 ff bc
       -0.025521865 0.003290065 0.024109809 -0.03112833
000180 c0 fd 8b bd 55 43 a6 3b a1 6d 2d bc b9 67 6a bc
       -0.06835508 0.0050739446 -0.01058522 -0.014306956
000190 20 fe 1a 3d 1e 47 6e bd 54 18 fe 3d 39 05 74 3c
       0.03784001 -0.05817329 0.12406984 0.014893823
0001a0 1c 55 f6 bc 37 23 b6 3d d4 d0 8c bd 8e b4 84 3d
       -0.03006988 0.088934354 -0.06875768 0.064797506
0001b0 47 aa 1a 3d cd ac 54 bd 26 d7 9a bc a8 54 01 bd
       0.037760045 -0.05192261 -0.018901419 -0.031574875
0001c0 26 e1 00 3e 7a bb 34 3c 04 f9 50 3d 8c 42 92 3d
       0.12585887 0.011031026 0.05101873 0.07141599
0001d0 99 87 54 3d d5 3e 85 bb ec bd f9 3c 91 88 94 3d
       0.05188713 -0.004066328 0.03048607 0.072526105
0001e0 6e 60 c4 bb e4 29 36 3d 74 ff b5 bd ea 54 ef 3d
       -0.0059929406 0.044473544 -0.088866144 0.11686118
0001f0 90 03 8f 3d 1b 8a c7 bc 64 da e0 bd da 9d 43 3c
       0.06983101 -0.024357846 -0.10979155 0.01193949
000200 9f 3b 7b bd de 69 b6 3d 86 b0 e4 3c 70 2d dd 3c
       -0.061336156 0.08906911 0.027916204 0.026999205
000210 c6 04 00 3d 06 70 ee 3c c5 ee 90 bd a4 03 45 bd
       0.031254552 0.029106151 -0.07076792 -0.048099175
000220 39 c9 46 bd 46 31 a9 bb 70 7e fb bd a6 af a8 bd
       -0.048531745 -0.0051633446 -0.122799754 -0.08236627
000230 e7 93 bb 3c 20 b4 03 bc c3 e7 a5 bd 75 5e 7b 3d
       0.022897674 -0.008038551 -0.08100846 0.061369378
000240 f0 ce 80 3d 98 14 a8 3d b6 10 ae 3d 2f 38 f4 bc
       0.0628947 0.08207053 0.08499281 -0.029811947
000250 64 f8 40 3d 0e 93 95 3d 5c df a7 bd 15 aa 73 bd
       0.047111884 0.07303439 -0.08196899 -0.059488375
000260 7b f2 ef bd e2 b6 5c bd 5c cd 3d bd a1 9b 4d bd
       -0.11716171 -0.05388535 -0.046338424 -0.050197247
000270 73 bf 00 3d 6a 52 4a 3c d3 ce 70 3d c8 95 e2 3a
       0.03143258 0.012348751 0.058790993 0.001728707
000280 c4 5a 84 bd 07 65 52 3d da bd a5 3c 9c 1a f5 bc
       -0.06462625 0.05136588 0.02023213 -0.029919915
000290 80 45 91 3d 80 42 59 3c 3d 3c 6a bd 03 a0 2d bd
       0.07093334 0.013260484 -0.057186354 -0.042388927
0002a0 3f 28 69 3d 3a 2d 64 3c da 6d 54 bc 03 15 17 3d
       0.056923147 0.0139267985 -0.012965644 0.036885273
0002b0 95 de 68 bb 57 cf 2c bd 9d 0a fe 3d d3 7c 41 3d
       -0.003553306 -0.042189922 0.12404368 0.047238182
0002c0 97 9b 1b bd 3a 59 a5 bb 20 66 d5 3c 89 1c bd bd
       -0.03799018 -0.005046037 0.026049674 -0.09233958
0002d0 97 2e ab bd 80 83 1f 3d a2 0e bc 3d 02 61 3f bc
       -0.08358496 0.038943768 0.091824785 -0.011680843
0002e0 ae a1 95 3c 6c 55 a5 3d 4c 53 d9 bc fb f7 03 bd
       0.018265571 0.080729336 -0.026528977 -0.032218914
0002f0 9a 9d 17 bc ad e1 5e bd 55 a6 24 3d e1 58 79 bd
       -0.009253884 -0.05441444 0.04019769 -0.060875777
000300 8b f1 a2 3c 2b 7d 9a 3d f3 a1 3f bd 07 58 4c 3d
       0.019890567 0.07543405 -0.046785306 0.049888637
000310 25 d3 2b bd 88 f7 01 3d b4 34 1a 3b 36 f5 a3 3d
       -0.04194941 0.031730205 0.0023529949 0.08005755
000320 0c 6c 08 bd 9c 4f b3 bc 3b 60 52 3d 48 66 df 3c
       -0.033306167 -0.021888547 0.051361304 0.027270451
000330 e8 af 4b 3d 5d 28 b7 bd f9 88 33 3c ec 1b 17 bd
       0.049728304 -0.089432456 0.01095795 -0.036891863
000340 64 7a a0 3c d4 9d 7c 3c 6c 86 3f bd 3c 72 ad 3c
       0.01958961 0.0154184885 -0.046759054 0.021172635
000350 29 bf 6d bd 49 65 9c bd 0a 90 12 3d b9 d8 00 bd
       -0.058043633 -0.07636506 0.035781898 -0.031456683
000360 02 ce 3e 3d 2d 7d 92 bc 53 bc dc 3c a3 16 41 3d
       0.046583183 -0.017881954 0.026945269 0.04714073
000370 7e cf 43 3b b4 a0 12 3c 72 40 3b 3c 76 ad 30 3d
       0.0029878314 0.008949447 0.011428939 0.043134175
000380 df 28 06 bd a1 0f 35 bd 98 42 85 bd f5 b4 4f bd
       -0.03275382 -0.044204358 -0.065068424 -0.050709683
000390 31 e5 2b 3d bf 9e ad 3d 3e 98 bd bd 15 33 26 bd
       0.04196662 0.08477544 -0.092575535 -0.04057606
0003a0 e4 68 81 3b ee 36 a6 bd 6f 8d b1 3d 78 c2 77 ba
       0.0039492715 -0.08115946 0.086695544 -0.00094512803
0003b0 c7 71 84 bd 06 24 96 bd 5a e7 b2 bd 01 f5 43 bc
       -0.06467014 -0.0733109 -0.08735533 -0.011960269
0003c0 1a 9b dd 3c ae 92 24 3c dd f7 7d bd d8 66 76 bc
       0.027051497 0.010044737 -0.06200396 -0.015039168
0003d0 c6 1b 3f bd 94 02 31 bc 23 b8 50 3d a3 3a 58 bd
       -0.046657346 -0.010803837 0.050956856 -0.052790295
0003e0 08 be 07 bb c2 17 c7 3a d0 73 9b 3c 18 13 32 bd
       -0.0020712633 0.0015189575 0.018976122 -0.04347524
0003f0 63 e0 2b bd 7a 3f 90 3c cf 65 24 3d ed 0f 4c 3c
       -0.04196204 0.017608393 0.040136155 0.012454969

blocks.0.fcn_layer.bias f4 [128]
000000 77 09 1e bd 09 62 77 bd 89 45 84 3d f5 1b 42 bd
       -0.038583245 -0.060396228 0.06458575 -0.047389943
000010 91 96 22 bd 87 5f ff 3c 63 4b 86 bb 50 0f b7 3d
       -0.039694373 0.03117348 -0.0040983423 0.089384675
000020 27 b9 a7 bb 2a f2 8b bc 96 04 27 3c 9e 62 93 3d
       -0.0051185074 -0.017083246 0.0101939645 0.07196544
000030 37 04 2a 3d 19 be ac 3a 98 b1 ab bd 30 5d d4 3c
       0.041507926 0.0013179212 -0.08383483 0.025923342
000040 00 f5 ca bc dd 03 af 3d 05 67 8c bc 36 e5 28 bd
       -0.024775028 0.08545659 -0.017138967 -0.041234218
000050 ba 9a 9b bd d7 f3 9c 3d b5 b4 6b bd 0b 25 4e bd
       -0.07597871 0.07663696 -0.057545383 -0.050328296
000060 f7 ab b5 3d 43 54 e6 3c 07 9e 90 bc 15 ee a0 bd
       0.0887069 0.028116351 -0.017653478 -0.078579105
000070 b2 0c 10 bd 42 ee d9 bc a1 6e 37 3d a5 fd aa 3d
       -0.035168357 -0.026602868 0.04478324 0.0834916
000080 9f bf 21 bd e5 e0 a8 bd b1 f6 5d 3d 9a 18 9c 3c
       -0.039489385 -0.0824602 0.05419034 0.0190547
000090 5e 8b 45 bd 76 5f 6c bd f8 ab a0 3d 07 cb 3c bc
       -0.048228614 -0.057708226 0.078453004 -0.011523015
0000a0 06 70 a6 bc ea 85 0d 3d eb 64 7e 3d 45 de 76 3d
       -0.020317089 0.03455154 0.06210796 0.060270566
0000b0 e6 cb 36 3c c4 59 c3 3b 88 8c f7 bb c4 87 70 bd
       0.011157012 0.0059616286 -0.0075545944 -0.058723226
0000c0 fd c0 87 3d 54 88 0f 3d 0f 10 74 3d 90 4b 6a bd
       0.066286065 0.035042122 0.059585627 -0.05720097
0000d0 a9 0c ed 3b 52 1c 89 bd 01 68 7b 3d 6b 0c 8b 3d
       0.007234175 -0.06694855 0.061378483 0.06789478
0000e0 89 c1 2a bd 89 67 4a bc 7a af ee bb 68 d2 c5 bc
       -0.041688476 -0.012353786 -0.007284102 -0.024148181
0000f0 80 c7 38 bd 92 f4 b0 3d 0e 25 82 bc e7 fd aa bd
       -0.045112133 0.08640398 -0.01588681 -0.08349209
000100 e3 99 8e bd 07 68 9d bd 25 a9 af 3d d8 89 97 bd
       -0.06962945 -0.07685857 0.08577184 -0.073993385
000110 53 19 97 bd 5c 46 09 3c db 02 a6 3c f1 ae 59 3d
       -0.07377877 0.008378591 0.020265033 0.053145353
000120 65 89 e8 bb db ab 25 3d e8 59 4b bd 96 25 93 bd
       -0.007096457 0.040447097 -0.04964629 -0.07184903
000130 0a 7f aa 3d 21 6d 20 3d f7 43 19 bd 7c 90 a9 3d
       0.08325012 0.039166573 -0.037418332 0.08279511
000140 3c 66 36 3b 2e 64 fe 3c f2 13 aa bd 51 f8 8c 3c
       0.0027831933 0.031053629 -0.083045855 0.01720825
000150 ed e2 59 bd d2 72 2b bd cc ec 52 bb 76 bd 0f 3d
       -0.05319493 -0.041857548 -0.00321846 0.035092793
000160 28 a4 99 bd 75 fb 2f 3d e3 67 94 3d fb 83 20 3d
       -0.075020134 0.042964417 0.07246377 0.039188366
000170 a1 98 92 3d 95 9d 87 3d 56 34 9b bb 5e fe 53 bd
       0.07158018 0.06621853 -0.0047364635 -0.051756255
000180 56 d7 16 3d 13 1b 96 bd 5c c2 8f 3d 01 e3 25 3a
       0.036826454 -0.07329383 0.07019493 0.00063280767
000190 e6 e5 92 bd f7 66 99 3c fe 6a f0 bc 80 86 8b b9
       -0.07172756 0.018725855 -0.029347893 -0.00026612356
0001a0 b2 8b 52 bd aa 0a 7f bd cf 43 bd bb d5 2a 1a bd
       -0.051402755 -0.06226603 -0.0057759057 -0.037638504
0001b0 47 d4 ad 3a ee 6d 28 bc 12 cb 2c 3d 5d 7d 38 3d
       0.0013262116 -0.0102801155 0.04218585 0.04504143
0001c0 16 55 3e 3c 81 9a b8 3c 6a 7f 81 3d c7 0e aa 3c
       0.011616966 0.02253461 0.063231304 0.020759
0001d0 ba 81 8b 3d 1e 25 16 bc 06 f8 b5 3d c2 d7 00 3d
       0.06811853 -0.009164123 0.08885197 0.031455763
0001e0 d6 ba 12 3d af 25 3d 3d d0 0d 78 bd c7 23 8e bd
       0.035822712 0.046178516 -0.060560048 -0.06940418
0001f0 15 1b c4 bb 87 7c 97 bd 4f dd 95 3d d4 ff 9c 3d
       -0.0059846737 -0.073967986 0.07317602 0.07665983

blocks.0.layer_norm.weight f4 [128]
000000 4b ce 8b 3f 60 b5 8e 3f 20 bd 75 3f cb 96 8e 3f
       1.0922331 1.1149101 0.95991707 1.1139768
000010 06 33 93 3f 06 13 88 3f 2d 2a 81 3f 30 c8 88 3f
       1.1499946 1.0630805 1.0090996 1.0686092
000020 d5 96 75 3f 1b 1c 91 3f c4 b4 8c 3f 4d 61 8c 3f
       0.95933276 1.1336702 1.0992665 1.0967194
000030 bc 8d 8c 3f ba 1e 92 3f 03 e3 90 3f a3 35 76 3f
       1.0980754 1.1415627 1.1319278 0.96175593
000040 13 e8 89 3f a3 59 8a 3f 7d 73 82 3f dd f3 89 3f
       1.0773948 1.0808605 1.0191494 1.0777546
000050 1a cc 8e 3f 37 3f 8c 3f 2e 8d 88 3f a7 c0 86 3f
       1.1156037 1.0956792 1.0668085 1.0527543
000060 f1 aa 7c 3f ef c2 8d 3f c5 c0 93 3f 8e e6 75 3f
       0.98698336 1.1075114 1.1543204 0.96054924
000070 7c 28 80 3f 8a ce 8a 3f d9 6d 87 3f 23 cb 90 3f
       1.0012355 1.0844281 1.0580398 1.1311992
000080 06 f7 85 3f c6 ab 87 3f 0a b4 8e 3f 97 a4 87 3f
       1.046601 1.0599296 1.1148694 1.0597104
000090 d7 d8 89 3f ae 10 83 3f 38 5d 8b 3f 73 94 88 3f
       1.0769299 1.0239465 1.0887823 1.0670303
0000a0 87 a3 88 3f c4 cd 88 3f 81 57 89 3f 01 25 82 3f
       1.0674905 1.0687795 1.0729829 1.0167543
0000b0 f0 32 87 3f 9b ff 8e 3f 3c 41 8e 3f cd e2 89 3f
       1.056242 1.1171755 1.1113658 1.0772339
0000c0 f7 00 91 3f 2e 4e 8a 3f 76 84 8a 3f d9 00 8b 3f
       1.132842 1.0805109 1.0821674 1.0859634
0000d0 56 ce 83 3f 59 fa 8b 3f 17 cd 88 3f 99 89 88 3f
       1.0297344 1.0935775 1.0687588 1.0666991
0000e0 0b 81 8d 3f bb 41 8e 3f 7e c4 7e 3f 65 94 8c 3f
       1.1055006 1.1113809 0.99518573 1.0982786
0000f0 3b d7 8c 3f 07 64 8a 3f 01 06 8c 3f de 4b 8a 3f
       1.1003183 1.0811776 1.0939332 1.0804403
000100 a3 16 80 3f b6 68 88 3f f7 ee 89 3f 67 5e 89 3f
       1.0006908 1.0656955 1.0776051 1.0731934
000110 97 b5 84 3f 34 47 87 3f 2b 8d 8d 3f 2e 19 8a 3f
       1.0367917 1.0568604 1.1058706 1.0788934
000120 e3 88 88 3f 84 7c 8b 3f dc 96 88 3f c9 cf 88 3f
       1.0666775 1.0897374 1.0671039 1.0688411
000130 86 f7 88 3f ba d5 91 3f f7 d9 8c 3f 54 28 7f 3f
       1.0700538 1.1393349 1.1004018 0.9967091
000140 48 08 7c 3f 8a 3d 8a 3f 52 20 88 3f df fc 87 3f
       0.98450136 1.080003 1.0634863 1.0624045
000150 31 11 7b 3f da 83 8e 3f 20 1a 91 3f c4 b5 86 3f
       0.98073107 1.1133988 1.1336098 1.052422
000160 44 a1 77 3f 1f 69 8a 3f 0b e5 85 3f 54 f5 80 3f
       0.96730447 1.081333 1.0460523 1.0074868
000170 ee e9 89 3f 77 6f 8b 3f 22 b8 85 3f 10 36 8d 3f
       1.0774515 1.0893391 1.0446818 1.1032124
000180 66 99 79 3f 85 12 84 3f 39 1d 85 3f 21 80 8e 3f
       0.9749969 1.0318152 1.0399543 1.1132852
000190 02 69 87 3f 7d 90 88 3f 73 2a 8a 3f 87 6e 87 3f
       1.0578921 1.0669094 1.0794204 1.0580605
0001a0 95 20 86 3f aa 26 7b 3f 36 bc 7b 3f b0 87 79 3f
       1.0478693 0.9810587 0.9833406 0.9747267
0001b0 dd ab 8a 3f 7d b0 85 3f 45 f2 89 3f c2 eb 92 3f
       1.0833699 1.0444485 1.077706 1.1478198
0001c0 fb cd 8e 3f 8a da 83 3f 2f 5c 8a 3f 75 46 8e 3f
       1.115661 1.0301068 1.0809382 1.1115252
0001d0 ae d4 82 3f f2 a0 84 3f 6e e5 86 3f 42 a4 91 3f
       1.0221155 1.0361617 1.0538766 1.1378253
0001e0 6a a1 88 3f 49 5c 91 3f 1e 6d 84 3f 18 f2 8f 3f
       1.067426 1.1356288 1.03458 1.1245756
0001f0 3b 63 84 3f 30 65 7d 3f 15 02 92 3f 4b 8e 87 3f
       1.0342783 0.98982525 1.1406885 1.0590299

blocks.0.layer_norm.bias f4 [128]
000000 bf f4 71 3d f7 34 92 3d 33 d0 20 bd bb 36 53 3d
       0.0590713 0.071390085 -0.039261054 0.051565867
000010 44 81 6f 3d 55 b0 b0 3c 26 6c 1d 3c 26 1b 94 3c
       0.058472887 0.021568457 0.009608304 0.018079352
000020 27 45 10 bd ce 57 a6 3d ae 86 70 3d 08 c4 63 3d
       -0.0352222 0.08122216 0.05872219 0.05560687
000030 4f d3 30 3d b9 ea ac 3d 9e c6 b9 3d 31 9f 18 bd
       0.04317027 0.08443207 0.09071086 -0.03726119
000040 f3 a3 79 3d 8f 97 f5 3c 52 e0 24 3c 63 60 1a 3d
       0.06094737 0.029979495 0.010063248 0.037689578
000050 26 be 90 3d de 73 3c 3d 69 e4 18 3d a5 d2 d5 3c
       0.07067518 0.046008937 0.037327204 0.02610142
000060 d1 38 d8 bc 06 1a 9c 3d 98 aa bc 3d 04 24 d8 bc
       -0.02639428 0.07622151 0.09212226 -0.026384361
000070 d7 5a 9b bc ae 67 7c 3d cf 2f 52 3d 1b 7c b6 3d
       -0.018964214 0.061622314 0.051315125 0.0891039
000080 4d 0c 83 3c e4 5f d7 3c 71 00 87 3d 97 41 08 3d
       0.015997076 0.026290841 0.06591881 0.033265676
000090 86 08 82 3d c2 c4 67 3c e2 8b 36 3d 37 09 3f 3d
       0.06349282 0.014146032 0.044566996 0.046639647
0000a0 92 33 97 3c f7 ec ed 3c 7e 8a 78 3d e8 58 15 3d
       0.018457208 0.029043658 0.06067895 0.03646174
0000b0 f3 1d 12 3d ec 9b 81 3d 13 3c 7b 3d 8a ce 27 3d
       0.035673093 0.06328568 0.061336588 0.040968455
0000c0 79 c7 b6 3d 4a ff 98 3d 90 2d 27 3d 30 da 46 3d
       0.08924765 0.074705675 0.040814936 0.048547924
0000d0 70 40 a1 3c 91 5c 02 3d 24 60 65 3d 17 cf 3f 3d
       0.019684047 0.03182656 0.05599989 0.046828356
0000e0 6b 63 9e 3d 1c 70 81 3d 99 19 40 39 83 e0 86 3d
       0.07733806 0.06320211 0.00018320083 0.06585791
0000f0 8c 5e 82 3d 63 3f 8a 3d 61 9a 82 3d 13 bb 74 3d
       0.0636569 0.06750371 0.06377102 0.05974872
000100 dc 51 96 bb ce f3 7b 3d 9d a3 03 3d e0 22 25 3d
       -0.004587395 0.061511807 0.032138456 0.040316463
000110 10 df fd 3c 8e 02 66 3d 84 1a 92 3d ea 82 0c 3d
       0.030990154 0.05615478 0.07133964 0.034304537
000120 6e 70 30 3d a4 70 5a 3d 1f 2b 7e 3d 8a 13 4c 3d
       0.04307597 0.05333008 0.062052842 0.04982332
000130 6d 33 84 3c 76 21 94 3d 11 75 93 3d d3 f0 aa bb
       0.016137803 0.07232945 0.07200063 -0.0052166968
000140 75 38 bf bc 55 dc 3d 3d 8b 19 27 3d 4f 36 1e 3d
       -0.02334235 0.046352703 0.040795844 0.03862601
000150 41 4d 60 3b 4b 71 7c 3d 35 06 ae 3d 14 15 07 3d
       0.0034225734 0.061631482 0.08497278 0.032979086
000160 8c 62 00 bd 25 da 84 3d 24 1e 7b 3d 9d 12 ca 3c
       -0.03134398 0.0648692 0.06130804 0.024667079
000170 f1 cb e4 3c 61 c6 9c 3d cd bf 1f 3d 5d 8d 8a 3d
       0.027929278 0.07655025 0.039001275 0.06765244
000180 d0 e8 c5 bc e5 ab 0a 3c 80 56 77 3c a0 cc 9d 3d
       -0.024158865 0.008463834 0.015096307 0.07705045
000190 db f0 17 3d 47 30 0f 3d 9d eb 86 3d 11 5d 8a 3d
       0.037094932 0.03495815 0.065879084 0.06756032
0001a0 a3 37 c9 3c b9 73 99 bc fe 8b c1 bc 7e 89 3a bc
       0.024562662 -0.018731939 -0.023626324 -0.01138532
0001b0 e3 05 6a 3d df b1 11 3d 33 bd cd 3c 35 ff c7 3d
       0.05713452 0.03557002 0.025114631 0.09765474
0001c0 aa b0 9a 3d 30 3e 47 3c 8b ae 30 3d e9 e2 aa 3d
       0.07553227 0.012160823 0.043135207 0.08344061
0001d0 a3 90 01 3d 59 f4 82 3c 6d c9 f6 3c 71 ff b4 3d
       0.031632077 0.015985655 0.030125344 0.08837784
0001e0 2d 75 0b 3d f8 52 b2 3d d3 84 26 3c a7 de af 3d
       0.034047294 0.08707231 0.010163504 0.085873894
0001f0 f8 78 b2 3c e9 0c c6 bc d5 f0 a3 3d 52 3d 3a 3d
       0.021786198 -0.024176078 0.080049194 0.045468636

last_layer.weight f4 [1, 128]
000000 b3 fc 0d 3e 93 68 32 be 9a d1 d2 3b fa 50 e3 3d
       0.13865928 -0.17422704 0.006433678 0.110994294
000010 9d 7e 33 3e dc c5 07 3e 49 48 9f 3c a0 01 18 3e
       0.17528768 0.13259071 0.019443648 0.1484437
000020 e3 3f fd bc 82 c3 12 be 4d 12 fa 3d 7b b5 83 3d
       -0.030914253 -0.14332393 0.12210522 0.06431099
000030 b6 67 21 3e 08 e9 f0 3d b0 63 45 be fd 43 85 bc
       0.15762219 0.11763197 -0.19276309 -0.01626777
000040 2b bf 0b be 55 72 a5 3d 27 bb 86 bd 56 43 8b 3d
       -0.13647144 0.08078448 -0.06578665 0.06799953
000050 7e 16 38 be 85 a0 29 3e 52 49 f6 3d 19 8d 80 3d
       -0.1797733 0.1656514 0.120257035 0.06276912
000060 c8 f0 09 bb a1 14 24 be 01 1b 21 be 59 74 92 3c
       -0.0021048058 -0.16023494 -0.15732957 0.017877745
000070 ff a0 1e 3d 84 05 f7 3d 47 6c 57 3d be 80 22 be
       0.038727757 0.12061599 0.052593496 -0.15869424
000080 50 f0 5f 3d 40 e1 b8 3d 71 cb 8e 3d ec c0 5c 3d
       0.05467254 0.09027338 0.06972397 0.053894922
000090 ac 2d 00 be c4 5d cb 3c a6 42 a9 3d 51 2a 85 3d
       -0.12517422 0.024824984 0.08264665 0.06502212
0000a0 a8 55 e2 3d b9 b2 19 3e 37 7d af 3d 70 90 4b 3c
       0.11051494 0.15009584 0.08568805 0.012424573
0000b0 9c 5d 4b 3d 49 01 35 be 64 36 eb 3d 65 0a af 3d
       0.04964982 -0.17676271 0.114849836 0.085469045
0000c0 c5 28 2d be 7f 67 0f be 87 90 cd 3d 8c 34 6f 3d
       -0.16910084 -0.14004324 0.10037332 0.058399722
0000d0 10 ee d9 3d 8e a4 da 3d bf 22 03 be 07 04 51 3d
       0.1064111 0.106759176 -0.12806223 0.05102923
0000e0 35 7b 1a be db a7 fe 3d 1c ad bd 3c 4b 7d 1a be
       -0.15086062 0.1243436 0.023153834 -0.15086858
0000f0 f4 f3 fb 3d 09 83 f6 bd 96 f0 22 be 2e 72 94 3d
       0.1230239 -0.12036712 -0.15912089 0.072483405
000100 86 33 a8 3c b4 2c e5 bd eb 5f 1a 3e 2f 41 15 3e
       0.02053238 -0.11190167 0.15075652 0.14575647
000110 ed 81 97 3d aa 51 69 3d 38 5c 22 be 89 c2 1a 3e
       0.07397828 0.056962647 -0.15855491 0.15113272
000120 9e 7c 8a 3d 21 dc ee 3d 9b 49 d6 3d ff 79 16 3e
       0.0676205 0.1166308 0.10463258 0.14694975
000130 a3 8b 0f 3e d4 0d f8 bd 78 85 ca 3d 89 e9 b8 3c
       0.14018111 -0.121120125 0.098887384 0.022572296
000140 d8 6b 6f 3b 94 ea a9 3d 64 b2 ff 3d 1c 1b 05 3e
       0.0036532786 0.08296695 0.12485197 0.12998623
000150 52 67 06 3c 12 b6 9f 3d 6d 9c 38 be 0a 41 04 3e
       0.008203344 0.07798399 -0.18028422 0.12915435
000160 f1 6a c9 bb e4 4c 1a be 85 a5 9e bd 61 23 01 bd
       -0.0061467816 -0.15068394 -0.07746414 -0.03152788
000170 8b c6 d7 3d 20 f9 f1 bd fa b2 e5 3d 4c 35 1e be
       0.10535916 -0.11815095 0.11215778 -0.15450019
000180 1c 7c 7b 3b 1a e4 d0 3d 69 f6 47 3d a8 70 1a be
       0.0038373535 0.10199757 0.04881898 -0.15082037
000190 04 8f 79 3d 4d 40 18 3e 57 2a 0b be d6 08 cf bd
       0.060927406 0.14868279 -0.1359037 -0.10109107
0001a0 4b cb aa 3d 71 36 32 bc bc 1e 31 ba de b0 86 3c
       0.08339556 -0.010877238 -0.0006756594 0.016441759
0001b0 81 9e 14 be d3 2e a0 3d 8e f5 23 3e 7d b0 16 be
       -0.1451359 0.07821431 0.1601164 -0.14715762
0001c0 df c0 21 be ac fd e2 3d 15 b8 b4 3d 41 90 e2 bd
       -0.1579623 0.1108354 0.08824173 -0.110626705
0001d0 c8 89 b3 3c 76 6d 5d 3d 75 68 d7 3d a9 f9 1d be
       0.021916285 0.05405947 0.105179705 -0.15427269
0001e0 5e 80 00 3e 42 3b 15 be 3d df 61 3d 86 8d 19 be
       0.12548968 -0.14573386 0.055144537 -0.14995393
0001f0 5c d5 32 3d 07 0c 14 bd 48 05 33 be e6 66 33 3d
       0.043660507 -0.036144283 -0.17482483 0.043799303
