wkey/openwakeword_models/onnx/hey_computer_pos_neg_train.onnx (onnx, 859394 bytes, 9 tensors)

layer1.weight f4 [128, 1536]
000000 fd 48 c4 3a 3e 12 16 3c 7b 3b 03 bd 3a 7c 18 bc
       0.0014975365 0.009159623 -0.032039147 -0.009306962
000010 f5 12 3b 3c 3d 16 5c bc 83 4b f8 bb 3c 09 7d bc
       0.011418094 -0.013433036 -0.007577361 -0.015444096
000020 a5 72 84 3d c4 99 07 3d 22 07 e8 3a a6 03 3e bc
       0.06467179 0.033105627 0.0017702321 -0.01159755
000030 18 ce 92 bb ec 91 f4 bc 4b 3c 79 39 21 06 81 bc
       -0.0044801347 -0.029854737 0.00023768951 -0.015749993
000040 e4 c2 e2 3b 23 4f 6e bc ab a1 03 3d 95 c5 52 3b
       0.0069202054 -0.014545235 0.0321366 0.0032161225
000050 73 3d f5 3c 55 b1 f5 3b 9f 7c 87 bc f8 5f d3 bb
       0.029936528 0.0074979463 -0.016538916 -0.0064506494
000060 15 23 26 bd 0e e0 2d bc 48 fa ab bc bc 2f 03 3c
       -0.0405608 -0.010612501 -0.020993367 0.008006986
000070 09 99 d7 3b 98 3d 11 3d 20 c4 fa bc a0 8f ef 3c
       0.0065795225 0.03545913 -0.030611098 0.02924329
000080 bd 19 6d 3c de 19 4e bb 03 fc 8d 3a 3e 0a 96 3c
       0.0144714685 -0.0031448524 0.0010832552 0.01831543
000090 f8 b2 6d bc ed 17 0d bc 74 8e 40 bc 67 d9 74 bc
       -0.0145080015 -0.008611661 -0.0117527135 -0.014944411
0000a0 4e c6 2e 3c e2 c0 61 bc 3e b3 ec 3b 7d 4d 2d bc
       0.010667397 -0.013778897 0.007223516 -0.010577557
0000b0 e1 d9 fd bc 01 ed a8 3c 2f 7c c4 ba cc 6b e5 3b
       -0.030987682 0.020620825 -0.0014990623 0.007001376
0000c0 24 65 21 3b 19 a8 d9 bb 8d f4 c2 bc b8 38 c3 3c
       0.0024626935 -0.0066423533 -0.023798252 0.023830757
0000d0 30 af bc 3b 6c 50 8d bb 70 f5 e1 bb fb d8 b3 bc
       0.0057581887 -0.0043125656 -0.0068957135 -0.02195405
0000e0 ce ad ab bc 09 07 85 3c 79 6b a7 bc c1 30 9d ba
       -0.0209569 0.016238706 -0.02043699 -0.0011992679
0000f0 ea 24 94 bc 23 d2 99 3c d5 06 30 bc c9 75 08 3c
       -0.018084008 0.018776959 -0.010743816 0.008328863
000100 86 d3 80 bc 24 a5 11 3b 04 b8 2f 3c f9 9f c9 3b
       -0.015725862 0.0022223676 0.010725025 0.0061531034
000110 76 da 94 3c 25 c0 f8 bc 3d cd 1e bb f4 a5 13 3d
       0.018170577 -0.03036506 -0.0024231218 0.036046937
000120 48 f0 14 bd 11 38 00 bc d3 71 f8 3b 61 00 bd 3b
       -0.036361963 -0.007825867 0.0075819283 0.0057678674
000130 4f 8b 23 bd e8 94 5b 3d d2 f6 f6 bc 4d e0 bc bc
       -0.039927777 0.053608805 -0.03014699 -0.023056174
000140 82 cc bd 3c 37 04 96 3c 24 ee 0e bc 07 46 0f bd
       0.023168806 0.018312557 -0.008723769 -0.034978893
000150 21 64 14 bb 71 54 15 bc b4 09 a1 3c 4d b7 0e 3c
       -0.002264269 -0.009114371 0.019657947 0.0087106945
000160 0c d9 87 3c 0f 22 48 bc 4f 23 14 bb 2f 76 71 3c
       0.016582988 -0.012215151 -0.0022604053 0.01473765
000170 e7 fd 83 bc 89 f6 84 3c b1 f8 33 3d 9c e7 2a bc
       -0.016112281 0.016230838 0.043938342 -0.010431197
000180 0c 48 05 bb e0 99 c9 3c 0a 43 ce bb 16 0b 87 bb
       -0.0020337133 0.024609506 -0.006294613 -0.0041211946
000190 42 41 8e bc 76 8c a2 3b 87 99 60 bc 75 fa 8d 3c
       -0.017365102 0.004960592 -0.013708479 0.017331341
0001a0 64 cb 66 3d fb 15 6d 3c a3 33 19 bc f2 8e 86 3c
       0.056346312 0.014470573 -0.00935069 0.016425584
0001b0 f2 a0 87 3c ad ef ae bc b1 2b 4a 3c fa 74 4d 3b
       0.016556237 -0.02135452 0.012339518 0.003135024
0001c0 da 32 14 bc ae 4c 14 3c 9b 73 44 3a 4a 73 8e 3c
       -0.009045327 0.009051485 0.0007494033 0.017388958
0001d0 70 e9 16 3c 13 e1 f8 3c 03 13 33 3c 78 c6 01 3d
       0.009210929 0.030380761 0.010929826 0.031683415
0001e0 2e 6b 39 bc a7 4a d0 bb 59 95 f7 bb dd b4 c9 3a
       -0.011317058 -0.0063565555 -0.0075556454 0.0015388984
0001f0 69 de 2b bc c5 33 46 3b 2e 6c 07 bd 12 fd b7 bb
       -0.010490038 0.003024326 -0.033062153 -0.005614885
000200 33 bb 6b 3b 8f f4 ba 3c 89 b8 26 bd 02 fa 33 3b
       0.0035969734 0.022821693 -0.04070333 0.0027462249
000210 8a 23 fa 3c f6 49 fb 3c 35 21 c2 3b 90 e6 12 3c
       0.030534524 0.030674916 0.0059243687 0.008966103
000220 6a 89 b9 3c 48 aa b4 bc d8 b1 11 3d 34 10 85 3b
       0.022648532 -0.022053853 0.035569996 0.0040607695
000230 46 f2 da 3c 38 26 ae 3c 39 51 d3 bc 4f 55 cb 3b
       0.026726853 0.021258458 -0.025795566 0.006205238
000240 f8 5c 2f 3c a8 99 bf 3c 28 0a d4 bc a3 c6 8c bc
       0.010703318 0.023388699 -0.02588375 -0.017184561
000250 55 d4 0d bc e1 ba ca 3c ae 1f 93 3b 87 99 bc bc
       -0.008656581 0.024747314 0.0044898605 -0.023022426
000260 e1 22 88 bc 06 e6 f0 3c 8c 18 d4 bc 88 51 9e 3c
       -0.016618194 0.029406559 -0.025890611 0.019325987
000270 02 fc 43 ba af b6 dd bb ae 42 17 3d 54 55 9b 3c
       -0.0007476212 -0.0067661623 0.036928825 0.018961586
000280 0e 5b 38 3c 34 4b 29 bb af 25 92 ba f8 e0 50 bb
       0.011252178 -0.0025832178 -0.0011150147 -0.0031872373
000290 e6 22 17 3d ba 2c 91 bc 3c 3c 00 bd 27 ec a8 bc
       0.036898516 -0.017721523 -0.031307444 -0.020620419
0002a0 d2 42 04 3b 8e f9 81 3c aa b0 4c 3a 9a 87 7f bc
       0.002018143 0.015866067 0.00078083074 -0.015596295
0002b0 54 d7 6b bc a2 5d f4 3c 2e b3 c8 bc 0b db 23 bb
       -0.0143946 0.029829804 -0.024499502 -0.0025002386
0002c0 83 eb 17 bc 57 26 f7 3b cf 03 83 bc 96 69 6c bc
       -0.009272459 0.0075424123 -0.015993027 -0.0144294705
0002d0 d9 ad 06 3d e2 0a 3e bc a4 f4 8e 3c cf c9 91 bc
       0.032880638 -0.011599274 0.017450638 -0.017796425
0002e0 47 47 0a 3c 62 71 79 bb e6 e4 b9 bb 21 c4 4a 3c
       0.008439845 -0.0038061966 -0.005673039 0.012375862
0002f0 b6 f3 53 ba 6f 13 06 bc a3 54 8f 3c b0 ed 29 3a
       -0.0008085327 -0.008183344 0.017496413 0.00064822566
000300 44 e6 0a 3c ab d7 ac bc c6 61 31 3c 33 71 ae bc
       0.008477751 -0.021098932 0.010826534 -0.021294212
000310 86 66 ea bc f4 a3 4a 3b c7 ef 79 bc 70 02 98 bc
       -0.02861334 0.0030920478 -0.015254921 -0.01855585
000320 5f a4 3c 3d e2 35 e5 bb b8 de 80 bb fb d5 55 3c
       0.046055194 -0.0069949487 -0.0039328 0.013051505
000330 4c d7 bb 3c d9 55 be bb ff 82 be 3c 61 aa 82 3c
       0.02292981 -0.0058085737 0.023255823 0.015950384
000340 c8 80 ec 3c a8 9c 24 3c e6 28 4d bc 87 7b f3 bc
       0.028870001 0.010047115 -0.012521958 -0.029721988
000350 41 ad 1f 3d 59 0c b0 3c 2e 54 d5 3b 7b 90 30 3c
       0.038983587 0.021490263 0.006510279 0.010776634
000360 97 a4 44 bb 3b a5 d9 3b 71 cc fa bb df 1a c9 3c
       -0.003000533 0.0066420115 -0.007653766 0.024548946
000370 64 8a 8f 3c 7c b0 10 bb 3f 51 60 3c dc f3 97 3c
       0.017522044 -0.002207785 0.013691246 0.018548898
000380 0e d4 d8 bc e2 f4 04 3d 07 25 02 3b c1 aa 86 3b
       -0.026468303 0.0324601 0.0019858496 0.004109711
000390 b2 c2 64 bb 1d 73 b1 3c ea be af 3c 28 bc 68 bb
       -0.0034906087 0.021661336 0.02145334 -0.003551254
0003a0 97 d7 89 bc f4 67 ea bc 87 bf 52 3c 6c 41 e1 bc
       -0.016826434 -0.028614022 0.0128630465 -0.027497016
0003b0 b8 1d c6 3c 94 9d 57 3c 36 e8 a2 3c 99 76 fe 3c
       0.024184093 0.013160128 0.019886117 0.031062411
0003c0 84 a4 fa bb f3 87 a2 bc 94 fe cb bc 76 94 da 3b
       -0.0076490063 -0.019840216 -0.024901666 0.00667053
0003d0 96 a8 af ba 30 33 28 3c d1 0e da 3b 44 26 2a bc
       -0.0013401683 0.01026611 0.0066545983 -0.0103851
0003e0 cc bb 15 ba b5 e6 a6 3c 50 a4 48 bb a4 c7 49 3c
       -0.0005711883 0.020373682 -0.0030615516 0.012315664
0003f0 7a 53 0c 3c 9b e3 13 3c 68 bc db 3c de 26 68 3c
       0.008564824 0.009026433 0.026823238 0.014169423

layer1.bias f4 [128]
000000 b6 11 d4 bb d8 0e 06 bb 59 6d 8a bb 33 a0 e9 3a
       -0.006471838 -0.0020455625 -0.004224461 0.0017824232
000010 cf d0 99 bc 82 2a 06 3c 0f b1 7e 3b a9 bb 4f bc
       -0.018776326 0.008188846 0.003886286 -0.012679019
000020 cf f9 6d 3c 14 16 d3 3c aa f5 84 bb 33 af 8c 3c
       0.014524891 0.025767364 -0.0040576058 0.017173385
000030 ca aa 50 3c 9e 02 9e bc ba 24 d4 3c ec 4e 31 3c
       0.012736032 -0.019288357 0.025896419 0.010822039
000040 ec ca 09 3d 08 2d b6 3c d6 4b 62 3c ca 83 0d bc
       0.033640787 0.02223827 0.013812026 -0.008637378
000050 75 76 6e bc 81 59 ca 3c e9 4f 8c 3c 02 3f 03 bc
       -0.01455461 0.024700882 0.017127948 -0.008010628
000060 19 5a f9 3c 1d cb a2 3c 16 a4 f3 3b 08 b9 d3 3a
       0.03043847 0.019872243 0.007435332 0.0016153166
000070 64 ac 64 bc bf 12 54 3c 2f cc 38 3a ee 14 57 3c
       -0.013957117 0.012943923 0.00070494687 0.013127549
000080 24 2e 47 3c 21 50 80 3c ec 4b 92 bb 07 91 d6 bb
       0.012156997 0.015663208 -0.004464617 -0.0065480503
000090 fa fd c5 3c c5 d3 d9 3b 32 2b a8 bb 87 26 91 3b
       0.024168957 0.0066475593 -0.0051321024 0.0044296416
0000a0 76 fd 83 3c 31 5e cc 3c 0c a9 73 ba f9 a9 99 bc
       0.01611207 0.024947258 -0.00092949043 -0.018757807
0000b0 a0 77 8b 3c c2 80 d6 bb 8e cd 91 bc c0 66 12 bb
       0.017024815 -0.006546111 -0.017798211 -0.0022339076
0000c0 fa 35 36 3c 05 95 c1 bc 59 d3 a6 3b 2a 63 8b bc
       0.011121267 -0.023630628 0.0050911126 -0.017015059
0000d0 4b ed 39 bc 53 6f f8 bb a1 d2 cb 3c 4c 24 35 3a
       -0.011348079 -0.0075816303 0.02488071 0.00069100107
0000e0 2f 24 2b bb b7 e7 aa bc 6e 52 2e bc ef ed 8e bc
       -0.0026114096 -0.020862443 -0.01063977 -0.01744744
0000f0 49 97 4b 3c b3 0d df bb 61 4a 06 bc 78 e0 42 ba
       0.012426206 -0.006807053 -0.008196444 -0.0007433961
000100 f3 7d a2 3c d6 fe 8c bc f5 d1 9d 3c ef 56 05 bc
       0.019835448 -0.017211359 0.019265154 -0.008138402
000110 4a 92 d4 3b 83 96 dd 3b c0 07 5b bb 57 b2 1c bb
       0.0064871656 0.006762327 -0.0033421367 -0.002391001
000120 32 fb 17 3c 27 38 c4 3a 0b a3 1f 3b 1f 33 9c bc
       0.009276198 0.0014970348 0.0024358656 -0.019067345
000130 e2 fe 6d bc a1 7b 31 3c c0 28 c7 3a 26 c8 ab 3c
       -0.014526101 0.010832698 0.001519464 0.020969462
000140 dd 9a 1f bc 41 4e 2e bc 66 06 7f 3c a0 13 57 3c
       -0.009741512 -0.010638774 0.01556549 0.013127238
000150 87 d3 74 bc 0e 0e 2a bc 8e 9d aa 3b 09 7b c9 3a
       -0.01494301 -0.010379327 0.0052067703 0.001537175
000160 74 62 96 3c c2 ea 5b 3c 90 84 3e bc 7e 6b 12 bb
       0.018357493 0.01342267 -0.011628285 -0.0022341902
000170 68 54 8b 3c 4e fa d6 3c 1b ae 09 3b a9 9b 4d 3c
       0.017008021 0.026242401 0.0021008316 0.012549319
000180 93 80 5f bc d5 e5 8c 3b d4 81 af 3c 8e e4 c7 3a
       -0.013641494 0.004299859 0.021424212 0.001525061
000190 8d 5d 6a bc 9c e6 c1 3b ea 41 ce 3c d1 e0 24 bc
       -0.014304531 0.0059173834 0.025177915 -0.010063366
0001a0 0d fe 3a 3c c2 82 fc ba 61 b6 10 bc c8 ca ab 3b
       0.0114131095 -0.0019265043 -0.008832545 0.0052426793
0001b0 21 01 4f bc 28 bb f2 3c 4d b8 c9 3c f8 d9 8e bc
       -0.0126345465 0.029630259 0.024624014 -0.01743792
0001c0 58 a8 50 3b 47 aa 9d bc 5a b1 48 3c e9 7b 83 3b
       0.0031838622 -0.019246234 0.012249315 0.004012574
0001d0 7a 2f 81 3c aa 20 81 3c 76 e9 63 bc e2 0d 85 bc
       0.015769709 0.015762646 -0.013910642 -0.016241971
0001e0 9a 52 85 bc 65 09 a8 3c 69 a4 9b bc 77 a7 80 3c
       -0.016274739 0.020512292 -0.018999295 0.015704853
0001f0 37 f5 ef 3c 2b 1b bb 3c e3 64 e0 bb d0 a4 05 3c
       0.029291732 0.022840103 -0.006847964 0.00815697

layernorm1.weight f4 [128]
000000 1e a6 7d 3f 76 97 80 3f 49 56 72 3f da e4 83 3f
       0.990816 1.0046222 0.9466291 1.0304215
000010 23 f1 84 3f 2c 03 75 3f 9c 2d 78 3f c8 d9 7d 3f
       1.0386089 0.95707965 0.96944594 0.9916043
000020 c7 13 7a 3f 40 82 82 3f ac c5 85 3f ea b2 81 3f
       0.9768643 1.0195999 1.045095 1.0132725
000030 6b 6e 7b 3f 0e 41 84 3f 8a 95 74 3f 46 29 81 3f
       0.9821536 1.0332353 0.9554068 1.0090721
000040 38 ab 7e 3f 3d 5f 86 3f 30 15 76 3f 12 61 7e 3f
       0.9948001 1.0497814 0.9612608 0.9936687
000050 75 6b 73 3f 55 e4 81 3f 39 43 86 3f 31 13 7b 3f
       0.9508584 1.0147806 1.0489265 0.9807616
000060 63 d7 83 3f 87 bf 7a 3f 34 ce 87 3f 60 06 7d 3f
       1.0300106 0.979485 1.0609803 0.9883785
000070 59 dc 82 3f 12 4a 81 3f f8 70 81 3f 10 c5 81 3f
       1.0223495 1.010073 1.01126 1.0138264
000080 1e 5b 7b 3f c7 d3 7a 3f 27 02 74 3f 0d 00 73 3f
       0.9818591 0.97979397 0.95315784 0.9492195
000090 70 fa 82 3f 96 3f 79 3f 53 79 79 3f 31 8b 7a 3f
       1.0232677 0.9736265 0.9745075 0.9786864
0000a0 0f 46 78 3f a7 cb 80 3f f6 20 7c 3f 0f a5 75 3f
       0.969819 1.006215 0.98487794 0.95954984
0000b0 98 4f 77 3f 31 85 81 3f d6 74 76 3f bd 9e 80 3f
       0.96605825 1.0118772 0.9627203 1.0048443
0000c0 a9 cf 83 3f 6a 2d 7c 3f 26 fb 80 3f da af 7b 3f
       1.0297748 0.98506796 1.0076644 0.98315203
0000d0 4d 0a 79 3f 18 42 76 3f f5 f3 7a 3f 2b 48 76 3f
       0.9728134 0.961946 0.980285 0.9620387
0000e0 c4 8b 73 3f 78 ee 78 3f 26 84 79 3f 12 92 7e 3f
       0.9513514 0.97238874 0.9746727 0.99441636
0000f0 71 d4 85 3f 82 b9 71 3f 9e 7e 82 3f 57 de 85 3f
       1.0455457 0.9442369 1.019489 1.0458478
000100 46 55 85 3f 53 49 73 3f c9 c4 79 3f 7a 1c 7c 3f
       1.0416648 0.9503376 0.97565895 0.9848095
000110 5a 4f 7e 3f 1e ca 80 3f 3f a9 7d 3f bd d2 8b 3f
       0.9933983 1.0061681 0.99086374 1.0923687
000120 55 6c 84 3f ed bd 78 3f 19 a4 81 3f ae 31 86 3f
       1.034556 0.97164804 1.0128204 1.0483911
000130 33 18 86 3f 60 47 77 3f ed 81 82 3f f9 53 80 3f
       1.0476135 0.96593285 1.01959 1.0025626
000140 a3 a1 80 3f 1b 0a 7d 3f ce 27 81 3f 79 b1 80 3f
       1.0049328 0.98843545 1.0090272 1.005416
000150 38 b9 86 3f e2 06 88 3f 99 85 7a 3f 72 c5 7a 3f
       1.0525274 1.06271 0.97860104 0.9795753
000160 79 aa 80 3f 60 e1 80 3f 22 35 7a 3f 6a 2f 7e 3f
       1.0052024 1.0068779 0.97737324 0.992911
000170 91 e6 7d 3f a9 48 71 3f f0 49 89 3f 91 fa 7b 3f
       0.9917994 0.94251496 1.0725689 0.9842921
000180 4e 17 7f 3f 26 00 85 3f e7 5f 74 3f c9 a6 74 3f
       0.99644935 1.039067 0.95458835 0.95566994
000190 d9 42 6c 3f 72 64 89 3f c7 13 80 3f 04 c2 81 3f
       0.922895 1.0733778 1.0006036 1.0137334
0001a0 6f 5a 7f 3f 04 d3 7d 3f 55 be 7c 3f 2e 09 80 3f
       0.99747366 0.9915011 0.98727924 1.0002801
0001b0 42 16 80 3f 35 06 81 3f ef fc 80 3f 95 5a 7c 3f
       1.0006793 1.0080019 1.0077189 0.9857572
0001c0 d2 40 7d 3f d6 70 80 3f 00 c2 85 3f 8c aa 7f 3f
       0.9892703 1.0034435 1.0449829 0.9986961
0001d0 89 bd 76 3f 6e 50 72 3f 63 5d 82 3f 7f 8a 7d 3f
       0.9638296 0.94653976 1.0184749 0.99039453
0001e0 86 80 85 3f 5f 51 80 3f 04 50 83 3f 9c f5 80 3f
       1.0429847 1.0024832 1.0258794 1.0074954
0001f0 18 67 80 3f e7 a7 7a 3f 68 8a 78 3f bf 49 7d 3f
       1.0031462 0.9791245 0.9708619 0.9894065

layernorm1.bias f4 [128]
000000 c3 35 dd bb 94 7b 4e 3b 2a 8b 1b bd 07 a1 b5 3b
       -0.0067507937 0.0031506764 -0.037974514 0.0055428776
000010 9e a0 aa bb 4b 7a cb bc d3 47 a2 bc 6f bd b5 bb
       -0.0052071353 -0.024838587 -0.01980964 -0.005546264
000020 03 d2 ac bc ed 4b 0e 3c b7 ee e6 3b 0b 25 3c bc
       -0.021096235 0.008685094 0.0070475 -0.011483441
000030 9f a1 fd bb 93 7d 48 bc d7 a0 1a bd b9 89 02 bc
       -0.007740214 -0.0122369705 -0.037751045 -0.007967406
000040 18 87 d4 ba df 26 f5 3b ab 1d 00 bd 7a b9 a8 bb
       -0.0016214577 0.0074814404 -0.031278294 -0.0051490637
000050 d3 de aa bc 2f 4f fc 3b a0 9a 97 3b cd 94 9a bc
       -0.020858204 0.007699869 0.004626587 -0.018869782
000060 4b 47 fb ba 85 48 9e bc 5e c0 25 3b 93 c7 4a bb
       -0.0019171027 -0.01932169 0.0025291662 -0.003094171
000070 33 46 ef b9 db 9e 19 bc 9c 47 b1 b8 74 86 dd 3a
       -0.00045637935 -0.009376253 -8.453356e-05 0.0016901032
000080 38 3c 64 bb 36 79 e9 bb 5d c4 8a bc 59 a8 fe bc
       -0.0034825932 -0.007125045 -0.016939336 -0.031086134
000090 3d fd 5d 3c af 61 53 bc c9 6f 11 bd 1e 78 95 bc
       0.013549146 -0.012901708 -0.035506997 -0.018245753
0000a0 39 2c c8 bc 70 72 30 bc c6 69 87 bb ae 20 32 bd
       -0.02443515 -0.0107694715 -0.004132482 -0.043488197
0000b0 9a 6d 75 bc be 4e 34 3b ce 89 e0 bc 67 99 bb bb
       -0.014979744 0.0027512754 -0.02740946 -0.005725074
0000c0 00 c6 dc 3a fc 18 83 ba 2c e7 24 bb 91 ae 69 bc
       0.0016843677 -0.0010001953 -0.0025162203 -0.014262811
0000d0 4b a6 8c bc 65 f7 de bc 33 70 48 bb c0 05 d9 bc
       -0.017169138 -0.027217576 -0.0030584454 -0.026492
0000e0 42 40 f8 bc 3f 85 f2 bc 6e 80 01 bd 13 0f ba bc
       -0.030304078 -0.029604552 -0.03161662 -0.022712266
0000f0 29 2b 34 bb 29 22 ef bc 00 45 c0 3b c4 e3 02 bb
       -0.0027491546 -0.029191094 0.0058676004 -0.0019972185
000100 75 8c f2 3a 05 d0 df bc 57 2a d9 bc 52 55 ba bb
       0.0018504994 -0.027320871 -0.026509447 -0.0056864405
000110 14 df ad bb 9e 32 ad 3a b2 5d 14 bc af 6e 49 3b
       -0.005306134 0.0013213938 -0.009055542 0.0030736139
000120 18 15 e2 bb cf 5c 23 bc 18 c7 be 39 f3 65 74 bc
       -0.006899487 -0.009970858 0.0003638796 -0.014916885
000130 29 5b 58 bc c6 51 b8 bc 20 51 91 bc 90 91 19 bb
       -0.013205328 -0.02249993 -0.017738879 -0.002343271
000140 bb a4 d3 bb 3e 78 55 bc 20 32 84 bc bf a8 4a 3b
       -0.0064588464 -0.013029156 -0.016137183 0.0030923334
000150 0c f9 b1 bc 87 96 b1 bb e0 1b e4 bb 1b 52 a0 bc
       -0.0217252 -0.0054195556 -0.006961331 -0.019570401
000160 25 10 95 3b 4e e9 08 bc 91 69 cf bb 3b 0a c9 39
       0.0045490437 -0.008356405 -0.006329723 0.0003834533
000170 d6 8b 96 bc 5d f1 0e bd 7c a4 8f bb 03 16 ec 3a
       -0.018377226 -0.03489815 -0.0043836217 0.0018011931
000180 d0 20 7a bc 6f 70 bb 38 6d ce 84 bb 12 08 d3 bc
       -0.015266612 8.937797e-05 -0.004052928 -0.025760684
000190 d5 f8 92 bc 8d 69 8e 3a c0 2b 4d bb 9b c6 3a bc
       -0.017940918 0.0010865197 -0.0031306595 -0.01139989
0001a0 65 53 48 bc 72 8f 02 ba b0 c6 a0 bb 57 95 4c bc
       -0.012226914 -0.00049804815 -0.004906498 -0.012486777
0001b0 9e 8c ec bb 6a 49 8a bb e4 fc 12 39 89 e1 b2 bb
       -0.0072189113 -0.0042201774 0.00014017854 -0.005459015
0001c0 af a6 df bb 1a 5b 82 bc a9 19 9d bb 01 31 c3 bc
       -0.00682529 -0.015912581 -0.0047943187 -0.023827078
0001d0 7e 49 e1 bc 9d 0f 3c bd 22 c7 fa bb 73 01 87 bc
       -0.027500864 -0.045913327 -0.007653133 -0.016480183
0001e0 c4 f5 f3 3b 47 b3 9b 3b b7 ed 9b 39 70 03 5e ba
       0.007445069 0.004751596 0.00029741015 -0.000846914
0001f0 38 88 6c 3a 02 1f cd bc 93 da b7 bc 0b 56 69 bc
       0.0009022984 -0.0250392 -0.022443091 -0.014241706

blocks.0.fcn_layer.weight f4 [128, 128]
000000 a4 5d 40 bd 74 c3 a2 bd 30 ad 7c 3d 32 57 e6 bc
       -0.046964303 -0.07947436 0.061688602 -0.02811775
000010 f1 fa 71 3d ab 35 7e bd 41 ed ac bb ac d2 9a 3d
       0.059077207 -0.0620629 -0.0052773063 0.07559714
000020 1f 82 2d 3d 37 fa 94 3d c0 61 2c bd ae b3 95 bb
       0.04236042 0.07274287 -0.04208541 -0.0045685386
000030 b1 b9 46 3d d0 60 a7 3d da 48 4b 3c bf 0c a0 bd
       0.048516933 0.081727624 0.012407506 -0.07814931
000040 ef f1 27 bd e2 ef 0d 3d 2a de 6a bb 1d de a6 3b
       -0.04100221 0.0346526 -0.0035837987 0.005092396
000050 ad fe 85 3d 2c 63 c9 3c 9f 95 ec bd 75 fb d9 3c
       0.06542716 0.024583422 -0.115519755 0.026609162
000060 29 46 94 bb 66 a1 bf 3d ca 1a 5c bd d9 6e 35 bb
       -0.0045249653 0.09356956 -0.053736486 -0.0027684479
000070 c9 39 29 bd dc 60 b2 3d 46 08 f6 3d 07 4a d8 bd
       -0.041314874 0.08709881 0.12013297 -0.105609946
000080 9a 88 66 bd 46 72 8a 3a a4 ee 4c bc ee ef 68 bd
       -0.056282617 0.0010562621 -0.012508068 -0.05686944
000090 25 49 dc 3d 6d 3d 7d 3d a6 a8 6c 3d 22 6d 04 3d
       0.10756139 0.06182616 0.057778023 0.03233064
0000a0 d3 d9 86 3d 63 5d 5c 3d 3d c9 87 3d 08 7f d0 3c
       0.065845154 0.053799998 0.0663018 0.025451198
0000b0 3c 8d aa 3d f9 2f 12 bd f7 8b d1 bc 1f b4 08 3d
       0.083277196 -0.03569028 -0.025579436 0.0333749
0000c0 79 50 fc 3c ab c2 c5 3c 2f 1b 32 bd 24 d5 f8 3b
       0.030800091 0.024140676 -0.043482956 0.0075937677
0000d0 2b ec 30 bd cb f5 6e 3c 93 04 bf 3c d0 98 a2 bd
       -0.043193977 0.014584969 0.02331761 -0.07939303
0000e0 be f5 41 bd 65 cd 61 3d a0 9b d0 3d 38 71 9a 3d
       -0.0473535 0.05512752 0.10185933 0.07541126
0000f0 a1 e6 30 bd 78 7c 1b 3d 38 e5 ad 3c 3c f1 a1 3c
       -0.043188695 0.0379605 0.021227464 0.01976835
000100 a6 32 57 bb 4f e8 3b 3d bb 7d ec 3c 55 5d 6a bd
       -0.0032836585 0.045875844 0.028868547 -0.057217915
000110 6d 3f c3 3d 40 c2 81 bd 36 61 44 3d 4c f9 25 3e
       0.09533582 -0.06335878 0.04794427 0.1620838
000120 71 aa a4 bc 40 de 90 3c 52 32 66 bc 9e a2 b6 3d
       -0.020100804 0.017684102 -0.014050083 0.089177355
000130 a7 db 08 3e 0b f3 26 bc b5 d5 c7 bb f1 b3 d9 bd
       0.1336504 -0.010189782 -0.006098474 -0.10630024
000140 ba d3 7c bd 99 8a be bc 84 74 76 3d 4f 47 c2 bc
       -0.061725356 -0.023259448 0.06016971 -0.023715643
000150 32 3b 91 bb 16 90 fd 3d c3 f2 fb bc cf 8e 88 bd
       -0.0044321055 0.12380998 -0.030755406 -0.066678636
000160 05 84 b4 bc 0e 5b 62 3c c6 99 96 ba 5a 1f 7a bd
       -0.022035608 0.013815654 -0.001148992 -0.061065055
000170 fd c3 2a 3a 45 4c 86 bd 87 5c f0 3d 38 f1 be 3a
       0.000651419 -0.06557516 0.11736398 0.0014567738
000180 59 dd 8b 3d d9 95 cc 3c 32 35 2c 3d 88 c8 bf 3d
       0.06829328 0.024973797 0.04204292 0.0936442
000190 94 10 08 bd 3b ee a5 3d 97 aa 98 bd d3 1e a3 3d
       -0.033218935 0.081020795 -0.074544124 0.07964864
0001a0 88 e4 c1 3d 56 2d c1 bc 66 47 13 bd 7c 81 c6 3d
       0.09467417 -0.023581188 -0.035956763 0.09692666
0001b0 33 50 9d bc 80 3d e5 bc a8 67 ff bc 56 9e 25 3b
       -0.019203281 -0.027983427 -0.031177357 0.0025271378
0001c0 e9 42 8c bd 34 8c 5e 3d 3d 97 00 3d c6 20 1f bd
       -0.068486996 0.054332927 0.031394232 -0.038849615
0001d0 ce 5a 19 3d 89 0b b3 3c 3a d2 9b 3c 8e 76 9b bd
       0.037440114 0.021856086 0.019021142 -0.07590972
0001e0 6f 50 8e 3d 9d 9a c1 3d 48 6e 5d bc a7 42 df 3d
       0.06948935 0.09453318 -0.013515063 0.10901385
0001f0 2e cb c6 bc d0 73 d5 3c a7 de 62 bd 61 13 38 3c
       -0.024266805 0.0260562 -0.05538812 0.011235089
000200 1e e8 71 bd 53 bf bb bc 2c 3f 4a 3d 89 2c a5 bd
       -0.059059255 -0.022918379 0.04937665 -0.08065135
000210 4c a2 d9 3c 04 84 d0 bb 7e 4b 88 bd aa 49 8d bd
       0.026566647 -0.0063633937 -0.06655024 -0.06898816
000220 ad a3 78 bd 50 9d 81 3d 8e 10 f0 bc ab c7 ff 3c
       -0.06070297 0.06328833 -0.029304769 0.031223139
000230 be a8 97 bc af ad 03 3e ee 8a 3a bc a4 57 ba bd
       -0.01851308 0.12859224 -0.0113856625 -0.090987474
000240 79 d4 7b 3c 01 22 38 3b 83 18 b7 ba a5 8b 01 3d
       0.015370482 0.002809644 -0.0013969097 0.031627316
000250 ee be 8c 3d e9 2e 30 bc 85 ef 9f bd 6c 59 9b 3d
       0.068723544 -0.010753372 -0.078093566 0.07585415
000260 46 03 df 3a ee 28 c7 bc 53 f5 01 bd e3 b0 8d 3d
       0.0017014525 -0.024311509 -0.0317281 0.06918504
000270 5d 99 b2 bc a9 6b 66 3d 28 eb 84 bc 2a 6e a3 bc
       -0.021801645 0.056255016 -0.016225412 -0.019949991
000280 ad a8 69 bd a9 c1 33 3d 09 f9 7f 3d cc 24 a5 3d
       -0.057045627 0.04388586 0.062493358 0.08063659
000290 76 05 ca 3d 40 ce 63 bd 23 86 c9 3c 56 83 b0 3c
       0.09864323 -0.055616617 0.024600094 0.021547
0002a0 2b dd 7c 3d 83 00 e2 3c 3f b8 53 bd 8b 0e ce 3c
       0.06173436 0.027588135 -0.051689383 0.025153419
0002b0 ba f4 fb bc 0f cc 6e 39 f2 7d 0a bd f4 8c 5e bb
       -0.030756343 0.00022773466 -0.033811517 -0.0033958526
0002c0 3a c9 90 bd bb 3a 16 bd 1e 67 44 3c ca 59 12 3d
       -0.07069631 -0.036677103 0.011987476 0.03573016
0002d0 08 3e 01 3d 58 c7 45 bc fb 8a 87 3d 4b 3b 92 3d
       0.0315533 -0.012071453 0.06618305 0.071402155
0002e0 68 70 a5 3b a6 29 97 bd 29 d4 8a 3c bd be 8c 3d
       0.0050488003 -0.07380991 0.016946869 0.06872318
0002f0 68 82 f7 bb a3 3e 05 3d 47 b9 00 3d 67 80 af 3c
       -0.0075533874 0.03253044 0.031426694 0.021423532
000300 1c c7 ba 3d ed 93 80 bc 81 ab 4a bd af a0 b7 bc
       0.09120008 -0.015695537 -0.049479965 -0.022415487
000310 0e da 8c 3d 90 49 c4 bc e6 19 62 bd 36 ab 21 3e
       0.06877528 -0.023960859 -0.05520048 0.15787968
000320 3b e1 cb 3c df 2a fa bc f1 b9 2d bd fb 83 00 3e
       0.024887672 -0.03053802 -0.042413656 0.12550347
000330 26 8b a1 3c 00 63 0e 3d 90 88 ca bd 46 c0 3c 3b
       0.019719671 0.034762383 -0.098893285 0.0028801127
000340 2c 78 3a bd db 28 8d 3d d1 d7 79 3d 48 51 28 bd
       -0.04552476 0.06892558 0.060996834 -0.04109314
000350 d4 25 8c 3c 96 b5 18 3d 7c 5e 93 3c 83 39 46 3d
       0.017107882 0.03728255 0.01798939 0.04839469
000360 1f 6f f6 3c 93 23 a5 3d 93 51 6d bd a7 d4 a6 3b
       0.030082284 0.08063426 -0.057939123 0.005091268
000370 ed 3a 8a 3c f7 5d 73 3d bf 83 a7 3d 35 37 1d 3d
       0.016873801 0.059415784 0.081794254 0.038382728
000380 b8 74 07 3d ab b4 59 bc 23 3b 68 3d 1e 19 5a 3d
       0.033070296 -0.0132877035 0.056697022 0.05324661
000390 55 e0 81 bd 2b 9d 0a 3e 18 06 35 bd 15 da 7e 3b
       -0.06341616 0.13536517 -0.044195265 0.0038887311
0003a0 58 ef e6 bc b5 3b 1c bc 5d c5 07 3c 17 25 a9 3d
       -0.0281903 -0.00953572 0.008286801 0.082590275
0003b0 21 c6 48 bd 85 29 8d bd 2e a6 5a 3d f8 d3 b8 3b
       -0.049017075 -0.06892685 0.053381138 0.005640503
0003c0 e6 ac c4 3d e6 42 78 bc 3f a7 b4 3d 60 74 a0 bd
       0.0960329 -0.015152669 0.08820962 -0.07834697
0003d0 96 68 19 3d 13 39 83 3d bb 3d b5 3c a1 3a 99 39
       0.037453257 0.064073704 0.022124162 0.00029226116
0003e0 23 0f fb bc 1b 4f 1d 3a 8f f7 c6 3d 32 7a d6 3d
       -0.030646866 0.00060008623 0.09715187 0.10472526
0003f0 bf 2a 51 bd af 63 61 3a 53 c8 23 bd 9a 51 2b 3d
       -0.051066156 0.0008597923 -0.039985966 0.04182587

blocks.0.fcn_layer.bias f4 [128]
000000 a4 74 56 3d ba 49 21 bd 9d fc 7c 3d f7 19 af bd
       0.05235733 -0.03937695 0.06176435 -0.08549874
000010 f8 d2 ee 3c 35 ce f9 3c 6c d9 31 3d 8a 38 91 3c
       0.029153332 0.030493835 0.04342024 0.017727155
000020 ba 82 9f 3c 6c 96 fb 3c a3 41 c8 bc 39 82 d7 bc
       0.019471515 0.030711375 -0.02444536 -0.026307212
000030 24 35 a3 bd b8 ce a5 3d ac da 73 bc 3b c6 9c b9
       -0.0796912 0.08096069 -0.014883678 -0.00029902332
000040 e9 e3 e4 3c a3 39 9e 3d ed e1 25 bd be 6a 49 bd
       0.027940707 0.07725837 -0.040498663 -0.049174063
000050 e3 a8 a0 bd be cd 28 bc 27 39 9d bb b7 b9 80 3d
       -0.078447126 -0.010302959 -0.004798073 0.06285422
000060 9d b8 aa 3d 23 f1 20 bd 65 25 74 bd c8 ad 5f 3d
       0.083359934 -0.039292466 -0.059605975 0.05460909
000070 09 8b 1e bd e5 ef 5b bd 2b 95 81 bd 85 ed 8d bd
       -0.038706813 -0.053695578 -0.0632728 -0.06930069
000080 21 ad 85 3d 0f a7 5b bd e8 8b 50 ba 27 c3 c2 bc
       0.06527162 -0.053626116 -0.0007955418 -0.023774697
000090 ee b4 36 bd 43 5f c0 bb 79 72 79 bd df 32 9e 3d
       -0.04460614 -0.005870731 -0.060900185 0.07724547
0000a0 83 d2 b1 3d 05 1e 84 bb 9a dd 17 bc 89 db a2 bd
       0.0868273 -0.004031899 -0.0092691425 -0.07952029
0000b0 f8 f5 e1 3c f9 27 4c 3d 4a 12 aa bd 13 55 f4 bc
       0.027583107 0.04984281 -0.083042696 -0.029825723
0000c0 82 68 9b bd b1 d1 1e bd 75 68 cb bb f7 a8 3c 3c
       -0.07588293 -0.038774196 -0.0062075206 0.011514894
0000d0 4d 50 b6 3d b9 d4 78 bd 41 1d 9b bd 45 35 9c bd
       0.08902035 -0.060749743 -0.07573939 -0.07627348
0000e0 3e 4b d7 bc e8 c4 6d 3d 7a b7 5a bd 41 c7 95 3d
       -0.026280995 0.058049113 -0.053397633 0.07313395
0000f0 e3 f9 f1 3b 76 c6 ea 3c 1f 8b a3 bd d6 3c 37 bd
       0.007384525 0.028659087 -0.079855196 -0.044735752
000100 71 72 2a bd 54 3f 89 bd 93 34 1a 3c fd 0f 92 bc
       -0.041613046 -0.06701532 0.009411949 -0.01782989
000110 bc 19 ac 3d 79 a4 5d 3d f1 13 73 3c e4 2c b2 bd
       0.08403346 0.05411193 0.014836297 -0.086999685
000120 ec cc a9 3d f2 f9 7d bc 83 73 58 bc 28 81 f7 3c
       0.08291039 -0.015501486 -0.013211134 0.030212954
000130 cc ab da bc d6 a4 53 3d 09 70 a4 3c 02 1a 89 bd
       -0.026693247 0.05167087 0.020072954 -0.06694414
000140 b5 eb 34 bd 2a 7e 83 bd 9c cb 91 3d 30 6c 7b 3d
       -0.0441701 -0.06420548 0.071189135 0.061382473
000150 73 9c 89 3d 1a 8b 8b bd 6d 9c 98 bd 60 57 45 3c
       0.067192934 -0.06813641 -0.07451711 0.012044758
000160 f6 f8 6b 3d 18 fe 34 3d 91 b8 5e 3c c9 fd e4 ba
       0.057610475 0.044187635 0.013593809 -0.0017470653
000170 2a 34 b1 bc ca c1 ed 3a 59 35 86 bd 18 ff d6 bb
       -0.02163132 0.0018139419 -0.06553144 -0.0065611713
000180 40 62 2c bd 80 77 4c 3d e4 d6 c2 3d 71 4e 90 3d
       -0.042085886 0.04991865 0.095136434 0.070462115
000190 79 40 7b 3d d6 80 74 3d ba 90 a9 3d 39 33 ac 3d
       0.061340783 0.05969318 0.082795575 0.084082074
0001a0 cd dd 70 3d ef 44 17 bd 88 36 ac bd 51 ee ed bc
       0.058805276 -0.036930975 -0.084088385 -0.029044302
0001b0 9d 3c 63 bb fa 61 97 bd c0 09 a0 bd f6 45 8b bd
       -0.003467358 -0.073917344 -0.0781436 -0.06800453
0001c0 48 ae 2f 3d c6 59 40 3d 2d ec a9 bd 19 11 b4 bc
       0.042890817 0.046960615 -0.08297 -0.021980809
0001d0 16 b3 a3 bd f3 98 99 bd dc 3f 5f 3d a6 75 0b bd
       -0.07993142 -0.07499876 0.05450426 -0.034047745
0001e0 4a 5d 8a 3d 16 91 44 bd c2 ea a4 bd bb 4c 97 bd
       0.06756075 -0.047989927 -0.08052589 -0.07387682
0001f0 77 e8 b3 bc 82 ad 38 3d 0c 58 68 bc 88 f5 5d 3c
       -0.021961434 0.045087345 -0.014181148 0.013547309

blocks.0.layer_norm.weight f4 [128]
000000 18 85 86 3f 76 12 85 3f 5a 19 85 3f c8 c8 86 3f
       1.0509367 1.0396259 1.0398362 1.0530024
000010 6b ec 85 3f 7d dd 89 3f 5c b2 89 3f 55 1d 8c 3f
       1.0462774 1.0770718 1.0757556 1.0946451
000020 ae 97 87 3f 42 fb 88 3f 7d ba 8e 3f 17 54 8f 3f
       1.0593164 1.0701678 1.1150662 1.1197537
000030 4c f6 7d 3f 8d a2 88 3f 7c 35 94 3f 32 8e 8a 3f
       0.99203944 1.0674607 1.1578822 1.0824645
000040 a2 dd 87 3f 5c f7 88 3f 89 8b 88 3f f1 a7 81 3f
       1.0614512 1.0700488 1.0667583 1.0129377
000050 bc d2 84 3f e1 d1 8a 3f bc 20 88 3f 02 17 8b 3f
       1.0376811 1.08453 1.063499 1.0866396
000060 fc ae 85 3f 11 c5 86 3f b1 85 90 3f f2 2c 8c 3f
       1.0444026 1.052889 1.1290799 1.0951216
000070 0a 67 8c 3f b0 33 89 3f c4 d2 8b 3f 48 35 93 3f
       1.0968945 1.0718899 1.0923696 1.1500635
000080 1f 33 87 3f 58 39 87 3f 0b 5b 92 3f f2 3b 88 3f
       1.0562476 1.0564375 1.1434034 1.0643294
000090 2e 2e 8a 3f 52 bb 87 3f 00 c7 8a 3f c2 2e 86 3f
       1.0795343 1.0604041 1.084198 1.0483019
0000a0 01 f0 8e 3f 52 05 8f 3f 4e 2b 8f 3f 6e a2 86 3f
       1.1166993 1.1173499 1.118509 1.051832
0000b0 a1 83 8b 3f 22 c9 8e 3f 31 12 7e 3f b7 6a 86 3f
       1.0899545 1.1155131 0.9924651 1.0501317
0000c0 9b da 8e 3f 06 9a 83 3f a5 5f 8c 3f 41 e9 88 3f
       1.1160463 1.0281379 1.0966688 1.0696183
0000d0 c6 15 86 3f 8b 4b 84 3f f1 1b 8c 3f ca 7e 87 3f
       1.0475395 1.0335554 1.0946027 1.0585568
0000e0 c7 b3 93 3f 71 ce 8c 3f 14 9d 8d 3f 8c 91 7a 3f
       1.1539239 1.1000501 1.1063561 0.97878337
0000f0 8b e9 8e 3f 4b 30 8b 3f 86 8e 87 3f bc bb 87 3f
       1.1165022 1.0874113 1.059037 1.0604167
000100 8e a4 84 3f 14 26 8b 3f c2 5b 86 3f 70 61 8d 3f
       1.0362718 1.0870996 1.0496752 1.104536
000110 a0 4f 8f 3f 54 3a 83 3f 40 01 87 3f 84 73 85 3f
       1.1196175 1.0252175 1.0547256 1.0425878
000120 71 b6 8c 3f 30 22 84 3f 7c a1 87 3f 50 ba 87 3f
       1.0993177 1.0322933 1.0596156 1.0603733
000130 94 27 88 3f 5e bc 8b 3f 28 09 7c 3f 7d 03 92 3f
       1.0637078 1.091686 0.9845147 1.1407315
000140 c3 42 8b 3f 59 5e 88 3f 00 42 8d 3f 16 31 8d 3f
       1.0879749 1.0653793 1.1035767 1.1030605
000150 25 24 78 3f eb 7a 87 3f a8 ee 85 3f 1f 80 8e 3f
       0.9693015 1.0584387 1.0463457 1.113285
000160 8a aa 85 3f 86 b6 8a 3f 1f 94 76 3f 0e d5 86 3f
       1.0442669 1.0836952 0.96319765 1.0533769
000170 71 38 88 3f e7 f1 89 3f 07 94 8c 3f 60 63 8b 3f
       1.0642225 1.0776948 1.0982674 1.0889702
000180 69 59 8b 3f 54 3b 8d 3f 41 0b 82 3f dd bd 8e 3f
       1.0886661 1.103373 1.0159684 1.1151692
000190 b7 6a 88 3f 9c f5 8a 3f ba b4 7a 3f 31 de 89 3f
       1.0657567 1.0856204 0.97932017 1.0770932
0001a0 39 b8 89 3f d6 19 89 3f 7b 42 89 3f 31 c7 88 3f
       1.0759345 1.071101 1.0723413 1.0685788
0001b0 30 58 88 3f aa 21 80 3f 0d 37 8b 3f 92 64 8a 3f
       1.0651913 1.0010273 1.0876175 1.0811942
0001c0 af c4 85 3f 57 f3 86 3f 6c ca 89 3f 2d da 8a 3f
       1.0450648 1.0543011 1.0764899 1.0847832
0001d0 12 9b 8e 3f 77 97 76 3f 65 a6 89 3f ab e0 88 3f
       1.1141074 0.96324867 1.0753905 1.0693563
0001e0 5e b0 89 3f c5 c4 8b 3f dd 31 89 3f f2 f4 8e 3f
       1.0756948 1.0919424 1.0718342 1.1168501
0001f0 67 14 85 3f c6 76 84 3f d4 ee 7c 3f cc ba 88 3f
       1.0396851 1.0348747 0.9880192 1.0682006

blocks.0.layer_norm.bias f4 [128]
000000 7a b2 fb 3c 95 03 e8 3c ec 5b c6 3b 2b 01 bf 3c
       0.030724753 0.02832202 0.0060534384 0.023315987
000010 0f 6a ce 3c c1 8b c9 3c 63 d3 50 3d dc e6 4e 3d
       0.025197057 0.024602773 0.050982844 0.050513133
000020 2f 1d ef 3c 42 d3 11 3d 05 9b ad 3d ef 9d 81 3d
       0.02918872 0.03560186 0.08476833 0.063289516
000030 9f 67 03 bc c4 71 3a 3d f7 99 c0 3d 6c 33 a0 3c
       -0.008020311 0.04551865 0.094043665 0.01955577
000040 64 a8 15 3d c8 90 3e 3d 5f 0d 95 3c 4f 94 00 3c
       0.036537543 0.046524793 0.018194852 0.0078478595
000050 a4 c6 cf 3c b8 74 49 3d 15 23 71 3d 76 08 87 3d
       0.025363274 0.049183577 0.058871347 0.06593411
000060 7b a6 e8 3c f1 eb d2 3c c5 c4 a0 3d 0f e8 68 3d
       0.028399697 0.025747271 0.07850031 0.056861933
000070 02 33 4a 3d cb d9 5d 3d 58 36 96 3d 0e 5c b7 3d
       0.04936505 0.05416278 0.07334584 0.08953105
000080 6d 34 08 3d 53 64 9c 3c 1c ce b7 3d 73 4b 10 3d
       0.033253122 0.019090807 0.08974859 0.035228204
000090 47 98 83 3d 98 43 3c 3d c4 16 8f 3d 1b 9d 87 3c
       0.06425529 0.0459629 0.06986764 0.016554406
0000a0 1b b5 8f 3d 12 96 bb 3d 09 7a a5 3d 73 4d 29 3d
       0.07016965 0.09159483 0.08079917 0.041333627
0000b0 fa 15 37 3d 2f 4b ad 3d 55 c7 e4 bb ba 81 a8 3c
       0.044698693 0.08461606 -0.00698177 0.020569671
0000c0 25 18 8f 3d 58 69 0a 3c 52 9b 2f 3d 9a e4 83 3d
       0.06987027 0.0084479675 0.042872734 0.06440087
0000d0 11 6f 94 3d 89 1e 91 3c 3f b0 9e 3d 37 c5 b6 3c
       0.07247747 0.017714756 0.0774846 0.022310836
0000e0 83 9e be 3d 8e 0b 9f 3d 4f f6 8e 3d 36 20 58 3a
       0.093075775 0.07765876 0.069805734 0.0008244546
0000f0 60 d9 9f 3d c8 ed 19 3d 1b 31 41 3d e8 06 2d 3d
       0.07805133 0.03758028 0.04716597 0.042242914
000100 b7 e2 35 bc 73 b1 3b 3d 07 5d 06 3d 1c 14 22 3d
       -0.011101416 0.045823526 0.03280356 0.03956996
000110 75 42 97 3d c7 64 45 3c a0 c5 70 3d 86 7f df 3c
       0.073857225 0.012047953 0.05878222 0.027282488
000120 01 24 7b 3d eb e8 cb 3c ea 64 50 3d 57 5b 3d 3d
       0.061313633 0.024891337 0.05087749 0.046229687
000130 41 12 25 3d 82 0a a1 3d 67 a8 20 bb 7b bc ac 3d
       0.04030061 0.07863332 -0.0024514438 0.08434387
000140 04 6d 8d 3d 12 06 59 3d 02 68 c9 3d 5e bf 60 3d
       0.06905559 0.052984305 0.09834291 0.054870002
000150 10 d2 b2 bc 31 5f 9d 3c 47 6b 24 3d 5e ec a9 3d
       -0.021828681 0.01921043 0.04014137 0.082970366
000160 19 90 cb 3c b3 85 23 3d b9 29 4c bd 95 f7 e7 3c
       0.024848985 0.039922427 -0.049844477 0.028316298
000170 6e 3f 25 3d 4b f4 b3 3d 48 7e 98 3d 9c 6f 23 3d
       0.040343694 0.087868296 0.07445961 0.03990136
000180 8f c8 9a 3d 5e 26 8e 3d a8 3c 13 3a 5d 98 8a 3d
       0.07557785 0.06940912 0.00056166435 0.06767342
000190 20 0e 80 3c 66 a2 4b 3d 2b f4 ab bc da c8 59 3c
       0.015631735 0.049715422 -0.020990452 0.013292516
0001a0 4c 60 64 3d 73 a2 3a 3d d1 66 8d 3d 50 4e 34 3d
       0.0557559 0.04556508 0.06904376 0.044019997
0001b0 c4 e9 6f 3d 55 45 74 39 3f 81 4d 3d 7d 9a 84 3d
       0.058572546 0.00023295482 0.050172087 0.06474779
0001c0 7e 78 6b 3d df e2 38 3d 18 fb 88 3d 8d a8 4e 3d
       0.057487957 0.045138236 0.06688517 0.05045371
0001d0 06 a2 9f 3d 82 96 04 bd 5b 37 5e 3d a3 d8 47 3d
       0.077945754 -0.032370098 0.05425201 0.048790585
0001e0 fa 9f 6c 3d ba 7a fb 3c 92 c3 ae 3c 92 d4 9c 3d
       0.057769753 0.030698169 0.02133349 0.07657732
0001f0 be 63 e3 3c 0e 52 7f 3c 1e 1a 00 3b a8 df 19 3d
       0.027757522 0.015583528 0.0019546817 0.03756681

last_layer.weight f4 [1, 128]
000000 6c cf 01 3e 5c 79 9a 3d 68 69 cd 3d 8a 5c 0a 3e
       0.12676781 0.07542679 0.1002987 0.13511863
000010 e0 25 f9 3d d5 01 04 3e 77 d6 04 3e 26 dc 37 3e
       0.12165427 0.12891324 0.12972437 0.17955074
000020 17 19 f4 3d bb b5 1a 3e 2a eb 14 be bc f1 1b be
       0.11918848 0.15108387 -0.14542833 -0.15228933
000030 62 21 7c 3c de 97 0f 3e 67 d3 1d be 54 6f ea 3d
       0.015388818 0.14022776 -0.15412675 0.114470154
000040 c5 c2 09 3e ba ab 03 3e e2 1c 15 3e c5 9c 01 3d
       0.13453205 0.12858477 0.14561799 0.031643648
000050 f3 12 13 3d c1 f8 01 3e 70 2c 06 be bd 37 22 be
       0.035906743 0.12692548 -0.13102889 -0.15841575
000060 c4 ce e5 3d ab 7a 4c 3d 02 5b 2b 3e 04 e2 b8 3d
       0.11221078 0.049921673 0.16733935 0.09027484
000070 b6 c8 d3 3d e5 a8 ba 3d bd ce 0f be 7e 2a 21 be
       0.10341017 0.09114245 -0.14043708 -0.15738866
000080 9a 9b dd 3d 2c cc e4 3d 36 2b 12 be 81 f3 c3 3d
       0.10820694 0.11171755 -0.14274296 0.09567929
000090 c9 61 0f be 75 c7 a7 3d fc 1b 08 be 4a ba 43 3d
       -0.14002146 0.0819234 -0.13291925 0.04778508
0000a0 4f 2f 46 be 5e 63 12 be 62 2e 18 be 64 1f 6a 3d
       -0.19353984 -0.14295718 -0.14861444 0.057158843
0000b0 b6 5a 0b 3e 4d e5 23 be 66 60 19 bd ec 09 05 3e
       0.13608822 -0.1600544 -0.03744545 0.12992066
0000c0 d2 23 35 be 75 3a e0 3d cf f1 01 3e 6c 77 cb 3d
       -0.17689446 0.1094865 0.12689899 0.09934887
0000d0 38 98 a0 bd 0c f6 1e 3d 33 54 06 be bf a1 78 3d
       -0.078415334 0.038808867 -0.13118057 0.060701128
0000e0 d5 0e 1c be 92 8a 2f be b4 cb 31 be 92 24 c0 bb
       -0.15240033 -0.17142704 -0.17362863 -0.0058637345
0000f0 2f 12 cc 3d b1 eb 27 3e cb 62 86 3d 03 84 e8 3d
       0.09964406 0.16398503 0.06561812 0.11353304
000100 ce 03 ac 3d 8c 2f a7 3d f1 09 f6 3d e8 23 c7 3d
       0.08399163 0.08163366 0.12013615 0.097236454
000110 f6 5e 41 be 5a c8 8f 3d e5 39 9f 3d 55 d8 35 3d
       -0.18883881 0.07020636 0.077747144 0.044395763
000120 02 18 d4 3d 16 a8 39 3d 87 ff 01 3e 29 92 04 3e
       0.103561416 0.045326315 0.12695132 0.1294638
000130 a5 c2 b0 3d 9f 52 d4 bd 0f c7 91 bd 91 b7 27 be
       0.086308755 -0.10367321 -0.071180455 -0.16378619
000140 35 55 fc bd f5 4a 14 be e5 24 c0 3d 0e d3 a7 3d
       -0.123209395 -0.14481719 0.09382037 0.08194552
000150 71 13 6b 3c 87 80 4f 3d 3d 18 95 3d 43 fe 1f be
       0.014347897 0.050659683 0.07280014 -0.15624337
000160 ff 6e cb 3d 57 63 cf 3d 7f 06 c0 bc 81 ca 8b 3d
       0.0993328 0.101263694 -0.023440598 0.06825734
000170 8a 17 f0 3d f3 03 c9 bd 54 f7 20 be c4 cc 18 3e
       0.1172324 -0.098152064 -0.15719348 0.14921862
000180 63 40 d1 bd dd 8a 36 be 73 75 07 3d e3 ed 2b be
       -0.10217359 -0.1782641 0.033070993 -0.16789965
000190 c5 e3 fe 3d 2e aa 9c 3d d3 4b 40 3b 42 6c f1 3d
       0.12445787 0.07649647 0.002934207 0.11788227
0001a0 32 62 81 3d 65 9e e8 3d b0 77 c9 bd 44 55 80 3d
       0.063175574 0.11358336 -0.09837282 0.06266263
0001b0 08 88 09 be 1e c2 b0 3c 3b f6 02 3e 12 79 13 be
       -0.13430798 0.021576937 0.12789242 -0.14401653
0001c0 07 db b0 bd 04 54 bd 3d 56 76 0d be 02 21 e8 3d
       -0.08635526 0.0924454 -0.13814673 0.11334421
0001d0 8f dd 38 be b7 db 2e bd de f5 91 3d 7c 0f 18 3e
       -0.18053268 -0.042690005 0.071269736 0.14849657
0001e0 b2 3f a5 3d 20 db 05 3e d6 f1 0b 3e 90 7e 29 be
       0.080687895 0.13071871 0.13666472 -0.16552186
0001f0 75 06 ef 3d c7 79 96 3d 1e 2b 5c 3c 51 db a4 3d
       0.116711535 0.07347446 0.013438014 0.08049644
