wkey/openwakeword_models/onnx/hey_computer_pos_train.onnx (onnx, 859394 bytes, 9 tensors)

layer1.weight f4 [128, 1536]
0.024242824 0.0002586301 0.04034321 -0.02588319 0.0015877663 -0.010438606 0.004441745 0.0103704315
-0.015046458 0.0054260697 -0.020840036 -0.062450293 -0.050741676 -0.046054453 -0.01620152 0.059788287
0.0005662613 0.07664135 0.03138719 -0.0005976079 0.024343766 0.021433605 -0.012404953 -0.037895225
0.030826544 0.013740456 -0.009555593 -0.07229048 0.06594944 -0.030594569 0.012114176 -0.049155127
-0.0058885165 -0.11764299 -0.003258815 0.043927882 0.021918027 0.01892336 -0.029135423 0.0025752601
0.008761833 -0.003893078 -0.011807994 0.015254113 -0.01567868 0.0012127361 0.014671204 -0.014058045
-0.056218937 0.046468448 -0.05103039 -0.023418393 -0.0041764397 0.030693991 -0.020620858 -0.0030439824
-0.0011617601 0.012473679 0.004247472 -0.045588277 0.054442417 -0.0044388487 0.019950718 0.01758348
-0.007415444 0.015968347 0.05573781 0.017483639 -0.010959883 -0.12663321 0.05716538 0.026968021
0.03028 0.0031364355 0.03498912 0.012907465 -0.013755151 -0.007216136 -0.022101609 -0.007242308
0.026178755 0.026359122 -0.009007294 0.0430437 -0.0058314884 0.030659359 -0.019257221 -0.025683127
-0.012968869 0.026925845 -0.015631292 0.0057274164 -0.010345965 -0.0025987842 0.0011727666 0.026107596
-0.046214174 0.016509896 0.06272314 0.024732303 0.012637108 0.00079739315 -0.005182467 -0.006932307
-0.019740228 0.049081713 0.015262133 -0.054116454 0.01682518 0.012040722 0.0116479285 0.052070312
-0.009641329 0.073858105 0.02767316 -0.039495293 0.0073919864 0.0008032541 0.007406203 0.037657402
-0.026973668 -0.0026305849 -0.0036161868 0.005774386 0.0362224 0.0024240578 0.002334681 0.016926108
-0.0066561676 -0.07908603 0.014138402 0.018959068 -0.013427892 0.0139982505 -0.02860518 0.0023291737
0.040285964 -0.048237603 -0.0034267115 -0.035648797 -0.01395545 -0.026054712 -0.024216712 0.0058633103
-0.024872303 0.03743079 -0.00193103 -0.011358091 -0.02246973 0.056757 -0.019593513 -0.025624182
-0.033121932 0.00027811763 -0.0018564131 -0.060491595 0.04771286 0.032229397 0.020833578 -0.013301599
0.05510335 0.04459587 0.068002395 0.012259262 -0.01769408 -0.029138863 0.049569998 0.009820023
0.037588686 0.017470928 -0.0024109243 0.044781897 -0.015655717 -0.02881134 -0.027541742 -0.044650238
-0.014936234 0.023564298 0.019137044 -0.013577815 -0.0126710385 -0.020082291 -0.053648666 -0.022578927
0.014687077 0.0074127545 -0.0018585817 -0.021027934 0.018639049 0.0053408453 0.0036768669 0.02868077
0.009283797 -0.005373357 -0.029317448 0.08970307 -0.019761384 0.013111655 0.013540836 -0.019291313
0.032426376 0.0007708241 0.004912898 -0.03220113 0.021334162 -0.010973614 0.0057497756 0.04098737
0.0047842204 0.08947536 -0.019524403 0.0013046038 0.027839666 0.039464712 -0.0369149 0.037667587
-0.0025850185 0.029985523 -0.038492624 -0.013425696 0.016864689 0.010925642 0.00041524926 0.013211349
0.0038007847 -0.024880067 -0.0010576508 0.0010201527 0.012013012 0.029657694 0.02627578 0.026679004
-0.025199153 -0.061996568 0.030210728 -0.0013343967 -0.021503588 -0.03161401 -0.039172616 -0.010403644
0.026129894 0.052076492 -0.04427743 0.01970183 -0.0030799531 0.056131978 0.011704834 0.014063209
-0.050228022 0.0056653772 -0.015124354 -0.029996725 0.03748534 0.030621087 0.029463736 -0.016478732
00000000: e398 c63c bf98 8739 ec3e 253d fc08 d4bc
00000010: 991c d03a b006 2bbc 0f8c 913b bee8 293c
00000020: 6b85 76bc 2ccd b13b b9b8 aabc e1cb 7fbd
00000030: 81d6 4fbd 98a3 3cbd 0db9 84bc 90e4 743d
00000040: 2771 143a 24f6 9c3d db8f 003d caa8 1cba
00000050: 946c c73c 8795 af3c 253e 4bbc 0638 1bbd
00000060: f387 fc3c a61f 613c 108f 1cbc 080d 94bd
00000070: 8010 873d 76a1 fabc 897a 463c e356 49bd
00000080: 75f4 c0bb cfee f0bd d891 55bb b9ed 333d
00000090: 6f8d b33c 2a05 9b3c 69ad eebc b2c5 283b
000000a0: cb8d 0f3c 0323 7fbb 5176 41bc 63ec 793c
000000b0: 9370 80bc acf4 9e3a 7d5f 703c b753 66bc
000000c0: d445 66bd b355 3e3d 3e05 51bd eed7 bfbc
000000d0: 84da 88bb f771 fb3c 13ed a8bc 8d7d 47bb
000000e0: 3346 98ba 675e 4c3c 612e 8b3b c6ba 3abd
000000f0: 03ff 5e3d c373 91bb b06f a33c 3b0b 903c
00000100: 41fd f2bb 0dd0 823c 544d 643d d939 8f3c
00000110: 1591 33bc 23ac 01be 3f26 6a3d 0aec dc3c
00000120: c30d f83c a88c 4d3b c050 0f3d d579 533c
00000130: 495d 61bc 5675 ecbb 6f0e b5bc e250 edbb
00000140: d474 d63c 16ef d73c 5493 13bc 974e 303d
00000150: 1216 bfbb 5629 fb3c 52c1 9dbc 6c65 d2bc
00000160: 617b 54bc 9793 dc3c 320d 80bc 0dad bb3b
00000170: 1f82 29bc 5d50 2abb 84b7 993a 99df d53c
00000180: 134b 3dbd c33f 873c fd74 803d 669b ca3c
00000190: df0b 4f3c 2608 513a afd1 a9bb 6828 e3bb
000001a0: 42b6 a1bc e809 493d 070e 7a3c 37a9 5dbd
000001b0: f6d4 893c 7346 453c f4d6 3e3c ae47 553d
000001c0: aaf6 1dbc eb42 973d d3b2 e23c d1c5 21bd
000001d0: 7a38 f23b 7891 523a bcaf f23b a63e 1a3d
000001e0: e2f7 dcbc e465 2cbb 8cfd 6cbb 1037 bd3b
000001f0: f05d 143d f1dc 1e3b 7301 193b 9fa8 8a3c
00000200: fb1b dabb dbf7 a1bd c2a4 673c 0c50 9b3c
00000210: a900 5cbc eb58 653c 6955 eabc 0da5 183b
00000220: e502 253d cb94 45bd ae92 60bb 7904 12bd
00000230: 66a5 64bc b170 d5bc 2062 c6bc 0321 c03b
00000240: 00c1 cbbc 0751 193d 9d1a fdba 4917 3abc
00000250: 7012 b8bc 077a 683d 9382 a0bc cee9 d1bc
00000260: ddaa 07bd 51d0 9139 e352 f3ba 09c6 77bd
00000270: 8f6e 433d f902 043d 2eab aa3c f3ee 59bc
00000280: 0db4 613d 29aa 363d d744 8b3d 12db 483c
00000290: 2df3 90bc a0b4 eebc e909 4b3d 29e4 203c
000002a0: 98f6 193d 311f 8f3c 9900 1ebb 396d 373d
000002b0: 6b40 80bc c205 ecbc 389f e1bc 2be3 36bd
000002c0: 1bb7 74bc ea09 c13c 4ac5 9c3c 7c75 5ebc
000002d0: 309a 4fbc 9e83 a4bc b4be 5bbd 71f7 b8bc
000002e0: 11a2 703c b1e6 f23b a79b f3ba c642 acbc
000002f0: ebb0 983c 4202 af3b 97f7 703b eff3 ea3c
00000300: 111b 183c fc12 b0bb 252b f0bc 3eb6 b73d
00000310: a0e2 a1bc 44d2 563c 62da 5d3c d108 9ebc
00000320: 85d1 043d 2111 4a3a 60fc a03b 55e5 03bd
00000330: fbc4 ae3c acca 33bc 9d68 bc3b 5fe2 273d
00000340: f3c4 9c3b dc3e b73d a4f1 9fbc 3dff aa3a
00000350: 0310 e43c c0a5 213d 1434 17bd 5449 1a3d
00000360: 6a69 29bb 33a4 f53c 71aa 1dbd 73f7 5bbc
00000370: d127 8a3c 7701 333c d0b5 d939 6a74 583c
00000380: 9616 793b 48d1 cbbc dfa0 8aba a5b6 853a
00000390: 39d2 443c b1f4 f23c 4e40 d73c ed8d da3c
000003a0: 746e cebc 1df0 7dbd 7d7c f73c ece6 aeba
000003b0: 4b28 b0bc b17d 01bd 7773 20bd 0c74 2abc
000003c0: 5c0e d63c 294e 553d 405c 35bd bb65 a13c
000003d0: 0ad9 49bb a5ea 653d a2c5 3f3c 6069 663c
000003e0: e6bb 4dbd a1a4 b93b 23cc 77bc b1bb f5bc
000003f0: 3a8a 193d 13d9 fa3c ef5d f13c 68fe 86bc

layer1.bias f4 [128]
-0.011926735 -0.006940567 0.017146835 -0.010617115 0.015794951 0.034799594 0.02441488 0.0010089143
0.021968221 0.018829212 0.036424924 0.0045962865 0.023801586 -0.002929484 0.020993302 0.009280974
0.035705294 0.026643129 0.014890986 0.016889613 -0.008420766 -0.009095374 0.01046036 0.021697786
0.007102381 0.013888021 0.0019840896 0.012597363 0.016980972 0.0017685727 0.009811089 0.010864459
-0.005365354 -0.015789041 -0.00025558512 0.0078332545 -0.0047558653 -0.00025376645 -0.003212166 0.013107972
0.012189617 0.002088228 0.027465701 0.010640163 0.040316004 -0.008963298 0.013979366 0.03806078
0.0030811552 0.0313728 -0.011296307 0.022705806 -0.011834015 -0.0021106647 0.031681366 0.0006004796
-0.012213404 0.040366396 -0.005144134 0.0067158295 0.02273628 -0.0032117204 0.0039950088 -0.001399629
0.006022461 -0.004542028 0.027002813 -0.00012976212 -0.018559346 0.012350885 0.029591627 0.02491478
0.016020795 0.021611584 0.019751595 0.00048568717 0.007944562 0.024130756 0.013864794 -0.0030993514
0.02066107 0.019440513 0.013879307 0.010941163 0.03199996 0.010083423 0.024218231 -0.0167149
-0.000317696 0.010340965 0.017328259 0.0032618954 0.042272698 0.011679528 0.0071986266 0.018998655
-0.00016035896 0.022423245 0.031348508 0.005515405 -0.01924141 0.0070365076 0.014836688 0.01136722
0.032394465 0.035511263 0.029232927 0.020596711 0.0111311395 -0.010158409 0.034519088 0.0036684575
0.029961398 0.030846512 0.03476475 0.02286054 0.0008149147 0.0067475564 -0.012571152 -0.006520589
-0.009551776 0.033581823 -0.0017012145 -0.0052383 0.025457345 -0.0033141356 -0.011007594 -0.003920638
00000000: 5a68 43bc b26d e3bb 8577 8c3c 68f3 2dbc
00000010: 6a64 813c 058a 0e3d b701 c83c 8c3d 843a
00000020: b3f6 b33c b83f 9a3c 4d32 153d 729c 963b
00000030: 8bfb c23c 96fc 3fbb 25fa ab3c 3a0f 183c
00000040: b73f 123d b142 da3c 52f9 733c 165c 8a3c
00000050: 41f7 09bc c304 15bc ee61 2b3c 8ebf b13c
00000060: 17bb e83b 958a 633c 8007 023b 2c65 4e3c
00000070: ae1b 8b3c 74cf e73a b1be 203c d800 323c
00000080: dacf afbb 0558 81bc 0e00 86b9 0d57 003c
00000090: 17d7 9bbb f50b 85b9 3483 52bb d2c2 563c
000000a0: f6b6 473c a7da 083b c0ff e03c 1454 2e3c
000000b0: 6522 253d ccda 12bc b609 653c 9fe5 1b3d
000000c0: 35ed 493b c480 003d 2514 39bc 8701 ba3c
000000d0: 75e3 41bc 1453 0abb 52c4 013d 8169 1d3a
000000e0: bb1a 48bc 3c57 253d 2090 a8bb 7610 dc3b
000000f0: 6f41 ba3c ba7b 52bb 90e8 823b c273 b7ba
00000100: 1158 c53b 4bd5 94bb 0135 dd3c c110 08b9
00000110: c509 98bc 5e5b 4a3c 246a f23c 151a cc3c
00000120: 0b3e 833c c70a b13c 19ce a13c d4a3 fe39
00000130: e829 023c ddad c53c 2929 633c 7d1e 4bbb
00000140: 6741 a93c b641 9f3c 0866 633c 9042 333c
00000150: 6412 033d f134 253c 5065 c63c b0ed 88bc
00000160: 6f90 a6b9 276d 293c fef3 8d3c 86c5 553b
00000170: 2326 2d3d 7e5b 3f3c 75e2 eb3b 11a3 9b3c
00000180: 0826 28b9 f4b0 b73c 4b67 003d 92ba b43b
00000190: 29a0 9dbc 8192 e63b 9415 733c 943d 3a3c
000001a0: 0fb0 043d 4274 113d e479 ef3c 6fba a83c
000001b0: 625f 363c 756f 26bc e363 0d3d 816a 703b
000001c0: 9b71 f53c d3b1 fc3c 7c65 0e3d 0746 bb3c
000001d0: 00a0 553a 9b1a dd3b 3cf7 4dbc aaaa d5bb
000001e0: 0d7f 1cbc 188d 093d 49fb deba 0ca6 abbb
000001f0: ec8b d03c f831 59bb 3259 34bc b278 80bb

layernorm1.weight f4 [128]
1.0369897 1.013263 0.9789266 0.98381764 1.0716957 0.9996506 1.0382293 1.0616359
1.0066192 1.0400615 1.017249 1.0291983 1.0263644 0.9878953 1.0153323 0.9958509
0.9829289 1.0737578 0.9935179 1.044553 0.9775226 0.9787652 1.032406 1.0488255
1.0107372 1.017183 0.9904931 1.010564 1.0141553 1.0446745 1.1127619 0.9981797
1.0160869 1.0170653 1.0187418 1.021996 1.0343763 1.0088143 0.99561656 1.0052243
1.0539795 1.0159346 1.0378292 1.0392174 1.0276628 1.0643139 1.01129 1.0230176
1.0372914 1.0131612 1.0423002 0.9987593 1.012357 1.0243701 1.0870185 1.0099547
1.0452877 0.9979931 0.9920182 1.0761217 0.97946995 1.0347648 0.98044574 1.0622855
1.0032566 0.99462765 0.99050015 1.0138274 1.0135972 1.0303957 1.0577736 1.0060989
0.98585355 1.0130749 1.0208673 0.9603364 1.0522732 1.0478749 1.0175695 1.0659316
0.9940802 1.0110976 1.0157832 0.9992797 0.99559045 1.0355372 1.0407952 1.0231862
0.9933294 1.0875354 1.0392097 1.0001194 1.0149806 1.0158378 1.0567415 1.04287
1.0179443 1.0420123 1.0786128 1.0657774 1.0362499 1.0131975 1.0006089 1.0220952
1.013333 1.0668997 0.99255365 1.0152977 1.0273081 1.027402 1.0567762 1.0514867
1.0215851 1.0014138 0.9977968 0.9934432 1.0151315 1.0283926 1.010858 1.0151334
1.0110466 0.99317926 0.9773261 0.97360575 1.062091 1.0078834 1.0157826 1.0238942
00000000: 14bc 843f 9ab2 813f ef9a 7a3f 79db 7b3f
00000010: 532d 893f 1ae9 7f3f b3e4 843f afe3 873f
00000020: e6d8 803f bc20 853f 3735 823f c5bc 833f
00000030: e95f 833f b5e6 7c3f 69f6 813f 16f0 7e3f
00000040: 3aa1 7b3f e570 893f 3057 7e3f eab3 853f
00000050: ec3e 7a3f 5b90 7a3f e125 843f ea3f 863f
00000060: d65f 813f 0d33 823f f590 7d3f 295a 813f
00000070: d7cf 813f e5b7 853f fb6e 8e3f b488 7f3f
00000080: 230f 823f 322f 823f 2266 823f c4d0 823f
00000090: 7166 843f d420 813f bae0 7e3f 31ab 803f
000000a0: cde8 863f 250a 823f 96d7 843f 1305 853f
000000b0: 748a 833f 703b 883f f371 813f 3ef2 823f
000000c0: f7c5 843f 44af 813f 186a 853f b1ae 7f3f
000000d0: ea94 813f 8f1e 833f 6c23 8b3f 3246 813f
000000e0: fdcb 853f 7a7c 7f3f e8f4 7d3f 5bbe 893f
000000f0: 8bbe 7a3f 2c73 843f 7efe 7a3f f9f8 873f
00000100: b66a 803f eb9f 7e3f 6b91 7d3f 19c5 813f
00000110: 8ebd 813f 02e4 833f 2065 873f d9c7 803f
00000120: e660 7c3f 70ac 813f c8ab 823f 9bd8 753f
00000130: e3b0 863f c420 863f b83f 823f 7270 883f
00000140: 0a7c 7e3f a56b 813f 2f05 823f cbd0 7f3f
00000150: 04df 7e3f 7c8c 843f c738 853f c4f7 823f
00000160: d64a 7e3f 5c34 8b3f d304 853f ea03 803f
00000170: e2ea 813f f906 823f 4e43 873f c47c 853f
00000180: 004c 823f a960 853f fc0f 8a3f 656b 883f
00000190: d6a3 843f 75b0 813f f413 803f 04d4 823f
000001a0: e5b4 813f 2b90 883f ff17 7e3f 46f5 813f
000001b0: d57e 833f e981 833f 7144 873f 1e97 863f
000001c0: 4dc3 823f 542e 803f 9c6f 7f3f 4b52 7e3f
000001d0: d4ef 813f 5ea2 833f cc63 813f e4ef 813f
000001e0: fa69 813f ff40 7e3f 0b32 7a3f 3a3e 793f
000001f0: 99f2 873f 5302 813f 2a05 823f f70e 833f

layernorm1.bias f4 [128]
0.005142524 -0.0014098954 0.005440945 -0.018649504 0.011126239 0.005534244 -0.005708877 0.019524397
0.004236025 0.012311948 0.0065312856 0.013052838 0.0103814555 -0.012463013 0.010005839 -0.017292993
-0.00035891013 0.004012319 -0.006264874 0.012636795 0.0009465656 -0.019916974 0.010687287 0.0049754027
-0.00010247816 -0.0073573543 -0.022176972 -0.005021969 0.012196536 0.0036111479 0.000938819 -0.010194242
0.010307023 -0.0027488074 0.0011062844 0.011797989 0.01010112 -0.0015510069 0.0047108894 -0.017688
0.007635503 0.01772984 0.011304175 0.0022358398 0.011851692 -0.00016381452 -0.0051315944 0.0070504528
0.010818264 0.003953568 0.024617862 0.004822161 0.008149733 -0.0013504263 0.011330193 -0.008009658
0.009165811 0.0013138228 -0.011220731 0.015243027 -0.027944408 0.024467587 -0.014079877 0.011495238
0.0038589332 0.009514808 -0.016425973 0.009985947 -0.0060884207 0.012055168 0.00090330327 0.005917744
-0.0013282003 0.008312948 -0.0009621146 -0.026505817 0.0027406479 0.0139093455 -0.004985655 0.010130139
-0.0136834 0.0102318395 0.008169437 0.003475708 -0.020606833 0.013095057 -0.00015831232 0.007563798
-0.0031442475 0.0145692965 -0.0014363141 -0.002444878 0.009889077 0.003135266 0.013109785 0.025643125
0.009734943 0.017605644 0.009455425 0.0054488014 0.0038191685 0.0014964396 -0.013459038 -0.010880791
-0.0043005664 0.004595042 0.002421794 0.0027638183 0.008823825 0.00360564 -0.0053204694 -0.003678678
0.0019481198 0.0040136063 -0.010546438 -0.0015431433 -0.005906961 0.012215102 0.00052965555 0.012989039
-0.0023488863 -0.00024343058 -0.017804373 -0.0019012938 0.012041688 -0.0067426134 -0.011215926 0.010680155
00000000: 9e82 a83b 3dcc b8ba f449 b23b d8c6 98bc
00000010: d44a 363c 9a58 b53b 8811 bbbb a1f1 9f3c
00000020: 5ace 8a3b 0eb8 493c 6504 d63b 92db 553c
00000030: fb16 2a3c aa31 4cbc 88ef 233c 09aa 8dbc
00000040: 1a2c bcb9 c579 833b 9249 cdbb 8f0a 4f3c
00000050: f122 783a ec28 a3bc bb19 2f3c b408 a33b
00000060: 8be9 d6b8 f615 f1bb 7bac b5bc 548f a4bb
00000070: fbd3 473c 02a9 6c3b 141b 763a c005 27bc
00000080: cade 283c 5625 34bb bf00 913a 5a4c 413c
00000090: 2b7f 253c 284b cbba ce5d 9a3b 6de6 90bc
000000a0: 3e33 fa3b 2b3e 913c 2535 393c 2b87 123b
000000b0: 992d 423c a0c5 2bb9 ef26 a8bb 7c07 e73b
000000c0: 173f 313c ef8c 813b 66ab c93c 3803 9e3b
000000d0: 7586 053c ca00 b1ba 46a2 393c f13a 03bc
000000e0: 332c 163c 9434 ac3a 28d7 37bc e4bd 793c
000000f0: aceb e4bc 4070 c83c 49af 66bc 8656 3c3c
00000100: 28e6 7c3b ffe3 1b3c c38f 86bc 199c 233c
00000110: 6081 c7bb 0a83 453c a8cb 6c3a a2e9 c13b
00000120: 0217 aeba 0833 083c 6b36 7cba ba22 d9bc
00000130: 719c 333b 06e4 633c b55e a3bb e2f8 253c
00000140: 5730 60bc 72a3 273c 1ad9 053c b4c8 633b
00000150: a9cf a8bc a68c 563c a400 26b9 bdd9 f73b
00000160: b80f 4ebb 0fb4 6e3c b442 bcba 3f3a 20bb
00000170: cc05 223c 0979 4d3b 6cca 563c 8811 d23c
00000180: 4f7f 1f3c b639 903c edea 1a3c dc8b b23b
00000190: 044b 7a3b 2e24 c43a 4c83 5cbc 5845 32bc
000001a0: c4eb 8cbb 0292 963b f6b6 1e3b 2d21 353b
000001b0: ce91 103c 9a4c 6c3b 5557 aebb fa15 71bb
000001c0: 0e58 ff3a 9284 833b f8ca 2cbc 4c43 caba
000001d0: 2e8f c1bb da21 483c 95d8 0a3a facf 543c
000001e0: c6ef 19bb 6641 7fb9 7ada 91bc d534 f9ba
000001f0: 804a 453c 24f1 dcbb 01c3 37bc d1fb 2e3c

blocks.0.fcn_layer.weight f4 [128, 128]
-0.023492921 -0.029920805 -0.05897501 -0.0022137018 -0.057863224 -0.014779004 0.032833986 0.0477599
0.055509068 0.107858896 -0.04366139 0.014304373 -0.051616225 0.09486877 0.02894401 -0.11303315
-0.028037328 0.100875825 0.07335933 -0.036063623 0.052255716 -0.035308026 -0.0040556523 0.11118139
-0.036600605 0.0972949 -0.0047585596 0.0354019 0.037885256 0.011234798 0.14761822 -0.040740106
-0.03285273 0.09169505 0.010613125 -0.031203486 -0.0022340475 0.07854352 0.032591023 -0.083246954
0.11972448 0.018037915 0.066905595 -0.015047657 -0.04501302 0.0800971 -0.0013977665 -0.037658077
0.093564376 0.084371984 0.030329734 0.038304426 0.0006552274 0.09751272 0.06735013 0.124103755
0.090362124 -0.07877039 -0.07376541 -0.038717996 0.06577114 0.06331957 0.0036404643 -0.080002286
-0.029939849 -0.00037409138 0.03888715 0.023385432 -0.032510146 0.018734826 0.016416417 0.003727152
0.042791422 -0.0041592135 -0.0077598835 0.043724958 -0.021544525 0.07807018 -0.06548081 0.02310522
0.04140412 0.05841364 -0.027611075 -0.08663379 -0.043154247 0.08496988 -0.07519514 0.09535258
-0.04532746 0.09715048 0.005050145 0.05358907 -0.01012557 0.0072804093 -0.08191765 -0.027953593
-0.075866856 0.06802982 0.1080781 0.09994526 0.071110964 -0.053128507 -0.022816231 0.13537188
0.035609987 0.064682275 -0.060740907 -0.02673345 -0.0523882 0.081634976 -0.023702752 0.093796566
0.026554773 0.11042801 0.013114905 0.067158975 0.05125808 0.06139216 -0.043962058 0.104918696
-0.011373229 -0.014379871 0.036848735 0.018024772 0.012717644 0.08546929 0.07850407 -0.08133153
0.024161207 -0.036407858 0.06872013 -0.025854459 -0.101968735 -0.023701455 0.0332097 0.05585328
0.080040164 0.07400437 -0.019032773 -0.073133476 -0.014900478 -0.031479686 0.0144834975 0.0037560358
-0.090289965 0.07955292 0.116226785 -0.0624752 0.032459885 -0.06189773 0.06782667 0.03912218
0.09340689 0.028805595 0.04466364 0.04217491 -0.08127048 0.10860521 -0.008734364 -0.035836644
-0.0915972 -0.042376827 -0.042623013 0.052557666 -0.09222052 0.036230437 0.03320186 -0.032467756
0.014881325 0.0026766781 -0.002110654 0.063522965 0.06355008 0.0010021989 0.11687815 0.043683175
0.06045744 -0.014271846 0.016806798 0.023709673 -0.0025547547 0.09615195 -0.018388025 0.0031001545
0.058506012 0.008427918 0.054336395 0.05918093 -0.023861155 -0.045471963 -0.074582346 -0.006120469
0.039705742 0.040935785 0.04782753 0.09870707 0.060103822 0.06292 0.02408746 -0.033622622
0.0011523534 -0.041237865 -0.0044846646 0.016734233 -0.015779007 0.033740442 0.028100958 0.037389003
0.09972823 -0.010822305 -0.05527287 -0.03409184 0.07450704 0.0836756 -0.052904595 0.074152686
0.056617144 0.0865539 0.04143319 0.052428275 -0.08987788 0.08422851 0.0414515 0.096115604
0.018450785 0.0474263 0.034261256 0.103007875 0.021976568 0.027330214 -0.027148522 -0.025200075
-0.008667502 0.041275676 -0.03493459 0.010438959 -0.05395425 0.0070505287 0.046845388 0.07604459
-0.008120557 -0.038749184 -0.0024868704 -0.040502075 -0.017900627 -0.0060854405 0.014505013 -0.04062198
0.014713427 0.048565987 0.048658065 -0.036875106 0.10713323 0.083074525 -0.038164176 0.044668686
00000000: 3a74 c0bc 7a1c f5bc c88f 71bd c113 11bb
00000010: fd01 6dbd a323 72bc ee7c 063d e39f 433d
00000020: 7a5d 633d 20e5 dc3d 49d6 32bd e45c 6a3c
00000030: 896b 53bd 8f4a c23d fd1b ed3c ed7d e7bd
00000040: 8aae e5bc fc97 ce3d 6b3d 963d 73b7 13bd
00000050: 170a 563d 269f 10bd 47e5 84bb 12b3 e33d
00000060: 84ea 15bd 8c42 c73d b1ed 9bbb 9501 113d
00000070: 922d 1b3d 2812 383c 3b29 173e 19df 26bd
00000080: 9690 06bd 9dca bb3d ace2 2d3c 749e ffbc
00000090: 1969 12bb 6ddb a03d 2a7e 053d 617d aabd
000000a0: 1c32 f53d 40c4 933c cd05 893d 738a 76bc
000000b0: 935f 38bd f309 a43d 4335 b7ba 5b3f 1abd
000000c0: ae9e bf3d 38cb ac3d 1076 f83c 1ae5 1c3d
000000d0: 91c3 2b3a c0b4 c73d ddee 893d 1c2a fe3d
000000e0: c70f b93d 5f52 a1bd 5212 97bd c396 1ebd
000000f0: 05b3 863d b1ad 813d db94 6e3b 3dd8 a3bd
00000100: 6a44 f5bc b221 c4b9 2248 1f3d ce92 bf3c
00000110: 5c29 05bd c779 993c b97b 863c 3c43 743b
00000120: 0f46 2f3d 034a 88bb 9f46 febb f118 333d
00000130: 257e b0bc 42e3 9f3d ce1a 86bd 2947 bd3c
00000140: 5e97 293d 2443 6f3d 9f30 e2bc 0e6d b1bd
00000150: 82c2 30bd b004 ae3d e9ff 99bd 3748 c33d
00000160: 49a9 39bd d5f6 c63d b07b a53b 3680 5b3d
00000170: b8e5 25bc 8090 ee3b 71c4 a7bd effe e4bc
00000180: 1560 9bbd 3853 8b3d 0d58 dd3d 1ab0 cc3d
00000190: a0a2 913d 479d 59bd 1be9 babc ed9e 0a3e
000001a0: c7db 113d 2478 843d 75cb 78bd 1c00 dbbc
000001b0: 0295 56bd 3d30 a73d 462c c2bc 6a18 c03d
000001c0: 6589 d93c 1528 e23d e6df 563c a58a 893d
000001d0: fef3 513d 5876 7b3d 8f11 34bd 9ddf d63d
000001e0: c856 3abc 8d99 6bbc b3ee 163d b0a8 933c
000001f0: aa5d 503c 860a af3d bec6 a03d 2591 a6bd
00000200: b9ed c53c 6820 15bd 24bd 8c3d bbcc d3bc
00000210: fcd4 d0bd 8e29 c2bc e506 083d 69c6 643d
00000220: 19ec a33d 9a8f 973d 9eea 9bbc 01c7 95bd
00000230: 2221 74bc d8f0 00bd 314c 6d3c d327 763b
00000240: f2e9 b8bd a4ec a23d 4f08 ee3d ffe5 7fbd
00000250: a8f4 043d 7988 7dbd b6e8 8a3d 943e 203d
00000260: 1d4c bf3d b6f9 eb3c 39f1 363d 99bf 2c3d
00000270: 2371 a6bd 696c de3d 941a 0fbc 72c9 12bd
00000280: 5097 bbbd 5393 2dbd 7895 2ebd b546 573d
00000290: 1dde bcbd 5e66 143d acfe 073d e9fc 04bd
000002a0: cdd0 733c 356b 2f3b e652 0abb 5418 823d
000002b0: 8b26 823d 375c 833a d05d ef3d 21ed 323d
000002c0: 38a2 773d 76d4 69bc 69ae 893c ca3a c23c
000002d0: ac6d 27bb 50eb c43d 7ca2 96bc f62b 4b3b
000002e0: 00a4 6f3d 4015 0a3c d78f 5e3d b467 723d
000002f0: 7878 c3bc cf40 3abd a1be 98bd 378e c8bb
00000300: 7da2 223d 48ac 273d cde6 433d ef26 ca3d
00000310: 6d2f 763d 33dc 803d 1153 c53c e0b7 09bd
00000320: 900a 973a 09e9 28bd 18f4 92bb 3b16 893c
00000330: fa42 81bc 6b33 0a3d fb33 e63c 3625 193d
00000340: 503e cc3d 0a50 31bc ce65 62bd e3a3 0bbd
00000350: 2697 983d 1d5e ab3d 7db2 58bd 5ddd 973d
00000360: 61e7 673d 2c43 b13d d9b5 293d 08bf 563d
00000370: e511 b8bd ff7f ac3d 0cc9 293d 42d8 c43d
00000380: 1a26 973c 1442 423d 8855 0c3d cbf5 d23d
00000390: 3408 b43c 9de3 df3c 9466 debc 6370 cebc
000003a0: 2302 0ebc af10 293d 9317 0fbd 2b08 2b3c
000003b0: 22ff 5cbd 1f08 e73b f3e0 3f3d 44bd 9b3d
000003c0: 160c 05bc 77b7 1ebd c3fa 22bb 81e5 25bd
000003d0: 56a4 92bc 6068 c7bb 6fa6 6d3c 3c63 26bd
000003e0: 9610 713c 21ed 463d ae4d 473d 5a0a 17bd
000003f0: ab68 db3d fa22 aa3d 0a52 1cbd 83f6 363d

blocks.0.fcn_layer.bias f4 [128]
0.050211314 -0.061916947 0.016329143 -0.03805743 -0.06557727 0.054341763 -0.035102308 0.083797485
0.057383887 -0.0025738021 0.03297039 -0.07865719 0.06899599 -0.026003683 -0.018109076 0.08512291
-0.052956715 -0.007346727 0.029657025 0.029391967 -0.020829536 0.06969471 0.05003131 -0.026495125
0.011163623 0.026876656 -0.022212433 0.0013648164 -0.041218873 -0.03767664 0.0056910594 0.02971203
0.016360007 0.061058994 0.05576295 0.06978454 -0.070638016 0.044735484 -0.052122355 0.07509205
-0.019268053 0.00022955253 -0.0919073 0.007383692 -0.034922194 -0.02590156 0.00024657123 -0.018818734
-0.00030767845 0.073139 -0.09237847 0.0053529064 -0.00207469 -0.05288607 0.03611473 0.069241606
-0.044621114 0.046116002 -0.030741902 -0.033677362 -0.05170684 0.045057334 -0.0085474895 -0.04554531
-0.06280478 0.03685196 0.026568517 -0.02575674 0.06306394 0.07588048 0.017106509 0.042200822
-0.0658349 -0.008795974 0.028435903 -0.012412708 0.008642053 0.021673845 0.067108564 -0.010978055
0.049769115 0.013686147 -0.0046030446 0.06549745 -0.020702036 -0.024715072 0.018078318 0.018043134
-0.0014157785 0.08992039 0.045689598 -0.03423377 -0.06524668 -0.08634629 -0.0021513859 -0.0018593699
0.03261762 0.016462354 0.08245547 0.034943596 -0.00678264 0.03902359 0.05467104 0.018122932
0.0071731852 0.08158081 -0.010978013 0.07145852 0.036928043 0.086643 -0.009739941 0.06797188
0.01308923 -0.072187655 0.03347236 -0.053953815 0.0016998142 0.06740688 0.004377285 -0.011216217
-0.08566482 -0.020943075 0.07215825 -0.022681303 0.050935585 -0.06600261 -0.07546747 -0.06186572
00000000: 61aa 4d3d a09c 7dbd b2c4 853c 1ce2 1bbd
00000010: 604d 86bd 7895 5e3d 70c7 0fbd 049e ab3d
00000020: 5e0b 6b3d 3cad 28bb f60b 073d 0517 a1bd
00000030: c54d 8d3d ad05 d5bc 7c59 94bc ec54 ae3d
00000040: 24e9 58bd d0bc f0bb 4af3 f23c 6cc7 f03c
00000050: b4a2 aabc 1abc 8e3d a2ed 4c3d 4e0c d9bc
00000060: a1e7 363c 6f2c dc3c d9f6 b5bc a4e3 b23a
00000070: 1fd5 28bd d252 1abd 117c ba3b a566 f33c
00000080: 6c05 863c ff18 7a3d b167 643d 32eb 8e3d
00000090: aaaa 90bd 8e3c 373d 407e 55bd dcc9 993d
000000a0: 09d8 9dbc 0ab4 7039 e539 bcbd e6f2 f13b
000000b0: 930a 0fbd 822f d4bc 3b46 8139 bf29 9abc
000000c0: e74f a1b9 e6c9 953d ec30 bdbd 6f67 af3b
000000d0: 86f7 07bb 109f 58bd 0aed 133d 8bce 8d3d
000000e0: a1c4 36bd 22e4 3c3d 71d6 fbbc 46f1 09bd
000000f0: 8dca 53bd 0a8e 383d c50a 0cbc b88d 3abd
00000100: cb9f 80bd 15f2 163d 38a6 d93c ccff d2bc
00000110: ab27 813d 3a67 9b3d f322 8c3c c5da 2c3d
00000120: 73d4 86bd fd1c 10bc 69f2 e83c ac5e 4bbc
00000130: 6697 0d3c 598d b13c 3770 893d 4ddd 33bc
00000140: b3da 4b3d dc3b 603c 23d5 96bb 8723 863d
00000150: 5197 a9bc 4377 cabc fb18 943c 32cf 933c
00000160: a591 b9ba 2e28 b83d 0425 3b3d b638 0cbd
00000170: 0da0 85bd 53d6 b0bd 44fe 0cbb 1ab6 f3ba
00000180: 0e9a 053d 0fdc 863c 6ade a83d 0421 0f3d
00000190: e840 debb 33d7 1f3d beee 5f3d 8b76 943c
000001a0: 0a0d eb3b d713 a73d 20dd 33bc d858 923d
000001b0: dc41 173d e371 b13d 4694 1fbc d734 8b3d
000001c0: 3674 563c 1fd7 93bd 501a 093d adfe 5cbd
000001d0: 4dcc de3a 9e0c 8a3d 546f 8f3b 39c4 37bc
000001e0: 0a71 afbd d090 abbc b4c7 933d 24ce b9bc
000001f0: d5a1 503d 602c 87bd b08e 9abd e966 7dbd

blocks.0.layer_norm.weight f4 [128]
1.0583017 1.0309596 1.1015006 0.9757306 1.0730506 1.0461376 1.0629282 1.0905638
1.1021008 1.0307738 1.0555089 1.0765468 1.0365261 1.1344973 1.1101272 1.0442247
1.0741276 1.0356125 1.0338229 1.0586315 1.0329007 1.0988064 1.0469666 1.0342035
1.0781153 1.0491297 1.0605389 0.99707055 1.0335314 1.0625257 1.0631739 1.1186482
1.0726657 1.1070545 1.0768169 1.1130117 1.0665237 1.0781482 1.1626943 1.0466154
1.0875497 1.0456462 1.0695115 1.0849214 1.1015637 1.111771 1.0877906 1.06931
1.1008662 1.0551391 1.0241632 1.1167333 1.0635664 1.0367253 1.077313 1.059116
1.0828625 1.0875423 1.0099373 1.024413 1.0836556 1.1546427 1.0616406 1.0530709
1.0512389 1.0572202 1.1135769 1.1061717 1.0678633 1.0692239 1.1155823 1.0435451
1.099775 1.1499233 1.079342 1.081288 1.0729827 1.0579013 1.07909 1.0673641
1.092555 1.0905373 1.0050131 1.0457163 1.0560071 1.0449492 1.08106 1.0974511
1.0707453 1.1128129 1.0777533 1.1095898 1.0167695 1.1337123 1.0801877 1.0821619
1.0928676 1.0024266 1.1140282 1.0649463 1.0443486 1.0670674 1.0392128 1.1176691
1.0544592 1.0606872 1.0233904 1.06268 1.1418312 1.0523252 1.0357751 1.0649812
1.0391986 1.0762266 1.0725417 1.1118546 1.0787013 1.1234283 1.0674616 1.0443462
1.0952684 1.0749431 1.0592332 1.0326511 1.1237438 1.1019177 1.113452 1.0530837
00000000: 6e76 873f 7cf6 833f f9fd 8c3f 7bc9 793f
00000010: b959 893f d6e7 853f 080e 883f 9897 8b3f
00000020: a411 8d3f 65f0 833f ea1a 873f 49cc 893f
00000030: e3ac 843f 3537 913f a618 8e3f 28a9 853f
00000040: 037d 893f f38e 843f 4f54 843f 3d81 873f
00000050: 1736 843f b0a5 8c3f 0003 863f c860 843f
00000060: afff 893f e249 863f bdbf 873f 0440 7f3f
00000070: c24a 843f d800 883f 1516 883f dd2f 8f3f
00000080: 1c4d 893f f6b3 8d3f 23d5 893f 2b77 8e3f
00000090: d983 883f c300 8a3f 2bd3 943f 7ef7 853f
000000a0: d434 8b3f bcd7 853f c1e5 883f b4de 8a3f
000000b0: 0a00 8d3f 834e 8e3f b93c 8b3f 26df 883f
000000c0: 2fe9 8c3f cc0e 873f c817 833f 1ef1 8e3f
000000d0: f222 883f 6ab3 843f 64e5 893f 1d91 873f
000000e0: 3d9b 8a3f 9634 8b3f a045 813f f71f 833f
000000f0: 3ab5 8a3f 55cb 933f d7e3 873f 07cb 863f
00000100: ff8e 863f fe52 873f b089 8e3f 0997 8d3f
00000110: bfaf 883f 54dc 883f 67cb 8e3f e392 853f
00000120: 6dc5 8c3f b030 933f e127 8a3f a567 8a3f
00000130: 7f57 893f 4f69 873f 9f1f 8a3f 639f 883f
00000140: d8d8 8b3f ba96 8b3f 45a4 803f 08da 853f
00000150: 3e2b 873f e5c0 853f 2d60 8a3f 4779 8c3f
00000160: 2f0e 893f a770 8e3f d2f3 893f 0a07 8e3f
00000170: 8125 823f 7c1d 913f 9743 8a3f 4884 8a3f
00000180: 16e3 8b3f 844f 803f 7a98 8e3f 2950 883f
00000190: 37ad 853f aa95 883f ed04 853f c80f 8f3f
000001a0: 85f8 863f 99c4 873f 75fe 823f e605 883f
000001b0: 8627 923f 98b2 863f 4794 843f 4e51 883f
000001c0: 7604 853f cbc1 893f 0c49 893f 4051 8e3f
000001d0: e212 8a3f 80cc 8f3f 95a2 883f 23ad 853f
000001e0: c131 8c3f bc97 893f f494 873f e92d 843f
000001f0: d6d6 8f3f a40b 8d3f 9885 8e3f 72cb 863f

blocks.0.layer_norm.bias f4 [128]
0.026582247 0.028146315 0.0394181 -0.030644655 0.032255154 0.038721543 0.02437114 0.0444982
0.04560849 0.020443514 0.018698584 0.0597146 0.045678616 0.06322129 0.05356318 0.03286149
0.017351905 0.010025286 0.03487823 0.013833501 0.037319798 0.043754555 0.0076937387 0.027752424
0.032298785 0.004447409 0.016712787 0.014134938 0.016501162 0.020294499 0.01830276 0.07033426
0.035097353 0.037978124 0.034441415 0.05613688 0.013315779 0.031441025 0.070231564 0.027851865
0.050743263 0.0068504587 0.014873178 0.031948507 0.05435328 0.053905144 0.050349895 0.035121426
0.04825498 0.04137259 0.016352074 0.061220374 0.008637444 0.0073531317 0.03646521 0.030242613
0.05123929 0.036723394 0.044179376 0.02007156 0.029434202 0.06278777 0.011222387 0.02732659
0.02134965 0.04221429 0.035646383 0.0467351 0.00783857 0.039583236 0.047337838 0.054808695
0.05205128 0.07117366 0.03918183 0.02470843 0.0226193 0.0148447165 0.051652037 0.02459988
0.061278075 0.030901076 0.003580221 0.011070377 0.048541177 0.029535877 0.040316224 0.02396987
0.05428935 0.03689101 0.029178614 0.05140781 0.012038782 0.04334757 0.042622156 0.04718852
0.029608835 -0.0103681525 0.059895497 0.0076351706 0.001994505 0.03176478 0.02871285 0.05508255
0.013617939 0.0145763755 0.012473819 0.050238036 0.017938212 0.012305322 0.018821198 0.047114156
0.03402305 0.0462021 0.049653348 0.06384967 0.051966995 0.060714222 0.04979475 0.032981776
0.05248157 0.018148115 -0.013307363 0.021857265 0.04705917 0.020255882 0.027928231 0.019097004
00000000: 03c3 d93c 1a93 e63c e074 213d 800a fbbc
00000010: fb1d 043d 7b9a 1e3d fca5 c73c bf43 363d
00000020: f8cf 3a3d 2879 a73c c62d 993c 4c97 743d
00000030: 8019 3b3d 2a7a 813d 1165 5b3d c599 063d
00000040: 9525 8e3c 1941 243c 7adc 0e3d e9a5 623c
00000050: a5dc 183d fa37 333d c21b fc3b 0d59 e33c
00000060: bb4b 043d 92bb 913b 41e9 883c 3a96 673c
00000070: 722d 873c a640 a63c abef 953c 690b 903d
00000080: 3ec2 0f3d f38e 1b3d 7112 0d3d c9ef 653d
00000090: 6d2a 5a3c 4ec8 003d 91d5 8f3d 9829 e43c
000000a0: 2bd8 4f3d d079 e03b a1ae 733c 70dc 023d
000000b0: 8ca1 5e3d a4cb 5c3d b13b 4e3d 7cdb 0f3d
000000c0: 04a7 453d 4e76 293d c9f4 853c 37c2 7a3d
000000d0: 1184 0d3c 8af2 f03b 8b5c 153d 5bbf f73c
000000e0: 4ae0 513d 456b 163d 6ff5 343d 1d6d a43c
000000f0: ff1f f13c e096 803d 1ade 373c 03dc df3c
00000100: 76e5 ae3c e4e8 2c3d f101 123d 4e6d 3f3d
00000110: 586d 003c 0822 223d 52e5 413d 157f 603d
00000120: b933 553d 7fc3 913d 207d 203d 5569 ca3c
00000130: 1c4c b93c 4137 733c 1691 533d b085 c93c
00000140: b8fe 7a3d 4124 fd3c 24a2 6a3b 8760 353c
00000150: 1dd3 463d 39f5 f13c a022 253d 765c c43c
00000160: 825e 5e3d 071b 173d fd07 ef3c ff90 523d
00000170: 503e 453c 398d 313d 9294 2e3d c048 413d
00000180: 3a8e f23c 2fdf 29bc fb54 753d 7430 fa3b
00000190: 3eb6 023b c91b 023d 3637 eb3c 3d9e 613d
000001a0: c71d 5f3c c0d1 6e3c fd5e 4c3c 66c6 4d3d
000001b0: 28f3 923c 439c 493c ea2e 9a3c c6fa 403d
000001c0: c15b 0b3d 6a3e 3d3d 4f61 4b3d 9ec3 823d
000001d0: 58db 543d 7aaf 783d 94f5 4b3d e617 073d
000001e0: eaf6 563d 5bab 943c 2007 5abc 020e b33c
000001f0: 1ec1 403d aaef a53c bfc9 e43c 5271 9c3c

last_layer.weight f4 [1, 128]
0.095637515 0.049272247 0.10696637 0.02009664 0.116768725 0.058740098 0.102906294 0.12110776
0.10071265 0.0758695 0.067534894 -0.10835965 -0.11777253 -0.17412713 -0.16597357 0.050667543
0.064698875 0.064384975 0.038519073 0.0678465 -0.08314728 0.08746133 0.06376824 0.058309697
0.06932504 -0.120501116 0.09295448 0.009106914 0.052109726 0.077178136 0.13015445 -0.15227173
0.12870292 0.1602007 0.10421261 0.0953742 0.08453644 0.090903096 -0.1821426 0.11492875
-0.12667905 0.047645397 0.07142792 0.12572493 -0.15663765 0.101467915 -0.14518759 0.12436055
-0.1687873 0.052483946 0.07092419 -0.18044361 0.09704484 0.041510895 -0.14800142 0.124708846
-0.15486053 0.09263391 -0.061229307 0.06585357 0.09224456 0.1338429 0.1147394 0.07021329
0.06273297 -0.13293341 0.11012848 -0.17219752 0.092475966 0.11541264 -0.18219323 -0.07724552
0.16844887 -0.16941509 0.08088768 0.08138445 0.12503915 0.052086458 0.063923836 0.07534099
-0.14523676 0.1551467 0.0720501 0.0804263 -0.11415621 0.04829721 0.05890188 0.079347566
0.07071503 0.11059522 0.075375296 -0.14791684 0.09478115 -0.19199497 -0.13321991 0.06202322
0.15998422 0.042885423 0.082227245 0.13478231 0.07066071 0.11048011 0.06605392 -0.18504392
0.057479676 0.10958954 0.03874072 0.07516229 0.1492827 0.051463004 0.09627592 0.09421521
-0.11416427 -0.15179887 -0.10896842 0.1495945 -0.14696738 -0.15296417 -0.1348899 0.0702006
0.059250295 0.07792095 0.06588666 0.04345459 -0.17851683 0.12501843 0.080679916 0.053950325
00000000: 9add c33d b2d1 493d 2f11 db3d b5a1 a43c
00000010: 7124 ef3d 7599 703d 89c0 d23d 5807 f83d
00000020: 6f42 ce3d 7861 9b3d bc4f 8a3d aaeb ddbd
00000030: b932 f1bd 624e 32be faf4 29be c588 4f3d
00000040: d880 843d 45dc 833d 2dc6 1d3d 1bf3 8a3d
00000050: 1f49 aabd ed1e b33d ec98 823d 26d6 6e3d
00000060: 49fa 8d3d 4ac9 f6bd eb5e be3d 2a35 153c
00000070: 0271 553d 920f 9e3d 3547 053e 1fed 1bbe
00000080: b3ca 033e a70b 243e 6c6d d53d 8c53 c33d
00000090: 7121 ad3d 672b ba3d 9783 3abe c45f eb3d
000000a0: 27b8 01be d227 433d cd48 923d 09be 003e
000000b0: 9f65 20be 69ce cf3d 0eac 14be beb0 fe3d
000000c0: 94d6 2cbe 68f9 563d b440 913d 36c6 38be
000000d0: 72bf c63d 5407 2a3d af8d 17be 5a67 ff3d
000000e0: c293 1ebe d9b6 bd3d 95cb 7abd 3dde 863d
000000f0: b7ea bc3d 1d0e 093e 7efc ea3d fccb 8f3d
00000100: 257a 803d b21f 08be 0a8b e13d 8c54 30be
00000110: 0a64 bd3d 765d ec3d dd90 3abe e632 9ebd
00000120: dc7d 2c3e 267b 2dbe 71a8 a53d e4ac a63d
00000130: 430a 003e 9c58 553d 80ea 823d 614c 9a3d
00000140: f2b8 14be c7de 1e3e 018f 933d 8bb6 a43d
00000150: bbca e9bd 4cd3 453d 1943 713d fa80 a23d
00000160: 0bd3 903d bf7f e23d 5d5e 9a3d 8377 17be
00000170: 9f1c c23d 549a 44be cd6a 08be 0f0c 7e3d
00000180: e7d2 233e a0a8 2f3d c266 a83d 6004 0a3e
00000190: 90b6 903d 6543 e23d 4747 873d 277c 3dbe
000001a0: cf6f 6b3d 7b70 e03d 97ae 1e3d b0ee 993d
000001b0: 90dd 183e dfca 523d 4f2c c53d e7f3 c03d
000001c0: f5ce e9bd 2a71 1bbe d62a dfbd 4d2f 193e
000001d0: 9e7e 16be a4a2 1cbe 9420 0abe 55c5 8f3d
000001e0: 70b0 723d 0595 9f3d 96ef 863d 71fd 313d
000001f0: 1ecd 36be d504 003e 833b a53d 04fb 5c3d
