wkey/openwakeword_models/onnx/hey_llama2.onnx (onnx, 859394 bytes, 9 tensors)

layer1.weight f4 [128, 1536]
000000 b3 4f 89 3c 19 35 b8 3c 5f c4 cc bb c5 c4 19 bd
       0.016761636 0.022486256 -0.006248995 -0.03754117
000010 c5 70 47 bc 03 6e d1 3c 73 9a a5 bc b3 db 8a bc
       -0.012172882 0.025565153 -0.020215249 -0.016950464
000020 d2 24 25 bc 0a 42 86 3b b6 11 93 bc c7 30 77 bc
       -0.010079579 0.004097228 -0.017952781 -0.015087313
000030 b6 62 0b 3d 55 f2 5f bc 9c 1d d1 bc 94 11 aa bb
       0.034029685 -0.013668616 -0.025526814 -0.0051900838
000040 27 42 9a bc 58 83 89 bc 45 14 3d bc 8a 16 a9 3c
       -0.018830372 -0.016786262 -0.011540477 0.02064063
000050 4b f4 98 3a b7 53 87 3c 3c d4 a9 bb 17 4c 95 3a
       0.0011669485 0.01651941 -0.005182771 0.0011390474
000060 47 59 f5 bc 8a 91 2c bb d6 4b 04 3c dd b1 63 3c
       -0.029949797 -0.0026331865 0.008074721 0.013897386
000070 a5 57 40 3a e7 63 b7 bc 22 ee 54 3c ed 88 9d 3c
       0.0007337279 -0.022386504 0.012996228 0.01923033
000080 f8 17 2f 3b 8b c6 ff bc 22 dd 57 3c 08 ba dd 3c
       0.0026717167 -0.031222602 0.013175281 0.027066246
000090 f0 2d ce 3c 05 14 f4 3c 6c 82 af 3c 6a 35 2b bb
       0.02516839 0.029794702 0.021424495 -0.0026124367
0000a0 07 84 a3 bc 1a 35 d1 bb c3 4e 8d bc 08 73 f2 bb
       -0.019960416 -0.006384504 -0.01724947 -0.0073989667
0000b0 1f e6 38 bb 2f 03 f0 bc 19 06 11 bc 2a 90 09 3c
       -0.0028213335 -0.029298393 -0.008851551 0.008396188
0000c0 6f 4e a8 3c 19 c0 f5 3c a9 c9 60 3c 60 32 f6 bb
       0.020545213 0.029998826 0.0137199545 -0.0075133294
0000d0 fd 10 f5 3c 46 f7 11 bd 43 95 13 bd 04 51 c9 bc
       0.029915327 -0.03563621 -0.03603102 -0.024574764
0000e0 1a 48 d4 bc f9 78 ea 3c 99 7d 94 bc 6e f0 d2 ba
       -0.025913287 0.028622137 -0.018126296 -0.0016093382
0000f0 57 89 3e 3c 35 83 61 3c 18 73 20 3c ac 2e e6 bc
       0.011629424 0.013764192 0.0097930655 -0.028098427
000100 93 fc 62 3c 67 7f 52 3c 04 19 4d 3c 6a f0 78 3b
       0.013854164 0.012847758 0.012518171 0.0037985095
000110 98 2f 91 bb ce db 3b 3c 8d 6b e1 bc b2 e9 96 3c
       -0.0044307224 0.01146598 -0.027517105 0.018421981
000120 54 b7 78 bb 52 a8 65 3b af 00 1f 3c b1 c3 21 bd
       -0.003795107 0.0035042954 0.009704753 -0.039493266
000130 f5 e5 06 3d e1 82 8b 3c 15 45 89 bc be 7d 83 bb
       0.032934148 0.017030181 -0.016756574 -0.0040127924
000140 c7 91 da bb 7e 45 be 3c 89 ca 55 bc d8 30 1c 3c
       -0.00667021 0.023226496 -0.013048776 0.00953313
000150 3e c0 e6 3c b3 9a 14 3d 28 74 34 3c dd 2c 90 bc
       0.02816784 0.036280345 0.011014022 -0.017599517
000160 c0 cd d9 bc 53 1c 8d 3c 57 05 dd 3b 35 39 c6 3c
       -0.026587367 0.01722542 0.0067450213 0.0241972
000170 36 b6 f6 bb 67 ba c3 bc cb 35 5a 3c 07 01 53 3c
       -0.0075290455 -0.023892595 0.013318489 0.012878663
000180 f0 bf 89 bb 51 07 62 bc 68 27 a7 3c 75 ac 0f bc
       -0.004203789 -0.01379569 0.020404533 -0.008769144
000190 b2 5f a3 3c 9d e0 77 bc 27 5f ac 3c d8 80 87 bc
       0.019943092 -0.015129236 0.021041466 -0.01654093
0001a0 49 6e ab 3c 9d 5c 98 3b ab bd 10 3c 70 b6 04 3d
       0.020926611 0.0046497122 0.008834283 0.03240055
0001b0 a7 6b 1b 3b 30 14 5c bc 1b 55 1b 3c 66 ba 40 3b
       0.002371529 -0.013432547 0.00948074 0.0029407977
0001c0 ac a0 8e ba ca 2a 1c bc b1 23 95 bb 4b e6 70 3c
       -0.0010881624 -0.009531686 -0.004551374 0.014703344
0001d0 c0 d3 ce 3c fb fd 9e bc 9b 05 97 3b 6d 7a 07 3d
       0.025247455 -0.019408217 0.0046088225 0.03307574
0001e0 8d aa 51 bc 84 ca 90 bb fe ef c1 bb 0f 06 e3 3b
       -0.01279701 -0.004418673 -0.005918502 0.0069282125
0001f0 d1 f3 87 bc 8a 0e d6 ba 02 f6 49 bc 6c 92 06 3d
       -0.016595753 -0.0016331237 -0.012326719 0.032854483
000200 03 d1 4a bc 5a d3 3d bc 1e 86 14 3b 2a e9 f6 ba
       -0.012378934 -0.011586035 0.0022662948 -0.0018837799
000210 83 ed 35 bb 4d 29 97 bc 4b 3d ee 3b 80 64 c2 3c
       -0.0027759976 -0.018452311 0.0072704903 0.023729563
000220 67 5b 30 3b ea 45 0f bc e8 4a a9 3c 14 3b 64 bb
       0.0026909949 -0.008744696 0.0206656 -0.0034825252
000230 b2 60 13 3a 86 7e 85 bb 4a bb ba bc e1 e6 28 bc
       0.00056220137 -0.0040739207 -0.022794385 -0.010308952
000240 94 35 0c bb df b9 a6 bc a5 8e 33 3c 84 50 c1 3c
       -0.002139424 -0.020352302 0.010959302 0.023597963
000250 d2 22 26 3b 21 3b 02 bd ae 7b d1 bc 51 dc a2 3c
       0.0025350344 -0.03179467 -0.02557167 0.019880446
000260 21 a3 57 3c ca 19 94 3c aa 36 c7 bc 05 fd 22 bc
       0.013161452 0.018078703 -0.024318058 -0.00994802
000270 4b 62 c9 3c 7a fb 05 3c 64 19 46 3c b9 4a 5c bc
       0.024583003 0.0081776325 0.0120910145 -0.01344555
000280 52 c4 ba 3c 0a 92 66 bc 9e e5 62 bc 21 d8 17 bc
       0.022798691 -0.014072904 -0.01384869 -0.009267838
000290 57 44 c1 bc bb d4 84 3a a1 a6 89 3c 66 1e 8a 3b
       -0.023592157 0.0010134199 0.016803088 0.0042150496
0002a0 c4 9e 01 3c 89 31 b6 3c c9 99 8d bb 31 80 ad bc
       0.007911388 0.022240417 -0.004321311 -0.02117929
0002b0 15 43 df bb 0a c6 72 bc 74 50 9a bc d5 b7 94 bc
       -0.0068134167 -0.014817724 -0.018837191 -0.018154064
0002c0 6d ff fe bb 42 6b 6f bc 22 18 da 3c 24 d8 0c bd
       -0.007781914 -0.014612975 0.026622836 -0.034385815
0002d0 29 0b 17 3c 10 46 1e 3d 3a c3 a5 3c b2 bd d6 39
       0.009218969 0.038641036 0.020234693 0.00040958595
0002e0 5c 62 48 bc 50 8a 0b bc 45 18 cd bb 66 e4 1a bc
       -0.012230482 -0.008516863 -0.0062589967 -0.0094538685
0002f0 e0 48 bc bc c6 da 54 bb eb 3d 06 bd c4 4d 4d 3c
       -0.022983968 -0.0032479032 -0.032773893 0.012530748
000300 06 8f 1c bb a2 1c ce 3c 54 69 e7 3a b4 25 f4 3c
       -0.002388896 0.025160138 0.0017655292 0.029803135
000310 14 19 f9 bb 71 60 a3 3c c4 46 90 bc ad 1e b1 3a
       -0.0076018665 0.019943448 -0.017611869 0.001351317
000320 52 76 23 bc f4 e5 f1 3c 1c e6 f3 3b 67 0e 4a 3c
       -0.00997694 0.029528596 0.0074432027 0.012332535
000330 01 b8 83 bc 59 21 a6 3c b1 12 22 3d 62 87 ef 3c
       -0.01607895 0.020279573 0.039568607 0.02923936
000340 99 06 81 bc 09 05 eb bc b4 6c 93 3c 6b e3 6e bc
       -0.015750216 -0.028688924 0.01799617 -0.014580588
000350 3c 82 ae 3c 21 3b 7f 3b b5 c7 39 3c 12 ed b5 bc
       0.021302335 0.0038945156 0.011339118 -0.02220777
000360 3d 4e 75 bc 05 ac 5b bb 40 28 bb bc 76 ef c9 3c
       -0.014972267 -0.003351928 -0.022846341 0.024650317
000370 b8 50 0e 3c 7c 48 63 3d 20 d1 9b 3c cd 80 e5 3c
       0.008686237 0.05548905 0.019020617 0.028015519
000380 11 77 fe bb 55 ed 6c bc 7f 77 f4 ba 9a 89 74 bb
       -0.0077656587 -0.014460881 -0.0018651335 -0.0037313462
000390 f3 59 36 3c 78 e4 14 3c e6 97 d0 bc b8 26 8d bc
       0.011129844 0.009087674 -0.025463056 -0.017230377
0003a0 ee 6d 45 bc ba 07 8a 3b 74 6f 03 bc ce 92 ab 3b
       -0.012050135 0.004212347 -0.008022178 0.0052360063
0003b0 0b e2 bf bc ac 28 be 3c 76 b7 a7 3c 45 fa 4f 3b
       -0.023423215 0.023212753 0.020473223 0.0031734866
0003c0 b4 17 dd ba 81 f9 ca bb c0 4d c3 bc 42 7d a4 3b
       -0.0016868026 -0.006194294 -0.023840785 0.0050198147
0003d0 c6 ea 2d 39 2c e9 7a bc e4 6e 5a 3c 63 a7 84 3c
       0.00016586026 -0.015314382 0.013332102 0.016193097
0003e0 52 8f b6 bc e8 58 2a bc f4 96 3e 3b d0 60 41 3c
       -0.022285137 -0.010397173 0.0029081674 0.011802867
0003f0 82 84 ab bc 04 ba 02 3c 76 0f 89 bc 69 1a c4 bb
       -0.020937208 0.00797892 -0.016731005 -0.0059845936

layer1.bias f4 [128]
000000 24 ad 14 3c 2f 0a a4 bc c9 f8 95 bc 93 6e bf 3c
       0.009074483 -0.020024387 -0.018307107 0.023368156
000010 63 67 97 3c c1 c3 af 3c 09 f0 a1 3c 73 f8 b1 bc
       0.018481916 0.021455647 0.019767778 -0.021724915
000020 3a c2 ee 3c 0a d6 bb 39 60 be f3 bb 7a 58 4f 3c
       0.029145349 0.0003582689 -0.007438466 0.012655372
000030 06 21 96 bc a9 be 60 bb 55 2a a5 3c 6d 7d 0a 3b
       -0.018326294 -0.003429333 0.020161787 0.0021131888
000040 69 9a b5 bb f9 26 26 3a f3 97 68 ba bb f0 3f bc
       -0.0055420888 0.0006338205 -0.000887274 -0.011715109
000050 05 9b 5c 3c ed 68 7c 3b 39 ba 15 3b 07 c4 5e 3c
       0.013464694 0.003851469 0.0022846593 0.013596541
000060 66 0b ab bb 90 3a cd 3c 3e dd 05 bc 70 d0 a8 bb
       -0.0052198647 0.025052339 -0.008170424 -0.005151801
000070 3a f2 a8 bb ff 02 00 bc ba 4e 0f bc fc f7 3b bc
       -0.005155829 -0.007813214 -0.008746797 -0.011472698
000080 e8 ee 10 3b 23 16 7a 3c 1d e9 f0 39 f3 ef 3b 3b
       0.0022115055 0.015264067 0.0004595005 0.0028676956
000090 4f f4 a9 bc 24 cb 08 3c c2 0f e3 3b 58 07 44 3c
       -0.020746378 0.008349214 0.0069293687 0.0119646415
0000a0 d6 da 68 3b dc 7c b9 bc fa 31 10 3c ba 07 06 3c
       0.0035530827 -0.022642545 0.008800978 0.008180553
0000b0 95 d5 d5 3c be cd 85 3c ac d8 98 3c 95 65 78 bc
       0.02610282 0.016333457 0.018658005 -0.015160938
0000c0 bb 6f 1e bb a0 2a 89 3c 0c 2a 57 bc 2a 14 15 bc
       -0.0024175483 0.016743958 -0.013132583 -0.009099046
0000d0 e0 a1 a1 3c 17 5a c2 3c 36 6f d7 38 0a d5 42 bc
       0.019730508 0.023724599 0.000102727136 -0.011891613
0000e0 f2 8f 75 bc fc 0f 86 3c ff 7e c0 ba 94 43 04 bc
       -0.0149879325 0.016365044 -0.0014686285 -0.0080727525
0000f0 2a b8 ad 3c 1c 2e 47 bc 1a b3 85 bc 34 d5 d6 3b
       0.02120598 -0.012156989 -0.016320754 0.0065561775
000100 83 a2 dc bb 59 43 0d 3c 43 02 53 bc bc 9f a6 3b
       -0.00673324 0.008622014 -0.012878957 0.00508496
000110 07 ce 09 bc 23 06 81 bc 4d 5c b1 3c 7f 0f 8c ba
       -0.008410937 -0.015749997 0.021650458 -0.001068577
000120 ab 0b 9d bc 50 66 4e 3c 9e 82 b0 bb 54 19 67 3c
       -0.019170603 0.012597635 -0.0053866645 0.01410516
000130 3e 8c a9 bc a6 77 a2 ba 48 9c 63 3c 4a 53 68 bc
       -0.020696755 -0.0012395277 0.013892241 -0.014180014
000140 99 1a 17 3b ae 5b 1e bc 42 b3 01 3d 0b cc a6 3b
       0.0023056625 -0.009665413 0.031665094 0.005090242
000150 d5 e0 bb bc 86 82 b8 3c cc ad 91 ba ab be 30 3c
       -0.022934357 0.022523176 -0.0011114418 0.010787646
000160 3f 4a b0 3c a8 d5 92 bb c7 03 69 3b ac 02 88 b9
       0.021519778 -0.004481036 0.003555523 -0.00025941932
000170 b9 ac 1d 3b 29 57 9a bc 94 ad c0 3c 29 50 92 bc
       0.002405925 -0.01884039 0.023520268 -0.017860489
000180 1e 57 73 3c 75 58 5e 3c 76 a8 23 3b 30 0f b1 3c
       0.014852313 0.0135708945 0.0024972237 0.021613687
000190 f0 76 b3 bc a7 86 bd 3c 3d 35 22 bc a8 9f 9b bc
       -0.0219073 0.023135496 -0.009900388 -0.018997028
0001a0 0e 37 4f 3a 62 1b a0 3c 8e b2 c6 bc b6 bd a4 3b
       0.0007904627 0.019544307 -0.024255063 0.005027498
0001b0 7a 8d d4 bc f7 44 b5 bc 5a a4 f6 3c 81 81 ce 3c
       -0.025946368 -0.022127612 0.030107666 0.025208237
0001c0 78 91 de 3c 67 99 cb bc f1 01 be 3c 7f 2e 8e 3b
       0.027168974 -0.024853421 0.023194285 0.004339039
0001d0 bf 02 11 bc fa b7 9c 3b e2 74 bf 37 29 bf d9 bc
       -0.008850752 0.004782674 2.2823402e-05 -0.02658041
0001e0 6a 88 96 bc 40 6b c2 3c 79 ae 8a bc d7 b8 eb 3b
       -0.018375594 0.023732781 -0.016928898 0.0071936655
0001f0 e6 c9 34 bc 38 de 91 bc be 7a c9 3c 72 c3 b4 bc
       -0.011034464 -0.017806157 0.02459466 -0.022065852

layernorm1.weight f4 [128]
000000 96 64 7f 3f 2b 2d 7e 3f 8b d0 7e 3f a7 e9 7f 3f
       0.99762857 0.9928767 0.9953696 0.999659
000010 ed b8 7b 3f 4e 8a 7e 3f ba 11 7c 3f 55 9c 7c 3f
       0.9832905 0.99429786 0.9846455 0.98676044
000020 4e 86 7a 3f 6c 8c 7c 3f ef 7c 82 3f bb c3 8b 3f
       0.9786118 0.98651767 1.0194377 1.0919107
000030 aa 82 80 3f 80 f8 7c 3f b1 8f 7c 3f 63 c3 7c 3f
       1.0039876 0.9881668 0.98656756 0.98735636
000040 95 f7 7b 3f a2 e1 81 3f 1d d8 7b 3f 04 18 79 3f
       0.98424655 1.0146983 0.9837664 0.9730227
000050 e8 28 7d 3f 94 10 7a 3f 45 4d 80 3f 2d fc 80 3f
       0.98890543 0.97681546 1.0023581 1.0076958
000060 41 0f 81 3f b5 22 7e 3f 9f 42 81 3f 9c cd 7a 3f
       1.008278 0.9927171 1.0098456 0.97969985
000070 55 2b 80 3f 03 06 80 3f 41 1a 75 3f 8c 00 80 3f
       1.0013224 1.0001835 0.95743185 1.0000167
000080 1a fb 82 3f 00 b1 7b 3f a6 eb 7b 3f 43 9d 80 3f
       1.023288 0.98316956 0.98406446 1.0047992
000090 c9 98 7e 3f 4c f8 7c 3f 7a 71 80 3f 98 da 7f 3f
       0.9945188 0.9881637 1.003463 0.9994292
0000a0 74 6a 7d 3f 3e 99 7b 3f 67 3d 7d 3f 4a 34 78 3f
       0.9899056 0.98280704 0.9892182 0.96954787
0000b0 23 0c 7d 3f 00 57 7e 3f 09 f6 86 3f e7 63 81 3f
       0.98846644 0.993515 1.0543834 1.0108613
0000c0 3b c6 7f 3f ac 91 79 3f b4 e2 83 3f 61 a7 7c 3f
       0.9991185 0.974879 1.0303559 0.986929
0000d0 2f 90 7c 3f f8 04 7f 3f 25 9d 83 3f 7b cc 7b 3f
       0.98657507 0.99616957 1.0282332 0.9835889
0000e0 11 cf 7a 3f 6d 7c 7c 3f 65 1c 81 3f 15 2a 7b 3f
       0.9797221 0.9862736 1.008679 0.9811109
0000f0 95 ef 80 3f 51 a4 80 3f 00 2d 7e 3f a9 48 7c 3f
       1.0073115 1.0050145 0.99287415 0.9854837
000100 91 5c 78 3f 23 25 80 3f 3b 4c 7a 3f b5 9f 80 3f
       0.97016245 1.0011333 0.9777257 1.0048739
000110 ad dc 7b 3f f4 a5 75 3f 56 6d 83 3f ef 1b 7a 3f
       0.983836 0.9595635 1.0267742 0.97698873
000120 cc 98 7d 3f 5a 1e 7e 3f e2 9a 7b 3f 2a 7a 81 3f
       0.99061275 0.9926506 0.9828321 1.0115407
000130 43 2d 7d 3f 2b 8c 7d 3f 50 9f 77 3f c8 48 80 3f
       0.9889719 0.99042004 0.96727467 1.0022211
000140 7b 59 83 3f b1 b3 7b 3f 4f 77 80 3f 3d 4c 7f 3f
       1.0261682 0.9832106 1.003641 0.99725705
000150 11 90 7d 3f 49 f4 7e 3f 27 e6 79 3f ee d7 83 3f
       0.9904795 0.995915 0.9761681 1.0300272
000160 89 34 7a 3f 75 67 7d 3f 1f 0c 81 3f 8a 34 85 3f
       0.9773641 0.9898599 1.0081824 1.0406659
000170 da 50 7d 3f d7 bc 7e 3f 3f b8 80 3f 61 e1 7c 3f
       0.98951495 0.99506897 1.0056227 0.987814
000180 5d b9 7c 3f 78 f3 7b 3f dd 46 80 3f fa 4f 87 3f
       0.9872034 0.9841838 1.0021626 1.0571282
000190 3f 7d 7c 3f 42 0c 7f 3f 7c 71 7c 3f f9 e4 7d 3f
       0.9862861 0.9962808 0.98610663 0.9917751
0001a0 89 fd 7d 3f be 87 7d 3f c8 08 7d 3f ab 07 7a 3f
       0.9921499 0.9903525 0.98841524 0.9766795
0001b0 38 b6 7d 3f 5b 74 7e 3f ca 60 7a 3f 68 c1 7d 3f
       0.9910617 0.99396294 0.9780394 0.9912324
0001c0 c0 a9 7b 3f fa d6 83 3f ca 8e 7d 3f 09 bf 7c 3f
       0.9830589 1.0299981 0.99046004 0.98728997
0001d0 a3 31 7c 3f 31 0d 7a 3f 99 96 7c 3f ff 2f 7c 3f
       0.9851324 0.9767638 0.98667294 0.98510736
0001e0 64 83 7b 3f 79 46 7c 3f a7 38 7b 3f e5 20 80 3f
       0.9824736 0.9854503 0.9813332 1.0010039
0001f0 eb ae 7b 3f dd ae 7b 3f c4 35 7d 3f 9d 58 7d 3f
       0.9831378 0.98313695 0.98910165 0.9896334

layernorm1.bias f4 [128]
000000 7c 3a cd 39 76 e8 35 bc 7b 73 3e 3b 8d c0 c2 3a
       0.0003914422 -0.011102786 0.002906053 0.001485841
000010 d9 e0 1c bc 67 c1 0a bc 03 23 6d bc aa 5f 7e bc
       -0.009575092 -0.008468962 -0.0144736795 -0.015525738
000020 15 c3 55 bb e5 f9 23 bc 0c dc 29 3c cf 96 92 3c
       -0.0032617499 -0.01000831 0.010367405 0.017894177
000030 9c 6c b7 3b 0c 4f 13 bc 82 ba 24 bc 24 78 23 bc
       0.005597664 -0.008991014 -0.010054233 -0.009977374
000040 c8 6c 27 bc 6a 66 63 3b d6 2e df bb bc 61 8e bc
       -0.010218807 0.0034698495 -0.006811003 -0.017380588
000050 d8 71 74 ba ed b3 80 3a 78 fc 25 3b 3f a8 8c bb
       -0.00093248254 0.0009819247 0.0025327485 -0.0042925174
000060 dc 1d 94 3b 3f 20 36 bc 9b 6a cb 3b 5e 30 17 bc
       0.004520161 -0.0111160865 0.0062077767 -0.00922784
000070 4f de d5 3a 2f 5c 07 3b 9c 42 00 bc 81 81 11 3a
       0.0016316863 0.002065431 -0.007828381 0.00055506086
000080 98 b4 c3 ba f2 a6 15 bc 68 95 03 bc b0 b6 cc bb
       -0.001493114 -0.009134041 -0.008031227 -0.006247364
000090 e8 8b 65 bb 4b 13 5b bb 1d 32 bc ba f2 05 a3 b9
       -0.0035026018 -0.0033428248 -0.0014358197 -0.00031094212
0000a0 e6 0a c3 ba 58 ad 9d bc 94 f8 bd bb 6d ef 19 bd
       -0.0014880567 -0.019247696 -0.005797455 -0.03758185
0000b0 ca 18 00 bc 74 54 1b bb ef f8 8d 3b fd 1f 51 3b
       -0.00781841 -0.002370146 0.0043326537 0.0031909936
0000c0 bb 90 60 3a ae 2c 08 bb 9f 09 e2 3c 09 94 c0 bb
       0.00085664884 -0.0020778584 0.027592478 -0.005877022
0000d0 fc 6f 33 bc b6 49 04 3c 46 9d 0e 3a 75 fa 4c bc
       -0.010951992 0.008074215 0.00054403057 -0.0125108855
0000e0 bf f9 a0 bc 0d ab 44 bc 72 5d 83 3b 3d 65 06 bc
       -0.019650338 -0.012003672 0.0040089423 -0.008202848
0000f0 b5 c3 98 3b 6e 09 85 ba 36 c4 26 b9 db df 67 bc
       0.004662002 -0.0010149905 -0.00015904088 -0.014152492
000100 8a f2 00 bc be 10 8f bb ff 7a ab 3a 12 c5 28 3c
       -0.007870326 -0.0043660095 0.001308292 0.0103008915
000110 b0 22 86 bc 76 0f 10 bd 72 3c 01 bc 8e 56 10 bb
       -0.016373962 -0.035170995 -0.007887946 -0.0022024247
000120 22 48 52 bb 61 bd d6 bb 8e 34 0b b8 cc 12 3e bb
       -0.0032086452 -0.0065533374 -3.3189128e-05 -0.0029002903
000130 18 d6 9c ba 65 e9 17 bc c8 6e 69 bc 34 96 85 3a
       -0.001196566 -0.009271954 -0.014247604 0.0010191859
000140 5a ba db bb a4 12 f6 bb 91 f7 89 3b 2a 78 b6 bb
       -0.0067055644 -0.0075095464 0.0042104204 -0.005568524
000150 6f 66 0e bc 84 9c a1 3a d3 cd 05 bb e9 53 89 3b
       -0.008691414 0.001232997 -0.002041687 0.004190911
000160 04 0b 04 ba 0c 7a e6 39 b5 02 e0 3b 9e 87 a0 3c
       -0.0005037042 0.0004395995 0.00683626 0.019595917
000170 0a 9f 1d 3b 38 37 c9 bb 75 16 84 3b e8 ee 1e bc
       0.0024051093 -0.006140616 0.0040309974 -0.009700514
000180 7e 18 1a bc 57 59 44 bc b6 ff 9d 3b 48 27 f9 b9
       -0.009405253 -0.011984191 0.004821743 -0.00047522248
000190 86 06 5e bc 88 a1 4e ba 1c 9c 68 bb 36 eb cd bb
       -0.01355136 -0.00078823464 -0.003549344 -0.006284143
0001a0 4c c7 9f 3a 6f a0 5e bb f8 09 3d bc d8 b5 74 bc
       0.0012190132 -0.0033970138 -0.011538021 -0.014935933
0001b0 9b 3d b5 bb b4 ee 86 b9 d5 c2 5f ba ed 65 ef bb
       -0.0055310256 -0.0002573632 -0.0008535807 -0.0073058517
0001c0 34 2d 19 bc 30 bd 0b 3c d3 ba c5 bb 70 5a 11 bc
       -0.009349156 0.0085289925 -0.006034234 -0.00887166
0001d0 73 04 89 bc cc d8 94 bb 22 09 ce bb 4c ec e0 bb
       -0.016725754 -0.0045424458 -0.00628771 -0.0068641063
0001e0 26 f3 62 bc 92 83 cb bb 62 81 95 bb d4 ba a2 3a
       -0.013851916 -0.0062107528 -0.004562543 0.0012415298
0001f0 92 50 5a bc 90 88 62 bc 0f 62 f7 bb 1d 65 75 bc
       -0.0133248735 -0.013826504 -0.0075495313 -0.014977721

blocks.0.fcn_layer.weight f4 [128, 128]
000000 40 8e 64 bd 8d 9f 6e 3d 7c 92 65 3d 87 7d 0e 3c
       -0.055799723 0.05825763 0.0560479 0.00869692
000010 dd e2 79 3d d4 ef 58 3d db 30 2b 3c 01 ed 5a bd
       0.06100737 0.052963093 0.01044866 -0.05344868
000020 1d 32 4e 3d 84 76 af 3b 2b 87 a8 3d a8 19 d3 bb
       0.05034076 0.0053547043 0.08228906 -0.0064422674
000030 d7 df 47 bd 4e c4 06 bd 37 98 fa bc 25 36 a3 3d
       -0.048797455 -0.032902054 -0.03059016 0.079693116
000040 c9 51 62 bb 67 3d 63 3d dd 92 e0 3c d9 01 88 bd
       -0.003453361 0.05547848 0.02741378 -0.066409774
000050 b6 51 77 bd ed 1b 32 ba 35 bd c7 bc 74 5a 08 3d
       -0.06038066 -0.00067943224 -0.024382213 0.033289388
000060 36 47 17 bd 8c a6 eb 3c d1 1c fb 3c 1c 04 13 bc
       -0.036933146 0.02876594 0.03065339 -0.008973148
000070 1a 0a 47 3c a6 57 6e bd 31 af b0 bc 7c c8 86 bd
       0.0121484045 -0.058189057 -0.021567913 -0.06581208
000080 86 5c a7 3d a4 a4 bd 3d 33 d6 64 3d f1 a2 84 3d
       0.08171944 0.09259918 0.05586834 0.06476391
000090 c3 fb 89 bc 9c 04 ad bb e6 26 3a bd 9a 96 00 bb
       -0.016843682 -0.0052800905 -0.045447253 -0.0019621016
0000a0 f9 ee b0 3c c5 49 e2 bc d9 92 38 3d 3f fc 88 3d
       0.021598326 -0.027623067 0.04506192 0.06688737
0000b0 48 2d 84 3d b1 ea 82 3c f6 1a 4a bd b1 ae 57 3d
       0.06453949 0.01598105 -0.04934212 0.052656833
0000c0 cb 26 29 3d ea 70 3b 3c 43 a6 aa 3c 34 eb f4 bc
       0.04129676 0.011440495 0.020831233 -0.02989731
0000d0 7e 76 0a bd 09 d3 98 bd 97 a4 19 3c 39 7f 32 bd
       -0.03380441 -0.07462127 0.00937762 -0.04357836
0000e0 42 9a ae 3d 56 fe d5 bc 9f 12 3b bd 07 66 9c bd
       0.08525516 -0.026122253 -0.045672055 -0.07636648
0000f0 5f af 08 bd 28 4c e8 3c ac 87 79 bd a4 1b 1c 3d
       -0.033370372 0.028356627 -0.060920402 0.038112298
000100 43 88 79 3d d2 12 6c bc 08 ab 48 3d 4a f4 e4 ba
       0.060920965 -0.014408784 0.048991233 -0.0017467823
000110 5f 13 bb 3c 84 bc 35 bd e8 29 82 3d d7 b1 16 ba
       0.022836385 -0.044369236 0.06355649 -0.0005748546
000120 98 3b 7d bc 1b cd 45 3c 2e 04 e5 3c b1 36 4b 3d
       -0.015456103 0.012072827 0.027956095 0.049612705
000130 ae 6f a2 3d ca 44 ed 3c 01 84 28 bd 83 1e 5d 3d
       0.079314575 0.028963465 -0.041141514 0.053984176
000140 19 96 75 3d c5 24 96 bd 4b 6a 56 bd e7 48 4d bd
       0.059957597 -0.07331232 -0.052347463 -0.050118353
000150 00 59 6f bd 2d 58 35 3d ef 5a 4a bd 6e 11 aa bc
       -0.058434486 0.044273544 -0.049403127 -0.020760264
000160 22 b8 9f 3d 71 14 1b bd 18 05 c4 3d ef 4d 36 3c
       0.077987924 -0.03786129 0.09571284 0.011126979
000170 c5 aa 21 bd 96 6d 9f b9 89 b2 31 3b 69 fa 35 3d
       -0.0394695 -0.0003040849 0.0027114472 0.044428263
000180 42 41 7c bd 52 cb ae bd c8 95 a9 3c 55 21 c2 3d
       -0.061585672 -0.08534874 0.020701304 0.09479014
000190 47 9e 43 bc a5 a5 3b bd 69 d2 8a 3d b5 a4 ae 3a
       -0.011939592 -0.045812268 0.06778414 0.0013324233
0001a0 a3 ff 74 bd 1b 6f 62 bd d1 d9 9e bc 57 ff 1f 3d
       -0.059814107 -0.05528174 -0.019390972 0.03906187
0001b0 37 2f 7f bc da f9 4f 3d dc 67 2d bd 06 7c 24 3c
       -0.015575222 0.050775386 -0.042335376 0.010039335
0001c0 51 91 f7 3b c0 cc 88 3c 2c 1b 14 3d a6 96 35 bd
       0.007555165 0.016699195 0.036158726 -0.044333123
0001d0 d2 95 59 bd 9b 6b 17 bc fa 91 68 3d 79 75 bb 3d
       -0.053121395 -0.009241964 0.05677984 0.091532655
0001e0 2c 5e 14 3d 33 1a 0f bc d8 3e 3b 3d 43 50 aa bc
       0.03622262 -0.008734274 0.04571423 -0.020790225
0001f0 04 1a 10 bd fa 7a 4e bc 4e 45 22 3d 05 52 a6 3d
       -0.03518106 -0.012602562 0.039616875 0.08121113
000200 d0 96 31 bd 12 92 b1 3c cf 76 aa bc 89 bc 4b bd
       -0.043356717 0.021676097 -0.020808605 -0.049740348
000210 52 af 80 3d 3f eb 8d bd 84 8c a4 3b ff ef aa 3d
       0.0628344 -0.06929635 0.0050216336 0.08346557
000220 62 80 75 bc 24 26 d2 bc 0b fa 54 3d 16 ad 0e 3e
       -0.014984222 -0.025652952 0.051996272 0.13933215
000230 b3 7e ae bd ef 3c 3f 3d 1b 93 b5 3d f9 b9 ed bb
       -0.0852026 0.04668897 0.08865949 -0.0072548357
000240 18 9d 3a bd 0e ad b7 3d d9 9c ba 3c 30 b1 ab 3d
       -0.045559973 0.089685544 0.022779869 0.08383405
000250 5b 52 91 bc c4 46 52 3d 51 43 07 bc 29 d3 b6 3b
       -0.017739465 0.05133702 -0.008255796 0.0055793715
000260 cb 6f ab 3c e9 58 71 bb b9 3e 40 3d f8 de 87 3c
       0.02092733 -0.0036826676 0.046934817 0.016585812
000270 a0 28 69 3d 03 6a 9f bc 09 ae 23 3d 6f 8d 60 bd
       0.05692351 -0.01945973 0.039960895 -0.05482238
000280 79 92 a4 bd 54 4a 86 bd 49 e4 0a 3d 81 7b 91 bd
       -0.0803575 -0.06557146 0.033909116 -0.071036346
000290 22 98 71 3d d6 6c 87 bd 60 47 58 bd 91 57 18 3d
       0.058982976 -0.06612556 -0.052802444 0.037192885
0002a0 ea f4 18 3d df 30 66 3d 8a f6 a6 3c 1f 2e 97 3d
       0.037342943 0.05619895 0.02038123 0.07381844
0002b0 7c 5d 1b 3d 46 a8 01 bd df 3b b8 bc c8 36 88 bc
       0.03793095 -0.03165462 -0.022489486 -0.016627684
0002c0 34 a4 1e 3d 06 78 f5 bc 02 76 b2 bd 8c 53 08 3d
       0.038730815 -0.029964458 -0.087139145 0.0332828
0002d0 f1 16 0d 3d bc 0b 5b 3d 71 f0 e7 bd 75 3c 41 bd
       0.034445707 0.053477988 -0.113251574 -0.047176797
0002e0 35 f5 22 3d af 1d 9c bb 66 1c e3 3c 26 83 35 3c
       0.03978463 -0.0047642807 0.027723502 0.0110786315
0002f0 db dc 32 3d 66 b7 2c bd 05 d2 89 3c 04 d7 bc 3d
       0.043667655 -0.04216709 0.016823778 0.092206985
000300 7f 40 36 bd b9 36 95 bb 74 94 28 3d 6e 31 a9 bb
       -0.044495102 -0.0045536426 0.0411572 -0.005163363
000310 4e b1 33 bb 35 8a 68 3d 33 f1 1b bd f0 d1 88 3d
       -0.0027418914 0.05677243 -0.038071822 0.066806674
000320 1f e4 75 3c d0 c2 ab bd e7 df 94 3d ba f7 16 bc
       0.015008002 -0.08386767 0.072692685 -0.009214336
000330 ec 18 7d bd ef 4d 55 bd 9a 4a 63 bd 48 20 9b bc
       -0.061791345 -0.052076276 -0.055491067 -0.018936291
000340 77 27 fc bb 80 6a cb bc d9 81 3e 3d d3 d5 97 bd
       -0.0076951343 -0.024831057 0.04651055 -0.074138306
000350 96 a6 59 3c df 94 53 3d 2c dc 04 3c 73 14 bd bd
       0.013284346 0.051655646 0.008109134 -0.09232416
000360 4f 4e 9e 3b 06 91 86 3d 11 99 69 3d c0 e8 12 3d
       0.0048311125 0.0657063 0.05703074 0.0358665
000370 e8 8b 98 3c 1a a8 1b bd 2f 3c f5 bb 15 d9 ae bd
       0.0186214 -0.03800211 -0.007483981 -0.08537499
000380 20 c4 96 bd 03 55 94 bd c2 da be 39 d3 09 e1 bd
       -0.073616266 -0.07242777 0.0003640261 -0.10988202
000390 f8 8e 75 3d 6d 28 86 3d 37 cf ed 3c 35 03 89 bd
       0.0599508 0.06550679 0.029029472 -0.06690065
0003a0 02 2c 9a 3c e4 70 ca 3c 5c 2a 61 bc 0f 19 0a bc
       0.018819813 0.024712034 -0.013743009 -0.008428826
0003b0 81 80 8e 3c fc 71 7a 3d de de 86 bd 55 30 cf 3c
       0.01739526 0.06114386 -0.06585477 0.025291601
0003c0 ad 4a ac bc 34 08 c7 bc 21 35 69 3c 23 32 38 bc
       -0.021031702 -0.024295904 0.014233858 -0.011242422
0003d0 33 e4 b9 3c 34 13 cb 3c 5b 93 51 3c f2 31 6a bd
       0.022691822 0.02478943 0.01279148 -0.057176538
0003e0 09 e6 19 3d 67 d6 58 bc b5 82 1e 3d 3c 26 16 3d
       0.037572894 -0.013234711 0.03869887 0.036657557
0003f0 a3 96 42 3d 52 d0 2f bc de fd 9a bd d1 7d 98 bd
       0.04750694 -0.01073082 -0.075679526 -0.074458726

blocks.0.fcn_layer.bias f4 [128]
000000 4d bf c1 3d 9e 72 0e 3d 4f fd 41 3d e3 59 94 3c
       0.09460316 0.034777276 0.047360715 0.018109268
000010 a2 d1 93 bd 39 e5 82 bc ea 12 69 3c 89 d2 7d bc
       -0.07217719 -0.015978443 0.014225701 -0.01549209
000020 38 38 c6 bc 15 d7 3a 3d 6e e5 03 bd ce b4 e3 bc
       -0.024196729 0.045615274 -0.032201223 -0.027796175
000030 41 37 a9 bd 3d 70 35 bb 24 80 98 bd 3c 03 a8 bd
       -0.08262492 -0.0027685307 -0.07446316 -0.08203742
000040 fe de 8c 3d 9b 91 56 bc 77 eb ce b9 85 6d ba 3b
       0.0687847 -0.0130962385 -0.00039466817 0.0056893253
000050 50 7c 3c 3d d3 30 f3 bc b6 0e 3e 3d d9 56 b5 3c
       0.04601699 -0.029686367 0.04640075 0.022136139
000060 35 cf 2e bd 1c af 2e 3d 42 dc b3 bb 22 02 ea bc
       -0.042678077 0.042647466 -0.0054889033 -0.02856547
000070 0b d5 a4 bd de 1f 9a 3c 65 3e 0c 3c c7 c0 8f bd
       -0.08048447 0.018814024 0.008559798 -0.07019191
000080 82 93 81 3d b0 ee b8 3a 1d 89 61 bd ac db cf 3c
       0.06326963 0.001410922 -0.055062402 0.025373302
000090 f9 c9 99 bd 56 7a a4 3d cc df 98 bc b2 83 39 3d
       -0.07509226 0.08031146 -0.018661402 0.04529161
0000a0 26 27 44 bd d5 1d 0e bd 92 d9 e5 3c 8e 00 8b 3c
       -0.047888897 -0.03469642 0.028057847 0.016968038
0000b0 bb ad df 3c 92 1d 86 bd a5 a8 44 bd 5f 12 ba bc
       0.02730452 -0.06548609 -0.048012394 -0.022713838
0000c0 6f 1e 78 3d 10 4a 52 3d af 6f 4a bd 4f c7 18 bc
       0.0605759 0.051340163 -0.049422916 -0.009324863
0000d0 ab a9 95 bd df cf cc 3c 55 81 86 3c 1a da a3 3c
       -0.07307752 0.025001464 0.016419092 0.02000146
0000e0 ca 88 a2 3c 32 4b 24 3d 0c c3 8b bd cd c6 99 bd
       0.019840617 0.040110774 -0.068243116 -0.07508621
0000f0 ea a3 0e bd 35 90 ce 3c 98 23 c3 bc 15 4f a8 3d
       -0.03482429 0.025215248 -0.023820683 0.08218209
000100 a9 4a 7b bd 66 9d ff bc b7 fd 3e bd 1f d0 ad 3a
       -0.0613505 -0.031202983 -0.04662868 0.0013260877
000110 c4 8e 45 3d d5 91 6e bd 85 82 3e bc 59 df ee bc
       0.048231855 -0.058244545 -0.011627798 -0.029159235
000120 1f 9e a9 bd ed 8a 1d 3d e9 9f 44 bd fa 84 96 3d
       -0.08282112 0.038462568 -0.048004065 0.07349582
000130 ca 3c 80 bd d4 a8 72 bd 5a e9 86 bd 4a f8 5e bd
       -0.062615946 -0.05924304 -0.06587477 -0.054436006
000140 e9 c5 8a bc e7 4e 9f 3d dd c6 1b bd 84 f6 6d bc
       -0.016940074 0.07778721 -0.038031448 -0.014524106
000150 dd 0f 31 bd 7f 7d b1 3c 0e 6e 4f bd cb fe d3 bb
       -0.04322802 0.021666287 -0.050642066 -0.0064695827
000160 f2 67 ac bd e3 2b 86 bd cc 97 8e 3d 59 55 db ba
       -0.084182635 -0.065513395 0.06962547 -0.001673381
000170 cf 91 72 3d 75 e5 8b bd 9c 49 9f bd f0 a8 66 3d
       0.059221085 -0.06830875 -0.07777712 0.056313455
000180 28 ba ce bc f1 f3 1f 3d 51 c6 17 3d 16 c0 4c 3d
       -0.02523525 0.039051 0.037054364 0.049987875
000190 ff 26 a5 bb 90 ad a2 3d fd 52 c6 3c ea 73 ad 3d
       -0.005040049 0.07943261 0.024209494 0.084693745
0001a0 9d b2 bd bd 5f 80 81 3d 5e 1e 83 bd ac 15 4d 3c
       -0.092625834 0.06323313 -0.064022765 0.012517374
0001b0 28 d9 93 3d 59 0f 35 bd 51 d1 a0 bd dd 1a 6f bd
       0.07219154 -0.04420409 -0.07852424 -0.05837523
0001c0 71 f3 99 bd 26 fa bd 39 05 5c 58 bc ba 93 56 bd
       -0.07517136 0.00036235264 -0.013205533 -0.052386977
0001d0 10 6c 2e 3c 4d 35 95 3d 7f 2c f6 bc 80 75 91 3b
       0.010645881 0.07285557 -0.030050514 0.004439056
0001e0 66 f2 a2 bd 82 c6 a1 bd 43 94 17 bc 9d 32 a5 3d
       -0.0795639 -0.078991905 -0.009251657 0.08066294
0001f0 cb 4c 0e 3d 52 c4 fe bc b7 e6 27 3d 1b cf 57 3c
       0.034741204 -0.031099472 0.04099151 0.013171936

blocks.0.layer_norm.weight f4 [128]
000000 d9 7f 87 3f 8f 05 91 3f 41 f7 81 3f c4 d6 83 3f
       1.0585891 1.1329821 1.0153581 1.0299916
000010 4a cb 89 3f 07 84 89 3f 7b 55 8c 3f 61 73 8c 3f
       1.0765164 1.0743417 1.0963587 1.0972711
000020 74 a3 8c 3f 48 d6 85 3f 2a 0f 8e 3f 43 b2 8b 3f
       1.0987382 1.0456018 1.1098378 1.0913776
000030 47 cc 7e 3f 75 8c 82 3f 95 c3 89 3f e6 69 82 3f
       0.9953045 1.0199114 1.0762812 1.0188568
000040 ea 6c 7f 3f ad 2b 85 3f e2 a7 81 3f 3e c6 89 3f
       0.99775565 1.0403954 1.0129359 1.0763624
000050 44 5d 83 3f a9 f7 7e 3f ba e5 89 3f e0 b0 82 3f
       1.0262837 0.9959665 1.0773232 1.0210228
000060 04 90 7e 3f 20 f4 7f 3f 48 62 86 3f ad 0a 83 3f
       0.994385 0.9998188 1.0498743 1.0237633
000070 8e c2 88 3f a4 26 8b 3f 88 c2 83 3f aa 64 86 3f
       1.0684373 1.0871167 1.0293741 1.049947
000080 bc 83 80 3f ff 3d 92 3f fd a5 83 3f 74 13 80 3f
       1.0040202 1.142517 1.0285031 1.0005937
000090 9b 3d 7f 3f be 69 83 3f 51 99 80 3f bd 3c 82 3f
       0.9970338 1.0266645 1.0046788 1.0174786
0000a0 67 b6 81 3f 71 81 84 3f 1b 51 80 3f 31 f9 8a 3f
       1.013379 1.0352002 1.0024751 1.0857297
0000b0 cc f8 83 3f 15 f4 89 3f 8f 57 83 3f b3 f8 83 3f
       1.0310302 1.0777613 1.0261096 1.0310272
0000c0 fe 02 83 3f 7e f6 80 3f ff dd 80 3f 00 03 8e 3f
       1.0235288 1.0075223 1.0067748 1.1094666
0000d0 48 91 80 3f ea 6f 89 3f e6 77 88 3f 9c 79 8b 3f
       1.0044336 1.0737278 1.066159 1.0896487
0000e0 f9 4d 82 3f ea 63 82 3f 3e 8b 80 3f 3b 8c 8b 3f
       1.0180045 1.0186741 1.0042493 1.090217
0000f0 0f 30 91 3f 8d aa 7f 3f 9f 81 88 3f e2 91 7b 3f
       1.1342791 0.99869615 1.0664557 0.98269475
000100 79 9d 84 3f d5 0a 81 3f 81 01 8e 3f f4 68 84 3f
       1.0360557 1.0081431 1.1094209 1.0344529
000110 8b 54 8f 3f d0 7d 87 3f 77 25 8a 3f 0f 6f 81 3f
       1.1197675 1.058527 1.0792683 1.0112017
000120 8f 92 94 3f a7 1d 82 3f c4 93 8b 3f 8e 75 86 3f
       1.1607226 1.0165299 1.090447 1.0504625
000130 f0 94 82 3f b8 25 86 3f ee b4 83 3f d1 fe 84 3f
       1.0201702 1.0480261 1.028959 1.0390264
000140 fe ba 84 3f 09 89 85 3f 2a 8f 81 3f cd 0e 8b 3f
       1.0369565 1.0432445 1.0121815 1.0863892
000150 bc 8c 82 3f 11 8d 80 3f 35 5a 83 3f b0 b7 83 3f
       1.0199199 1.004305 1.0261904 1.0290432
000160 d2 bd 80 3f 68 d6 8a 3f 6f fa 84 3f 00 1e 8f 3f
       1.0057929 1.0846682 1.0388926 1.118103
000170 78 f0 92 3f 3b 89 8b 3f e3 94 8b 3f 48 29 86 3f
       1.1479635 1.0901254 1.0904812 1.0481348
000180 97 67 85 3f ef 92 82 3f 1b ac 8d 3f e8 f2 8a 3f
       1.0422238 1.020109 1.1068147 1.0855379
000190 59 f4 7f 3f 38 42 84 3f ec 41 85 3f 0f bc 82 3f
       0.9998222 1.0332708 1.0410743 1.0213641
0001a0 67 7f 84 3f 21 e6 81 3f 23 0e 89 3f 40 0a 7c 3f
       1.035138 1.0148355 1.0707439 0.9845314
0001b0 e3 70 83 3f e7 f2 85 3f b1 9b 86 3f bc 9d 79 3f
       1.0268825 1.0464753 1.0516263 0.9750631
0001c0 4b 95 83 3f 17 6c 84 3f 3f 7b 88 3f 2e 87 7f 3f
       1.0279936 1.0345486 1.0662612 0.9981564
0001d0 18 d2 88 3f a6 bc 88 3f 50 87 8f 3f c3 a3 7d 3f
       1.0689116 1.0682571 1.1213169 0.99078006
0001e0 df 26 85 3f 19 2a 83 3f 76 40 84 3f 1f 32 83 3f
       1.0402488 1.0247222 1.0332172 1.0249671
0001f0 50 9a 82 3f b9 10 97 3f 18 b5 83 3f 6b 8a 82 3f
       1.0203342 1.1801978 1.028964 1.0198492

blocks.0.layer_norm.bias f4 [128]
000000 1e 8b 10 3d df 91 c0 3d 77 32 73 3c 4b 8e 93 3c
       0.035288922 0.09402823 0.014843575 0.018012187
000010 79 39 83 3c 9c 6a 87 3d b5 3a b9 3c 3c f9 a9 3d
       0.016018616 0.06612131 0.022611002 0.08299491
000020 12 c2 9d 3d 0b bc ca 3c d8 52 6f 3d 79 17 9b 3d
       0.077030316 0.024747869 0.058428615 0.075728364
000030 6b 92 2c bc 14 51 37 bb a3 b7 0c 3d bf ca 2f 3b
       -0.010532956 -0.002797191 0.034354817 0.0026823727
000040 f2 6d e2 ba 02 5f 8b 3c d1 99 20 bc 16 d2 87 3d
       -0.0017275198 0.017013077 -0.009802298 0.066318676
000050 67 74 34 3c 03 bc 37 bc 19 71 2e 3d 21 2a 42 b9
       0.011014081 -0.011214259 0.042588327 -0.00018516976
000060 db 91 ce ba 3c bf bb bb 20 1e ee 3c 40 86 69 3c
       -0.0015760021 -0.005729584 0.0290671 0.014253199
000070 5e db 8e 3d 54 26 4c 3d e7 d0 c9 3c bf 21 11 3d
       0.06975435 0.04984124 0.024635745 0.035432573
000080 52 36 89 3b 55 20 bd 3d 2d 51 86 3c d0 c3 22 bb
       0.0041873837 0.092346825 0.01639613 -0.0024835952
000090 97 3c f0 bb aa a9 84 3c 9f 35 bc bb f8 6c 69 3c
       -0.0073314416 0.016194183 -0.005743697 0.014247172
0000a0 1e 1d 0e 3b b1 db b1 3c 46 41 2b ba ec 02 ac 3d
       0.0021684836 0.021711202 -0.0006532859 0.08398995
0000b0 4e 70 b2 3c f6 d6 86 3d 9b 76 fe 3b 1e b7 17 ba
       0.021782067 0.06583969 0.0077656037 -0.00057874795
0000c0 e2 b2 1c 3c 87 a4 87 3c c5 0d 5a 3c 81 89 00 3d
       0.009564133 0.016557945 0.013308947 0.031381134
0000d0 fa 23 eb 3b bc e7 fb 3c cc ee 78 3d cf cc 8a 3d
       0.0071759196 0.030750148 0.06077461 0.067773454
0000e0 9e df 4b 3c 35 fc 24 3c fb e1 02 3c 88 73 99 3d
       0.012443451 0.0100698965 0.007988448 0.07492739
0000f0 59 09 bb 3d fa 23 2d 3b b9 2f a1 3d fd d2 5e bd
       0.09132642 0.0026419149 0.078704305 -0.054400433
000100 41 7a 32 3c 2f 29 ed 3b 3e f1 38 3d 0d ca ab 3c
       0.010893405 0.0072375755 0.04515194 0.020970369
000110 2d 46 b7 3d 36 1a c6 3c b2 03 7d 3d 28 27 24 3c
       0.08948932 0.02418242 0.061771102 0.010019101
000120 f6 48 e2 3d ad ed 4f 3b 8d 4b b9 3d ed 22 ff 3c
       0.110490724 0.003172736 0.09047613 0.031144584
000130 0e a2 ee 3b 69 ba 1a 3b df 84 3f 3c 6e 43 15 3c
       0.007282502 0.0023609644 0.011689394 0.009110315
000140 80 53 5c 3c 62 11 94 3d 61 a0 d0 b9 df b9 91 3d
       0.013447642 0.07229878 -0.00039792343 0.0711553
000150 e1 d7 26 3c a9 f6 96 3b 81 c0 27 bb 29 4b a9 3c
       0.0101833055 0.004607041 -0.002559692 0.020665722
000160 de a3 e8 3a 01 61 ad 3d 58 57 86 3c 16 f3 af 3d
       0.0017749032 0.08465768 0.01639907 0.08591287
000170 80 4a e4 3d 4e c8 a1 3d d1 88 84 3d a9 7c 8c 3d
       0.11147022 0.07899533 0.06471408 0.068597145
000180 5e 42 af 3c e2 ab 41 3b d1 0e b5 3d 6c 21 9d 3d
       0.021393951 0.0029551913 0.08840717 0.0767239
000190 67 95 b4 bb 42 34 e4 3b 0e a0 87 3c 93 59 61 3c
       -0.005510974 0.0069642374 0.016555812 0.013754266
0001a0 de b1 91 3c ca 8c 1c 3b 0e 19 81 3d 2c aa c3 bb
       0.017785009 0.0023887628 0.06303607 -0.005971214
0001b0 de cd 73 3c 5f 79 ef 3c 01 9b b9 3c 8c a4 14 bb
       0.0148806255 0.029232679 0.02265692 -0.0022681085
0001c0 2f f7 bb 3b 4b 94 b8 3c 83 83 9c 3c b7 35 cf ba
       0.0057362537 0.02253165 0.019105678 -0.0015808855
0001d0 b0 35 ca 3c 87 92 8e 3d ca 6b c1 3d 76 77 90 bc
       0.024683803 0.069615416 0.09444387 -0.017635088
0001e0 0d fc c5 3b d0 f7 76 3b 30 e3 39 3c 0e 01 33 3c
       0.0060420097 0.003768433 0.01134567 0.010925544
0001f0 a4 15 53 3c 16 d2 fd 3d de 07 21 3c ca bd 72 3c
       0.0128835775 0.12393586 0.009828536 0.014815757

last_layer.weight f4 [1, 128]
000000 13 63 00 3d c6 87 1b be ff e1 d0 3c 8c 74 a4 3d
       0.031344485 -0.15188512 0.025498388 0.08030042
000010 6c c1 c8 3d 1c 7b 18 be e1 cd 27 3e c6 52 db bd
       0.09802517 -0.14890712 0.1638713 -0.10709147
000020 8d ec fa bd ad 39 f9 3d ea ad 27 be 20 7d f7 bd
       -0.1225215 0.12169204 -0.16374937 -0.120844126
000030 d1 d3 66 3c e6 aa 8c 3d 2c 12 ea 3d cc 9c 9f 3d
       0.014088587 0.06868534 0.11429247 0.077935785
000040 9c 8c 8c bd 88 92 f4 3d 92 f6 99 3c 04 7b 18 be
       -0.068627566 0.11942011 0.018794332 -0.14890677
000050 f7 33 da 3d 32 78 38 3d 64 ed 1f be ab 3d ce 3d
       0.10654443 0.045036502 -0.15617901 0.10070356
000060 02 78 59 3b e3 48 c7 3c ce ed d3 3d e5 f6 ca 3d
       0.0033183102 0.024326747 0.10348092 0.09910373
000070 4e 81 c9 bd 69 2f fe 3d 61 e9 b9 3d 29 d6 7f 3d
       -0.09839116 0.124113865 0.090777166 0.0624601
000080 66 f6 b0 bc 89 fe 18 be f3 fd dd 3d 19 7c e0 3b
       -0.021601867 -0.14940847 0.108394526 0.006850731
000090 c2 f2 92 3c 8e ee ad 3d 02 2f a8 3d 1c 2f 8b 3d
       0.017938022 0.08492766 0.08212091 0.06796095
0000a0 a7 52 8d 3c 1e 1b 79 3d 28 e9 39 3c 54 18 e2 bd
       0.017251326 0.060816877 0.011347093 -0.110397965
0000b0 91 c8 88 3c ae e4 17 be 14 05 d1 3d 56 47 70 3d
       0.0166972 -0.14833328 0.10206047 0.05866178
0000c0 4d b9 75 3d 59 6d 3b 3c f3 3c d1 bc 3b 35 f9 3d
       0.05999117 0.011439645 -0.025541758 0.12168356
0000d0 f8 fd 26 3c c1 e0 b3 3d c0 bd 12 be 12 3f 29 be
       0.010192387 0.08783103 -0.14330196 -0.16527966
0000e0 8f 0d 9b 3d 6b f5 8d 3c d9 ff 78 bd d6 83 fd bd
       0.075709455 0.017328938 -0.06079087 -0.12378661
0000f0 fe bc 08 be 74 26 5b 3b 6c 9b 9d bd 45 b1 53 3d
       -0.13353345 0.0033439668 -0.0769566 0.05168273
000100 6e 9c c0 3d 79 3c 15 3c 79 27 40 3e 12 a7 85 3d
       0.094048366 0.009108656 0.18765058 0.06526007
000110 86 04 05 be e9 ee 0b 3e 01 b8 0f be 96 9c 8f 3d
       -0.12990007 0.13665356 -0.14035036 0.07012288
000120 c8 85 0f be be 45 78 3d 3f 08 f2 bd 46 12 7d 3d
       -0.14015877 0.060613386 -0.11817979 0.061785005
000130 05 9c 5f 3d 7a 3a a4 3d a9 ca e5 3d fd ac f8 3d
       0.05459215 0.08018966 0.11220295 0.1214237
000140 5a da d5 3d 12 ce 60 bd 2c c5 0c 3d 43 5f 15 be
       0.10442038 -0.054884024 0.034367725 -0.1458712
000150 b5 f1 32 3d 46 46 b3 3d b7 cc b6 3d ab f3 48 3d
       0.04368754 0.08753638 0.08925765 0.049060505
000160 fe 5f 20 3d 67 db a9 bd 03 df 74 3d 6c e4 3d be
       0.039154045 -0.08293801 0.059782993 -0.18544167
000170 20 c7 22 be 51 50 1c be ff bb 28 be c3 f5 aa bd
       -0.15896273 -0.15265013 -0.16477965 -0.083476566
000180 cd cb c5 3d 13 c2 b2 3d 6f de 23 be fe 0a 25 be
       0.096580125 0.08728423 -0.1600282 -0.16117474
000190 75 1b ac 3b f0 53 01 3d 98 3e 5f 3d 9c 14 f7 3c
       0.0052522966 0.03157419 0.054503053 0.030161195
0001a0 1e 7e 15 3d 41 37 af 3d 84 91 15 be 7f d1 8b bc
       0.036497228 0.08555461 -0.14606291 -0.017067669
0001b0 a3 1a bc 3d 19 6b 7c 3d 74 7c e2 3d f1 1a d0 bc
       0.09184768 0.061625574 0.11058894 -0.025403472
0001c0 22 8c a0 3d b1 77 ab 3d dd ec 61 3d 52 bd 2f 3b
       0.07839228 0.08372439 0.05515753 0.0026815725
0001d0 ce 22 52 3d 08 91 0c be d8 fa 14 be 67 2c a2 3d
       0.051302724 -0.137272 -0.14548814 0.07918625
0001e0 05 78 e3 3d c7 fb aa 3d 23 3f 82 3d c2 86 ab 3d
       0.11106876 0.08348804 0.063596986 0.083753124
0001f0 94 cd c2 3d 00 f3 5c be 44 8b bd 3d 52 41 70 3c
       0.09511867 -0.21577072 0.092550784 0.014664011
