wkey/openwakeword_models/onnx/hey_computer9.onnx (onnx, 859394 bytes, 9 tensors)

layer1.weight f4 [128, 1536]
-0.02586104 -0.005751944 0.0018259842 -0.008934607 -0.0121685155 -0.0143432105 0.008463165 0.022903927
0.02564618 0.023707414 -0.023451943 -0.020114565 0.03252899 -0.009976957 0.01115991 -0.018808266
0.027465895 -0.017433288 -0.018083466 0.019313404 -0.014397004 0.0039260834 0.0073778993 0.0103421435
0.0048584193 0.0006221726 -6.0060072e-05 0.018613404 0.02628175 0.0170754 -0.00898414 0.023649717
0.0099473 0.0024389909 0.022318084 -0.019007044 -0.012370696 -0.011973547 -0.00391326 0.0005877476
0.017278599 -0.0060253222 0.019530995 0.006833577 0.026393617 -0.002483821 -0.0020889982 -0.01695992
0.013306931 0.01216463 0.0127289565 0.0011313923 0.024472013 -0.018723633 0.0007515218 -0.023011595
0.023926536 0.00090833625 -0.0017543143 -0.0076257237 -0.023910608 0.020391919 -0.012968701 -0.024461344
0.006723162 0.0024358574 -0.000103462015 0.0129267005 -0.013785204 0.025089005 -0.026973708 0.008182474
0.014934434 -0.021108111 -0.0035927454 0.008114127 -0.015196353 -0.0063915863 0.01630658 0.0018852167
0.012221844 0.0010551303 -0.016224343 0.010555948 0.012437803 0.029847028 8.000136e-05 -0.014239006
-0.0016279157 0.014581148 0.016009102 0.002181642 0.014778855 0.019826753 0.037147254 -0.0056129727
-0.017424969 0.009325691 -0.016062323 0.0071905437 -0.012825584 0.013033001 0.018058648 -0.01098553
0.029513536 -0.023794048 -0.019204197 0.017420307 0.024401525 -0.007423356 0.0028422393 -0.008889857
0.00068634807 -0.011906746 0.00527249 -0.01371253 -0.003288672 0.017055295 -0.00216142 0.026643246
-0.009670596 0.011105012 0.0030572854 0.027451474 -0.009951464 0.017342933 0.02071819 0.0027805807
0.012943394 -0.004461899 0.0032881482 0.015535293 -0.020930361 0.0018619299 -0.005180789 -0.018817881
0.0039561396 0.023204973 0.011976778 0.019010749 -0.01127029 -0.017584128 -0.014874512 -0.002825296
0.027586857 0.0136633115 -0.0016898252 0.0069362144 -0.013248703 -0.019684605 -0.00802537 0.008220603
0.02135361 0.0050784904 0.008603646 -0.010152175 -0.020001097 -0.0016009624 -0.026288535 -0.01547819
0.004992373 0.008388586 -0.008055454 0.005386227 -0.00020325407 -0.019490318 -0.012580771 0.025379019
-0.006514522 0.001909939 0.009764584 -0.00021690167 0.0019435228 0.018173374 -0.008598343 -0.026082369
-0.027540432 0.019585708 0.021501388 -0.013873266 0.024752941 0.0038812745 0.028366592 0.010695951
-0.006155939 -0.025005272 -0.022695193 0.017643463 -0.007722755 -0.0063231024 -0.010789053 0.011554236
-0.022725904 -0.020244466 -0.0037924626 0.009019681 -0.016779162 -0.007904823 -0.019280933 -0.0042666877
0.040044673 -0.009997567 -0.008521072 -0.0053520654 0.020460723 0.0021664177 0.02092856 -0.0032052384
0.0198344 -0.02944149 -0.0007144604 -0.0047978354 0.0153728295 -0.018279199 -0.028098581 -0.0051726354
-0.0018131386 0.016600229 0.00013417855 0.02925859 -0.006910505 -0.0023489057 0.016524734 -0.02210277
0.01056166 -0.007983938 0.021868898 0.005696408 -0.019144788 -0.023878446 -0.007468406 -0.0059566754
-0.006201795 0.0009325228 0.004004184 -0.02132253 0.020290429 0.0023315744 -0.006884547 0.004155514
-0.0052296547 0.007231803 -0.0017293834 -0.006784752 -0.012122392 -0.024338147 0.011983427 0.004557319
0.020462662 0.004968822 -0.01914795 -0.007342985 -0.021478122 -0.015036833 -0.008713231 -0.025143951
00000000: 88da d3bc ce7a bcbb dd55 ef3a 7562 12bc
00000010: 745e 47bc c9ff 6abc 16a9 0a3c 04a1 bb3c
00000020: f017 d23c 0d36 c23c 4a1e c0bc 4dc7 a4bc
00000030: 1e3d 053d 6476 23bc 0ed8 363c cb13 9abc
00000040: 2800 e13c 41d0 8ebc c723 94bc 2537 9e3c
00000050: 69e1 6bbc 60a6 803b 4ec2 f13b 1872 293c
00000060: 6033 9f3b 4c19 233a 03e9 7bb8 237b 983c
00000070: d34c d73c b6e1 8b3c 3732 13bc 0dbd c13c
00000080: 00fa 223c 7ad7 1f3b 6ad4 b63c a9b4 9bbc
00000090: 76ae 4abc b22c 44bc ce3a 80bb 1313 1a3a
000000a0: d98b 8d3c 1170 c5bb 77ff 9f3c 33ec df3b
000000b0: 6d37 d83c 9ac7 22bb 93e7 08bb 88ef 8abc
000000c0: 5005 5a3c 284e 473c 1d8d 503c 3a4b 943a
000000d0: 8879 c83c 4e62 99bc c601 453a d082 bcbc
000000e0: 9501 c43c 6a1d 6e3a 05f1 e5ba 35e1 f9bb
000000f0: 2ee0 c3bc f40c a73c ad7a 54bc 2863 c8bc
00000100: f84d dc3b e8a2 1f3b bff9 d8b8 83ca 533c
00000110: 56db 61bc 7587 cd3c f7f7 dcbc c90f 063c
00000120: 8eaf 743c ebea acbc 4474 6bbb 1ef1 043c
00000130: 20fa 78bc 8370 d1bb 6095 853c 6019 f73a
00000140: 213e 483c 4c4c 8a3a eae8 84bc dbf2 2c3c
00000150: edc7 4b3c c181 f43c 67c6 a738 b84a 69bc
00000160: c95f d5ba c4e5 6e3c 8525 833c e1f9 0e3b
00000170: 0323 723c b76b a23c b827 183d 07ed b7bb
00000180: cfbe 8ebc c8ca 183c 2295 83bc a79e eb3b
00000190: 6622 52bc 5e88 553c bbef 933c a7fc 33bc
000001a0: 5fc6 f13c bceb c2bc 1f52 9dbc 08b5 8e3c
000001b0: b5e5 c73c a03f f3bb dd44 3a3b c3a6 11bc
000001c0: 0aec 333a 8314 43bc dac4 ac3b 85aa 60bc
000001d0: c386 57bb 8cb7 8b3c 9ca6 0dbb f042 da3c
000001e0: 6b71 1ebc ccf1 353c bd5c 483b eae1 e03c
000001f0: 770b 23bc c412 8e3c 32b9 a93c 673a 363b
00000200: 8710 543c 1f35 92bb f97d 573b be87 7e3c
00000210: 2676 abbc 000c f43a 9cc3 a9bb f527 9abc
00000220: 81a2 813b 5b18 be3c 3f3a 443c 6ebc 9b3c
00000230: 06a7 38bc 970c 90bc 3ab4 73bc 9a28 39bb
00000240: d5fd e13c 15dc 5f3c 207d ddba 2f49 e33b
00000250: 1711 59bc 9c41 a1bc d77c 03bc b5af 063c
00000260: c4ed ae3c 7769 a63b 4ff6 0c3c 4f55 26bc
00000270: 57d9 a3bc 62d7 d1ba 0e5b d7bc 3c98 7dbc
00000280: 0f97 a33b 4870 093c 06fb 03bc f27e b03b
00000290: 9920 55b9 29aa 9fbc 941f 4ebc a9e7 cf3c
000002a0: c577 d5bb eb56 fa3a a2fb 1f3c 1970 63b9
000002b0: cebd fe3a 54e0 943c 10e0 0cbc b1aa d5bc
000002c0: 799c e1bc 3572 a03c ae23 b03c b24c 63bc
000002d0: aec6 ca3c fb5c 7e3b 0e61 e83c 123e 2f3c
000002e0: c2b7 c9bb dbd7 ccbc 45eb b9bc 0689 903c
000002f0: 2a0f fdbb 0732 cfbb 91c4 30bc fa4d 3d3c
00000300: ad2b babc b9d7 a5bc f78a 78bb 49c7 133c
00000310: 7474 89bc 3b83 01bc 0cf3 9dbc 92cf 8bbb
00000320: e205 243d d6cc 23bc f79b 0bbc 6160 afbb
00000330: 3f9d a73c 75fa 0d3b 5f72 ab3c fa0e 52bb
00000340: c07b a23c 482f f1bc a04a 3bba 2937 9dbb
00000350: 52de 7b3c 42be 95bc ff2e e6bc 367f a9bb
00000360: d6a6 edba 34fd 873c 48b2 0c39 b6af ef3c
00000370: 8471 e2bb 19f0 19bb e15e 873c de10 b5bc
00000380: d00a 2d3c 10cf 02bc 6726 b33c efa8 ba3b
00000390: 88d5 9cbc bb9c c3bc 88b9 f4bb 3730 c3bb
000003a0: 6d38 cbbb 8c74 743a 8835 833b 96ac aebc
000003b0: 1d38 a63c 54cd 183b c497 e1bb fa2a 883b
000003c0: 865d abbb c3f8 ec3b 7aac e2ba a052 debb
000003d0: ff9c 46bc cb60 c7bc 2356 443c 9055 953b
000003e0: 50a1 a73c 80d1 a23b 29dc 9cbc 6c9d f0bb
000003f0: e3f2 afbc 0c5d 76bc f1c1 0ebc b0fa cdbc

layer1.bias f4 [128]
0.0039229305 -0.00272137 0.028476406 0.020384805 0.0138662085 0.018202845 -0.009632378 -0.0015122696
0.0096693 0.014087968 0.022016577 0.00916161 0.01399009 0.021461101 -0.022915512 0.027541423
-0.021992944 -0.010068581 -0.022653066 -0.0057915514 -0.0020676982 -0.0041038487 0.022989755 0.028744541
0.02969913 0.016313352 0.017022315 0.01976497 0.01892849 -0.018889284 -0.0017661966 -0.008706596
0.02918381 0.009101643 0.022716949 0.008985543 0.019640196 -0.01211705 0.009542446 0.003267286
0.003970342 -0.012764713 0.01140353 0.0038597966 -0.019903237 0.0021673949 0.0073083425 -0.026156103
0.0059843822 0.008697829 -0.01714397 0.012095574 0.01371873 -0.015370116 -0.009372916 -0.015472503
0.026966076 -0.010148202 0.012690898 -0.0015323585 0.014443165 0.023487223 -0.015534246 0.0098502515
0.016299652 0.010444933 -0.0053466917 0.008701197 -0.02012796 0.024368484 0.023125371 0.015972944
-0.004371547 -0.015173026 0.012695857 0.0050931405 -0.0027018127 0.017772315 -0.015556948 0.0005543981
0.017268544 -0.0016153462 -0.015334373 0.01356192 -0.022927117 -0.00012098776 -0.008753145 0.024774168
0.0021363865 0.008644358 0.020833932 0.009234199 -0.0018858574 0.006901896 0.0030101372 0.021034501
-0.01562705 -0.014397586 0.010630259 0.016645135 0.006754507 0.009217742 -0.020114617 -0.018963067
-0.014334829 0.003452215 -0.022702472 -0.025542492 -0.009460737 0.015452878 0.012527002 -0.0012090065
-0.007393803 0.018490009 -0.022304479 0.024047645 -0.014855148 0.018070335 -0.0042894166 -0.001995472
-0.009600247 0.0124742305 0.016909707 0.001832066 0.0142933475 0.011724329 0.019747911 0.020607235
00000000: ed8b 803b 0359 32bb 5a47 e93c 09fe a63c
00000010: 182f 633c 221e 953c 1fd1 1dbc 5937 c6ba
00000020: fc6b 1e3c 38d1 663c 1c5c b43c 941a 163c
00000030: b136 653c 31cf af3c 50b9 bbbc 8d9e e13c
00000040: 8c2a b4bc b1f6 24bc ec92 b9bc 0ec7 bdbb
00000050: 3882 07bb 9479 86bb 0355 bc3c ac79 eb3c
00000060: 974b f33c 94a3 853c 6272 8b3c 25ea a13c
00000070: ec0f 9b3c b3bd 9abc b97f e7ba 1ca6 0ebc
00000080: e312 ef3c 0f1f 153c e518 ba3c 1938 133c
00000090: 7ae4 a03c 9786 46bc eb57 1c3c f71f 563b
000000a0: a519 823b 1623 51bc dfd5 3a3c a4f4 7c3b
000000b0: 1d0c a3bc da0a 0e3b d27a ef3b 5345 d6bc
000000c0: a318 c43b 5781 0e3c 8371 8cbc 842c 463c
000000d0: 86c4 603c f0d2 7bbc dc90 19bc 6280 7dbc
000000e0: f6e7 dc3c a544 26bc 7ced 4f3c 6bd9 c8ba
000000f0: 06a3 6c3c 4768 c03c 5a83 7ebc f362 213c
00000100: d986 853c 3921 2b3c 4d33 afbb 778f 0e3c
00000110: 64e3 a4bc 6aa0 c73c 6b71 bd3c b1d9 823c
00000120: 323f 8fbb 4998 78bc 4902 503c 5ce4 a63b
00000130: e510 31bb 3f97 913c 92e2 7ebc 0755 113a
00000140: c376 8d3c 06ba d3ba 063d 7bbc d132 5e3c
00000150: a6d1 bbbc cfba fdb8 5a69 0fbc 32f3 ca3c
00000160: 9e02 0c3b 11a1 0d3c ecab aa3c 0a4b 173c
00000170: e02e f7ba 4d29 e23b b945 453b 8c50 ac3c
00000180: 4d04 80bc dae3 6bbc 8a2a 2e3c 615b 883c
00000190: e954 dd3b 0306 173c 69c7 a4bc 6f58 9bbc
000001a0: a1dc 6abc 8f3e 623b 89fa b9bc 7d3e d1bc
000001b0: 3501 1bbc 112e 7d3c 0e3e 4d3c 8777 9eba
000001c0: b747 f2bb 5c78 973c e2b7 b6bc 91ff c43c
000001d0: 0263 73bc 3d08 943c 3c8e 8cbb 77c6 02bb
000001e0: 5b4a 1dbc b760 4c3c 3a86 8a3c ef21 f03a
000001f0: a52e 6a3c 6617 403c 5fc6 a13c 81d0 a83c

layernorm1.weight f4 [128]
0.9827404 0.99070686 0.98131186 0.99985594 0.98625094 0.99931014 0.9794759 0.99168855
1.0026833 0.9815393 0.99820054 1.0479045 0.9871529 1.0550847 1.0084568 1.0043448
0.9831182 0.99937236 0.99238724 0.9914366 1.0175974 0.99259764 0.98972714 0.97568935
1.0158851 0.9989235 0.9993316 0.99715644 1.0205523 1.0203375 0.98350096 1.0080086
0.9827571 1.0405052 0.9721818 1.006032 0.97836685 0.9886944 1.0097861 0.97897834
0.98729086 0.9960258 1.053939 1.0074089 0.99249965 0.989976 0.99554986 1.0122019
1.0433958 0.98900956 1.0241683 0.99107504 0.9998441 0.98926663 0.9782528 1.0349197
0.99146616 0.9973946 0.9809538 1.0012062 0.98410803 1.0001878 0.97320026 0.99790215
0.9882726 0.99279505 0.98669755 0.97414654 0.99358696 0.98441756 1.0045755 0.9865866
1.0020225 1.031043 0.99185956 1.0423656 0.9774593 0.9892348 1.003813 1.0016125
0.9838158 0.9962857 1.0102451 0.98772 1.0152267 0.9838465 1.0051496 1.024562
0.99430144 0.98934203 1.0079327 0.99629825 0.9899069 0.992153 0.98587835 0.99778867
0.9909722 1.0010968 0.9861578 0.9903606 0.9835142 0.99815834 0.9960238 0.98588794
1.021459 1.0026118 0.9984033 0.9950985 0.97134 1.0025693 1.0021628 1.019216
0.98515576 0.9924752 0.9925098 0.9814238 0.978932 0.9897923 0.9810831 0.9738344
0.983639 0.988883 0.99855125 1.0007874 0.97744256 0.99060065 0.99897724 1.0781231
00000000: e094 7b3f f79e 7d3f 4137 7b3f 8ff6 7f3f
00000010: f17a 7c3f cad2 7f3f efbe 7a3f 4ddf 7d3f
00000020: ed57 803f 2946 7b3f 128a 7f3f bc21 863f
00000030: 0db6 7c3f 040d 873f 1d15 813f 5f8e 803f
00000040: a2ad 7b3f ded6 7f3f 170d 7e3f cace 7d3f
00000050: a240 823f e11a 7e3f c25e 7d3f c7c6 793f
00000060: 8608 823f 73b9 7f3f 32d4 7f3f a545 7f3f
00000070: 75a1 823f 6b9a 823f b8c6 7b3f 6d06 813f
00000080: f895 7b3f 462f 853f e8e0 783f a8c5 803f
00000090: 4076 7a3f 141b 7d3f ac40 813f 539e 7a3f
000000a0: 18bf 7c3f 8cfb 7e3f 79e7 863f c6f2 803f
000000b0: 7514 7e3f 116f 7d3f 5bdc 7e3f d58f 813f
000000c0: fe8d 853f bb2f 7d3f f217 833f 18b7 7d3f
000000d0: c8f5 7f3f 9440 7d3f c76e 7a3f 4078 843f
000000e0: bad0 7d3f 4155 7f3f ca1f 7b3f 8627 803f
000000f0: 81ee 7b3f 2706 803f a723 793f 8476 7f3f
00000100: 6fff 7c3f d127 7e3f 3698 7c3f ab61 793f
00000110: b75b 7e3f ca02 7c3f ee95 803f f090 7c3f
00000120: 4642 803f 38f9 833f 82ea 7d3f 3c6c 853f
00000130: c63a 7a3f 7e3e 7d3f f27c 803f d734 803f
00000140: 5adb 7b3f 940c 7f3f b64f 813f 38db 7c3f
00000150: f3f2 813f 5ddd 7b3f bea8 803f d924 833f
00000160: 8a8a 7e3f 8545 7d3f f003 813f 670d 7f3f
00000170: 8a6a 7d3f bdfd 7d3f 8662 7c3f 146f 7f3f
00000180: 5bb0 7d3f f123 803f d674 7c3f 4688 7d3f
00000190: 96c7 7b3f 4e87 7f3f 6afb 7e3f 2763 7c3f
000001a0: 2bbf 823f 9555 803f 5c97 7f3f c6be 7e3f
000001b0: bda9 783f 3154 803f df46 803f ab75 823f
000001c0: 2b33 7c3f db12 7e3f 1f15 7e3f 973e 7b3f
000001d0: 4a9b 7a3f 0763 7d3f 4328 7b3f 364d 793f
000001e0: c4cf 7b3f 7027 7d3f 0ea1 7f3f cd19 803f
000001f0: ad39 7a3f 0198 7d3f f9bc 7f3f f0ff 893f

layernorm1.bias f4 [128]
-0.0038439517 -0.010176167 -0.0052417237 0.007485546 -0.012121824 -0.00020469035 -0.008864377 -0.0100675365
-0.0062371315 -0.0075634727 -0.005474037 0.0023924848 -0.009873535 0.0026436918 0.004002733 0.020701168
-0.01289539 -0.0033583103 -0.0094539635 -0.0018011403 0.0013330374 0.0033236332 -0.0052348287 -0.00081955956
-0.0009068998 -6.3167994e-05 -0.0083633475 -0.0077534565 0.0010013408 0.0067136684 -0.019077273 -0.0070887906
-0.0040522907 0.0030224898 -0.024482835 0.007269609 -0.003540993 -0.008315636 -0.0075153643 -0.013141484
-0.021418173 -0.004785563 -0.004607615 0.005955247 -0.009720681 -0.009021369 0.0006096593 -0.0033235701
0.004753117 -0.008638012 0.009374046 -0.012283166 -0.0062087723 -0.0056100227 -0.0029982687 0.0037465936
-0.00235602 -0.0022295907 -0.00509897 -0.00011598542 -0.01020153 0.01487469 -0.0034386718 -0.0012131695
-0.005195745 -0.0070997607 -0.011645969 -0.021849614 -0.008116551 -0.010162999 0.0025877228 -0.00862775
-0.012357993 0.005330668 -0.017245915 0.0057742195 -0.009744845 -0.0035672062 0.0026550656 -0.0059063104
-0.013491401 -0.0075494894 -0.002428813 -0.0022076059 0.0048602736 -0.005150155 0.0059743016 -0.0024014926
-0.0058759325 -0.0108129885 -0.002461531 -0.0016251616 -0.0038878897 -0.0072052157 -0.016130015 -0.008757498
-0.010382253 -0.004110246 -0.0149497185 -0.0041100127 -0.016125899 -0.0037983034 -0.0024295652 -0.0075794626
0.007952821 0.0008968771 -0.0008450956 -0.0053833285 0.0012146543 -0.0019440337 8.598328e-05 0.008271914
-0.007583381 -0.013106247 -0.00796014 -0.0020055415 -0.0064210175 -0.01002933 -0.011313954 -0.01821189
-0.014755155 0.007680005 -0.011715362 -0.0058093145 -0.009599545 0.0025326728 0.0012077632 0.012864821
00000000: cfea 7bbb f0b9 26bc c4c2 abbb 5049 f53b
00000010: 9d9a 46bc 26a2 56b9 e43b 11bc 4ff2 24bc
00000020: da60 ccbb 02d7 f7bb 8d5f b3bb 3ccb 1c3b
00000030: 9bc4 21bc ca41 2d3b 5c29 833b 7f95 a93c
00000040: 3047 53bc 1917 5cbb cce4 1abc 3d14 ecba
00000050: 50b9 ae3a 50d1 593b ed88 abbb b6d7 56ba
00000060: 04bd 6dba 0f79 84b8 6c06 09bc b510 febb
00000070: 6c3f 833a 55fe db3b f147 9cbc 1649 e8bb
00000080: 14c9 84bb f714 463b 3a90 c8bc e635 ee3b
00000090: 0110 68bb 4e3e 08bc 7243 f6bb 614f 57bc
000000a0: 2a75 afbc 36d0 9cbb 7afb 96bb 3c24 c33b
000000b0: 7e43 1fbc 5dce 13bc 8bd1 1f3a 41d0 59bb
000000c0: 09c0 9b3b 7386 0dbc 9995 193c 553f 49bc
000000d0: f572 cbbb 48d4 b7bb 9a7e 44bb 6989 753b
000000e0: 7567 1abb 531e 12bb 4315 a7bb 333d f3b8
000000f0: 5124 27bc f9b4 733c 575b 61bb 3703 9fba
00000100: 1141 aabb 1ca5 e8bb bcce 3ebc f6fd b2bc
00000110: 48fb 04bc b582 26bc c996 293b 685b 0dbc
00000120: 2e79 4abc e2ac ae3b 4e47 8dbc aa35 bd3b
00000130: d8a8 1fbc cac7 69bb 9c00 2e3b b989 c1bb
00000140: 0a0b 5dbc b561 f7bb b82c 1fbb 7bad 10bb
00000150: ee42 9f3b a2c2 a8bb 13c4 c33b 5c62 1dbb
00000160: e58a c0bb f628 31bc a351 21bb 6003 d5ba
00000170: f7cb 7ebb bb19 ecbb 1823 84bc 9c7b 0fbc
00000180: 531a 2abc 3eaf 86bb aaef 74bc 49ad 86bb
00000190: 761a 84bc f5ec 78bb 5739 1fbb 245d f8bb
000001a0: 8d4c 023c 671c 6b3a 6889 5dba a266 b0bb
000001b0: 0935 9f3a f2ce feba ec51 b438 ec86 073c
000001c0: 037e f8bb 96bb 56bc 3f6b 02bc 676f 03bb
000001d0: 6667 d2bb 0f52 24bc 2a5e 39bc 1a31 95bc
000001e0: 9bbf 71bc 8da8 fb3b caf1 3fbc 105c bebb
000001f0: 6947 1dbc 33fb 253b cf4d 9e3a f8c6 523c

blocks.0.fcn_layer.weight f4 [128, 128]
-0.023702597 -0.09323606 -0.04350144 0.048360292 -0.066080414 -0.047062542 0.033179704 -0.05246531
0.045090012 0.03412453 -0.048514955 0.08731115 0.06357413 -0.07322616 0.05670283 0.004412646
-0.021652449 0.08467862 -0.024192221 -0.008148733 0.07379332 -0.0051437896 0.052326348 -0.053375978
0.055844627 -0.06757196 0.015896544 -0.0116955135 -0.06833441 -0.009546863 0.018528556 -0.032599073
-0.015438822 0.040589854 0.05269963 -0.07376265 0.031362023 -0.04090328 0.08134243 -0.06441199
0.08470149 0.025263758 0.11356778 0.045860715 0.031632457 -0.010969963 0.04586501 0.112658106
-0.016481662 0.03659003 0.012818333 -0.07522665 0.0549483 0.03478529 0.055225536 0.015353214
0.060401276 -0.060204156 0.058144283 0.014178218 -0.03734074 -0.046813697 -0.05335599 0.013404019
0.0021116654 0.022394449 -0.068198994 -0.041329984 -0.048044562 0.022097055 -0.011240125 -0.05608608
0.07105818 -0.038020175 -0.059285495 -0.013444227 -0.010633158 0.08012041 -0.043294277 0.06336643
-0.04556712 0.08090718 0.011097096 -0.06309249 -0.053231686 0.0062392396 0.0016508449 0.04995065
0.05433631 0.005603128 0.0061354367 -0.054937314 -0.028059935 0.012903675 0.029645026 0.05450224
-0.07263094 0.108226724 0.07404679 -0.008462822 -0.052240163 0.08418095 -0.018893512 0.03118444
0.12469473 -0.015067053 0.03018597 0.018452818 -0.035817727 0.08384057 0.007641224 0.014048456
0.00573047 -0.0073281596 0.08350506 0.0054020016 0.022438169 0.07126407 -0.07012213 0.075370714
-0.011812657 -0.037463535 0.0068324455 0.06660404 0.04996195 0.033349913 0.051184278 -0.032576665
-0.06829062 -0.048192084 0.004747086 0.05016502 0.03163601 0.0763508 -0.07254612 0.015889423
0.067446396 -0.06422288 -0.005944554 0.034389447 -0.014592877 0.03805289 -0.07242671 0.059480872
0.0046396363 -0.076600626 0.067848526 -0.021301985 0.058128644 0.075837746 -0.015371691 -0.07161732
-0.007823722 -0.07681794 0.01784499 -0.027992977 -0.05893595 0.01852222 0.032663707 -0.036162443
0.04705823 -0.0014975098 -0.07872695 0.0060903323 -0.0047844006 0.058792826 0.09542361 0.08133192
0.04885839 0.06661645 0.08516926 0.051016346 -0.019061986 0.057285983 0.08213061 -0.024580928
0.016945954 -0.007635907 0.00936046 -0.075302 -0.027141241 0.082268625 -0.03145022 -0.06168133
-0.076250926 -0.04898972 -0.045274004 -0.013188775 0.08597223 -0.068267785 0.056647487 -0.047469027
0.041170105 0.012862735 -0.07240308 0.06241811 0.0118094785 -0.06570693 0.070251495 0.028895482
0.054974113 0.047423173 -0.045370094 -0.057982616 -0.041924328 0.033939324 0.05261277 0.033947833
-0.051975086 0.031332374 0.035432655 0.09456148 -0.0903671 -0.070440695 0.084647365 -0.024621228
0.037477057 0.07926302 -0.013508672 0.027727779 -0.011005076 -0.056497365 -0.05608207 -0.05255976
0.057180103 -0.05596706 -0.008389097 -0.060256638 -0.039356563 0.054715324 0.02483029 -0.06018756
0.043091144 -0.035855163 -0.051464915 -0.009924847 -0.08239924 0.009032291 -0.013162969 -0.08957866
-0.04555818 -0.058647268 0.055556387 0.06023788 0.042180672 0.014368094 -0.042823058 -0.054122943
-0.083736025 0.054818295 0.026935486 -0.034299746 -0.005042869 -0.019546388 0.06251826 -0.032650467
00000000: f32b c2bc 8cf2 bebd 912e 32bd 7115 463d
00000010: 2b55 87bd a7c4 40bd 71e7 073d dde5 56bd
00000020: 4eb0 383d 2ac6 0b3d 9eb7 46bd 30d0 b23d
00000030: 2733 823d 99f7 95bd 3a41 683d f597 903b
00000040: 7a60 b1bc fc6b ad3d c42e c6bc 4382 05bc
00000050: f420 973d 3c8d a8bb 2754 563d c5a0 5abd
00000060: 56bd 643d 2b63 8abd 7839 823c 8a9e 3fbc
00000070: e9f2 8bbd 726a 1cbc 33c9 973c 9b86 05bd
00000080: 1df3 7cbc 8c41 263d 91db 573d df10 97bd
00000090: 7775 003d 338a 27bd dc96 a63d 6fea 83bd
000000a0: fa77 ad3d f1f5 ce3c 3996 e83d 72d8 3b3d
000000b0: 0991 013d 5cbb 33bc f3dc 3b3d 4bb9 e63d
000000c0: 8d04 87bc 6ddf 153d fc03 523c 6e10 9abd
000000d0: 7811 613d 057b 0e3d 2c34 623d 0c8c 7b3c
000000e0: 5467 773d a298 76bd b328 6e3d c24b 683c
000000f0: 9bf2 18bd b8bf 3fbd d08b 5abd 889c 5b3c
00000100: de63 0a3b 9074 b73c eaab 8bbd a149 29bd
00000110: 60ca 44bd e204 b53c 8028 38bc 84ba 65bd
00000120: f386 913d 0bbb 1bbd 59d5 72bd 2d45 5cbc
00000130: b236 2ebc 2b16 a43d 5755 31bd 42c6 813d
00000140: 97a4 3abd aab2 a53d 98d0 353c a336 81bd
00000150: 7809 5abd 8972 cc3b 2a61 d83a 0e99 4c3d
00000160: c08f 5e3d 729a b73b c60b c93b f305 61bd
00000170: f3dd e5bc f069 533c 20da f23c be3d 5f3d
00000180: 88bf 94bd f9a5 dd3d d8a5 973d a6a7 0abc
00000190: c8f9 55bd 1067 ac3d 91c6 9abc 8376 ff3c
000001a0: f35f ff3d cddb 76bc 9148 f73c 5d2a 973c
000001b0: 9cb5 12bd 9bb4 ab3d 3c63 fa3b 7f2b 663c
000001c0: abc6 bb3b 0f21 f0bb b304 ab3d 4603 b13b
000001d0: 40d0 b73c e6f2 913d 319c 8fbd f65b 9a3d
000001e0: e089 41bc 5d73 19bd b5e2 df3b b367 883d
000001f0: e7a4 4c3d eb99 083d 9ba6 513d 1c6f 05bd
00000200: f4db 8bbd 1065 45bd 728d 9b3b d679 4d3d
00000210: c394 013d cf5d 9c3d 0f93 94bd 892a 823c
00000220: 5621 8a3d 4987 83bd 89ca c2bb f3db 0c3d
00000230: f616 6fbc 59dd 1b3d 7454 94bd 37a2 733d
00000240: 1708 983b cae0 9cbd 2bf4 8a3d 8081 aebc
00000250: 4d18 6e3d d250 9b3d 8cd9 7bbc 1aac 92bd
00000260: 122f 00bc b952 9dbd a82f 923c 8751 e5bc
00000270: d366 71bd e9bb 973c 61ca 053d 121f 14bd
00000280: 21c0 403d 1748 c4ba 983b a1bd 6991 c73b
00000290: 76c6 9cbb bfd0 703d 746d c33d 5a91 a63d
000002a0: bc1f 483d 356e 883d 396d ae3d 84f6 503d
000002b0: e227 9cbc b5a4 6a3d 1834 a83d f15d c9bc
000002c0: 3ed2 8a3c a136 fabb 9d5c 193c ef37 9abd
000002d0: 4f57 debc 747c a83d f2d1 00bd 90a5 7cbd
000002e0: 7229 9cbd 72a9 48bd 3c71 39bd bb15 58bc
000002f0: 3512 b03d fbcf 8bbd 3207 683d e26e 42bd
00000300: fca1 283d 39be 523c 1148 94bd 22aa 7f3d
00000310: 8b7c 413c 5b91 86bd 04e0 8f3d 38b6 ec3c
00000320: 892c 613d cd3e 423d fed5 39bd 2e7f 6dbd
00000330: d8b8 2bbd f603 0b3d 7d80 573d e20c 0b3d
00000340: d4e3 54bd 6056 003d d521 113d 73a9 c13d
00000350: 6312 b9bd 3643 90bd 995b ad3d 75b2 c9bc
00000360: 8b81 193d a654 a23d 7a53 5dbc 5e25 e33c
00000370: a24e 34bc c869 67bd 50b6 65bd e748 57bd
00000380: af35 6a3d b73d 65bd 6c72 09bc aacf 76bd
00000390: 5934 21bd 2d1d 603d e468 cb3c 3b87 76bd
000003a0: 5780 303d dddc 12bd e0cc 52bd d39b 22bc
000003b0: efc0 a8bd 2dfc 133c 7ea9 57bc 0475 b7bd
000003c0: 379b 3abd 1e38 70bd 188f 633d ffbb 763d
000003d0: a4c5 2c3d 2768 6b3c 3b67 2fbd 05b0 5dbd
000003e0: cb7d abbd 2689 603d cfa7 dc3c e47d 0cbd
000003f0: a73e a5bb bf1f a0bc 9309 803d 7fbc 05bd

blocks.0.fcn_layer.bias f4 [128]
-0.043256927 -0.038653918 0.07445612 -0.068139404 -0.027578063 -0.072758116 -0.0037488583 -0.089633584
0.073729984 0.043783627 -0.0771523 -0.03862251 -0.041425798 -0.012775227 0.036482576 0.0575743
-0.019722693 -0.076453164 0.021126488 0.0022486034 0.045429952 0.034391575 -0.021407217 -0.03502466
0.0067512053 0.042720385 -0.0073839454 -0.056915704 0.01671456 -0.032587383 0.00034232222 0.056183487
-0.057390418 0.015879897 0.063903525 0.061196804 -0.059664708 0.050653372 0.0044184695 0.016799433
0.026124353 -0.058532942 0.0740516 -0.058937706 0.07579862 0.04100552 0.022298638 0.07888944
-0.020084053 -0.085823156 -0.033593487 0.036684398 0.045249082 0.033758 -0.06994437 -0.02726193
0.02251656 0.016163368 -0.013918959 0.07887878 -0.07244232 -0.0009348984 0.026454424 0.042821124
0.07473916 -0.025360746 0.007315168 -0.060527172 -0.07041329 0.017284758 -0.014298634 -0.05069013
-0.06252877 0.023939585 -0.042417232 -0.06550307 0.030313412 0.050211195 -0.051014658 0.00030902596
0.0082339225 -0.0067724218 0.03249745 -0.06360602 -0.0467938 0.0008720981 0.036464475 -0.0073067625
0.040445626 0.022986162 -0.027117006 -0.005767952 0.00043696244 0.032368608 -0.05613186 -0.065095894
0.055379566 0.06351345 0.029939257 -0.023496652 0.047741376 0.037313715 -0.050267037 0.03268868
-0.07262215 -0.057904582 0.035207354 0.059973147 0.011646563 0.0047592293 -0.05637572 0.036210835
-0.00022263892 -0.08526629 -0.0643639 -0.019737393 0.024294332 -0.03995314 0.002894754 0.0832934
0.036794346 0.08625904 0.032848723 0.08118535 0.046365093 0.07820311 0.055281784 -0.04177625
00000000: 2d2e 31bd 9253 1ebd 737c 983d ac8c 8bbd
00000010: 64eb e1bc 3502 95bd 68af 75bb d091 b7bd
00000020: bfff 963d 7656 333d 0602 9ebd a332 1ebd
00000030: 19ae 29bd 304f 51bc c16e 153d 07d3 6b3d
00000040: 7c91 a1bc 7a93 9cbd 7511 ad3c 4e5d 133b
00000050: c214 3a3d 2ede 0c3d 305e afbc 0576 0fbd
00000060: 3739 dd3b 92fb 2e3d 06f5 f1bb 7120 69bd
00000070: f9ec 883c 597a 05bd b679 b339 a820 663d
00000080: 3712 6bbd 8f16 823c dadf 823d 80a9 7a3d
00000090: fb62 74bd e979 4f3d cfc8 903b f79e 893c
000000a0: bd02 d63c 3dc0 6fbd 5ea8 973d aa68 71bd
000000b0: 4f3c 9b3d 67f5 273d a2ab b63c c990 a13d
000000c0: 5087 a4bc 0dc4 afbd 5399 09bd 6142 163d
000000d0: 1a57 393d d445 0a3d fe3e 8fbd 6954 dfbc
000000e0: a674 b83c 0a69 843c 580c 64bc 338b a13d
000000f0: a45c 94bd f813 75ba f3b6 d83c 3465 2f3d
00000100: d810 993d 57c1 cfbc 14b4 ef3b 57eb 77bd
00000110: d834 90bd c498 8d3c d144 6abc 74a0 4fbd
00000120: 150f 80bd f31c c43c b1bd 2dbd 7926 86bd
00000130: d553 f83c 41aa 4d3d bff4 50bd c304 a239
00000140: 93e7 063c 31eb ddbb 0c1c 053d df43 82bd
00000150: dbaa 3fbd 839d 643a c65b 153d 916d efbb
00000160: 50aa 253d 7a4d bc3c 7c24 debc 1701 bdbb
00000170: 1b18 e539 f294 043d 85ea 65bd ff50 85bd
00000180: afd5 623d 5713 823d 2c43 f53c 0d7c c0bc
00000190: 768c 433d 44d6 183d cfe4 4dbd 91e4 053d
000001a0: ecba 94bd 5b2d 6dbd 9635 103d 67a6 753d
000001b0: 3ad1 3e3c 4ff3 9b3b 3aea 66bd d051 143d
000001c0: 2e74 69b9 18a0 aebd 38d1 83bd 50b0 a1bc
000001d0: e804 c73c e7a5 23bd eab5 3d3b bb95 aa3d
000001e0: abb5 163d 94a8 b03d 628c 063d 8144 a63d
000001f0: 53e9 3d3d f428 a03d 276f 623d 931d 2bbd

blocks.0.layer_norm.weight f4 [128]
1.0358126 0.97264296 1.0385398 1.1065176 1.0715463 1.0202283 0.9855458 1.021294
0.9944364 1.01546 0.9950657 1.12657 1.0233957 1.1364186 0.9968595 1.0058091
0.9923473 1.0104846 1.093172 0.99185526 1.0146863 1.050542 1.0374455 1.0378574
0.9976413 0.98332506 1.091269 1.0138873 1.0643486 1.0511932 1.060706 1.0017728
1.0212209 1.1084962 1.0936579 1.0308868 1.0719638 0.9908222 1.0189009 1.0513322
1.0885361 1.0569285 1.0773224 1.056807 1.0192666 1.0354185 1.0550557 1.0438261
1.1451755 1.0031965 1.1297544 1.0371246 1.0959467 1.0846137 1.0089993 1.0232168
1.0477189 1.0332266 1.033984 1.0293355 1.0085893 1.0019773 1.025703 1.0490668
1.0328984 1.0516787 1.0117499 1.0923215 1.092643 1.0387526 1.027474 1.0868783
1.1207052 1.037884 1.04642 1.1035109 1.0609027 1.0780864 1.0403237 0.99888694
1.1116856 1.0558274 1.0760173 1.0092502 1.022125 1.0340267 1.0077927 1.0109252
1.0893292 1.0370191 1.018931 1.0232568 1.1208752 1.0570351 1.0779908 1.105939
1.0579885 1.0465087 1.0279721 1.0476842 1.0033007 1.0239127 1.1017739 1.0503381
1.0258147 1.0384952 1.0705273 1.0576773 0.98715705 1.0760127 0.9712015 1.1342701
0.9990334 1.0578011 0.99035174 1.0468625 1.0805724 1.0184077 1.0890127 1.0327783
1.0760982 1.1092879 1.0155025 1.0598216 1.1060077 1.0260323 1.0169674 1.031247
00000000: 8295 843f 21ff 783f dfee 843f 5ea2 8d3f
00000010: 6e28 893f d796 823f bb4c 7c3f c3b9 823f
00000020: 6293 7e3f 98fa 813f a0bc 7e3f 7233 903f
00000030: a1fe 823f 2a76 913f 2f32 7f3f 5abe 803f
00000040: 790a 7e3f 8f57 813f 0fed 8b3f 3aea 7d3f
00000050: 3ee1 813f 2978 863f 04cb 843f 83d8 843f
00000060: 6c65 7f3f 31bb 7b3f b4ae 8b3f 0fc7 813f
00000070: 933c 883f 808d 863f 37c5 873f 173a 803f
00000080: 5eb7 823f 34e3 8d3f fbfc 8b3f 19f4 833f
00000090: 1c36 893f 86a6 7d3f 586b 823f 0e92 863f
000000a0: 2755 8b3f 6f49 873f b3e5 893f 7445 873f
000000b0: 5477 823f 9888 843f 110c 873f 189c 853f
000000c0: 1c95 923f be68 803f cb9b 903f 80c0 843f
000000d0: fb47 8c3f 9fd4 8a3f e426 813f c5f8 823f
000000e0: a71b 863f c540 843f 9659 843f 44c1 833f
000000f0: 7419 813f cb40 803f 3c4a 833f d247 863f
00000100: 0436 843f 689d 863f 0581 813f 31d1 8b3f
00000110: badb 8b3f d8f5 843f 4584 833f d41e 8b3f
00000120: 4573 8f3f 62d9 843f 17f1 853f d83f 8d3f
00000130: a9cb 873f bcfe 893f 5429 853f 0eb7 7f3f
00000140: b74b 8e3f 5a25 873f efba 893f 1c2f 813f
00000150: fed4 823f fd5a 843f 5aff 803f ff65 813f
00000160: 246f 8b3f 0bbd 843f 556c 823f 14fa 823f
00000170: d778 8f3f ed4c 873f 9afb 893f 698f 8d3f
00000180: 2b6c 873f fff3 853f 9794 833f 841a 863f
00000190: 286c 803f 920f 833f ed06 8d3f 7b71 863f
000001a0: e54d 833f 69ed 843f 0a07 893f f861 873f
000001b0: 53b6 7c3f c9ba 893f a9a0 783f c32f 913f
000001c0: a7c0 7f3f 0766 873f b187 7d3f 97ff 853f
000001d0: 3250 8a3f 2f5b 823f c564 8b3f 1432 843f
000001e0: 96bd 893f 25fd 8d3f fcfb 813f 3ca8 873f
000001f0: a991 8d3f 0755 833f fd2b 823f e7ff 833f

blocks.0.layer_norm.bias f4 [128]
0.010713164 -0.02492526 0.02434485 0.061476108 0.09622758 0.0074969046 -0.01272531 0.00933209
-0.0021246949 0.0027071184 -0.014141 0.085666716 0.01420912 0.088098206 -0.0046245516 0.0032314959
-0.01786155 0.020321148 0.07731131 -0.002201846 0.012730544 0.052651614 0.021913677 0.0522487
-0.0066291783 -0.022958146 0.06335688 0.0032889775 0.05261793 0.02098086 0.058024965 -0.009549864
0.000998518 0.06882954 0.0808658 0.028327199 0.08241118 -0.012111015 0.0036933431 0.029486815
0.063966915 0.058359057 0.063343085 0.03091802 0.008911052 0.021957334 0.031755365 0.02605758
0.09364258 -0.0035253933 0.08268957 0.012239777 0.07569356 0.06513704 0.0036949932 0.01265111
0.024267767 0.012199505 0.01901441 0.015547811 -0.00017770808 0.0033708275 0.019490123 0.017662562
0.02418814 0.053083345 0.010911655 0.0341008 0.025118588 0.016820336 0.031525355 0.068104826
0.088999614 0.031101076 0.06288582 0.074816234 0.06046818 0.05507992 0.00651658 -0.0065797153
0.07992572 0.017059542 0.02412511 0.013068548 0.016106049 0.050041936 -0.0074918736 0.005671723
0.07394128 0.0249493 0.018465823 0.037033714 0.08228714 0.055649586 0.05897397 0.079742566
0.054440305 0.0062614195 0.02014183 0.030297678 0.008866124 0.03123822 0.068660244 0.021246344
0.014285486 0.016524846 0.062434223 0.03413327 -0.007976928 0.024181226 -0.026626568 0.0927361
0.0047968146 0.04827116 -0.0029827056 0.025395356 0.041888136 0.01308871 0.06501549 0.029858824
0.06380444 0.06991483 0.011424987 0.027349686 0.085819125 0.010052558 0.010540585 0.010630739
00000000: 4486 2f3c 0f30 ccbc da6e c73c 5fce 7b3d
00000010: f712 c53d 98a8 f53b d27d 50bc 9fe5 183c
00000020: 773e 0bbb e969 313b a7af 67bc 0872 af3d
00000030: 5ecd 683c d56c b43d 8d89 97bb 81c7 533b
00000040: 6352 92bc 8978 a63c 6455 9e3d d94c 10bb
00000050: c693 503c 38a9 573d 5084 b33c bc02 563d
00000060: 9439 d9bb b912 bcbc 40c1 813d e38b 573b
00000070: e685 573d 0de0 ab3c 96ab 6d3d 0877 1cbc
00000080: b4e0 823a 80f6 8c3d f89c a53d 710e e83c
00000090: 31c7 a83d 476d 46bc 040c 723b 558e f13c
000000a0: 1601 833d e809 6f3d 05ba 813d ca47 fd3c
000000b0: a9ff 113c dedf b33c ea11 023d b576 d53c
000000c0: aec7 bf3d 490a 67bb 2659 a93d 5889 483c
000000d0: 3a05 9b3d 9266 853d b327 723b 9a46 4f3c
000000e0: 32cd c63c 6fe0 473c 1cc4 9b3c 3fbc 7e3c
000000f0: 2657 3ab9 1ae9 5c3b c0a9 9f3c 14b1 903c
00000100: 3526 c63c ec6d 593d ccc6 323c 48ad 0b3d
00000110: 7fc5 cd3c cdca 893c bb20 013d 8b7a 8b3d
00000120: 6e45 b63d afc7 fe3c 48ca 803d 4139 993d
00000130: 7bad 773d 7b9b 613d 0989 d53b a79a d7bb
00000140: 19b0 a33d 74c0 8b3c 06a2 c53c 771d 563c
00000150: d5f0 833c c6f8 4c3d 647e f5bb dcd9 b93b
00000160: 876e 973d 7962 cc3c a345 973c aab0 173d
00000170: 2986 a83d d2f0 633d b18e 713d 1250 a33d
00000180: ccfc 5e3d 982c cd3b 7b00 a53c d632 f83c
00000190: 3843 113c 4ce7 ff3c be9d 8c3d d00c ae3c
000001a0: ac0d 6a3c 1d5f 873c 07bb 7f3d 54cf 0b3d
000001b0: a9b1 02bc b517 c63c f61f dabc 6dec bd3d
000001c0: 992e 9d3b fbb7 453d 7f79 43bb ec09 d03c
000001d0: e592 2b3d 0772 563c d726 853d 7e9a f43c
000001e0: e7ab 823d 822f 8f3d de2f 3b3c 730c e03c
000001f0: f0c1 af3d 7cb3 243c 6bb2 2c3c 8d2c 2e3c

last_layer.weight f4 [1, 128]
0.08288896 -0.017628664 0.08465149 0.17504916 -0.08515328 0.053239852 -0.031542618 0.07841092
-0.027455308 0.032165505 -0.012762217 -0.13739716 0.08271791 -0.13641709 -0.017287545 -0.04447156
-0.068654425 0.023051126 -0.1439876 0.0018735009 0.044225916 -0.10145868 0.08892945 0.02062731
-0.022291843 -0.0039976686 -0.1344482 0.038544446 -0.13249531 0.048964676 -0.10901691 0.080164485
0.051856264 -0.14444 -0.14801517 0.045234524 -0.09675937 -0.03881594 0.08543622 0.09013499
-0.14864717 -0.12925881 -0.13111015 0.09739638 0.088450424 0.04295827 0.05180183 0.057501677
-0.14411584 0.08230392 -0.18162687 0.07634158 -0.12392832 -0.10589693 0.00941627 0.110331155
0.10669731 0.044956133 0.049465295 0.044283036 0.064521216 0.017166326 0.060445998 0.09118688
0.049029633 -0.12048769 0.09612879 0.051911354 0.12785904 0.08161781 0.08931681 -0.14344001
-0.18171978 0.11767261 -0.071591064 -0.13187227 -0.10452171 -0.14480628 0.11545345 0.016560165
-0.14715031 0.1349676 0.1469332 0.044009604 0.10115485 -0.09943612 0.04625952 0.011575923
-0.13682748 0.114227094 0.017217977 -0.033572998 -0.12264082 -0.12577987 -0.108124144 -0.17148826
-0.1379532 0.13028778 0.039573185 0.07828265 -0.028295286 0.028731046 -0.15219158 0.12213978
0.07693029 0.04044281 -0.14208959 0.117584914 -0.01680131 0.06397626 -0.05832051 -0.14134702
-0.0025417993 0.09254128 -0.030912835 0.09125736 0.11810992 0.04426274 -0.13265347 0.06343371
-0.1427479 -0.1482353 0.09308173 0.0670709 -0.13412352 0.054554187 0.099312134 0.04531191
00000000: b0c1 a93d fd69 90bc c35d ad3d 1640 333e
00000010: d864 aebd 0812 5a3d d532 01bd e895 a03d
00000020: f4e9 e0bc fabf 033d 9e18 51bc d7b1 0cbe
00000030: 0268 a93d ecb0 0bbe 9c9e 8dbc cf27 36bd
00000040: b19a 8cbd b7d5 bc3c 7c71 13be 4290 f53a
00000050: 3c26 353d 92c9 cfbd a520 b63d 9bfa a83c
00000060: 629d b6bc e0fe 82bb caac 09be c8e0 1d3d
00000070: daac 07be 2f8f 483d 4244 dfbd 472d a43d
00000080: 3c67 543d 14e8 13be 4a91 17be d647 393d
00000090: c729 c6bd 77fd 1ebd 2ff9 ae3d b298 b83d
000000a0: f736 18be 6c5c 04be bd41 06be c177 c73d
000000b0: 7f25 b53d 03f5 2f3d 282e 543d e186 6b3d
000000c0: 1a93 13be f58e a83d 65fc 39be f958 9c3d
000000d0: 22ce fdbd 7de0 d8bd b346 1a3c 4df5 e13d
000000e0: 1f84 da3d ec23 383d 1f9c 4a3d 2162 353d
000000f0: b323 843d 65a0 8c3c 3996 773d 30c0 ba3d
00000100: 4cd3 483d 40c2 f6bd 2cdf c43d 00a1 543d
00000110: 7bed 023e 3d27 a73d bbeb b63d f0e1 12be
00000120: c014 3abe 56fe f03d 569e 92bd 8609 07be
00000130: 7a0f d6bd 1948 14be dc72 ec3d 2fa9 873c
00000140: 92ae 16be f234 0a3e a875 163e 6a43 343d
00000150: 462a cf3d 2aa5 cbbd 9f7a 3d3d f1a8 3d3c
00000160: 811c 0cbe e5ef e93d b70c 8d3c d783 09bd
00000170: 1c2b fbbd 70cc 00be 3170 ddbd 9e9a 2fbe
00000180: 9b43 0dbe 296a 053e 7e17 223d a752 a03d
00000190: 84cb e7bc 5f5d eb3c 1cd8 1bbe 6c24 fa3d
000001a0: a18d 9d3d 5ca7 253d ef7f 11be 5cd0 f03d
000001b0: e7a2 89bc fc05 833d 7de1 6ebd 46bd 10be
000001c0: 5194 26bb 4886 bd3d ea3c fdbc 24e5 ba3d
000001d0: 9de3 f13d d94c 353d 50d6 07be 88e9 813d
000001e0: 812c 12be ffca 17be a2a1 be3d 785c 893d
000001f0: ad57 09be 3674 5f3d 2964 cb3d fb98 393d
