wkey/openwakeword_models/onnx/hey_google.onnx (onnx, 205430 bytes, 9 tensors)

layer1.weight f4 [32, 1536]
-0.0033655257 0.03411175 0.05703896 -0.053918306 0.022741713 -0.021298273 -0.020029066 -0.05315255
-0.042013753 0.0008081881 -0.0071188626 0.03980364 -0.011180455 0.049348287 -0.020499015 -0.09623704
-0.01348515 0.053837582 0.020628925 -0.0066238027 0.0012104212 0.026486974 -0.003116349 -0.045536984
0.024837807 -0.0018948156 0.012582956 -0.059089694 -0.022211345 -0.024198266 -0.00012303832 0.01939757
4.7899386e-05 -0.05153489 -0.03092415 0.043848876 0.012078101 -0.02473649 -0.044619814 -0.013638193
-0.010651724 -0.06109713 -0.014403363 -0.018686084 0.0021013964 0.025920616 -0.01901682 -0.031709604
-0.05585158 0.016704489 -0.007772592 0.022746911 0.0026098755 0.032702275 -0.030790634 -0.015293213
0.021224255 -0.0064840843 0.02828667 0.018061124 0.04153664 0.023137944 0.028167594 -0.009030652
-0.0048102816 0.02426156 0.03851063 -0.0068636076 0.015895752 -0.005773883 -0.022145553 -0.009564326
0.027580751 0.025836611 0.022718288 0.036616348 0.006404525 -0.0023234065 0.021956941 0.005382648
-0.018443802 0.027966524 0.016709795 0.01876684 -0.022596171 -0.018919798 -0.012830992 -0.018152276
0.022181934 -0.023858434 -0.008825813 0.020938653 0.0011706711 -0.0010975698 -0.043111123 -0.009326091
-0.020405294 0.023668762 0.020632459 -0.084690586 0.0069387495 -0.024454372 -0.037283637 -0.019598778
-0.010795077 0.0127612585 -0.0055688564 0.014536152 -0.034585938 0.043090884 -0.0024496717 -0.09645502
0.09000475 0.025630262 -0.013191608 -0.027472744 0.016991025 0.0073956447 0.0012265474 -0.014970371
0.029860986 0.03363733 -0.012740072 -0.031342495 -0.021673057 -0.030781394 0.008774648 -0.014517147
0.017910851 -0.0049845753 -0.015045684 0.02971919 -0.020030096 0.014448034 0.009200028 -0.026061408
-0.0028139302 -0.0020139832 0.0113310395 0.018303582 -0.030816218 -0.009651295 0.009074306 -0.0209588
-0.025406102 -0.00553681 0.017804591 0.016294342 0.017115105 0.0707904 -0.011583004 -0.005371823
0.04589808 -0.021979405 0.01783525 0.018944561 0.020678792 0.06104997 0.012153627 -0.0029886025
0.026968244 -0.005079056 0.000761279 -0.035625108 0.01058283 0.029776834 -0.09203612 -0.030784443
0.012661704 0.019792011 -0.016618095 0.070221245 0.01050429 0.025375228 0.0066467714 0.01458289
0.007595478 0.012620632 -0.0005140304 0.012106781 -0.005049837 -0.051055204 -0.022985952 0.0076904474
0.0173606 -0.019172758 0.012523731 -0.01671115 0.01904075 -0.024564803 0.0037242933 0.006463274
-0.0018922818 0.018728347 0.023109242 -0.09418161 0.011520348 0.0056509706 0.0034373407 -0.031072507
-0.008011466 -0.029057076 -0.009684738 0.01899114 -0.023333179 0.00621356 -0.035184886 -0.090627626
0.04345302 0.028423548 -0.005882617 0.022490587 -0.0258478 0.0064563504 0.0019715624 -0.029857313
-0.009965288 0.038233787 -0.0038522496 -0.028159255 0.0049972725 0.024732878 0.02440237 -0.02741288
-0.010951867 0.0024103343 -0.015291012 0.022774208 0.015274908 -0.004118549 -0.043977074 -0.018093446
-0.0069976603 0.0048148786 -0.028686408 0.006449544 -0.021323051 0.013146989 0.009550278 0.008138958
-0.0146410735 -0.0062164273 0.0036007825 0.0031006688 0.0062836413 0.06536031 -0.036025546 -0.016157128
0.05491544 0.009694595 -0.009269859 -0.0027248627 0.043998428 0.0179526 -0.022785073 0.0025361595
00000000: 2790 5cbb c3b8 0b3d afa1 693d 71d9 5cbd
00000010: d44c ba3c b779 aebc ff13 a4bc 7db6 59bd
00000020: 9d16 2cbd 96dc 533a 5945 e9bb 2409 233d
00000030: 3a2e 37bc 6e21 4a3d 8ded a7bc ed17 c5bd
00000040: d2f0 5cbc cc84 5c3d fefd a83c 7c0c d9bb
00000050: ffa6 9e3a 36fb d83c a93b 4cbb fd84 3abd
00000060: a878 cb3c 765b f8ba be28 4e3c 0908 72bd
00000070: 91f4 b5bc 713b c6bc d903 01b9 a7e7 9e3c
00000080: 93e7 4838 4016 53bd a554 fdbc e19a 333d
00000090: 3ae3 453c 2ea4 cabc 44c3 36bd ba72 5fbc
000000a0: 9284 2ebc fc40 7abd 15fc 6bbc 8f13 99bc
000000b0: 95b7 093b 7957 d43c 29c9 9bbc eee1 01bd
000000c0: a0c4 64bd dad7 883c 3ab1 febb bb57 ba3c
000000d0: 720a 2b3b d2f2 053d a43c fcbc 6290 7abc
000000e0: 7dde ad3c 7178 d4bb 72b9 e73c ecf4 933c
000000f0: 5322 2a3d c98b bd3c babf e63c 4df5 13bc
00000100: 919f 9dbb 2ec0 c63c 53bd 1d3d 1de8 e0bb
00000110: cf37 823c d732 bdbb 976a b5bc b1b3 1cbc
00000120: 07f1 e13c 4da7 d33c b41b ba3c 06fb 153d
00000130: 0ddd d13b 4b44 18bb 0bdf b33c ed60 b03b
00000140: 7517 97bc 0d1a e53c fbe2 883c ebbc 993c
00000150: 9b1b b9bc b1fd 9abc 1539 52bc 15b4 94bc
00000160: e3b6 b53c c372 c3bc 259a 10bc 8a87 ab3c
00000170: 3471 993a 55dc 8fba 4a95 30bd 76cc 18bc
00000180: 0129 a7bc fee4 c13c 6705 a93c 4272 adbd
00000190: 735e e33b 8954 c8bc bab6 18bd 9e8d a0bc
000001a0: d6dd 30bc 9914 513c f47a b6bb 0a29 6e3c
000001b0: fca9 0dbd 1180 303d ac8a 20bb 368a c5bd
000001c0: 6954 b83d 8ef6 d13c 9d21 58bc 850e e1bc
000001d0: c330 8b3c 2a57 f23b 1ac4 a03a 4946 75bc
000001e0: 079f f43c 4cc7 093d bcbb 50bc fd60 00bd
000001f0: b28b b1bc 4329 fcbc 8bc3 0f3c 54d9 6dbc
00000200: c7b9 923c a655 a3bb 2c82 76bc a975 f33c
00000210: 2816 a4bc 72b7 6c3c b7bb 163c bc7e d5bc
00000220: ea69 38bb 08fd 03bb d3a5 393c 65f1 953c
00000230: 4b72 fcbc 7720 1ebc 66ac 143c cab1 abbc
00000240: 7520 d0bc 216e b5bb efda 913c b67b 853c
00000250: fa34 8c3c 8ffa 903d a4c6 3dbc 1e06 b0bb
00000260: a0ff 3b3d 270e b4bc 3b1b 923c a031 9b3c
00000270: 9266 a93c 890f 7a3d 0220 473c 6edc 43bb
00000280: 82ec dc3c 366e a6bb 9290 473a a2eb 11bd
00000290: 9b63 2d3c 8cee f33c 6f7d bcbd a82f fcbc
000002a0: 0973 4f3c db22 a23c ac22 88bc 28d0 8f3d
000002b0: 301a 2c3c b6df cf3c 29cd d93b 13ed 6e3c
000002c0: 7de3 f83b c4c6 4e3c ffbf 06ba 855b 463c
000002d0: 1a79 a5bb 431f 51bd 094d bcbc 2600 fc3b
000002e0: d137 8e3c 3010 9dbc 5630 4d3c d2e5 88bc
000002f0: 59fb 9b3c 203c c9bc 4613 743b dfc9 d33b
00000300: 7106 f8ba 316c 993c 984f bd3c 4ae2 c0bd
00000310: d7bf 3c3c c72b b93b 0245 613b c58b febc
00000320: 8642 03bc 1b09 eebc bcac 1ebc 4f93 9b3c
00000330: 3925 bfbc 1e9b cb3b 071e 10bd fa9a b9bd
00000340: cbfb 313d 80d8 e83c f8c2 c0bb 2e3e b83c
00000350: c4be d3bc cb8f d33b 5435 013b 5397 f4bc
00000360: 7345 23bc 089b 1c3d 0676 7cbb 3dae e6bc
00000370: 29c0 a33b 9b9c ca3c 7be7 c73c fa90 e0bc
00000380: 766f 33bc b3f6 1d3b 2787 7abc fa90 ba3c
00000390: 9c43 7a3c e5f4 86bb 4e21 34bd b538 94bc
000003a0: a14c e5bb 21c6 9d3b c2ff eabc b256 d33b
000003b0: aead aebc 7866 573c c578 1c3c 4459 053c
000003c0: 1de1 6fbc 2cb3 cbbb 1bfb 6b3b 9734 4b3b
000003d0: 01e7 cd3b a0db 853d 868f 13bd f45b 84bc
000003e0: 03ef 603d 14d6 1e3c 9be0 17bc 9c93 32bb
000003f0: b237 343d 5511 933c c3a7 babc b235 263b

layer1.bias f4 [32]
-0.0077726194 0.0059172157 -0.017811412 -0.01464022 0.002987156 -0.014008571 0.020661581 0.014333648
-0.0040261555 -0.0074196705 -0.028184108 0.023614835 0.024622671 -0.026382392 0.011067462 0.019722177
0.0050701587 0.0033663977 -0.008881369 0.0139638875 0.015294389 0.0014323094 0.0059709484 0.007417954
0.0062422194 0.026171478 0.00030469877 0.016911158 -0.0024827055 -0.015029661 -0.015300543 0.0072819917
00000000: 75b1 febb 34e5 c13b 3de9 91bc 89dd 6fbc
00000010: 29c4 433b 3584 65bc 7a42 a93c add7 6a3c
00000020: d7ed 83bb b520 f3bb 5ce2 e6bc e673 c13c
00000030: 7cb5 c93c e31f d8bc 4d54 353c 6790 a13c
00000040: 9323 a63b c89e 5c3b 2983 11bc cac8 643c
00000050: 5195 7a3c 54bc bb3a f2a7 c33b 4f12 f33b
00000060: 888b cc3b 9165 d63c fabf 9f39 4589 8a3c
00000070: e3b4 22bb f83e 76bc 21af 7abc c69d ee3b

layernorm1.weight f4 [32]
1.0105978 0.9928792 1.0052581 1.0018626 0.9982957 1.0104494 1.0116994 1.0415117
0.99223423 0.99580324 0.9940989 0.9914234 1.0269098 1.0022465 1.0071334 1.0301825
1.0083352 0.9958085 1.019453 0.9981855 0.9979927 1.0211437 1.000219 1.0725825
0.9932412 1.0011284 0.9967498 0.9984962 0.9958225 1.0024338 0.95026034 0.9898576
00000000: 455b 813f 552d 7e3f 4cac 803f 093d 803f
00000010: 4f90 7f3f 6856 813f 5e7f 813f 4150 853f
00000020: 1003 7e3f f6ec 7e3f 447d 7e3f edcd 7d3f
00000030: c871 833f 9d49 803f bfe9 803f 05dd 833f
00000040: 2111 813f 4eed 7e3f 707d 823f 1689 7f3f
00000050: 737c 7f3f d6b4 823f 2d07 803f 624a 893f
00000060: 0e45 7e3f fa24 803f ff2a 7f3f 729d 7f3f
00000070: 39ee 7e3f c04f 803f 4344 733f 4f67 7d3f

layernorm1.bias f4 [32]
-0.0040695686 -0.014695466 0.03511134 -0.015720922 -0.010593069 0.0019031669 0.014953758 0.040011603
0.028125925 -0.007857292 -0.008513942 -0.00551089 0.010533242 -0.007887879 -0.008511327 0.019835243
-0.010919975 0.020494102 -0.00025964674 -0.007755074 -0.018546352 -0.000747846 -0.01783909 0.02428723
-0.017583584 0.0073912023 0.009767065 -0.016014058 -0.016502412 -0.0030013944 -0.052694798 -0.016875755
00000000: 045a 85bb 40c5 70bc e9d0 0f3d 2ac9 80bc
00000010: 8d8e 2dbc af73 f93a 9b00 753c 35e3 233d
00000020: 5768 e63c dfbb 00bc 107e 0bbc b294 b4bb
00000030: 9e93 2c3c 2a3c 01bc 1873 0bbc 857d a23c
00000040: b2e9 32bc 3fe3 a73c 3221 88b9 471e febb
00000050: 85ee 97bc 180b 44ba 4923 92bc 03f6 c63c
00000060: 730b 90bc e631 f23b 0a06 203c ea2f 83bc
00000070: 1130 87bc 0bb3 44bb 80d6 57bd 063f 8abc

blocks.0.fcn_layer.weight f4 [32, 32]
-0.15210634 0.0023564645 -0.03983395 0.092470534 -0.14228153 -0.12559222 0.05577225 0.040792778
-0.050828513 0.059165202 0.024519634 -0.16827056 -0.07908239 -0.056023523 0.123420104 0.017755108
-0.23343337 0.12606947 0.025629994 0.13825423 -0.028854843 0.09905095 -0.17114425 0.21725692
-0.11082906 0.18925697 -0.015511365 0.090101 0.04796752 -0.033913534 -0.035142593 -0.12927936
0.039571896 -0.046984646 -0.023347845 -0.025395237 -0.15361209 -0.12747253 -0.1481917 -0.018204294
-0.18690586 0.17113109 -0.12160381 0.072274506 0.12717015 -0.021232475 0.06988303 -0.07308483
0.043812167 -0.20017007 -0.086130835 0.0405432 0.14433765 0.060309634 0.114581846 0.04409992
0.034044154 0.07825794 0.086488344 0.090390734 0.07552384 0.055018533 0.07495066 -0.030665463
-0.09627998 0.02505335 0.16541405 0.13619296 -0.04982929 0.13749988 -0.023308633 0.1340425
0.18724729 -0.10899049 0.14087453 0.00025540814 -0.06083563 -0.12334997 0.104442015 -0.0040977723
0.123260714 0.0030344508 -0.07830129 -0.025590386 -0.03515549 0.07621621 0.032992586 -0.06876027
0.0014205436 -0.0989167 -0.18592636 -0.008656082 0.12483144 0.03930734 -0.07662776 -0.020490298
0.098078206 -0.15495966 0.029272992 -0.03496163 0.06873912 0.04191733 0.12216814 -0.15661195
-0.035859514 -0.15634947 -0.16507302 0.058228202 0.044575047 0.10408893 -0.08110333 0.18906075
0.045872815 0.08819939 -0.12928317 -0.16063055 0.04834914 0.059437603 0.10979452 0.08687361
-0.025236782 0.0013801017 0.0881992 0.09278799 -0.06164026 0.050830018 -0.011547391 -0.14107607
0.044351924 0.118623525 -0.08484895 0.073746964 0.15570058 0.06425962 -0.197747 -0.14454103
0.09974596 0.02813731 0.08264813 -0.018036846 -0.05159132 0.18029632 0.15570499 -0.12273168
-0.04780232 0.14555742 0.18253908 0.14537448 0.1135486 0.17827924 0.07383517 0.120037906
0.043622706 0.13297041 -0.04439243 0.10932749 0.15130632 0.10621079 0.041945282 0.11911706
0.21710235 0.08829133 -0.046307016 0.0041214866 -0.1338695 0.09183071 -0.10240347 -0.12202357
0.074860126 -0.09294174 0.12862009 -0.12372826 0.068753496 -0.023192432 0.14859825 -0.08112523
0.042371966 -0.04827822 0.13090964 -0.15427627 -0.045803092 0.0459347 -0.1056257 -0.0698785
-0.059498124 0.1600613 0.12732251 0.098021336 -0.085941665 -0.09708354 0.044822417 0.16448818
-0.107069895 -0.050854065 0.04193203 -0.12585445 -0.13628124 0.0404272 0.03226599 -0.11635602
0.07275997 0.0670698 -0.05867994 -0.16214249 0.12989588 0.13294952 -0.12623233 0.09182897
0.0023657368 -0.13826805 -0.16925994 -0.031274162 0.08840357 0.029510686 -0.005073761 0.13491534
-0.014120504 0.11641229 0.102656506 0.14407596 0.1009188 0.16352023 -0.0851312 0.021795567
0.07878805 0.022525411 0.032084264 0.029966941 -0.016193625 0.16886574 0.15699048 -0.09084303
0.008948007 0.11076493 -0.049423087 -0.12721306 -0.15455274 0.18125236 -0.07859597 -0.0072643864
0.003814176 -0.12409542 0.153669 0.009172461 -0.12107045 0.15043709 0.10544656 0.03389334
-0.060587294 -0.16649058 0.10743504 -0.1614004 0.008023117 0.0458341 0.16314304 -0.018772518
00000000: c4c1 1bbe ea6e 1a3b ed28 23bd 3161 bd3d
00000010: 40b2 11be 3f9b 00be 7171 643d 5416 273d
00000020: 8f31 50bd 3657 723d 66dd c83c 1e4f 2cbe
00000030: f3f5 a1bd ec78 65bd aec3 fc3d 2973 913c
00000040: 2809 6fbe 5b18 013e fef5 d13c 8492 0d3e
00000050: fe60 ecbc 39db ca3d 7040 2fbe 9978 5e3e
00000060: 59fa e2bd 94cc 413e 6123 7ebc e086 b83d
00000070: 9779 443d ebe8 0abd aef1 0fbd cf61 04be
00000080: 2416 223d f972 40bd fb43 bfbc ac09 d0bc
00000090: 7d4c 1dbe 2988 02be 91bf 17be 2c21 95bc
000000a0: 4064 3fbe fd3c 2f3e 6b0b f9bd a804 943d
000000b0: e438 023e baef adbc d61e 8f3d 80ad 95bd
000000c0: 6374 333d 62f9 4cbe 5d65 b0bd a010 263d
000000d0: 40cd 133e 3c07 773d e3a9 ea3d 1ea2 343d
000000e0: e271 0b3d b345 a03d cd20 b13d c71e b93d
000000f0: 3eac 9a3d 1d5b 613d bb7f 993d 2336 fbbc
00000100: 702e c5bd af3c cd3c 4d62 293e 2b76 0b3e
00000110: cc19 4cbd c5cc 0c3e bff1 bebc 7042 093e
00000120: c1bd 3f3e 6836 dfbd 6a41 103e 4de8 8539
00000130: c82e 79bd e99e fcbd b2e5 d53d 9b46 86bb
00000140: 1d70 fc3d a3dd 463b 6d5c a0bd eea2 d1bc
00000150: 34ff 0fbd 3f17 9c3d 3c23 073d 2fd2 8cbd
00000160: 8931 ba3a d794 cabd 7b63 3ebe 3dd2 0dbc
00000170: a0a7 ff3d bc00 213d 04ef 9cbd 45db a7bc
00000180: 3add c83d bfad 1ebe eacd ef3c ed33 0fbd
00000190: 19c7 8c3d 82b1 2b3d 4a33 fa3d e25e 20be
000001a0: 6de1 12bd 131a 20be e708 29be b280 6e3d
000001b0: 5394 363d 942c d53d 8119 a6bd 2499 413e
000001c0: 22e5 3b3d e2a1 b43d cf62 04be 567c 24be
000001d0: bf09 463d d874 733d f3db e03d cbea b13d
000001e0: 5ebd cebc 87e4 b43a c8a1 b43d a107 be3d
000001f0: 7f7a 7cbd 2333 503d 4531 3dbc 3f76 10be
00000200: 5daa 353d e4f0 f23d 49c5 adbd a608 973d
00000210: f96f 1f3e 8c9a 833d 317e 4abe 9002 14be
00000220: 9c47 cc3d 3780 e63c 6c43 a93d 02c2 93bc
00000230: 6c51 53bd 999f 383e 2171 1f3e bf5a fbbd
00000240: 5ecc 43bd 010d 153e 86eb 3a3e 0cdd 143e
00000250: 2b8c e83d d58e 363e e536 973d 6fd6 f53d
00000260: b9ad 323d 6529 083e d6d4 35bd 17e7 df3d
00000270: 0bf0 1a3e 0b85 d93d d1ce 2b3d a5f3 f33d
00000280: 1450 5e3e 16d2 b43d 6dac 3dbd 890d 873b
00000290: 1615 09be bd11 bc3d e9b8 d1bd 7ee7 f9bd
000002a0: 4450 993d 3d58 bebd fcb4 033e 3e65 fdbd
000002b0: a2ce 8c3d 0efe bdbc 242a 183e fc24 a6bd
000002c0: 3a8e 2d3d 62bf 45bd 2d0d 063e 99fa 1dbe
000002d0: 069c 3bbd 0626 3c3d 4952 d8bd 761c 8fbd
000002e0: 4eb4 73bd 1ce7 233e d560 023e 69bf c83d
000002f0: 2f02 b0bd bcd3 c6bd b697 373d 976f 283e
00000300: 7647 dbbd 5a4c 50bd ecc0 2b3d fddf 00be
00000310: 4f8d 0bbe fe96 253d 5829 043d 114c eebd
00000320: 2e03 953d e45b 893d 605a 70bd ae08 26be
00000330: 6d03 053e eb23 083e 0c43 01be d410 bc3d
00000340: 7a0a 1b3b 2496 0dbe 7a52 2dbe 5619 00bd
00000350: ee0c b53d 65c0 f13c cb41 a6bb 3f27 0a3e
00000360: b059 67bc 9169 ee3d 933d d23d a688 133e
00000370: 84ae ce3d d971 273e 4459 aebd 9e8c b23c
00000380: a15b a13d 3687 b83c ca6a 033d 3b7d f53c
00000390: 7ea8 84bc 24eb 2c3e 1dc2 203e e90b babd
000003a0: a99a 123c b9d8 e23d dd6f 4abd 2444 02be
000003b0: 1343 1ebe 389a 393e edf6 a0bd 170a eebb
000003c0: 41f7 793b bd25 febd 685b 1d3e 1748 163c
000003d0: c9f3 f7bd 2e0c 1a3e 5ef4 d73d bed3 0a3d
000003e0: 622a 78bd 827c 2abe e706 dc3d 2546 25be
000003f0: 6473 033c 8abc 3b3d f80e 273e d3c8 99bc

blocks.0.fcn_layer.bias f4 [32]
0.08961045 -0.038800817 -0.1075659 -0.074704595 0.029101068 -0.00054686744 0.0034799625 0.07097812
-0.16088916 0.07558286 -0.1063002 -0.17574105 -0.05588985 -0.023441965 0.045629453 0.028569847
0.17507783 -0.06651449 0.00565613 -0.012807241 0.13714454 -0.106859736 -0.11881244 0.11086975
0.07210315 0.123294234 -0.09513065 0.06392773 -0.041727837 -0.0974698 -0.049863856 0.14801174
00000000: af85 b73d 9bed 1ebd 834b dcbd b9fe 98bd
00000010: 5d65 ee3c a75b 0fba 1510 643b fa5c 913d
00000020: 21c0 24be 30cb 9a3d ebb3 d9bd 76f5 33be
00000030: c1ec 64bd 5d09 c0bc f3e5 3a3d 500b ea3c
00000040: 9a47 333e c038 88bd 0f57 b93b 76d5 51bc
00000050: 9e6f 0c3e 47d9 dabd f053 f3bd ae0f e33d
00000060: d1aa 933d b081 fc3d dcd3 c2bd 8bec 823d
00000070: cfea 2abd 3f9e c7bd 0b3e 4cbd 6490 173e

blocks.0.layer_norm.weight f4 [32]
1.3800899 0.9949975 1.0827754 1.255393 0.9987887 0.9541993 1.2205821 1.01688
0.9920712 1.0149686 1.3778847 0.99229616 1.0235754 0.9953564 0.9906054 1.2328907
1.3573681 1.0452843 1.0344074 0.9343935 1.0616702 1.0342817 1.0211483 0.9934549
1.0006577 0.99915624 1.0228021 1.4214251 1.0875863 1.22122 1.0034738 1.0012215
00000000: c9a6 b03f 28b8 7e3f 6298 8a3f b8b0 a03f
00000010: 9eb0 7f3f 6846 743f 093c 9c3f 2029 823f
00000020: 61f8 7d3f 7eea 813f 875e b03f 1f07 7e3f
00000030: 8504 833f adcf 7e3f 5198 7d3f 5dcf 9d3f
00000040: 3dbe ad3f e0cb 853f 7667 843f 6a34 6f3f
00000050: cfe4 873f 5863 843f fdb4 823f 0f53 7e3f
00000060: 8d15 803f b4c8 7f3f 2eeb 823f 42f1 b53f
00000070: 0736 8b3f f050 9c3f d471 803f 0728 803f

blocks.0.layer_norm.bias f4 [32]
0.31495348 -0.0059953257 -0.0060043964 0.24921468 -0.008037744 -0.012186552 0.24536338 0.02309949
-0.018289942 0.024634555 0.31009582 -0.002865825 0.024344899 -0.0063748136 -0.011815405 0.24503739
0.30411577 0.016941732 0.034090377 -0.053940043 0.024296941 0.015117945 0.035802234 -0.018272627
0.003274792 -0.00919611 0.01183609 0.33255276 0.005119347 0.24495856 0.0049508633 -0.0008949386
00000000: 9541 a13e 7074 c4bb 87c0 c4bb 2232 7f3e
00000010: beb0 03bc 1baa 47bc 8a40 7b3e 243b bd3c
00000020: cad4 95bc 68ce c93c e1c4 9e3e 91d0 3bbb
00000030: f46e c73c d0e3 d0bb 6795 41bc 15eb 7a3e
00000040: 10b5 9b3e 63c9 8a3c 5aa2 0b3d 3cf0 5cbd
00000050: 610a c73c 42b1 773c 5da5 123d 7ab0 95bc
00000060: e59d 563b 48ab 16bc 29ec 413c 5b44 aa3e
00000070: 32c0 a73b 6bd6 7a3e da3a a23b 509a 6aba

last_layer.weight f4 [1, 32]
-0.34140322 0.071648255 0.13156968 -0.39330867 0.09304618 -0.07984597 -0.36141554 0.18132253
-0.026948644 -0.015703956 -0.34504634 -0.017718617 0.058114253 0.06459903 -0.012421752 -0.3785076
-0.3357401 0.20839989 0.078750014 -0.065035634 0.096504465 0.09656697 -0.04295395 0.0029335206
0.14449857 0.03501512 0.05960443 -0.360893 0.21211489 -0.35573432 0.022696411 0.16949569
00000000: 67cc aebe 52bc 923d 34ba 063e c15f c9be
00000010: ff8e be3d 4986 a3bd 750b b9be 9dac 393e
00000020: 67c3 dcbc 95a5 80bc eaa9 b0be a226 91bc
00000030: 3609 6e3d 7f4c 843d 9b84 4bbc c0cb c1be
00000040: 20e6 abbe c866 553e b047 a13d 6731 85bd
00000050: 22a4 c53d e7c4 c53d 7bf0 2fbd 4f40 403b
00000060: 6ff7 133e 046c 0f3d c623 743d f8c6 b8be
00000070: a534 593e cf22 b6be d3ed b93c 4790 2d3e
