wkey/openwakeword_models/onnx/hey_computer_pos_neg_train_test.onnx (onnx, 859394 bytes, 9 tensors)

layer1.weight f4 [128, 1536]
0	0xb98b90c8	-0.00026620016
1	0xbc24ae31	-0.010051296
2	0xbc68bd24	-0.014205251
3	0x3aff7a7e	0.0019491462
4	0x3cd495f8	0.025950417
5	0xbc944dc9	-0.018103497
6	0x3b77d279	0.003781466
7	0x3c5b44db	0.013383116
8	0xbc59520c	-0.01326419
9	0xbc160159	-0.009155595
10	0xbcd4489e	-0.025913533
11	0x3c9f9387	0.019479526
12	0x3b9aa0df	0.0047188844
13	0xbc66bf14	-0.0140836425
14	0xbc3be8bf	-0.011469065
15	0xbcafa4d9	-0.02144091
16	0xbc9b6bc5	-0.018972287
17	0x3c1d9c9b	0.009619857
18	0x3a946fd5	0.0011324832
19	0xbce60c8c	-0.028082155
20	0xbc5e44ef	-0.01356624
21	0x3cdbf5fc	0.026850693
22	0x3b8e0585	0.004334154
23	0x3cf20df2	0.029547665
24	0x3c48e78e	0.012262238
25	0xbc3e36fe	-0.011609791
26	0x3c33b018	0.010967277
27	0x3cb112a9	0.021615343
28	0xbc712bd9	-0.014719927
29	0xbcb7a34b	-0.022416731
30	0xbc2710d4	-0.010196883
31	0xbcaf9005	-0.021430979
32	0xbcc8ce9f	-0.024512587
33	0x3c1097e3	0.008825275
34	0x3c82ddb1	0.015974851
35	0xbc7199de	-0.014746157
36	0x3bf47f39	0.007461455
37	0x3bec6ddb	0.007215244
38	0x3a116942	0.00055469957
39	0x3c463b56	0.012099108
40	0x3caa1e6e	0.020766463
41	0x3c97d22c	0.018532835
42	0xb9e9776a	-0.00044530194
43	0xbc7a9a19	-0.015295529
44	0x3c46dc62	0.012137504
45	0xbcbcb316	-0.023034614
46	0xbc57c354	-0.013169128
47	0x3c9fd28b	0.019509574
48	0xbc4d20fe	-0.012520073
49	0xbc1ada85	-0.009451513
50	0xbc8b9704	-0.017039783
51	0xbcab75ff	-0.020930288
52	0xbc855d21	-0.016279759
53	0xbb53e065	-0.0032329794
54	0x3b882279	0.0041545
55	0x3c3c583e	0.011495648
56	0x3c1b8e01	0.009494306
57	0xbb3164fb	-0.0027068246
58	0x3c81ca08	0.015843406
59	0xbc3465e0	-0.011010617
60	0x3cd3f8ce	0.025875475
61	0x3c5a04d4	0.013306815
62	0x3b1d0702	0.0023960476
63	0xbcde8ec7	-0.02716769
64	0x3abd2dae	0.0014433169
65	0xbc903d41	-0.017607333
66	0x3ce88269	0.028382497
67	0x3c2de8fa	0.010614628
68	0xba3232ba	-0.000679772
69	0x3b042c6d	0.0020168081
70	0x3acf1047	0.0015797698
71	0xbc10529a	-0.008808756
72	0x3c218d6a	0.009860376
73	0x3cc6d7c2	0.024272803
74	0x3cb34dd1	0.021887692
75	0xbc52ff67	-0.0128782755
76	0x3c5c027d	0.013428328
77	0x3c94a13b	0.018143287
78	0xbca85412	-0.0205479
79	0x3c9fdc0e	0.01951411
80	0x3c81511b	0.015785744
81	0xbbe33301	-0.0069335704
82	0x3c432259	0.011910045
83	0x3c6b4c8d	0.014361513
84	0xbcb537b9	-0.022121297
85	0xbc8ab788	-0.016933218
86	0x3c86dba8	0.016462162
87	0x3c9680ae	0.018371906
88	0x3cc73e28	0.02432163
89	0xbba0da89	-0.004908864
90	0xbc398f62	-0.011325689
91	0xbc84185f	-0.016124902
92	0x3b5f4b83	0.0034072108
93	0x3b1759d9	0.0023094325
94	0x3b3c8917	0.0028768235
95	0x3cd841d3	0.026398575
96	0xbc6e1632	-0.014531659
97	0x3ad41a51	0.0016182159
98	0x3b393ad8	0.0028263833
99	0xbc4ca141	-0.012489618
100	0x3ce3ae98	0.027793214
101	0x3c82f5ba	0.015986312
102	0x3c2ce337	0.010552219
103	0xbbeb6a70	-0.007184319
104	0xbb8af218	-0.0042402856
105	0xbc9f3d08	-0.019438282
106	0x3b82d20d	0.003992325
107	0xbc05952d	-0.008153242
108	0x3cc0caed	0.023534263
109	0xbca869f9	-0.020558344
110	0x3c407009	0.011745461
111	0xbca50c21	-0.020147385
112	0x3c8d1b28	0.017224863
113	0xbc562bb9	-0.013071948
114	0xbc50be77	-0.012740723
115	0xba886be4	-0.001040813
116	0x3ba18c04	0.0049300212
117	0xbca67e13	-0.020323789
118	0xbc7fb723	-0.015607628
119	0x3c8d7545	0.017267833
120	0x3abdd705	0.0014483636
121	0xbbad4187	-0.0052873525
122	0xbcc7a89e	-0.024372395
123	0xbc83c405	-0.01608468
124	0xbc37c802	-0.011217119
125	0xbc05cc53	-0.0081663905
126	0xba1b2692	-0.0005918528
127	0x3c9985e7	0.018740607
128	0x3c81d8e8	0.0158505
129	0x3ca041b1	0.019562574
130	0x3c0a9282	0.008457782
131	0xbc16c5e6	-0.009202456
132	0xbcc38dfb	-0.023871413
133	0x38a2478a	7.738087e-05
134	0x3b826bb3	0.003980124
135	0x39c2f12d	0.00037182253
136	0xbc879dda	-0.016554762
137	0xbbc71a2f	-0.0060761194
138	0xbca149b6	-0.019688468
139	0x3c847f39	0.016173946
140	0xbc3bdfcf	-0.011466934
141	0xbc291b20	-0.0103214085
142	0xbb64677d	-0.0034851723
143	0xbb21adcb	-0.002467024
144	0xbc10f9ed	-0.008848649
145	0x3cbba9a7	0.022908045
146	0xbbcaa4f6	-0.0061842157
147	0x3c905aad	0.017621363
148	0x3ca340e8	0.01992841
149	0xbc12ad1e	-0.008952407
150	0xbc0ee959	-0.008722627
151	0xbc20cd92	-0.009814637
152	0xbc320cfb	-0.010867353
153	0xbc95412e	-0.018219557
154	0xba160118	-0.0005722209
155	0xbb72458f	-0.003696773
156	0xbcc5202e	-0.024063196
157	0xbb26675a	-0.0025391192
158	0x3ced2a3a	0.0289508
159	0x3c3a9632	0.011388348
160	0xbc0b0323	-0.008484635
161	0xbb2d795b	-0.0026470039
162	0x3c78fe75	0.015197386
163	0xbb6370da	-0.0034704716
164	0x3c0db382	0.008648755
165	0xbc98fc4b	-0.01867499
166	0x3c6835e7	0.014173008
167	0x3c8ff29b	0.017571738
168	0x3cd3efe1	0.02587122
169	0x3c8065a1	0.01567346
170	0x3cbe50b1	0.023231836
171	0xbbd8e5e3	-0.0066192015
172	0x3b499055	0.0030756195
173	0x3bdea5fa	0.0067946883
174	0xbc5052da	-0.012715066
175	0x3cc27cac	0.023741089
176	0xbc22cc11	-0.009936349
177	0xbbe1e2dc	-0.006893499
178	0x3c379cff	0.011206864
179	0xbce4aac6	-0.027913462
180	0xb998e67c	-0.00029163423
181	0x3c7a099c	0.01526108
182	0x3c6e297f	0.014536261
183	0x3c0fe3f0	0.008782372
184	0xbc645957	-0.013937316
185	0x3c623afb	0.013808007
186	0x3cac1ee3	0.021010822
187	0xbb331cf6	-0.0027330494
188	0xbc9ee92b	-0.019398293
189	0xbbf854b3	-0.0075784563
190	0x3c9a4300	0.018830776
191	0xbbd681d5	-0.006546239
192	0xbc2b05ed	-0.010438425
193	0x3c61af04	0.013774637
194	0x3c9faf06	0.019492637
195	0xbac5ee6b	-0.0015100961
196	0x3ce9de39	0.028548347
197	0xbb8318a0	-0.0040007383
198	0xbac712df	-0.0015188119
199	0xbca03026	-0.019554209
200	0xbcb211bb	-0.02173697
201	0xbcc0d6ab	-0.023539862
202	0xbc525518	-0.012837671
203	0xba5509b3	-0.00081267505
204	0xbb5c84a1	-0.003364839
205	0xbcd185b2	-0.025576446
206	0x3c7535ee	0.014966471
207	0xbcdaf807	-0.026729597
208	0xbcef873e	-0.029239293
209	0xbca3d005	-0.019996652
210	0x3b3d2a5d	0.0028864362
211	0x3c324ae4	0.010882113
212	0x3c9ba825	0.019001076
213	0xbcb1b5d3	-0.021693146
214	0xbcc71031	-0.024299713
215	0xbc3b6f5f	-0.011440127
216	0xbcc624b8	-0.02418743
217	0x3ce09c08	0.027418151
218	0xbc57c653	-0.013169843
219	0x3be15bf7	0.006877418
220	0xbccc2dc0	-0.024924159
221	0x3ccd8922	0.025089804
222	0xbcaf8299	-0.021424579
223	0x3c85fcfe	0.016355988
224	0x3c02e630	0.007989451
225	0xbcaeddcd	-0.021345997
226	0xbca230d5	-0.019798676
227	0x3c8e239a	0.01735096
228	0xbc6f9db5	-0.014625003
229	0xbbb0050d	-0.005371696
230	0xbb5d97e6	-0.0033812462
231	0x3b11f03a	0.002226843
232	0xbca05c5c	-0.01957529
233	0x3a410415	0.0007362974
234	0x3c010cb6	0.007876566
235	0x3b3b6ef9	0.002860008
236	0xbb6cc0f3	-0.003612575
237	0xbc2af1e2	-0.010433646
238	0xbbafb0ea	-0.005361666
239	0xba1df35b	-0.00060253375
240	0x3bdad088	0.006677691
241	0x3c81c1c5	0.015839467
242	0x3a4c7052	0.00077987195
243	0x3c96a9fe	0.018391605
244	0x3c9c1107	0.019051088
245	0x3c0aa1f3	0.008461463
246	0xbcd49308	-0.025949016
247	0xbbfa0a5b	-0.007630629
248	0xbc545941	-0.012960733
249	0x3ccd49cb	0.025059601
250	0x3cb3b6a0	0.021937668
251	0xbcabeae4	-0.020986028
252	0x3ca9077a	0.020633448
253	0x3c9e2482	0.019304518
254	0xbcb30ceb	-0.021856746
255	0xbcafa5a8	-0.021441296

layer1.bias f4 [128]
0	0x3c0a37cc	0.008436155
1	0xbc451ea5	-0.012031232
2	0xbc4bd35c	-0.012440529
3	0xbc494d92	-0.012286561
4	0x3ca01335	0.019540409
5	0x3cadf154	0.021233238
6	0xbcc7f993	-0.024410998
7	0xbc9799a7	-0.018505884
8	0x3c98536e	0.01859447
9	0xbc5e5662	-0.0135704
10	0xb9c88253	-0.00038244072
11	0xbcc0c7a4	-0.023532696
12	0xbcdc93d8	-0.026925966
13	0xbc3b4a0c	-0.011431228
14	0x3caf8483	0.021425491
15	0x3c61a868	0.013773061
16	0xbbc5c2f3	-0.0060352026
17	0x3c835b9e	0.016034897
18	0xbc9fcf24	-0.019507952
19	0x3c8190f6	0.015816193
20	0xbc4ac3cb	-0.012375782
21	0xbcd0a3ff	-0.025468824
22	0x3c66989b	0.01407447
23	0xbb4cc2d0	-0.0031244047
24	0x3c5ad711	0.01335694
25	0x3c01530b	0.007893334
26	0xbca14cec	-0.01969
27	0xbc0819f0	-0.008306965
28	0xbc833294	-0.016015328
29	0xbcc96f9a	-0.024589349
30	0x3b9bea87	0.0047581824
31	0xbbc980f9	-0.006149408
32	0x3bb29384	0.005449714
33	0xbc9f84e1	-0.019472541
34	0x3caa630d	0.020799184
35	0x3ca87723	0.020564621
36	0x3bc97ea1	0.0061491285
37	0xbb7c15a5	-0.003846505
38	0x3b4969f5	0.0030733321
39	0x3c3ed189	0.011646637
40	0x3c4768d1	0.012170986
41	0xbc54d47a	-0.0129901115
42	0x3ca57a8b	0.020200035
43	0xbc5e7f19	-0.013580107
44	0xbc97b96c	-0.018521033
45	0xbcad0ed9	-0.021125244
46	0x3bba1bde	0.0056795916
47	0xbc714c44	-0.014727656
48	0xbc51e652	-0.01281126
49	0x3cadd09f	0.021217642
50	0x3bf1bf9e	0.007377579
51	0xbc73471f	-0.0148485
52	0x3b8a6f45	0.00422469
53	0x3c660822	0.014040025
54	0xbca39fed	-0.01997372
55	0x3c5b81c1	0.013397635
56	0x3ccf1bd1	0.025281819
57	0x3c34f8db	0.01104566
58	0x3ca24659	0.019808935
59	0xbc596b0e	-0.013270153
60	0xbc46c01b	-0.012130762
61	0xbc9935d4	-0.018702425
62	0xbc9feff4	-0.019523598
63	0x3c96c4af	0.018404333
64	0x3ad5b2ea	0.0016303931
65	0xbca7cb78	-0.020482764
66	0xbc135e51	-0.008994655
67	0x3c349e54	0.0110240765
68	0x3ca9fbcf	0.020749955
69	0xbb936c6b	-0.0044990084
70	0xbc9562bc	-0.018235557
71	0xbcde1b4d	-0.027112627
72	0x3c1dfd07	0.009642846
73	0xbcd1a498	-0.02559118
74	0x3c877ce4	0.016539045
75	0x3cb4ecb6	0.022085529
76	0x3c6b367d	0.014356253
77	0xbc50e1a2	-0.012749108
78	0x3bd8a6f0	0.0066116974
79	0xbccf1126	-0.025276732
80	0xbc0512f7	-0.008122197
81	0xbca075fa	-0.019587506
82	0x3c26863d	0.010163841
83	0xbbe9021e	-0.007110848
84	0xbca08536	-0.01959477
85	0xbcaa4a98	-0.020787522
86	0x3c4703b6	0.012146881
87	0x3a478354	0.0007610817
88	0xbba5c38d	-0.005058712
89	0xbc9aa6d8	-0.018878385
90	0xbc0ad5cc	-0.008473825
91	0x3c085423	0.008320841
92	0x3cc282bc	0.02374398
93	0xbc9cd9c6	-0.019146811
94	0x3c842394	0.016130246
95	0x3becf23d	0.0072310255
96	0xbcc0cdfd	-0.023535723
97	0x3c5d0bfc	0.013491627
98	0xb9f88f5a	-0.0004740905
99	0xbc907d57	-0.017637892
100	0xbc9c786e	-0.019100394
101	0x3b12cdb1	0.0022400434
102	0x3cd89d75	0.026442269
103	0xbcc9612f	-0.024582474
104	0x39ee2dbd	0.00045428975
105	0x3c596841	0.013269485
106	0x3c85f350	0.016351372
107	0x3b020a45	0.0019842547
108	0x3c74226a	0.014900783
109	0x3d00f7d6	0.031486355
110	0xbc4d1af9	-0.012518638
111	0x3a2d2304	0.0006604644
112	0xbca73f7c	-0.020416014
113	0x3cc04b1a	0.023473311
114	0xbc24423d	-0.010025558
115	0x3b69efac	0.0035695834
116	0x3b3c1da8	0.00287042
117	0x3c93d85e	0.018047508
118	0x3c613d5a	0.0137475375
119	0x3bf755a1	0.0075480496
120	0x3bf5fdba	0.007507053
121	0x3ce12518	0.027483508
122	0xbc8c34de	-0.017115053
123	0x3b3e6333	0.0029050827
124	0x3b47c24e	0.0030480805
125	0xbc1d3869	-0.009595969
126	0x3c5b9f54	0.013404686
127	0x3b960a11	0.0045788367

layernorm1.weight f4 [128]
0	0x3f7f9557	0.9983725
1	0x3f7d93b0	0.9905348
2	0x3f78ecd3	0.97236365
3	0x3f8191de	1.012264
4	0x3f7f1023	0.99634
5	0x3f812686	1.0089881
6	0x3f7ccd56	0.9875082
7	0x3f7e9b0c	0.9945533
8	0x3f82200e	1.0166032
9	0x3f7d46ae	0.98935974
10	0x3f804a3a	1.0022652
11	0x3f7c3c04	0.98529077
12	0x3f7d486e	0.98938644
13	0x3f7d9bd0	0.99065876
14	0x3f8330a2	1.0249217
15	0x3f7c6550	0.9859209
16	0x3f80fcd3	1.0077156
17	0x3f828320	1.0196266
18	0x3f7f2338	0.99663115
19	0x3f7aaf2f	0.9792356
20	0x3f796937	0.9742617
21	0x3f7c77bf	0.9862022
22	0x3f7e5b36	0.99357927
23	0x3f7bb5c5	0.98324233
24	0x3f7f0014	0.99609494
25	0x3f7da762	0.9908353
26	0x3f7e9351	0.99443537
27	0x3f7af72e	0.98033416
28	0x3f7ea93c	0.9947698
29	0x3f81fd65	1.0155455
30	0x3f806f70	1.0034008
31	0x3f7f1755	0.99644977
32	0x3f7f2cf9	0.99678
33	0x3f7c21ae	0.9848889
34	0x3f826f7f	1.0190276
35	0x3f7d79d5	0.99014026
36	0x3f7e4b20	0.9933338
37	0x3f7dcffc	0.99145484
38	0x3f7a7131	0.97828966
39	0x3f7e86ef	0.9942464
40	0x3f8147b1	1.0100003
41	0x3f7ce9f1	0.98794466
42	0x3f805633	1.0026306
43	0x3f7e3a1a	0.99307406
44	0x3f76faf1	0.96476656
45	0x3f811c2b	1.0086721
46	0x3f7c0851	0.9845019
47	0x3f79df41	0.97606283
48	0x3f7ffffb	0.9999997
49	0x3f7df258	0.9919791
50	0x3f7c4388	0.98540545
51	0x3f7c1b68	0.9847932
52	0x3f7bf940	0.984272
53	0x3f7e2094	0.9926846
54	0x3f74da86	0.9564594
55	0x3f88101f	1.062992
56	0x3f7c4a54	0.98550916
57	0x3f7c1a76	0.98477876
58	0x3f7c6ec4	0.98606515
59	0x3f84a3ad	1.036245
60	0x3f7bf747	0.9842419
61	0x3f7eb0ae	0.9948834
62	0x3f7c9dad	0.98678094
63	0x3f7b72fe	0.9822234
64	0x3f7c4c80	0.9855423
65	0x3f822f68	1.0170717
66	0x3f7dbe44	0.9911845
67	0x3f7fd12d	0.9992855
68	0x3f821e83	1.0165561
69	0x3f7ea6ae	0.99473083
70	0x3f7e5b1a	0.9935776
71	0x3f865a84	1.0496373
72	0x3f780930	0.9688902
73	0x3f7b487b	0.9815747
74	0x3f805702	1.0026553
75	0x3f812cfb	1.0091852
76	0x3f83d836	1.0300357
77	0x3f7df67e	0.9920424
78	0x3f7a37cc	0.9774139
79	0x3f7d22e2	0.9888135
80	0x3f7ceb7d	0.98796827
81	0x3f7b4b2f	0.98161596
82	0x3f7f5571	0.9973975
83	0x3f7e7efe	0.99412525
84	0x3f7edc98	0.9955535
85	0x3f80f8c2	1.0075915
86	0x3f7fef75	0.9997476
87	0x3f7f5b78	0.99748945
88	0x3f7ed5a1	0.9954472
89	0x3f7e1cd3	0.9926273
90	0x3f7fed75	0.99971706
91	0x3f7f3f84	0.9970629
92	0x3f81e93c	1.0149302
93	0x3f7c5d3a	0.9857975
94	0x3f7d7bf6	0.99017274
95	0x3f7ba891	0.98304087
96	0x3f8033b7	1.0015782
97	0x3f7e205b	0.9926812
98	0x3f822195	1.0166498
99	0x3f7f3454	0.9968922
100	0x3f7cc553	0.9873859
101	0x3f7ec562	0.9951993
102	0x3f7faab2	0.99869835
103	0x3f805758	1.0026655
104	0x3f7b1051	0.9807177
105	0x3f800451	1.0001317
106	0x3f7cfebb	0.9882619
107	0x3f7d6be6	0.98992765
108	0x3f801163	1.0005306
109	0x3f827920	1.0193214
110	0x3f7cf397	0.9880919
111	0x3f7f629e	0.9975985
112	0x3f7e1625	0.9925254
113	0x3f7c6bbc	0.9860189
114	0x3f825a6d	1.0183846
115	0x3f7f6090	0.9975672
116	0x3f7d8da4	0.9904425
117	0x3f7d02ac	0.988322
118	0x3f809cb7	1.0047826
119	0x3f7ca23e	0.9868506
120	0x3f82f0f4	1.0229783
121	0x3f7c8b77	0.98650306
122	0x3f7dfd2e	0.99214447
123	0x3f7cc297	0.9873442
124	0x3f812b41	1.0091325
125	0x3f7d3f21	0.9892445
126	0x3f7d2ae7	0.9889359
127	0x3f7d26f6	0.98887575

layernorm1.bias f4 [128]
0	0xbb3cd994	-0.002881621
1	0x3ba9d08a	0.0051823305
2	0xbca1828b	-0.019715568
3	0x3c0ae2e8	0.00847695
4	0xbb5c963b	-0.003365888
5	0x3bd87ac1	0.0066064303
6	0xbc1db8b6	-0.009626558
7	0xbb4c596b	-0.0031181227
8	0xbbbeecf0	-0.005826585
9	0xbbb361e1	-0.0054743146
10	0x3b896cdd	0.0041938857
11	0xbbd96880	-0.006634772
12	0xbb81b83c	-0.00395873
13	0xbbccab38	-0.006245997
14	0xbb0dea0c	-0.0021654395
15	0xbafac06e	-0.0019130835
16	0x3bcb71b7	0.006208624
17	0x3bf048f1	0.007332914
18	0x3a8cdf5b	0.0010747717
19	0x39a0db0d	0.00030680784
20	0xbbbb68b2	-0.0057192678
21	0xbc38eb88	-0.011286624
22	0xbb954af1	-0.004556053
23	0xbc262f63	-0.010143134
24	0xbc056c8e	-0.008143557
25	0xbba15aad	-0.0049241395
26	0xba3f4f56	-0.0007297894
27	0x3b0e4e49	0.0021714142
28	0xbb7f0bfb	-0.0038917053
29	0x3c2a4e95	0.010394712
30	0xba2f3c7d	-0.00066847337
31	0x39b1001d	0.00033760155
32	0x3bdfa5ce	0.0068251854
33	0x3b3779aa	0.0027996101
34	0x3c3c39f8	0.01148843
35	0xbbb69501	-0.005571962
36	0x398d37f8	0.00026935316
37	0xbb352ba5	-0.0027644422
38	0xbcc51790	-0.024059087
39	0xbbdc9b5a	-0.0067323865
40	0xb9c101c0	-0.00036813132
41	0xbc37f95d	-0.011228886
42	0xb900565d	-0.00012239204
43	0x3b71917f	0.0036860404
44	0xbce6cb8e	-0.028173234
45	0x3ba51c3e	0.005038767
46	0x3a7f8950	0.0009747939
47	0xbc27cd8c	-0.010241877
48	0x3aee9ffc	0.0018205638
49	0xbb8f1fdf	-0.004367813
50	0xbc1ee893	-0.009699005
51	0xbbedc49c	-0.0072561037
52	0xbc1c1862	-0.009527298
53	0xbc0e486a	-0.008684257
54	0xb9c4892a	-0.00037486228
55	0x3bb7cf7f	0.0056094523
56	0x3a4f4000	0.000790596
57	0xbc50bac2	-0.012739839
58	0xbb366825	-0.002783307
59	0x3afb0e7f	0.00191541
60	0xbb579959	-0.0032897799
61	0xbb82cb61	-0.00399153
62	0xbc296ae5	-0.010340427
63	0xbb0155d6	-0.0019735
64	0xbbfa06b5	-0.007630194
65	0x3c0c7c69	0.008574584
66	0xb9f817ef	-0.00047320078
67	0x3a26c99a	0.00063624384
68	0x3c213d5a	0.0098412875
69	0x3af29235	0.0018506708
70	0x3ab79cad	0.0014008485
71	0x3c4576b9	0.0120522315
72	0xbd204770	-0.039130628
73	0xbc77b237	-0.015118173
74	0xb8ef5f85	-0.000114142
75	0x3c2604c4	0.010132972
76	0x3b472b27	0.003039071
77	0xbc1ff1a1	-0.009762199
78	0xbb4ce502	-0.003126443
79	0xbc12c342	-0.008957686
80	0xbc28e725	-0.010309015
81	0xbbc1825f	-0.005905434
82	0x3adfddf9	0.0017079703
83	0xbb929347	-0.0044731232
84	0x3a9be754	0.0011894503
85	0xbbd892be	-0.00660929
86	0x3b9fcefc	0.0048769694
87	0x3bb801a5	0.0056154304
88	0x3b8fbe25	0.0043866807
89	0xbc278d9f	-0.010226636
90	0xbbb82a54	-0.0056202803
91	0xb8b362c2	-8.55378e-05
92	0x3b3e038b	0.002899381
93	0xbbbe4852	-0.005806961
94	0xbc270fd9	-0.0101966495
95	0x38931665	7.0136775e-05
96	0xba746809	-0.0009323364
97	0xbba1ce28	-0.004937906
98	0x3b4f0123	0.003158637
99	0xbab5a20e	-0.00138575
100	0xbb986981	-0.004651249
101	0xbbc31d3c	-0.0059544127
102	0xb9921d67	-0.00027869196
103	0xbad62523	-0.0016337972
104	0x3b91c107	0.0044480595
105	0x3b5da46b	0.0033819925
106	0xbb4433ae	-0.002993803
107	0x3bedb196	0.007253836
108	0xb9df081e	-0.00042539922
109	0x3a90113e	0.0010991467
110	0xbbf19195	-0.007372091
111	0xbbbeb0c4	-0.005819412
112	0xbbf6a8dd	-0.0075274543
113	0xbb1974e3	-0.0023415617
114	0x3c07d780	0.008291125
115	0xbbe70b28	-0.0070508905
116	0xbab7de5c	-0.001402806
117	0xbc157c32	-0.009123849
118	0xbb848f63	-0.0040454133
119	0xbb612eec	-0.0034360243
120	0xb8ee40cb	-0.00011360793
121	0xbb819947	-0.0039550397
122	0xbb547d2d	-0.0032423243
123	0x3a5ca644	0.00084171095
124	0x3adbb562	0.001676243
125	0xbc3c7b0c	-0.011503946
126	0xbc223e5b	-0.009902562
127	0xbb0b504e	-0.0021257582

blocks.0.fcn_layer.weight f4 [128, 128]
0	0x3d7db130	0.061936557
1	0xbcb9ffd3	-0.022704994
2	0xbd9107d3	-0.070815705
3	0xbd98f259	-0.07468099
4	0xbd39636f	-0.045260843
5	0xbcf86458	-0.030321285
6	0xbd85aaf7	-0.065267496
7	0x3cd6a662	0.026202384
8	0xbc5af425	-0.013363873
9	0xbc777714	-0.015104074
10	0xbd8b1026	-0.067901894
11	0xbcb9504b	-0.022621294
12	0xbd64786f	-0.055778917
13	0xbd42740f	-0.047473963
14	0x3d38ccda	0.045117237
15	0xbd943f29	-0.07238609
16	0xbd9ab7fe	-0.07554625
17	0x3d612cc1	0.05497432
18	0xbad0d728	-0.0015933262
19	0xbcff77af	-0.031185
20	0xbdafebaf	-0.08589875
21	0x3daf5a0f	0.08562099
22	0x3d966576	0.07343571
23	0x3b7448d3	0.0037274852
24	0xbd783599	-0.06059799
25	0xbd9d6ad8	-0.076863945
26	0xbd4cdb76	-0.05001398
27	0x3d047cc6	0.032345556
28	0xbd89bd3d	-0.067255475
29	0xbc01e0f1	-0.007927165
30	0xbcdc5eb8	-0.026900634
31	0x3dad082d	0.08448825
32	0x3c52fe2a	0.01287798
33	0xbd975826	-0.0738986
34	0x3d71b2e7	0.059008505
35	0x3d9335a5	0.07187966
36	0x3d55e321	0.05221856
37	0xbb45ba43	-0.0030170835
38	0xbd33c79b	-0.04389153
39	0x3d9b9ac8	0.075978816
40	0x3da6215e	0.08111833
41	0x3d17f6c4	0.03710057
42	0xbb4b62da	-0.0031034262
43	0xbc788551	-0.015168504
44	0x3c814951	0.01578203
45	0xbd4cb6de	-0.049979083
46	0xbd7c039c	-0.06152688
47	0xbcccff9b	-0.025024226
48	0x3d81e1c1	0.06341887
49	0xbc8c57b8	-0.017131671
50	0xbd7102b7	-0.05884048
51	0xbd5c5570	-0.053792417
52	0xbc7b412c	-0.015335362
53	0xbd2c4221	-0.042055253
54	0xbd91963d	-0.07108734
55	0xbc062fbc	-0.008190092
56	0x3d6ffd9c	0.05859147
57	0x3d46a8c2	0.048500784
58	0x3c8c3d12	0.017118964
59	0x3cd6ca35	0.026219467
60	0xbd9ce2e2	-0.07660462
61	0xbda2b41b	-0.07944509
62	0x3d3ca9a9	0.046060238
63	0x3c86b177	0.016442044
64	0xbd925adf	-0.071462385
65	0x3c9e2354	0.019303955
66	0xbd864f87	-0.065581374
67	0x3db2a08f	0.0872203
68	0xbd784b78	-0.060618848
69	0x3db4140a	0.08792885
70	0x3d2e6f05	0.042586345
71	0xbc4503c1	-0.012024821
72	0x3a752954	0.00093521667
73	0xbc0b2508	-0.008492716
74	0x3da3b091	0.07992662
75	0xbd297e3b	-0.04138015
76	0x3dd27c77	0.10277646
77	0xbd51106a	-0.051041044
78	0x3d287efe	0.041136734
79	0x3d39b7a4	0.04534115
80	0xbda5fa99	-0.08104438
81	0x3d42f3b5	0.0475957
82	0xbcf27fa0	-0.029601872
83	0x3d892cc1	0.06697989
84	0xbc6a5aca	-0.014303872
85	0x3ad63240	0.001634188
86	0xbd8d945f	-0.06913065
87	0x3d51bad5	0.051203568
88	0xbd433bff	-0.04766464
89	0x3d169acd	0.036768723
90	0xb9869494	-0.0002566917
91	0xbd0bbd7a	-0.034116246
92	0x3dd86093	0.10565295
93	0xbca5d55a	-0.020243336
94	0xbd031a2f	-0.032007392
95	0x3d963743	0.07334759
96	0x3d6ebbea	0.058284678
97	0x3d10d244	0.035356775
98	0x3cbabe1e	0.022795733
99	0x3d70fce6	0.058834933
100	0xbdac69ee	-0.08418642
101	0x3cc6aaf2	0.024251435
102	0x3d94b01c	0.07260153
103	0xbdb25902	-0.08708383
104	0xbd5faa95	-0.05460604
105	0x3d16dd6d	0.03683226
106	0x3d9eb9b6	0.07750265
107	0xbc2f3c75	-0.010695566
108	0xbc961fe7	-0.01832576
109	0x3dcbe320	0.0995543
110	0xbd2439bd	-0.040094126
111	0x3db6609b	0.08905145
112	0x3ca75b97	0.020429416
113	0xbd4066a8	-0.0469729
114	0x3d038ec0	0.03211856
115	0xbc90fa52	-0.017697487
116	0x3ce919b2	0.028454635
117	0x3c855621	0.016276421
118	0xbd25b31b	-0.04045401
119	0x3d23a9eb	0.03995697
120	0x3d7a196a	0.061059393
121	0x3c7e762f	0.015531107
122	0xbcdf69f1	-0.027272196
123	0x3baa6221	0.005199686
124	0x3cd11976	0.025524836
125	0xbb2632ee	-0.0025359946
126	0xbd7adc79	-0.061245415
127	0x3d59be13	0.053159785
128	0xbcc93626	-0.024561953
129	0x3d7173b3	0.05894823
130	0xbd833a12	-0.064075604
131	0x3d139f53	0.036040615
132	0x3d9e658c	0.07734212
133	0xbd5ab9b7	-0.053399768
134	0xbc1dc38d	-0.0096291425
135	0xbd9553a4	-0.07291344
136	0x3d8894e1	0.066690214
137	0x3c423cdb	0.011855329
138	0x3c32b51d	0.010907439
139	0x3d85da1b	0.06535741
140	0xbba61fce	-0.0050697094
141	0x3d87a78a	0.066237524
142	0x3c8f1e70	0.017470568
143	0xbdb0e077	-0.08636563
144	0xbd95b15a	-0.07309218
145	0x3d7cb6a0	0.061697602
146	0x3d1e4d82	0.038648136
147	0xbd942fc8	-0.07235676
148	0x3cff7c54	0.031187214
149	0xbd5075cd	-0.050893594
150	0x3d663f3f	0.05621266
151	0xb900dd2a	-0.00012289421
152	0x3d90b91f	0.07066559
153	0x3d018e00	0.031629562
154	0x3d5d2619	0.05399141
155	0xbd882b18	-0.066488445
156	0xbd5b9759	-0.053611133
157	0x3d8f3fae	0.06994568
158	0xbdab0699	-0.08350868
159	0x3b247966	0.0025096773
160	0xbd947d86	-0.07250504
161	0xbcf55bb2	-0.02995095
162	0xbd604238	-0.05475065
163	0x3d9d41f5	0.07678596
164	0x3d192bf8	0.037395447
165	0x3d925617	0.071453266
166	0xbc8e7c97	-0.017393393
167	0x3ca2b2bf	0.019860623
168	0xbdb9d88f	-0.090745084
169	0x3d85ec46	0.06539206
170	0x3c2a4818	0.010393165
171	0x3d0fd5a8	0.035115868
172	0xbcbaf305	-0.022820959
173	0x3c75f896	0.015012881
174	0xbda5f5ef	-0.08103549
175	0xbc4e6f3d	-0.012599763
176	0xbd1a0052	-0.03759796
177	0xbc6c08a5	-0.014406358
178	0x3d4832f9	0.048876736
179	0x3d2a13fd	0.04152297
180	0xbd0dc268	-0.03460923
181	0xbd30d1c5	-0.0431688
182	0x3da2c34a	0.07947405
183	0xb9074c1c	-0.00012902956
184	0xbd09a19b	-0.033601385
185	0xbcaadcfa	-0.020857323
186	0xbdaf4f22	-0.08560015
187	0x3c8f5924	0.01749856
188	0x3d88d422	0.06681086
189	0x3dab629b	0.08368417
190	0xbbafea23	-0.0053684874
191	0xbd9f17bf	-0.07768201
192	0x3d8b5045	0.068024196
193	0x3d6bff17	0.05761632
194	0xbd92cbce	-0.07167779
195	0x3cc9d290	0.024636537
196	0x3dd6b64c	0.10483989
197	0xbd01359f	-0.031545278
198	0x3ce89d23	0.028395241
199	0xbd3c75cc	-0.046010777
200	0x3d55c6ab	0.052191418
201	0x3d8ea741	0.06965495
202	0x3d519d06	0.05117514
203	0xbc601290	-0.013676301
204	0x3cc3ab61	0.02388543
205	0xbd81b51c	-0.06333372
206	0xbcac35af	-0.021021692
207	0x3d711180	0.05885458
208	0x3d070108	0.032959968
209	0x3c4a75db	0.0123572005
210	0xbdc3d8f1	-0.09562863
211	0x3be6f147	0.0070478055
212	0x3d8c6277	0.06854718
213	0x3daf5028	0.085602105
214	0xbd16dab2	-0.036829658
215	0x3d48729a	0.048937418
216	0x3d8e38ef	0.06944453
217	0xbd2b02bf	-0.041750666
218	0xb9c42e86	-0.00037418696
219	0x3d702997	0.058633413
220	0xbc27919f	-0.01022759
221	0x3aec2f36	0.0018019441
222	0xbc9bd7d9	-0.019023823
223	0xbd85f428	-0.0654071
224	0xbd7a7a6a	-0.0611519
225	0x3d360e7c	0.044447407
226	0x3d8ffe9f	0.07030987
227	0xbd30b0f2	-0.0431375
228	0x3c5a6f0f	0.0133321425
229	0x3d8cc6e1	0.06873871
230	0x3d1bb0a8	0.03801027
231	0x3d402c67	0.046917345
232	0x3d17aa14	0.037027434
233	0x3dcf7f42	0.101316944
234	0xbd5f731e	-0.054553144
235	0x3d82c0fa	0.063844636
236	0x3d572107	0.05252173
237	0xbd777bdf	-0.060420867
238	0xbd2ae18e	-0.041719012
239	0xbcb4cfbc	-0.022071712
240	0xbcc78673	-0.024356103
241	0xbcdd3c7d	-0.027006382
242	0x3d8d57a7	0.06901484
243	0x3d3a7023	0.0455171
244	0xbd997b92	-0.07494272
245	0xbd56e030	-0.052459896
246	0xbc649de9	-0.013953664
247	0xbd6111a4	-0.054948464
248	0xbc1b0bf1	-0.009463296
249	0xbdb2c8c7	-0.087297015
250	0x3dbed7c1	0.093184955
251	0xbda1dd46	-0.07903533
252	0xbdb316b1	-0.087445624
253	0xbb2ed685	-0.0026678157
254	0x3cfc6b15	0.03081278
255	0x3d255f7f	0.040374275

blocks.0.fcn_layer.bias f4 [128]
0	0xbd8888d9	-0.066667266
1	0x3cf1dba5	0.02952368
2	0xbc7c36b3	-0.015393901
3	0xbc36cfd8	-0.011157952
4	0xbcadc6a5	-0.021212885
5	0x3d0037dd	0.031303275
6	0x3d1afc69	0.037838373
7	0xbd61e10b	-0.05514626
8	0xbcf8251b	-0.03029113
9	0xbc52c523	-0.012864384
10	0xbd3cf075	-0.046127755
11	0x3b288575	0.0025714312
12	0x3d38b6ad	0.04509609
13	0xbc7722e4	-0.015084002
14	0xbd48ba01	-0.049005512
15	0xbd02a666	-0.03189697
16	0x3d2a31c2	0.04155136
17	0xbc98a59e	-0.01863366
18	0xbc0215f2	-0.0079398025
19	0x3cd846f2	0.026401017
20	0x3d58405d	0.052795757
21	0x3d83789d	0.064194895
22	0x3d92055f	0.07129931
23	0xbd01961f	-0.031637307
24	0x3d1a9770	0.03774208
25	0xbda4963c	-0.080364674
26	0x3d7aac80	0.061199665
27	0x3cbb6e64	0.022879787
28	0x3ab98b59	0.0014155909
29	0x3dba9b09	0.09111602
30	0xbd146337	-0.03622743
31	0xbda92da9	-0.08260662
32	0xbc4fd6fe	-0.0126855355
33	0x3d2fa531	0.04288215
34	0xbd8773d7	-0.066138916
35	0x3d999f46	0.07501082
36	0x3c6bd988	0.014395125
37	0xbd90f489	-0.070778914
38	0xbd672afb	-0.056437474
39	0x3da2b921	0.07945467
40	0x3c97a0a3	0.018509215
41	0x3db63dd4	0.088985115
42	0xbcce7724	-0.025203295
43	0x3da3bf81	0.07995511
44	0xbd921e97	-0.07134741
45	0xbcdd1232	-0.026986215
46	0xbd828f73	-0.06375017
47	0x3d147ff8	0.036254853
48	0xbc80a372	-0.015702937
49	0x3dac305e	0.08407663
50	0x3d0ddf31	0.03463668
51	0xbcc136ff	-0.023585794
52	0xbbd93d96	-0.006629656
53	0x3dad439e	0.084601626
54	0x3d5fc44b	0.05463056
55	0x3d193011	0.037399355
56	0xbd17cabc	-0.037058577
57	0xbce9d908	-0.028545871
58	0x3cbffb9b	0.023435405
59	0xbc7709fc	-0.015078064
60	0x3cbc6d3c	0.023001306
61	0xbd9b8b88	-0.07594973
62	0x3d597932	0.053094096
63	0xbbf7977a	-0.007555899
64	0xbd169d7c	-0.036771283
65	0xbbda2e6a	-0.006658365
66	0xbca46623	-0.020068234
67	0xbd8ef197	-0.06979673
68	0x3b9c44e4	0.0047689546
69	0xbbfe5f47	-0.007762823
70	0xbc4132a2	-0.011791857
71	0xbd9c108b	-0.07620343
72	0xbd37414f	-0.044740018
73	0x3c7b4747	0.015336818
74	0x3b203de0	0.0024450943
75	0xbd680755	-0.056647617
76	0x3d80dc87	0.06292062
77	0x3c67d811	0.014150635
78	0xbd89cfa6	-0.06729059
79	0x3d128b6d	0.035777498
80	0xbc817823	-0.015804356
81	0xbd7eea02	-0.062234886
82	0xbd8eb649	-0.06968362
83	0x3dcaf31b	0.0990965
84	0xbd9bf10c	-0.076143354
85	0x3d8bd674	0.06828013
86	0xbb58960e	-0.0033048424
87	0xbcdcd3bc	-0.026956432
88	0x3d46c80b	0.04853062
89	0x3d163d9f	0.03667986
90	0xbda61cd8	-0.0811097
91	0x3d1798e4	0.037011042
92	0x3d5dc9e5	0.05414762
93	0xbd25f4ce	-0.040516667
94	0x3cb55112	0.022133384
95	0x3d5bcd58	0.053662628
96	0x3d5a1e11	0.05325133
97	0xbd734bcc	-0.059398457
98	0x3d26c7a0	0.04071772
99	0x3c299c13	0.010352152
100	0xbb22b35a	-0.002482614
101	0xbdca38d0	-0.098741174
102	0x3d641775	0.055686433
103	0x3cd9d229	0.02658947
104	0xbda05bc0	-0.0783
105	0xbd3b88f0	-0.04578489
106	0xbd7dda3b	-0.0619757
107	0x3daa4914	0.0831472
108	0xbca7964f	-0.020457415
109	0xbd3e103a	-0.046402194
110	0xbd809f70	-0.0628041
111	0x3c180838	0.009279303
112	0xbab0e3cd	-0.0013495624
113	0xbb619487	-0.0034420805
114	0x3d130bbd	0.035899866
115	0x3d4b98ca	0.049706258
116	0xbd89b8ff	-0.06724738
117	0x3d3115b1	0.043233577
118	0x3cadcbd9	0.021215366
119	0x3dd65eed	0.104673244
120	0x3d044867	0.03229561
121	0xbc6f6176	-0.014610639
122	0x3cbc2892	0.022968564
123	0x3c8ecbda	0.017431188
124	0x3d9150fb	0.07095524
125	0x3d33f764	0.043937102
126	0xbd374065	-0.044739146
127	0x3ca8d9e3	0.020611709

blocks.0.layer_norm.weight f4 [128]
0	0x3f890ce1	1.0707055
1	0x3f806fcf	1.0034121
2	0x3f8961f7	1.0733021
3	0x3f8812bd	1.0630718
4	0x3f833da9	1.0253192
5	0x3f8554dd	1.0416523
6	0x3f87c111	1.0605794
7	0x3f87c373	1.0606521
8	0x3f79cadd	0.9757517
9	0x3f828946	1.0198143
10	0x3f813a5e	1.0095937
11	0x3f89ba29	1.0759937
12	0x3f8a99f1	1.0828229
13	0x3f886274	1.0655046
14	0x3f7a3603	0.97738665
15	0x3f7ee812	0.9957286
16	0x3f877305	1.0581976
17	0x3f8bb087	1.0913247
18	0x3f8a5089	1.0805827
19	0x3f896da0	1.073658
20	0x3f8bbc7c	1.0916896
21	0x3f869a50	1.0515842
22	0x3f83d1c4	1.029839
23	0x3f795ed4	0.9741032
24	0x3f8761f8	1.0576773
25	0x3f84fdbd	1.0389935
26	0x3f87c523	1.0607036
27	0x3f8e6012	1.1123068
28	0x3f879abe	1.0594099
29	0x3f80db1c	1.0066867
30	0x3f81a00f	1.0126971
31	0x3f80d334	1.0064454
32	0x3f80c293	1.0059379
33	0x3f7d0487	0.98835033
34	0x3f80dbc9	1.0067073
35	0x3f7dfd4d	0.9921463
36	0x3f845535	1.0338503
37	0x3f891655	1.070994
38	0x3f82b17b	1.0210413
39	0x3f800e3e	1.0004346
40	0x3f7f4c53	0.99725837
41	0x3f8a9825	1.0827681
42	0x3f80915c	1.004436
43	0x3f7f10f5	0.9963525
44	0x3f832abb	1.0247415
45	0x3f8116c1	1.0085069
46	0x3f81705a	1.0112412
47	0x3f8b31f6	1.0874622
48	0x3f83357f	1.0250701
49	0x3f8598c5	1.0437247
50	0x3f82e069	1.0224735
51	0x3f8a709e	1.0815618
52	0x3f804ba3	1.0023082
53	0x3f7fbaa1	0.9989415
54	0x3f8121e0	1.0088463
55	0x3f8379a5	1.0271498
56	0x3f8af52f	1.0856074
57	0x3f80cc30	1.0062313
58	0x3f879304	1.0591741
59	0x3f81db7f	1.014511
60	0x3f829de3	1.0204433
61	0x3f774578	0.96590376
62	0x3f8be7e7	1.0930146
63	0x3f82a692	1.0207083
64	0x3f87bbcf	1.060419
65	0x3f817278	1.0113058
66	0x3f84b110	1.0366535
67	0x3f8a3a8c	1.0799117
68	0x3f878e86	1.059037
69	0x3f7f9a28	0.998446
70	0x3f836813	1.0266136
71	0x3f7a2a39	0.97720677
72	0x3f828c7b	1.0199121
73	0x3f7fe697	0.9996123
74	0x3f8fa683	1.122269
75	0x3f8abbcc	1.0838561
76	0x3f8bf470	1.0933971
77	0x3f881806	1.0632331
78	0x3f811f1a	1.0087616
79	0x3f81b0a6	1.0132034
80	0x3f7e8d07	0.9943394
81	0x3f886d82	1.0658419
82	0x3f87c09c	1.0605655
83	0x3f8ce3d9	1.1007034
84	0x3f823349	1.0171901
85	0x3f78e3d6	0.9722265
86	0x3f85e045	1.0459067
87	0x3f82fb95	1.0233027
88	0x3f88d732	1.0690672
89	0x3f82ae07	1.0209359
90	0x3f8b1ce5	1.0868193
91	0x3f8556b6	1.0417087
92	0x3f8dcae9	1.1077548
93	0x3f8a71fc	1.0816035
94	0x3f87411a	1.0566742
95	0x3f81e1e3	1.014706
96	0x3f8880aa	1.0664265
97	0x3f827348	1.0191431
98	0x3f8207d6	1.0158641
99	0x3f87e795	1.0617548
100	0x3f7bdcae	0.98383605
101	0x3f7ecefa	0.9953457
102	0x3f820058	1.0156355
103	0x3f8baebe	1.0912702
104	0x3f8301c6	1.0234916
105	0x3f8091ec	1.0044532
106	0x3f8af993	1.0857414
107	0x3f86cbc8	1.0530939
108	0x3f7d285c	0.9888971
109	0x3f8162f3	1.0108322
110	0x3f7ff5da	0.99984515
111	0x3f8c7534	1.0973268
112	0x3f832558	1.0245771
113	0x3f8341ce	1.0254457
114	0x3f8bf27c	1.0933375
115	0x3f766b24	0.96257234
116	0x3f800473	1.0001358
117	0x3f8d32fa	1.1031182
118	0x3f7fe3d4	0.99957013
119	0x3f864ea2	1.0492747
120	0x3f83a9e0	1.0286217
121	0x3f8492cd	1.03573
122	0x3f886248	1.0654993
123	0x3f8b4458	1.0880232
124	0x3f8a7ba3	1.0818981
125	0x3f82983c	1.0202708
126	0x3f87aa07	1.0598763
127	0x3f7f5d14	0.997514

blocks.0.layer_norm.bias f4 [128]
0	0x3d899480	0.06717777
1	0xbb8650d6	-0.004098992
2	0x3d1ace74	0.037794545
3	0x3d8239bd	0.06358669
4	0x3c532d12	0.012889164
5	0x3c9d6d4c	0.019217156
6	0x3d6db640	0.058035135
7	0x3cf22a90	0.029561311
8	0xbcaf3c44	-0.021391042
9	0x3c86a916	0.016438048
10	0x3c31644e	0.010827137
11	0x3d94bbb5	0.07262365
12	0x3d810b56	0.0630099
13	0x3d0d5c2d	0.034511734
14	0xbccaf709	-0.024775999
15	0xbaeefed7	-0.0018233907
16	0x3d80bf44	0.06286481
17	0x3d9a3115	0.07528893
18	0x3cf91284	0.030404337
19	0x3d9994d7	0.07499092
20	0x3d810bfe	0.063011155
21	0x3d687a0c	0.056757018
22	0x3a9f3fa4	0.0012149704
23	0xbcddabf2	-0.027059529
24	0x3d6e7943	0.058221113
25	0x3cadc63f	0.021212695
26	0x3d751cd9	0.059841964
27	0x3da6ebab	0.08150419
28	0x3d7d0088	0.061768085
29	0xbc091f5f	-0.008369296
30	0x3cbcaef4	0.023032643
31	0x3c0d0fc6	0.008609718
32	0x3b65771d	0.0035013624
33	0xbc3a3c6c	-0.011366945
34	0x3c007b6b	0.007841925
35	0xbb6ca64a	-0.0036109858
36	0x3c8bc79f	0.01706296
37	0x3d88a4c0	0.066720486
38	0x3c30bb7a	0.010786885
39	0x3a5c673b	0.00084077165
40	0xbb0beb56	-0.0021349988
41	0x3d99a564	0.07502249
42	0xbb876ee8	-0.004133094
43	0xbcb030d4	-0.021507658
44	0x3c87fc0e	0.016599681
45	0x3af08dc2	0.0018352794
46	0xba6c80cc	-0.0009021878
47	0x3d909f26	0.07061605
48	0x3be3061d	0.006928219
49	0x3ca31570	0.019907683
50	0x3c4a3389	0.0123413885
51	0x3d9ba38a	0.07599552
52	0xbab10142	-0.0013504403
53	0xba8d5ea7	-0.0010785655
54	0x3bf9215c	0.0076028537
55	0x3cddc8fa	0.027073372
56	0x3d3b237b	0.045688134
57	0x3b130044	0.0022430578
58	0x3d4c05b3	0.049810123
59	0x3c2de142	0.010612788
60	0x3c72f1fb	0.0148282
61	0xbd192cca	-0.03739623
62	0x3d99f215	0.075168766
63	0x3c81b79d	0.015834624
64	0x3d0c89e7	0.0343112
65	0xbb922ebd	-0.004461138
66	0x3c2073c4	0.009793226
67	0x3d486f26	0.048934124
68	0x3d72d900	0.05928898
69	0xbb04d68c	-0.0020269481
70	0x3bcad3f7	0.006189819
71	0xbcf09256	-0.029366653
72	0x3d2e728e	0.042589717
73	0x3b94e336	0.004543687
74	0x3dbfcfdb	0.09365817
75	0x3d957c8c	0.07299146
76	0x3d98f3ab	0.07468351
77	0x3d65b02a	0.056076206
78	0x3a8d5a7a	0.001078441
79	0x3b26d924	0.0025459016
80	0xbc06de91	-0.008231775
81	0x3cd63f0a	0.026153106
82	0x3d7060f2	0.058686204
83	0x3d91577f	0.07096767
84	0x3b92cc72	0.004479938
85	0xbceb9b10	-0.028760463
86	0x3ce5a270	0.028031558
87	0x3c14dc2e	0.009085698
88	0x3d7061c0	0.05868697
89	0x3bbfd2e2	0.0058539966
90	0x3d8ee8c5	0.06977991
91	0x3d69f799	0.057120893
92	0x3da86990	0.082232594
93	0x3d873436	0.06601755
94	0x3d723c27	0.059139397
95	0x3d626aad	0.055277515
96	0x3d71489d	0.05890714
97	0x3bf29329	0.0074027968
98	0xbb1032d1	-0.0022002945
99	0x3d7c3a0e	0.061578803
100	0xbc547a48	-0.012968607
101	0xbc0cb243	-0.008587423
102	0xbc353ee9	-0.011062362
103	0x3d9f228f	0.077702634
104	0x3bc8cdd8	0.006128054
105	0x3a635c81	0.0008673147
106	0x3d969d84	0.073542625
107	0x3cabade2	0.020956937
108	0xbbabfe4c	-0.0052488204
109	0xbb4824cf	-0.0030539518
110	0x3c73bf7e	0.014877198
111	0x3d927219	0.07150669
112	0x3c52db5e	0.012869684
113	0x3c3c5b0b	0.011496316
114	0x3d5c0033	0.053711127
115	0xbd01e50c	-0.031712577
116	0xbb688969	-0.0035482293
117	0x3d96003f	0.07324266
118	0xbb80c343	-0.003929527
119	0x3c71ab0b	0.0147502525
120	0x3bbc0e67	0.0057390216
121	0x3cdf8393	0.02728442
122	0x3d8c7f70	0.06860244
123	0x3d8fcbb8	0.07021278
124	0x3d92a033	0.07159462
125	0x3c3dbc3f	0.011580526
126	0x3cc47449	0.02398123
127	0xbc25aa28	-0.010111369

last_layer.weight f4 [1, 128]
0	0xbdd90322	-0.10596301
1	0x3d866f5a	0.065642074
2	0x3e082069	0.13293613
3	0xbdc242b6	-0.0948538
4	0x3c8ac233	0.016938305
5	0x3de19ea8	0.110165894
6	0xbe09bade	-0.1345019
7	0x3d3c0e22	0.045911916
8	0xbd21a541	-0.03946424
9	0x3da6e1ba	0.08148523
10	0x3c5a6f1b	0.013332154
11	0xbe0b8aa6	-0.13627109
12	0xbe1c8232	-0.1528404
13	0x3d7e4a0a	0.062082328
14	0xbd140820	-0.03614056
15	0xbd91498d	-0.07094107
16	0xbdccfa15	-0.10008637
17	0xbdd2fba6	-0.103019044
18	0x3db378f8	0.08763307
19	0xbdad971e	-0.08476089
20	0x3db46a60	0.08809352
21	0xbe02f701	-0.12789537
22	0x3d80ce37	0.06289332
23	0xbbedc32e	-0.0072559332
24	0xbdd70d18	-0.10500544
25	0x3dbb5270	0.09146583
26	0xbe0b1275	-0.1358126
27	0xbe04916d	-0.129461
28	0xbdf304cc	-0.11866149
29	0x3d22e9a7	0.03977361
30	0x3c5dcf8f	0.013538255
31	0x3d9564f6	0.072946474
32	0x3cf9f301	0.030511381
33	0xbc393d8c	-0.011306178
34	0x3c92c1c7	0.017914666
35	0x3be98c36	0.00712731
36	0x3ccea200	0.025223732
37	0xbdea8ff3	-0.114532374
38	0x3d6ea3e6	0.058261774
39	0x3c206ff1	0.009792314
40	0xbc653be8	-0.013991334
41	0xbe079520	-0.1324048
42	0x3d8255e5	0.06364039
43	0x3d3ce263	0.046114337
44	0x3d04e888	0.03244832
45	0x3cad7e3d	0.02117836
46	0x3c2dc7f7	0.010606757
47	0xbdf37444	-0.1188741
48	0x3c6b998c	0.01437987
49	0x3e02e282	0.12781718
50	0x3dcd6306	0.10028653
51	0xbda66212	-0.08124174
52	0x3d142ff3	0.03617854
53	0x3d89f860	0.06736827
54	0x3d8f4541	0.06995631
55	0x3d1b0896	0.037849985
56	0x3db60ddb	0.088893615
57	0x3cdf5863	0.027263826
58	0x3d8d2c96	0.0689327
59	0x3d3b51cf	0.045732316
60	0x3d80c061	0.06286693
61	0xbcd0cca4	-0.025488205
62	0xbde98d11	-0.114038594
63	0x3d14e39a	0.03634987
64	0x3dfeb943	0.124376796
65	0x3cf8f6d0	0.030391127
66	0x3d6c69a5	0.057717938
67	0x3da74743	0.08167889
68	0xbe01aee7	-0.12664376
69	0x3c58e0d4	0.013237197
70	0x3dad6cf1	0.084680445
71	0x3ca8fe21	0.02062899
72	0xbd418def	-0.0472545
73	0xbd41b50e	-0.047291808
74	0xbe062853	-0.1310132
75	0xbe0cad85	-0.13738067
76	0xbdf7b6a2	-0.12095381
77	0xbe0d87a6	-0.13821277
78	0x3dafc3bd	0.08582256
79	0x3d36d430	0.04463595
80	0x3b852d37	0.004064228
81	0x3d70945c	0.058735237
82	0xbe04733a	-0.1293458
83	0xbe154480	-0.14576912
84	0x3d5c8d01	0.05384541
85	0x3c08ce53	0.008349973
86	0x3d29d755	0.041465122
87	0x3c02d230	0.007984683
88	0xbe1648b1	-0.14676167
89	0x3dd8446e	0.10559927
90	0xbdeaea9e	-0.11470531
91	0xbdd4ed03	-0.10396769
92	0xbdfb1e55	-0.12261645
93	0xbe05a044	-0.13049418
94	0xbdffdc04	-0.124931365
95	0xbd3383a2	-0.043826707
96	0xbe0e2d28	-0.13884413
97	0x3d340c95	0.04395731
98	0x3dc1745d	0.09446023
99	0xbdfae4d5	-0.122506775
100	0xbc9ce1b8	-0.0191506
101	0x3ce1ee5f	0.027579485
102	0x3d6d0629	0.057867203
103	0xbdf0599c	-0.11735842
104	0x3ddc2eb3	0.10751095
105	0x3d484ab6	0.048899375
106	0xbe1dcc92	-0.15410069
107	0x3d4aadef	0.049482282
108	0x3b4402a8	0.002990881
109	0x3cf32289	0.029679554
110	0xbd695e00	-0.05697441
111	0xbe040479	-0.12892331
112	0x3daa9be4	0.08330515
113	0x3de72772	0.112868205
114	0x3dcc42b6	0.099736616
115	0x3c314cff	0.01082158
116	0x3ca6e801	0.0203743
117	0xbe1054ba	-0.1409482
118	0xbd8ffeba	-0.07031007
119	0x3d89e27c	0.067326516
120	0x3ccfa70b	0.025348207
121	0x3da28b52	0.079367295
122	0xbda60632	-0.081066504
123	0xbde76325	-0.11298207
124	0xbde9ba7f	-0.114125244
125	0x3d7a1c53	0.06106217
126	0x3d8a02df	0.06738829
127	0xbd30dfab	-0.043182056
