wkey/openwakeword_models/onnx/hey_computer_50k.onnx (onnx, 859394 bytes, 9 tensors)

layer1.weight f4 [128, 1536]
000000 e5 02 ae 3c c5 78 ea 3c f6 ff ce 3c fd 61 86 bc
       0.021241615 0.02862204 0.025268536 -0.016404146
000010 a7 68 1c bb d6 7a c9 3c 17 d3 04 bc 8b c2 18 bc
       -0.0023866089 0.024594706 -0.008106968 -0.009323726
000020 64 08 8c bd 1b da e2 3c cf 56 b6 3c 0b c4 be bc
       -0.06837538 0.027691891 0.02225819 -0.02328684
000030 a2 27 9d bc 2d 79 a5 3b bd 2f 0f 3c b2 68 12 3d
       -0.019183937 0.0050498457 0.008739409 0.035744376
000040 fe 79 df 3c 6d 86 69 3d 41 32 02 3d 59 03 85 bc
       0.02727985 0.057012964 0.031786207 -0.016236948
000050 ae 64 bc bc 0b c4 06 bc 95 48 04 3c 28 ad 1a 3c
       -0.022997227 -0.008225451 0.0080739455 0.009440698
000060 87 79 1d bb 00 c8 09 bd 27 ed 98 bb f9 1c 28 ba
       -0.0024028735 -0.033638 -0.0046669426 -0.00064130087
000070 54 98 80 3c 8c a2 b4 3c 22 95 b0 bb 13 5e f2 3c
       0.015697636 0.022050165 -0.0053888718 0.029585874
000080 5d 57 90 bb e7 e9 43 3d 4e a5 a6 bc 11 a1 0d 3d
       -0.0044049458 0.04783049 -0.020342495 0.034577433
000090 9c a5 08 bc 7e f0 7c bc 5d 03 b2 bc cd 94 0a bc
       -0.008340266 -0.015438197 -0.02173012 -0.008458328
0000a0 7d ec a1 bc cc b2 d9 bc 58 93 e3 bb 84 26 94 3c
       -0.019766087 -0.026574515 -0.006945055 0.018084772
0000b0 ac 97 98 bc 61 23 11 3d 70 c9 87 bc 4b 4a 04 b9
       -0.01862701 0.03543413 -0.016575545 -0.00012616177
0000c0 bc bd 13 bc 0e 5c 50 3d 15 4a ad bc 1d 7e 2d bc
       -0.009017404 0.05086904 -0.02115349 -0.01058915
0000d0 80 f7 e6 3b 2e 14 a9 ba 00 57 e4 3b ee 34 60 3c
       0.0070485473 -0.0012899691 0.006968379 0.013684494
0000e0 14 86 03 3d 61 3b b9 3c dd c9 8b 3c 0e 4e 11 bd
       0.03211029 0.022611322 0.01706403 -0.03547483
0000f0 01 2b f3 3c 06 f3 18 3b ee 84 4b bc 0d b2 0c 3d
       0.029683592 0.0023338213 -0.01242183 0.03434949
000100 31 22 7f bc 8d ac cc bc 13 2b 52 bc 70 cd 1c bc
       -0.015572117 -0.024984622 -0.0128276525 -0.0095704645
000110 da 6e e7 bc be 79 b8 3c 7e ea e2 bc b3 fe 56 bc
       -0.0282511 0.022518989 -0.027699705 -0.013122248
000120 12 53 ef bb f4 39 09 3d f1 c8 80 3b 2e 35 3f 3d
       -0.007303604 0.033502534 0.003930204 0.046681575
000130 fb 2b ec 3a 57 3b 19 bd 30 7b 6c 3c ec 7a 0e 3b
       0.0018018478 -0.037410107 0.014433667 0.0021740748
000140 e6 54 2d 3d 78 f0 01 3d 05 4c e6 3c 33 37 11 3d
       0.042317294 0.03172347 0.02811242 0.035453033
000150 78 1c 1e 3c ff be 28 bd f2 8e ab bc 49 10 08 bd
       0.009650342 -0.041197773 -0.020942185 -0.033218656
000160 38 a8 51 3d 2c 81 89 bc ab 8b f8 3c 3b d2 ed bb
       0.051185817 -0.016785227 0.030340036 -0.0072577274
000170 ed fc 79 3b 45 fd df 3b a6 8e ed bc 00 f7 da bb
       0.003814514 0.006835612 -0.028998684 -0.0066822767
000180 2f 82 41 3c b2 23 42 3c fe d3 b2 ba fb db f1 bc
       0.011810823 0.011849331 -0.0013643501 -0.02952384
000190 0c f5 af 3b 25 d1 b9 bc bf 4c 8c 3b a4 71 34 bc
       0.005369788 -0.022682736 0.00428161 -0.011013422
0001a0 21 ac 22 bd 93 1a 04 3c 26 1a 27 bc f9 f3 bd 3c
       -0.039714936 0.008062976 -0.010199105 0.023187624
0001b0 59 bb ec bb 42 76 a8 3a 7b 78 96 bb 10 b9 38 bc
       -0.007224482 0.0012852626 -0.004591999 -0.011274591
0001c0 ec a2 a3 3c f5 3b 14 3d e4 d5 d4 bb 9c 69 0a bd
       0.019975148 0.036189992 -0.0064952243 -0.033792123
0001d0 5e 5b 10 bc 10 7a ce bc f9 91 76 bc e1 49 7b ba
       -0.008810846 -0.025204688 -0.015049451 -0.0009585899
0001e0 f6 a9 8a 3c d8 64 f9 bb 16 22 84 3b 5e 46 14 bd
       0.016926747 -0.0076108985 0.0040323837 -0.03619992
0001f0 04 f3 6c 3c 9d 3a 02 bd 8b 1b 81 bc 51 c2 cc bb
       0.014462236 -0.03179418 -0.015760204 -0.0062487503
000200 9d c6 9d 3b 1f 2f ea 3c 0b 7f 09 bd 84 c4 e1 3c
       0.0048149363 0.028586922 -0.033568423 0.027559526
000210 b0 9c c9 3c 0a 03 ef bc fa 5e 67 3c 04 23 0a 3d
       0.024610847 -0.029176254 0.014121765 0.0337248
000220 46 8e 66 3a f5 74 16 bc f9 ca 6f 3b 03 9d e0 bb
       0.0008795004 -0.009183158 0.0036589487 -0.0068546548
000230 a9 22 8c 3c 8d c2 e0 bc 8a bc 20 bd 09 6c b5 3b
       0.017106371 -0.027436519 -0.039242305 0.0055365604
000240 0f 4f a7 39 40 ef 94 3d f9 b6 8a 3c ba 6c dd bb
       0.00031911625 0.07272196 0.016932951 -0.006757346
000250 2b 27 d2 bc da 43 36 3d 89 bf 83 bc ac d4 72 bb
       -0.025653442 0.044498302 -0.016082542 -0.0037053032
000260 e1 53 0a 3c c5 0e e2 3c 72 35 cf 3b 4c f7 82 3c
       0.00844285 0.027594933 0.00632351 0.015987061
000270 eb 1d 3e 3d e5 f7 b9 39 29 c5 1c 3c 73 4c b7 3b
       0.04641525 0.00035470646 0.009568491 0.0055938303
000280 a9 86 e6 bc 07 4f f4 3b 30 f7 ce 3c 09 4a da 3b
       -0.028140383 0.00745571 0.025264353 0.0066616577
000290 12 61 e7 bb 1d ca d4 3c 7c 15 77 bd 28 f1 ce bb
       -0.007061132 0.025975281 -0.060323223 -0.006315369
0002a0 ed 46 dc bb c7 99 61 3b c8 b7 38 bb 7e 8f 5c 3d
       -0.006722322 0.0034423934 -0.0028185714 0.053847782
0002b0 2a f6 88 bc f4 ab b2 bc 27 ec 2b bc 9e 0c 83 3c
       -0.016718943 -0.02181051 -0.010493315 0.015997227
0002c0 1a c5 0a 3b 50 70 b5 ba 2c 21 03 3c 2d 5e 85 3c
       0.002117461 -0.0013842676 0.008003514 0.016280258
0002d0 2e ae 66 bc 1a f4 11 3c e6 92 dd ba 7c d0 c2 ba
       -0.014079614 0.008908296 -0.0016904741 -0.0014863159
0002e0 0f 28 d1 3c 39 cd 9e 3c c8 7e 8f 3c cb c1 c6 39
       0.025531797 0.019384967 0.017516509 0.0003790989
0002f0 bb 42 58 bc e1 82 47 3c f1 55 cd bc ff 3f 89 3c
       -0.0131995035 0.0121772 -0.025065394 0.016754149
000300 57 ee 0c bc a1 77 4c bc ef 2a 81 3b 78 70 49 bc
       -0.0086017465 -0.012479694 0.0039418857 -0.012294881
000310 3c 3f e5 3b 2f 2c 61 3c f8 83 7e 3c f5 d0 8c bc
       0.0069960635 0.013743444 0.0155343935 -0.017189482
000320 45 92 aa bc 38 6b 31 bc 97 af 62 bc 1e 5d e2 bc
       -0.0208217 -0.010828786 -0.013835809 -0.027632292
000330 6f b4 01 bb 8b 42 88 bc 63 ae 0d 3d f2 e4 04 3c
       -0.0019791385 -0.016633293 0.034590136 0.008111225
000340 7a 3c f9 3b f7 d0 50 3d e1 33 5d 3c 5b 7e 9d bb
       0.0076060863 0.050980534 0.013501138 -0.0048063225
000350 cd 95 a8 3c ee 6d a1 bc 7f 44 cc 3b 7c 48 af bc
       0.020579243 -0.019705739 0.0062337513 -0.021396868
000360 9f 43 e8 39 70 af f5 3c 43 e0 4b 3c 04 b3 51 bc
       0.0004430087 0.029990882 0.012443605 -0.012799028
000370 88 5e af bc 25 28 d0 bc 36 22 d0 bc 45 b0 11 bc
       -0.02140738 -0.025409767 -0.025406938 -0.008892124
000380 14 6d ca bb 0c 11 14 3d 1c 78 97 bc dc 5c 17 3d
       -0.006177554 0.03614907 -0.01848989 0.036953792
000390 03 83 e1 bc 25 9c 2b 3c 06 ae 94 3d ed e8 6f bc
       -0.027528292 0.0104742395 0.07259755 -0.014642936
0003a0 c4 3c da 39 2a 51 e8 bc 50 40 fd bb 11 f9 83 bb
       0.00041625474 -0.028359015 -0.007728614 -0.0040274938
0003b0 94 52 25 3b 2e c8 6a 3c 8f fb cc bc 66 2b bd bb
       0.0025226222 0.014329953 -0.025022296 -0.0057729958
0003c0 d8 f9 6e 3c 85 1e 76 3c 41 b2 a8 bb ed 46 fb 3b
       0.014585935 0.015021925 -0.0051482026 0.007668367
0003d0 49 8c 01 3d 07 ac f3 3c ed 67 99 3c d7 2e ff bc
       0.031627927 0.029745115 0.018726313 -0.031150265
0003e0 91 78 97 bc 5a b9 2b 3b 71 cf 38 bc 36 ce e7 bc
       -0.018490108 0.0026203007 -0.011279927 -0.028296571
0003f0 86 08 44 3c 73 6a dc bc e9 9a f4 bb f4 5e 8d bc
       0.011964923 -0.026906228 -0.007464756 -0.017257191

layer1.bias f4 [128]
000000 4a 52 cf 3b f4 0a 13 bc ad c0 9e bc e0 bc 01 3d
       0.0063269483 -0.008974779 -0.019378984 0.031674266
000010 8b 86 59 3c 3c bd 07 3d 21 27 02 3d b3 59 d3 3c
       0.013276706 0.033139452 0.031775597 0.025799608
000020 db dd a0 3c e3 83 8f 3a bc 7a e4 3c 94 e5 67 b7
       0.019637039 0.001094934 0.027890556 -1.3822126e-05
000030 ff f3 4b b9 c4 fa 21 3b 55 78 a3 bb 78 b1 01 bb
       -0.00019450484 0.0024716118 -0.00498871 -0.0019789618
000040 65 2a fd 3c e2 e6 55 3c 63 8e 86 3c 70 05 47 3c
       0.030904004 0.013055535 0.016425317 0.0121472925
000050 9c 5e 60 3c 22 ce b8 b9 88 29 b2 bb 81 ee 93 bc
       0.013694432 -0.00035248796 -0.00543708 -0.018058063
000060 ac d0 80 bc 8b 3b 2a bc cc c5 50 3b b3 7d d8 3b
       -0.015724503 -0.010390173 0.0031856177 0.0066067814
000070 27 9a c6 bb f2 df 42 3c 79 ad 57 3c df 79 3d bc
       -0.006060857 0.011894213 0.013163918 -0.011564701
000080 9a d3 18 3c 5e 14 74 bc a6 92 a8 bc 28 99 bf bc
       0.0093277935 -0.014897434 -0.02057774 -0.02338846
000090 e2 f8 52 3c cb 37 06 bc 8f 33 7b 3c c9 6e aa 3c
       0.012876721 -0.008192013 0.015332117 0.02080478
0000a0 9d a9 ad 3c 07 18 39 3c 73 4c cc 3c 22 bf c7 3c
       0.021199042 0.0112972325 0.024938798 0.024383131
0000b0 3b 8b 77 3c f6 1f 3d 3c b0 f2 b8 bb ba 72 09 3c
       0.015108879 0.011543265 -0.005644165 0.008389169
0000c0 02 d2 ad 3b ad c1 98 3c d0 14 df bb 48 cd 1f 3c
       0.005304576 0.01864704 -0.006807901 0.009753533
0000d0 0c e7 45 bc 17 c3 58 bc b9 42 a0 bc 4b 0b 94 3c
       -0.012079012 -0.013230107 -0.019563066 0.018071791
0000e0 df a2 f1 bb ce 5b 85 bc f5 89 a2 3c 00 d8 e2 bb
       -0.007374152 -0.016279127 0.019841174 -0.006922722
0000f0 3d aa b0 3c cc 44 c1 bc de 31 1d bc ac 79 71 bb
       0.021565551 -0.023592375 -0.009594409 -0.0036846204
000100 ce 38 b3 bc e2 2f a3 bc b5 2a a1 3c 0f f3 b7 bc
       -0.021877673 -0.019920293 0.019673685 -0.022454767
000110 ab 53 57 bc 63 16 29 3c af fb c8 3a f6 e4 64 3c
       -0.013142507 0.010320279 0.0015333797 0.013970604
000120 7a b1 66 3c 8c 48 69 bc 63 ca 1e bc 5a a0 95 bc
       0.0140804 -0.014238488 -0.009691807 -0.018264938
000130 69 2d 6d 3c 66 1b aa b9 50 69 a5 3c 24 0a e6 3b
       0.014476159 -0.0003244534 0.020191818 0.007020252
000140 2d c3 c8 bb 37 80 6f 3c ea ca 9d 3c c4 95 66 3b
       -0.0061267824 0.014617971 0.019261796 0.0035184482
000150 f8 e6 20 bc 84 bf cc 3a c7 1c cd bc 45 ea 6a 3b
       -0.009820692 0.0015621041 -0.025038136 0.0035845202
000160 bc bd fb 3c a1 ea 08 3b 3b 23 25 3b c6 5f bb ba
       0.03073012 0.0020891803 0.0025198 -0.001429551
000170 c1 d0 00 3c 3f 0c 30 3a ef 3a c5 3c 25 08 38 bc
       0.007862271 0.0006715692 0.024075953 -0.011232411
000180 25 df 3b 39 c1 8e d6 3c e6 5c ad 3c ea db 9e 3c
       0.00017916838 0.026191117 0.021162461 0.019391973
000190 c0 f9 a2 3c 65 34 5f 3c f2 9d 91 bc fa f9 f6 bb
       0.01989448 0.013623332 -0.01777551 -0.0075371237
0001a0 ba c4 39 bb e2 23 a0 bc c5 f9 ab 3c 9e 96 1e 3c
       -0.0028346018 -0.01954836 0.020993123 0.009679465
0001b0 3d 4e 99 3c 42 dd d0 3b f2 77 68 3c 24 89 9f bc
       0.018714065 0.0063740322 0.014188753 -0.019474573
0001c0 ec 62 98 bc 59 fd a3 b9 66 d9 4e bc 8a 83 e2 3c
       -0.018601857 -0.0003127854 -0.012625074 0.027650613
0001d0 64 82 5a 3c bc bc ec bb e5 9a 2a 3c 8e 55 c2 3a
       0.013336752 -0.0072246473 0.010412906 0.0014826523
0001e0 95 e2 6b b9 87 29 75 bc 73 38 df 3b 4c 45 9b bc
       -0.00022495755 -0.014963514 0.006812149 -0.018953942
0001f0 01 35 29 bb ac b5 41 bc 67 0b bd bc 36 e0 37 bb
       -0.0025818946 -0.011823099 -0.023076726 -0.0028057224

layernorm1.weight f4 [128]
000000 d7 a4 80 3f 11 45 7c 3f 59 5c 7d 3f d2 c2 7e 3f
       1.0050305 0.98542887 0.98969036 0.9951602
000010 4c 60 78 3f 07 a7 81 3f 73 2d 87 3f b5 d2 71 3f
       0.9702194 1.0129098 1.0560745 0.9446214
000020 ff f1 77 3f 7d 51 76 3f 0e e0 83 3f e8 8a 77 3f
       0.9685363 0.9621809 1.0302751 0.9669633
000030 80 f7 7e 3f 01 01 75 3f 47 43 75 3f 57 45 82 3f
       0.99596405 0.95704657 0.9580578 1.0177411
000040 ad 85 6d 3f 67 63 8b 3f ab 76 87 3f 00 1f 82 3f
       0.927821 1.088971 1.058309 1.016571
000050 40 f3 7d 3f c8 c9 80 3f dd 23 81 3f d2 dd 80 3f
       0.99199295 1.0061579 1.008907 1.0067694
000060 46 ff 81 3f 8c 9a 80 3f 0a e9 76 3f 65 8b 86 3f
       1.0156028 1.0047164 0.9644934 1.051129
000070 07 6a 7a 3f 20 73 84 3f 19 e6 83 3f 55 83 7e 3f
       0.97818035 1.0347633 1.0304595 0.99419147
000080 c2 7b 76 3f ad ad 7f 3f 0f 1b 82 3f c6 69 7d 3f
       0.9628259 0.99874383 1.0164508 0.9898952
000090 e7 5a 77 3f 57 ca 81 3f 17 37 84 3f 1d 47 76 3f
       0.9662308 1.0139874 1.0329312 0.9620226
0000a0 99 72 78 3f d7 ec 78 3f 48 bb 83 3f 97 46 84 3f
       0.9704986 0.9723639 1.0291529 1.0334042
0000b0 28 09 7c 3f ff eb 80 3f f7 80 82 3f 9d f4 81 3f
       0.9845147 1.007202 1.0195607 1.0152775
0000c0 96 9d 7c 3f 8b 26 7a 3f a6 84 7c 3f f0 fa 7b 3f
       0.9867796 0.9771506 0.98639905 0.98429775
0000d0 42 4a 7b 3f 9b 28 82 3f 66 45 79 3f 69 95 75 3f
       0.98160183 1.0168642 0.9737152 0.95931107
0000e0 80 da 75 3f 5e df 74 3f 39 a8 7e 3f a0 db 75 3f
       0.9603653 0.9565333 0.9947544 0.96038246
0000f0 41 58 75 3f 65 e8 85 3f 3b 2d 7c 3f 44 de 85 3f
       0.9583779 1.0461546 0.98506516 1.0458455
000100 37 23 7d 3f 4f c4 78 3f c9 e0 7e 3f 19 d4 7f 3f
       0.9888186 0.97174543 0.99561745 0.9993301
000110 c1 ed 82 3f 36 ef 85 3f 17 2a 88 3f ae 1c 7b 3f
       1.0228807 1.0463626 1.0637845 0.98090637
000120 e7 a5 80 3f 60 ce 76 3f 3b 01 7c 3f 32 2f 80 3f
       1.0050629 0.96408653 0.9843938 1.0014403
000130 fe 76 83 3f 6c 9e 80 3f 3e e7 7f 3f 71 21 7c 3f
       1.0270689 1.0048347 0.9996222 0.9848853
000140 3c b0 77 3f 52 d6 88 3f 36 f4 76 3f f6 ec 7b 3f
       0.9675329 1.0690405 0.96466386 0.9840845
000150 04 5e 81 3f ec a8 7d 3f 24 95 84 3f f1 8a 89 3f
       1.0106816 0.9908588 1.0358014 1.0745527
000160 ff 26 81 3f bf 46 7f 3f 6b bd 75 3f ff dc 7a 3f
       1.0090026 0.99717325 0.95992154 0.97993463
000170 74 5b 81 3f f5 05 7d 3f 66 e2 7b 3f 66 af 75 3f
       1.0106034 0.98837215 0.9839233 0.9597076
000180 bf 5c 79 3f 5b 80 7c 3f 26 50 87 3f 0b db 7f 3f
       0.97407144 0.98633355 1.0571334 0.9994361
000190 cb 1a 76 3f fd ed 82 3f 91 9d 83 3f f5 1f 77 3f
       0.9613463 1.0228878 1.028246 0.9653314
0001a0 b2 1b 81 3f 9b 27 84 3f f0 fd 78 3f 42 d4 81 3f
       1.0086577 1.0324587 0.9726248 1.0142901
0001b0 a0 e9 81 3f ce ae 77 3f 79 6c 7e 3f 0d c5 75 3f
       1.0149422 0.96751106 0.99384266 0.960038
0001c0 d9 4a 7c 3f ed 47 78 3f 6c e9 7b 3f ad 55 84 3f
       0.9855171 0.9698475 0.9840305 1.0338646
0001d0 0b ce 7d 3f 68 24 80 3f a0 c5 85 3f 5e 4c 79 3f
       0.9914252 1.001111 1.0450935 0.9738215
0001e0 fd 13 82 3f c2 57 81 3f 42 f9 7f 3f 99 78 7e 3f
       1.016235 1.0104907 0.9998971 0.9940277
0001f0 68 3b 74 3f 7d 55 87 3f 09 32 80 3f b9 2c 78 3f
       0.95403147 1.0572964 1.001527 0.9694324

layernorm1.bias f4 [128]
000000 7d 57 9a bb 93 8e f8 b7 de b6 58 bc e7 0b b3 bb
       -0.0047101364 -2.9630295e-05 -0.013227193 -0.0054640654
000010 c5 56 97 bc 02 54 88 3b af 6f df 3b 5a a0 72 bc
       -0.018473992 0.004160405 0.0068187336 -0.014808739
000020 80 09 c8 bc eb 75 03 bd de cb 68 3b 70 e2 27 bd
       -0.024418592 -0.032094877 0.0035521905 -0.040987432
000030 65 5f 2a ba 72 b2 04 bd c2 1c 1d bd c3 a8 94 3c
       -0.00064992 -0.03239674 -0.038357504 0.018146878
000040 78 fc 1b bd b0 f5 1f 3b ea 22 73 ba 24 28 be ba
       -0.03808257 0.0024407916 -0.0009274917 -0.0014507812
000050 aa f4 64 b8 4d ca 78 3a 23 cb 1f bc 54 c4 0f bb
       -5.4587297e-05 0.00094905944 -0.009753021 -0.002193709
000060 77 17 ba ba ce e6 74 bb 8e 5f c7 bc ee ac 40 bc
       -0.0014197667 -0.0037369016 -0.024337556 -0.01175998
000070 4b 2f 26 ba 81 c7 81 b7 89 68 ae 3c d4 ae 1a bb
       -0.00063394447 -1.54709e-05 0.02129008 -0.002360274
000080 7f 00 e9 bc 4e 58 d7 bb df 76 f1 ba a3 56 3d 3c
       -0.02844262 -0.006571806 -0.0018422267 0.0115563
000090 88 7b 05 bd 40 8d 54 3b d6 e5 5e 3c 52 0b cc bc
       -0.03258851 0.0032432824 0.013604602 -0.024907742
0000a0 b1 88 3e bc 1b 56 00 bd 73 a9 c1 bb bd e1 88 3b
       -0.011629269 -0.031332117 -0.0059100925 0.0041773007
0000b0 40 e0 87 bb a8 a2 89 bb 52 87 24 ba 67 2e 2c 3c
       -0.0041466057 -0.0042002983 -0.0006276268 0.01050911
0000c0 ba 8d ca bb 11 6a 91 bb 48 49 c3 bb b9 9d 46 bb
       -0.006181446 -0.004437693 -0.0059596635 -0.0030306412
0000d0 18 6f 83 bc 74 b6 6a bc 63 74 a4 bc 39 84 ea bc
       -0.016044185 -0.014325727 -0.020075029 -0.028627502
0000e0 4a c8 11 bd 5b f8 f9 bc b5 71 37 bc 73 79 2d bc
       -0.0355914 -0.030513933 -0.011196543 -0.010588038
0000f0 a6 f9 e9 bc 0a 75 c8 bb d3 b6 b9 bb 7d 50 81 3a
       -0.028561424 -0.006117468 -0.0056675463 0.0009865906
000100 5e d3 5f bc fb b0 d3 bc 94 b8 49 bc 06 49 3e bc
       -0.013661234 -0.025841227 -0.012312073 -0.01161409
000110 b8 41 d5 bb 6d b3 a8 bb 3c df ad bb d6 05 62 bc
       -0.0065080784 -0.0051483423 -0.0053061526 -0.013795337
000120 8b bd c1 bb 8b 7c dc bb 75 92 9c bb 8e 25 9a 39
       -0.005912488 -0.006728714 -0.004778201 0.0002940115
000130 bf 67 41 bc 58 1a b8 bb de ca 0c bc 91 1a 36 bc
       -0.01180452 -0.005618375 -0.008593289 -0.011114732
000140 4f e9 01 bd 39 63 46 3c 6d f3 12 bd f4 9f 92 bc
       -0.03171664 0.012108617 -0.03587668 -0.017898537
000150 27 e6 5b 3b 6d cc 45 ba f8 95 80 bc c1 be d7 3b
       0.003355393 -0.00075454154 -0.01569651 0.006584019
000160 40 78 7d bc 4b c5 e1 bb ad d4 2f bd 22 03 03 bc
       -0.015470564 -0.006889974 -0.042927433 -0.007996352
000170 e7 77 06 38 9c c2 5f bc 02 22 96 bc fc 41 c8 bc
       3.2059757e-05 -0.013657238 -0.018326763 -0.024445526
000180 2a 81 ae bb d6 dc 36 bb b3 0e 9b bb 06 4e b6 3b
       -0.005325456 -0.0027902625 -0.004731977 0.0055635003
000190 9f d1 db bc 0b 3b 25 bb 35 5c 04 3c c5 f3 06 bd
       -0.026833354 -0.0025212194 0.0080786245 -0.03294732
0001a0 11 33 4b bb 20 62 01 bc f9 1e c6 bc 25 6c 90 3a
       -0.003100578 -0.00789693 -0.02418469 0.0011018558
0001b0 69 1f 07 3b b0 c6 ac bc 09 06 f3 3a 84 0c 6d bc
       0.0020618087 -0.021090835 0.0018541227 -0.014468316
0001c0 04 1c 39 bb 9f c8 a6 bb 44 89 66 bc 80 3f ac 3b
       -0.0028245458 -0.005089834 -0.014070813 0.005256593
0001d0 e4 80 47 bc d4 04 81 3a c4 dd 3a bc b9 98 b5 bc
       -0.012176726 0.0009843358 -0.011405412 -0.02216755
0001e0 64 ff fe bb 16 89 b7 3b 5b 9c 03 bc 72 4e 96 bc
       -0.00778191 0.0056010587 -0.0080328835 -0.018347953
0001f0 37 01 07 bd c0 1d cc 3b 49 98 8f bc 9f 0a c4 bc
       -0.032960143 0.0062291324 -0.01752867 -0.023930846

blocks.0.fcn_layer.weight f4 [128, 128]
000000 f3 97 48 3d 53 5d c2 3c 44 39 57 3d 0a 2e a6 bd
       0.048973035 0.023726141 0.052544847 -0.0811425
000010 cb 38 0a bd 49 a1 8b bd d5 96 89 bd db 9a ae 3c
       -0.03374557 -0.06817872 -0.06718222 0.021314075
000020 9c e7 35 3d 82 2c e5 bc 99 de b8 bd cd f3 64 bc
       0.044410333 -0.027975325 -0.09026832 -0.013974142
000030 2b 66 07 3d ea e6 56 bc 7e 5f 70 3c 84 bd cc bc
       0.03305642 -0.013116578 0.014671205 -0.024992712
000040 07 a2 2d bd 07 27 f3 bc 06 25 7d bc ae b8 82 bd
       -0.04239085 -0.029681696 -0.015450722 -0.06382881
000050 11 57 99 3d e8 bb 77 3d a0 b3 9f 3d 9d 18 91 3d
       0.0748731 0.060481936 0.077979326 0.07084773
000060 ff 00 a9 bc 28 18 0a 3d 92 46 f3 3c 1e f5 a8 3d
       -0.020630358 0.033714443 0.029696736 0.082498774
000070 d2 5d 3b bd 10 c4 25 3d 12 fa 84 3d 30 c1 7d 3d
       -0.04574377 0.040470183 0.064930096 0.061951816
000080 66 35 f0 3d 3c 05 7e 3d 90 61 5b bd 7c 68 d9 3d
       0.11728935 0.06201671 -0.05355984 0.10615632
000090 2a c1 54 bd 4b 8c b2 bc 51 6c 30 bc 9f 04 f7 3c
       -0.051942028 -0.021795413 -0.010768012 0.03015357
0000a0 64 33 9e 3d f4 34 4f bd 8d 1e ae 3d 4a ab 6b 3c
       0.07724646 -0.05058761 0.08501921 0.0143841
0000b0 e4 df 90 bd cf 05 c1 ba f0 b0 61 bc 41 48 f5 3c
       -0.07073954 -0.0014726463 -0.013775095 0.02994168
0000c0 2e bb 6f bd 3e fb 8c bb d9 1a 94 3b 15 b3 05 3c
       -0.058528118 -0.0043024113 0.004519802 0.008160372
0000d0 75 03 18 bd 3c 16 24 3d a9 ea 40 3b b9 e6 86 3c
       -0.037112672 0.040060267 0.0029436743 0.016467439
0000e0 87 df a4 3c 88 a0 83 bb 97 15 aa bc 78 4d 96 3d
       0.020126117 -0.0040169396 -0.020762248 0.07338995
0000f0 36 10 73 bd 96 4b 8e 3b e9 61 43 bd 5f 72 a8 3d
       -0.05934163 0.0043425066 -0.047700796 0.082249396
000100 da f0 4b bd 04 5e 21 bb e7 0e 4d bc 68 1f 8d 3d
       -0.04979024 -0.0024622688 -0.01251576 0.06890756
000110 19 70 9c 3c d8 fc 4d 3d 3b d0 90 3b 78 f3 a0 3d
       0.019096421 0.05028996 0.0044193543 0.07858938
000120 a3 cd 30 3d b6 41 66 bd 16 62 ba 3d 3a 9a 6e 3c
       0.04316486 -0.05621501 0.0910074 0.014563138
000130 57 b5 a5 bc af ce a9 3c d4 6f 07 3c 04 3c 26 3c
       -0.020228071 0.020728437 0.008266408 0.010146145
000140 a2 6a 89 3d 79 18 be bc 11 e7 63 bc a2 c2 3f bd
       0.06709792 -0.023205029 -0.013910071 -0.046816476
000150 78 f7 1b bd 6a 1c 20 bd 30 42 64 3d 0b 40 04 bd
       -0.0380778 -0.039089598 0.055727184 -0.03228764
000160 1a 9a ad 3a af c8 03 3c 5c a7 9d 3d bc 94 a8 bc
       0.0013244778 0.008043452 0.07697937 -0.020578735
000170 6a b6 a1 bc 35 fc a0 3d d0 09 51 3b 6b e2 f9 bc
       -0.019740302 0.07860605 0.0031896718 -0.030503472
000180 e1 06 39 bc 6d de 3f bd 88 84 7a 3d 0c 7f 95 3c
       -0.011293144 -0.04684298 0.061161548 0.018249057
000190 bc c0 73 3d ef 55 41 3d 19 99 f4 bc dd e4 04 bd
       0.059509978 0.047201093 -0.029858159 -0.032444824
0001a0 9b 94 a1 3d 6b a2 0c bd 0e 1c 82 3d 22 7e a0 3d
       0.07889672 -0.03433458 0.06353007 0.07836558
0001b0 0c b5 9f bc a0 f5 96 39 3a dd 37 3d 0d dd 97 3d
       -0.01949551 0.00028793234 0.044888712 0.07415209
0001c0 6a 2d 43 3d 10 bb ce 3c 94 15 81 3d af d6 c5 bc
       0.047650732 0.025235683 0.06302944 -0.02415022
0001d0 3d 9b 36 3d fa 40 0c bd d0 ab 0b 3e 51 64 89 3d
       0.04458164 -0.034241654 0.1363976 0.06708587
0001e0 e6 29 b3 3c 97 64 5c 3d ac 0c 2a 3d c4 84 a9 bc
       0.021870565 0.053806867 0.04151599 -0.02069319
0001f0 ae cd a8 3d 83 0f 87 bd 83 5b 05 3c 05 53 f6 bb
       0.08242355 -0.065947555 0.008139494 -0.007517221
000200 47 13 2f bd c9 e5 4f 3d 8c 5c 4d bd b0 18 a2 bd
       -0.042742994 0.05075625 -0.050137088 -0.07914865
000210 aa f7 c8 bc cc 86 07 3d 5f e7 d1 bd fb a0 04 bc
       -0.024532158 0.033087537 -0.10249209 -0.008095021
000220 84 dd 25 3d 83 da 7a 3d cd 38 18 3c bb 12 04 bc
       0.040494457 0.061243545 0.009290886 -0.008061106
000230 3b 06 74 3d 46 80 d9 bb 63 bd db 3d 41 a7 25 bd
       0.059576254 -0.006637606 0.10729482 -0.04044271
000240 0b 01 cf 3d 6f 54 15 be 12 53 55 3d 2f 63 a9 bd
       0.10107621 -0.1458299 0.052081175 -0.08270871
000250 79 cd 7b bd 88 57 97 bd 10 b1 89 3c dc 72 6c 3d
       -0.06147525 -0.07389742 0.016808063 0.057726726
000260 54 93 6a 3c bf 5d 90 3d 62 21 89 bc 29 f0 86 3d
       0.014317352 0.07049131 -0.016739551 0.06588776
000270 66 2a 08 bd 17 4a 91 3d c8 7a c0 3d b4 26 8f 3d
       -0.03324356 0.0709421 0.09398419 0.06989804
000280 2f 4f bb 3d 87 92 cf 3d 19 2f 72 3d 59 84 9b 3d
       0.091459624 0.1013537 0.059126947 0.07593603
000290 06 bb 8b 3d 26 5d 0e bc 3c 04 3e 3d ee 22 96 3c
       0.06822781 -0.0086892005 0.046390757 0.018327203
0002a0 f7 c2 3e 3d 25 04 53 bc 50 e6 0b 3d 85 41 43 bd
       0.04657265 -0.012879406 0.03415519 -0.047669906
0002b0 52 dc 4c bd 9c f0 3a bc 98 2b 35 3d d2 36 2e bb
       -0.0500148 -0.011409905 0.044231027 -0.0026582968
0002c0 9f c4 cb 3d ba 97 ab 3d 66 ae 4d bd 2f e6 ac bc
       0.09949612 0.08378549 -0.050215147 -0.021105854
0002d0 a8 60 a6 bd f4 b3 ce bd 54 51 6b bd f2 cb 17 3d
       -0.081239045 -0.10092917 -0.057450607 0.03705973
0002e0 7b b4 cb bc 4d 82 84 bd 53 ee c9 3d cc e1 13 bd
       -0.024866333 -0.064701654 0.0985991 -0.03610401
0002f0 58 fd 1e bd 96 a7 02 3e 06 b1 b4 3d 5a 1e a2 bb
       -0.038815826 0.12759241 0.08822827 -0.004947466
000300 3f ae 33 3d cc b1 5e 3d 21 6f 6a 3c f0 ce ac 3d
       0.043867346 0.05436878 0.014308722 0.08437908
000310 40 28 6f bd d8 df f5 3b ee e6 c3 bd 9b 5c 17 ba
       -0.058387995 0.007503491 -0.09565531 -0.0005773992
000320 59 53 87 3c c2 a7 63 bd 57 b2 b8 bd 91 f3 c4 3c
       0.016519235 -0.05557991 -0.090183906 0.024041923
000330 a0 40 12 bb 78 3d ae bb 2a c1 d7 3b 1b 85 0b 3d
       -0.0022316352 -0.0053173862 0.0065843062 0.034062486
000340 ad b6 e2 3c 5d 38 bc bd 8d e1 0b 3d 40 66 52 bd
       0.027674997 -0.09190438 0.03415065 -0.051367044
000350 3b eb 30 bd 6f 80 c7 3d ca db 67 3d e1 23 cf 3d
       -0.043193083 0.09741294 0.05660609 0.10114265
000360 15 21 d7 bc 73 0a 9c 3d 30 72 3c 3d 7f 02 84 bd
       -0.026260892 0.076191805 0.046007335 -0.064457886
000370 2f 45 e2 3d 7f 12 2e 3d fe c0 aa 3d 63 16 e7 3c
       0.11048352 0.042498108 0.083375916 0.028208917
000380 e0 34 e4 3c 57 da 12 3d f4 1c 49 bd 11 39 a2 3d
       0.027857244 0.035852756 -0.049099877 0.07921041
000390 5c 87 4e 3d 0a 76 8a 3d f3 85 a8 3d ca 02 5e bd
       0.050422058 0.067607954 0.08228674 -0.05420188
0003a0 ec 06 f8 3c bf e4 d6 3d 56 94 a0 3d 06 91 e3 3c
       0.030276738 0.104928486 0.07840793 0.027779114
0003b0 f8 0e 59 bc 3d 31 df 3c f6 3c 11 3d 79 96 96 bc
       -0.013248198 0.027245158 0.035458528 -0.018382298
0003c0 e2 e9 5d 3d 70 f2 8e bd 47 f6 0c bd aa 46 d2 bd
       0.054178126 -0.06979835 -0.034414556 -0.10267384
0003d0 9a 91 7b 3d 7f 1e 83 3d 5b 63 ea bc 6b e9 b8 3d
       0.061418153 0.06402301 -0.02861183 0.09028896
0003e0 93 23 74 3d 56 6b 2a 3c e6 24 8c bc 0f 47 b9 3d
       0.05960424 0.010401567 -0.017107438 0.090467565
0003f0 ac 13 8e bc 83 35 51 bd 05 6a 62 3c 7a cf 28 bb
       -0.017343365 -0.051076423 0.013819222 -0.0025758431

blocks.0.fcn_layer.bias f4 [128]
000000 0b ff 26 bd fa 42 65 3d 17 e5 13 3d 7b f6 7b 3c
       -0.04077057 0.055972077 0.03610715 0.01537859
000010 56 e1 6d bd 30 5f 9b bb 02 0e 65 3d c5 f1 d3 3c
       -0.058076225 -0.004741572 0.055921562 0.02587212
000020 2a f1 94 bd 5f 8b 14 3a 90 9a 93 3d a0 43 9d 3d
       -0.07272561 0.000566652 0.07207215 0.07678914
000030 2d 40 a0 bd 8d ee 30 3c cf 9d 8a bd 5e 49 c7 3d
       -0.078247406 0.010799062 -0.06768381 0.097307906
000040 3e 00 9a 3d 88 75 f8 3a cb 9a 6f bd ff 68 a8 bd
       0.075195774 0.0018955925 -0.05849723 -0.082231514
000050 0d a4 31 bb 5d 5c 57 bd 35 2b af 3d 06 be 68 3c
       -0.0027105839 -0.05257832 0.08553163 0.014205461
000060 c0 d4 ae 3c 18 63 b3 3d c6 69 c6 bc 09 5b b1 bb
       0.021341681 0.08759135 -0.024220359 -0.0054124636
000070 2a 4a 4b bc 32 c5 29 3d 54 66 83 bd c0 66 90 3d
       -0.012407819 0.041447826 -0.06416002 0.07050848
000080 06 5f 4b bd 65 03 ad bc fb eb 84 bd 67 2a 12 3d
       -0.04965117 -0.021119783 -0.06490322 0.03568497
000090 f4 58 86 3d 43 43 ad 3d b6 84 a6 bc 8b 86 b0 3d
       0.06559935 0.08460095 -0.020326953 0.08619412
0000a0 60 be 95 3d 86 e4 ce 3b 7b 38 d9 3c ec 55 26 3c
       0.07311702 0.006313863 0.02651619 0.010152321
0000b0 2e 2a d5 bc c1 a9 5e 3d 14 03 bf 3c 9a 6c 21 bd
       -0.02602109 0.05436111 0.023316897 -0.03941021
0000c0 64 ce 50 3d d3 de dd bc 11 31 0c 3c f1 a7 3a bd
       0.05097808 -0.02708379 0.00855662 -0.045570318
0000d0 b9 8d b1 3d f7 3c 55 3d e7 88 b9 3d 12 6f 02 bd
       0.086696096 0.052060094 0.09059315 -0.031844206
0000e0 cb 85 aa 3d 9e ef c2 bc 77 ea 76 bd f9 f2 98 bd
       0.083263 -0.023795899 -0.060282197 -0.07468218
0000f0 c9 73 59 bd 44 42 9e bd 24 15 2a bd 2b 85 65 3d
       -0.053088937 -0.07727483 -0.041524068 0.056035202
000100 a9 97 24 bd 58 21 4c 3c a0 d4 80 3d 9e 0e 83 3d
       -0.040183697 0.012459122 0.06290555 0.063992724
000110 37 97 f3 bb e2 67 8d 3d 30 5a f0 3a b7 9e 0c bd
       -0.0074337977 0.0690458 0.0018337425 -0.03433105
000120 be 11 4a bd 1f 66 20 bc 57 a7 40 bd b0 c0 5d bd
       -0.049333327 -0.009789973 -0.047034588 -0.05413884
000130 4f ec 88 3d 34 df 95 bd 51 c4 8d 3d 1e 14 95 bd
       0.06685697 -0.07317963 0.0692221 -0.07279228
000140 4d 77 38 3d ac ea 1f 3d f3 49 b8 3c ce 2c e6 bc
       0.04503565 0.03904216 0.0224962 -0.028097536
000150 88 3b 81 3d 4d 7e 45 3c f8 50 19 bd ce 79 aa bd
       0.06310183 0.012054038 -0.037430733 -0.08324014
000160 e2 d1 4c 3c b3 e8 4b bd 62 f0 a8 bd c5 0e 0a 3d
       0.012501212 -0.049782466 -0.082489744 0.03370549
000170 df fd 49 bc ab 18 9e 3c e8 91 21 bd 7b 69 ee 3c
       -0.012328594 0.019298872 -0.039445788 0.029103031
000180 eb e7 00 bd 36 80 ce bc c9 ab 5b 3b 3b 2e 21 3d
       -0.031471174 -0.02520762 0.003351914 0.03935073
000190 a5 02 ff 3c 02 2e 33 bb 4c 3a a0 3d 6d a5 a8 bd
       0.03112919 -0.0027340655 0.07823619 -0.082346775
0001a0 1c f4 b0 3d 65 a9 6f bd 9f e7 a8 bd 63 49 85 3d
       0.0864031 -0.058511157 -0.08247303 0.06508138
0001b0 c7 f0 06 3c 10 09 b1 3d 9d ba 87 bc ba b7 42 bd
       0.008236117 0.08644307 -0.016568476 -0.047538497
0001c0 ff 13 88 bd e2 0b 25 bd 52 02 61 bd 26 f6 aa bc
       -0.06644439 -0.040294535 -0.054933853 -0.020869326
0001d0 48 03 86 bd 74 b9 bc 3c 96 35 f6 3c a0 46 89 3d
       -0.065435946 0.02303765 0.030054849 0.06702924
0001e0 c8 74 c5 3c 36 f6 d4 bc 54 fe bd bc 8f 8d 11 bd
       0.024103537 -0.025996309 -0.023192562 -0.03553539
0001f0 cd dc 38 3c 53 97 ee 3c bd 67 85 3d e7 37 34 bd
       0.011283112 0.029124891 0.06513927 -0.043998625

blocks.0.layer_norm.weight f4 [128]
000000 e3 c4 88 3f 3b 31 8f 3f ee e7 87 3f bf b3 89 3f
       1.0685085 1.1186899 1.0617654 1.0757979
000010 d5 b6 89 3f 0d 65 95 3f 09 ef 88 3f ea a8 89 3f
       1.0758921 1.1671463 1.0697948 1.0754673
000020 c3 dd 87 3f 9a 0e 8f 3f d6 11 8c 3f 01 ac 83 3f
       1.0614551 1.1176331 1.0942943 1.0286866
000030 cb da 88 3f a3 b7 8f 3f 09 f8 89 3f 03 09 7b 3f
       1.069177 1.1227916 1.0778819 0.98060626
000040 b0 79 94 3f 45 20 88 3f 12 72 96 3f 98 c4 8b 3f
       1.1599636 1.0634848 1.1753561 1.0919371
000050 d2 95 76 3f 43 b1 89 3f 5e f1 83 3f 01 a9 99 3f
       0.9632236 1.0757221 1.0308034 1.2004701
000060 fd 39 8d 3f 75 19 92 3f 0d d6 91 3f 19 bd 92 3f
       1.1033322 1.1414019 1.1393448 1.1463958
000070 94 b1 88 3f d8 98 8f 3f f0 5a 95 3f 6e b8 89 3f
       1.0679193 1.1218519 1.1668377 1.0759408
000080 f6 26 88 3f af f0 86 3f 78 c2 95 3f 5d f3 86 3f
       1.063689 1.0542201 1.1699972 1.0543019
000090 ca 95 8c 3f 81 3c 8c 3f f7 dd 8c 3f cf 59 88 3f
       1.0983212 1.0955964 1.1005238 1.0652407
0000a0 66 25 88 3f 3e ab 89 3f 51 0d 89 3f ca 7a 84 3f
       1.0636413 1.0755384 1.0707189 1.0349972
0000b0 be 66 8a 3f 58 4f 8e 3f 21 fa 8f 3f ee 0d 89 3f
       1.0812604 1.1117964 1.1248208 1.0707376
0000c0 f4 09 8a 3f c5 5c 7a 3f 61 3c 8c 3f 30 86 83 3f
       1.0784287 0.97797805 1.0955926 1.0275326
0000d0 82 da 85 3f 3f bf 89 3f 3b 85 79 3f 89 3e 8f 3f
       1.0457308 1.0761489 0.9746892 1.1190959
0000e0 35 68 8a 3f d5 8f 86 3f 8a 8b 8d 3f b2 de 88 3f
       1.0813051 1.0512644 1.1058209 1.0692961
0000f0 32 8b 88 3f 10 ef 89 3f 07 21 88 3f 90 09 84 3f
       1.0667479 1.0776081 1.0635079 1.0315418
000100 31 f9 8a 3f b3 1f 92 3f e4 27 90 3f 9d 9c 8c 3f
       1.0857297 1.1415924 1.1262174 1.0985295
000110 74 a3 8a 3f 0a 2e 8b 3f b9 0c 8e 3f 8c db 85 3f
       1.0831132 1.0873425 1.1097633 1.0457625
000120 81 cd 86 3f b6 3f 94 3f 6a b3 89 3f 4f 4c 86 3f
       1.0531465 1.1581943 1.0757878 1.0492038
000130 25 42 87 3f df ae 94 3f 21 60 8a 3f bf 80 86 3f
       1.0567061 1.1615866 1.0810586 1.050804
000140 d5 cc 81 3f 5d 2d 88 3f e7 77 8b 3f f4 91 85 3f
       1.0140635 1.0638844 1.0895966 1.0435166
000150 d3 de 85 3f 7d d9 80 3f 87 fb 90 3f 6e fe 8a 3f
       1.0458626 1.0066372 1.132676 1.0858896
000160 f0 e3 88 3f e4 47 91 3f ea db 8b 3f 96 c3 8c 3f
       1.0694561 1.1350064 1.0926487 1.0997188
000170 a3 ff 93 3f 2f 0f 8a 3f 29 6f 89 3f d3 e5 8d 3f
       1.1562389 1.0785884 1.0737048 1.1085762
000180 ab 0c 8a 3f c7 f5 83 3f 57 18 89 3f d1 ba 80 3f
       1.0785116 1.030938 1.0710553 1.0057012
000190 fb 9a 89 3f 7b 78 8a 3f 13 d8 8b 3f 65 de 8f 3f
       1.0750421 1.0818018 1.0925316 1.1239744
0001a0 8e 6d 80 3f 9a 6f 88 3f 33 23 88 3f b3 7f 88 3f
       1.0033433 1.0659058 1.0635742 1.0663971
0001b0 45 1f 8c 3f 20 38 93 3f c6 9a 86 3f 40 d7 85 3f
       1.0947043 1.1501503 1.0515983 1.0456314
0001c0 41 82 88 3f a0 56 8c 3f 9d 27 88 3f 91 cf 8e 3f
       1.066475 1.0963936 1.0637089 1.1157094
0001d0 42 30 84 3f 94 b4 84 3f 09 33 8d 3f 3c 74 83 3f
       1.0327227 1.0367608 1.10312 1.0269847
0001e0 2e f7 86 3f e9 45 8b 3f e1 52 8a 3f f9 e2 90 3f
       1.0544183 1.088071 1.0806543 1.1319267
0001f0 d1 a4 8e 3f 97 36 8b 3f ea 5e 82 3f c5 41 89 3f
       1.1144048 1.0876034 1.0185215 1.0723196

blocks.0.layer_norm.bias f4 [128]
000000 d0 54 47 3d 1b aa 28 3d a2 23 e9 3c 47 c4 b6 3d
       0.048664868 0.04117785 0.028459374 0.08924156
000010 2a a9 86 3c 09 74 db 3d 68 9b 3d 3d 9f 2b 37 3d
       0.016438086 0.10715491 0.046290785 0.044719335
000020 19 12 ed 3c 39 8d 84 3d 85 cb e5 3c 95 8e 5a 3d
       0.028939294 0.064722486 0.028051147 0.053358633
000030 47 93 3c 3d e3 1f bd 3d 49 20 a4 3c 9d 45 ce bc
       0.046038892 0.092345975 0.020034926 -0.025179679
000040 10 c4 d3 3d f4 a0 d9 3c f9 73 e6 3d 75 52 2a 3d
       0.1034013 0.026566006 0.11252589 0.041582543
000050 6b 59 a3 bc d4 bd 77 3d 39 7f 9d 3d 52 6a da 3d
       -0.019940099 0.06048377 0.076902814 0.1066481
000060 ed 98 b0 3d 67 1e b8 3d 32 6d bd 3d 94 71 c3 3d
       0.08622918 0.08990174 0.09249343 0.09543148
000070 85 8e 4f 3d 26 a8 ac 3d ce 73 d3 3d 55 0b 15 3d
       0.050673027 0.08430509 0.10324822 0.03638776
000080 bf 40 12 3d 17 26 23 3d a0 b4 c8 3d fa 5b 61 3c
       0.035706278 0.039831247 0.098000765 0.013754839
000090 2e bb ab 3d df cb b9 3d 49 4a 33 3d 62 90 24 3d
       0.08385311 0.090720885 0.043772016 0.040176757
0000a0 8b da f3 3c 59 2a 17 3d fb 26 65 3d 86 65 e7 3c
       0.029767295 0.03690562 0.055945378 0.028246652
0000b0 ce b7 28 3d d2 e2 6e 3d 6c de b9 3d 4b 2c 3e 3d
       0.041190915 0.05832178 0.09075627 0.04642896
0000c0 51 b7 14 3d 3b 33 07 bd a7 8c 72 3d 84 89 6d 3c
       0.036307637 -0.03300784 0.059216168 0.014498118
0000d0 e6 22 99 3c f5 1d 93 3d 8c 9f f2 bc 93 cc 21 3d
       0.018693399 0.07183448 -0.029617094 0.039501738
0000e0 0a 08 52 3d af 77 fe 3c 15 16 99 3d 9a 31 b8 3c
       0.051277198 0.031062929 0.07474915 0.02248459
0000f0 51 c6 42 3d 86 70 35 3d 75 4f 9a 3a 32 ef a6 3c
       0.04755241 0.044296764 0.0011772948 0.02037773
000100 37 ff 3e 3d 18 f4 b3 3d 3c 4b bf 3d 72 32 5f 3d
       0.04663011 0.087867916 0.09340522 0.054491468
000110 61 ca 17 3d 75 98 59 3d 45 fb f0 3c c9 79 3a 3d
       0.037058238 0.05312391 0.02941669 0.0455263
000120 6f 78 0d 3d 0f fd cc 3d 79 ba 3f 3d c8 7d 82 3c
       0.034538683 0.100092046 0.046808694 0.015929118
000130 7d 7f 49 3c bc 9a ce 3d 4e 0d 34 3d 66 f0 d7 3c
       0.012298462 0.10088107 0.043958 0.026359748
000140 63 f6 a5 3c 4c f7 dd 3c 8d ce 7a 3d 85 3c b8 3c
       0.020259088 0.02709546 0.06123214 0.022489795
000150 c1 8a 01 3d bb 54 9a 3c 89 f9 ad 3d 6d ff 1b 3d
       0.031626467 0.01883923 0.08494861 0.03808539
000160 ec 58 0c 3d 48 23 9c 3d b0 e1 97 3d 02 c7 31 3d
       0.03426449 0.07623917 0.07416093 0.04340268
000170 92 bd c3 3d 93 58 1f 3d c3 a3 42 3d 14 da a3 3d
       0.09557642 0.03890283 0.047519457 0.080005795
000180 8d b7 30 3d 1a 86 23 3c 1b ba 22 3d 9a 93 95 bb
       0.043143798 0.009980703 0.039728265 -0.0045647146
000190 f1 3e 29 3d 4f cc 44 3d b0 6b 9d 3d 21 79 af 3d
       0.04131979 0.048046406 0.076865554 0.085680254
0001a0 1e 93 8c ba 32 2c 51 3d 6c d8 a3 3c 47 ca 46 3d
       -0.0010724997 0.05106754 0.020000659 0.04853275
0001b0 ab 81 9c 3d 6e 9a ca 3d b5 22 22 3d 01 a8 00 3d
       0.0764192 0.098927364 0.03958388 0.03141022
0001c0 72 19 ec 3c 83 6e a2 3d 5c 0e 20 3d 2c bd ac 3d
       0.028820727 0.07931235 0.039076194 0.08434519
0001d0 b6 35 d6 3c b4 f2 d5 3c b9 e2 2d 3d d8 bf 8d 3c
       0.026148658 0.026116706 0.042452548 0.017303392
0001e0 30 09 f8 3c e5 e1 5c 3d 23 c8 0e 3d fd 7f 68 3d
       0.030277818 0.053926367 0.034858834 0.056762684
0001f0 f0 18 92 3d 1a 70 a5 3d 3e 7f cf 3c a6 b4 c7 3d
       0.07133663 0.08078022 0.025329228 0.09751253

last_layer.weight f4 [1, 128]
000000 e1 df 86 3d 63 70 1a 3e 59 45 08 3e 2c 86 b6 bd
       0.0658567 0.15081935 0.13307704 -0.0891231
000010 a3 b6 eb 3d 7f 8f 25 be 1d 05 cd 3d fb db 0e 3e
       0.115094446 -0.1616802 0.10010741 0.13951103
000020 56 ef 92 3d 9c 50 3b be d2 1a 1e 3e 3c 75 d8 bd
       0.07174556 -0.18292469 0.15439919 -0.10569236
000030 bb e4 a1 3d f4 a1 ff bd 1d f1 07 3e 1d a0 fd bb
       0.07904955 -0.12482062 0.13275571 -0.0077400343
000040 d8 07 32 be 4f 2b ca 3d 22 5c 55 be 53 3f 11 3e
       -0.17385805 0.09871542 -0.20835927 0.14184313
000050 cb 54 1d 3a d2 af 72 3d e3 2e 63 bd 52 bd 61 be
       0.000600171 0.059249707 -0.055464637 -0.22044876
000060 72 9a b8 3d d9 f4 55 be de e2 2d be 7e 3d 20 be
       0.09013833 -0.20894183 -0.16981074 -0.15648457
000070 6f 21 d9 3d c7 df 44 be ce b6 59 be cf 42 0f 3e
       0.1060208 -0.1922599 -0.2126114 0.13990329
000080 01 7d ff 3d 67 2a 08 be b2 c1 46 be a7 26 88 3d
       0.124750145 -0.13297425 -0.19409826 0.06647997
000090 da 1f 12 be 65 52 f2 bd 8c f2 16 3e 4e cb 58 3d
       -0.14269963 -0.11832122 0.14740962 0.05292826
0000a0 bd 86 dd 3d 2b 35 ec 3d 17 dd 19 3e ed 30 97 3d
       0.10816715 0.115335785 0.15025745 0.07382379
0000b0 14 4e 90 3d a3 4e f6 3d c0 16 27 be 3b 46 bb 3d
       0.07046142 0.120267175 -0.16317272 0.09144255
0000c0 4d f3 f4 3d 38 fe 97 bb 20 5f d1 3d 7f 28 4b 3d
       0.119604684 -0.0046384595 0.10223222 0.049599167
0000d0 6c d9 83 3d 29 17 e5 bd d5 ec fa bb d1 dc bd 3d
       0.06437954 -0.11186058 -0.007657627 0.09270633
0000e0 29 90 19 3e b0 67 2d 3d 4e 90 2b be 1f 28 0a 3e
       0.14996399 0.042335212 -0.16754267 0.13491867
0000f0 f5 1f d6 3d c6 a3 dc 3d 0f 7c 18 3e 86 3d 95 3d
       0.10455314 0.10773425 0.14891075 0.07287125
000100 61 2f 1d 3e 27 cd 23 be 4c 3d 1f be 1e 1a d4 3d
       0.15350105 -0.15996228 -0.15550727 0.10356544
000110 b6 a7 bc 3d f6 b5 0d 3e 13 ad 10 3e 1b ae fc 3d
       0.09211676 0.13838944 0.14128523 0.123378955
000120 f4 13 30 3d 33 31 47 be e8 9b 09 3e 4d 1f 5d 3d
       0.04298778 -0.19452362 0.1343838 0.05398493
000130 18 6c 0c 3e 75 6a 2a be d1 7e d7 3d cc cf 2c 3d
       0.1371311 -0.16642173 0.10522235 0.042190358
000140 c2 90 b3 3c 3f 32 0f 3e 06 7f b0 3d b4 36 05 3e
       0.021919612 0.13984011 0.08617978 0.13009149
000150 99 81 8c 3d bf 37 83 3c 6c e4 13 be 95 ff c4 3d
       0.06860656 0.016017793 -0.14442605 0.09619061
000160 c1 ba fc 3d b8 33 3b be 51 7f 2b be f7 7a 0e 3e
       0.12340308 -0.18281448 -0.16747786 0.13914095
000170 61 83 4c be 12 0f 24 3e cf a5 14 3e 8f dc 3b be
       -0.19971992 0.16021374 0.14516376 -0.18345855
000180 1c 2f 94 3d 13 41 ca bd 8d 29 cf 3d 3d 01 26 bd
       0.07235548 -0.09875693 0.10115347 -0.040528525
000190 b8 1d af 3d 66 cb 01 3e 99 ad 22 be 0b f0 35 be
       0.0855059 0.12675247 -0.15886535 -0.1776735
0001a0 21 6c 93 bd a8 a9 1c be 9f 20 15 3e dc b2 c4 3d
       -0.07198358 -0.15299094 0.14563225 0.09604427
0001b0 a5 2d c1 3d e1 e4 2a be 3f 82 a0 3d 77 31 e6 3d
       0.09432534 -0.16688873 0.078373425 0.112399034
0001c0 d9 02 fe 3d 3f 25 2f 3e 75 c6 18 3e 8d 20 21 be
       0.12402887 0.17104052 0.14919455 -0.15735073
0001d0 50 03 29 3d b5 05 2a 3d d0 39 df 3d 6d 22 e7 3c
       0.041262925 0.04150935 0.10899699 0.028214658
0001e0 f3 8c 67 3d e9 ec ec 3d 19 bc d1 3d 77 04 ff 3d
       0.056530904 0.115686245 0.10240955 0.124520235
0001f0 6a 73 b5 3d a2 62 11 be 19 eb 0e 3d e1 9d c5 bd
       0.08859904 -0.14197782 0.034892175 -0.09649254
