wkey/openwakeword_models/onnx/heycomputer2.onnx (onnx, 859394 bytes, 9 tensors)

layer1.weight f4 [128, 1536]
-0.004181604 -0.0069255466 -0.002136956 -0.02443806 0.0060556564 -0.021001741 0.0023248321 -0.020051224
-0.015918879 0.012406415 0.004706282 0.025997644 0.008278699 -0.018667161 -0.0023564415 0.018365895
-0.010565434 0.0024408973 -0.0088245245 0.025308063 0.0029869438 -0.023507714 -0.018066952 0.0031042527
0.027423363 0.011869025 4.704762e-05 0.01157224 -0.024771538 -0.016259944 -0.015864452 -0.007708637
0.026095731 -0.0011022964 -0.017352272 0.021278325 -0.0065497877 0.019061586 -0.021295456 0.022402754
-0.014592917 -0.0023907227 -0.0034372974 0.011820727 -0.0016253666 -0.0013361637 0.01482683 -0.01791702
-0.0007786171 0.01711332 0.013053336 -0.022457993 0.011468087 0.02609073 0.0025223594 0.013410054
-0.004930489 -0.0072502024 0.020242907 0.013189937 -0.018217335 0.006889625 0.0057327007 0.016864534
0.0025751942 -0.0073414715 -0.001955569 -0.012483732 0.025471523 -0.013136989 -0.009400735 0.00985438
-0.014789257 0.0034267216 -0.008404735 0.0010208923 -0.024543673 -0.014704879 -0.001497046 0.004076142
0.007641434 0.004000742 0.015920687 0.007058285 0.011110924 0.01129766 0.0045807995 -0.014578553
-0.009748052 0.0032903627 -0.018661773 -0.021428715 -0.011834253 -0.01216711 -0.02716224 0.019212484
-0.01133319 0.025041541 -0.0065662814 0.004766167 -0.0144308265 0.0070159268 -0.0047475197 -0.021146191
-0.010321153 0.0014835543 0.020867752 0.006238517 -0.01913341 0.012794361 0.01336742 0.009500267
0.0021888346 0.005359382 -0.017621323 0.016603865 0.024234295 0.021558652 -0.008597663 0.015903316
-0.0072885263 -0.020822419 0.0019717661 0.019133054 0.0020079992 -0.00030364344 0.021734113 0.0046787392
-0.022555687 -0.003042133 -0.0037838514 -0.024657764 -0.0049906145 -0.01620219 -0.012622166 0.0034458975
-0.005893955 0.025261866 0.011324 -0.02284668 -0.012519464 -0.023514554 -0.012514505 -0.023365043
-0.024860756 0.009114169 -0.0019219349 -5.289125e-05 -0.009013636 0.019321589 0.020723967 -0.01269243
0.009261632 0.024154173 -0.014150998 0.019476023 -0.022121226 0.015103378 -0.008052995 0.019973565
-0.01896874 -0.01999168 0.005150054 0.024109801 -0.015011072 -0.0045871967 -0.022770481 -0.015726801
-0.011002139 -0.023494702 0.014410142 -0.009387036 -0.008117617 0.02002902 0.0041826433 -0.01894618
-0.0073218653 0.0061888318 -0.024629368 0.0056969183 -0.0031554175 0.014761588 0.022673823 0.018588062
-0.0002680263 -0.0051118527 0.013701138 -0.02283726 0.0031390123 0.012187549 0.021336745 -0.020869646
0.016998926 -0.0036259405 -0.008263183 -0.017044155 0.010358624 -0.021401674 0.014684518 -0.008511801
-0.02512067 -0.010801504 -0.018789764 0.01956742 -0.02740704 0.018469665 -0.017688926 0.015210657
-0.025332216 -0.018357884 0.026364135 0.017927967 -0.007836588 0.0040194294 -0.0135067385 0.0068076067
-0.022970764 0.010028778 -0.011013515 -0.0031740197 -0.019600667 -0.017243676 0.001618505 0.0094282525
-0.021563945 0.010103513 -0.0023099591 0.007412712 0.022136474 -0.009992597 -0.027534613 -0.0011024841
0.022476295 -0.017907994 -0.02221326 0.019717436 0.004951709 -0.013253071 0.0128597645 0.0017477695
-0.019564463 -0.011046944 -0.019787967 0.0035532746 -0.0065436806 -0.014095928 0.008171951 -0.0215869
-0.016416855 -0.0028445767 0.002502275 -0.026067559 -0.014484884 0.01985652 -0.017606804 0.008307658
00000000: d605 89bb b2ef e2bb 2c0c 0cbb 5432 c8bc
00000010: 876e c63b d80b acbc 365c 183b 7742 a4bc
00000020: 4f68 82bc 4744 4b3c 2837 9a3b 03f9 d43c
00000030: 61a3 073c e0eb 98bc 876e 1abb 1374 963c
00000040: a41a 2dbc 76f7 1f3b bd94 10bc db52 cf3c
00000050: 9ac0 433b 4093 c0bc 2501 94bc b870 4b3b
00000060: f6a6 e03c 4d76 423c ff54 4538 7e99 3d3c
00000070: aeed cabc 9333 85bc 2bf6 81bc bc98 fcbb
00000080: b7c6 d53c ee7a 90ba 5a26 8ebc e24f ae3c
00000090: 9a9f d6bb 0b27 9c3c cf73 aebc fb85 b73c
000000a0: 2117 6fbc acad 1cbb 4844 61bb b9ab 413c
000000b0: 410a d5ba 3722 afba 3bec 723c b7c6 92bc
000000c0: 1c1c 4cba 3c31 8c3c a9dd 553c d3f9 b7bc
000000d0: a5e4 3b3c 3abc d53c 2b4e 253b d8b5 5b3c
000000e0: f18f a1bb 1b93 edbb 74d4 a53c 9b1a 583c
000000f0: 853c 95bc 5dc2 e13b 61d9 bb3b 7e27 8a3c
00000100: 97c4 283b ba90 f0bb 0129 00bb 9188 4cbc
00000110: a8a9 d03c 873c 57bc 8a05 1abc 4474 213c
00000120: a44e 72bc d992 603b 03b4 09bc 76cf 853a
00000130: d00f c9bc bcec 70bc 8738 c4ba 2891 853b
00000140: ff64 fa3b a818 833b 1a6c 823c 3049 e73b
00000150: 980a 363c d219 393c 881a 963b e2da 6ebc
00000160: 4bb6 1fbc 20a3 573b 93e0 98bc 468b afbc
00000170: 74e4 41bc 8f58 47bc 5983 debc 8063 9d3c
00000180: d8ae 39bc eb23 cd3c f629 d7bb 822d 9c3b
00000190: 466f 6cbc dce5 e53b 1591 9bbb c73a adbc
000001a0: 0e1a 29bc d273 c23a d9f2 aa3c 796c cc3b
000001b0: abbd 9cbc 719f 513c 0603 5b3c 02a7 1b3c
000001c0: 8d72 0f3b c19d af3b 985a 90bc d404 883c
000001d0: 0087 c63c c59b b03c 36dd 0cbc ac47 823c
000001e0: 97d4 eebb c793 aabc bf38 013b ecbc 9c3c
000001f0: a398 033b 5532 9fb9 bd0b b23c 1c50 993b
00000200: b4c6 b8bc 865e 47bb 7efa 77bb 14ff c9bc
00000210: 4f88 a3bb 75ba 84bc 34cd 4ebc 91d4 613b
00000220: 1422 c1bb f9f1 ce3c 4c88 393c f628 bbbc
00000230: 701e 4dbc 98a1 c0bc a309 4dbc 0c68 bfbc
00000240: c9a8 cbbc 9853 153c 6fe9 fbba 8cd7 5db8
00000250: eead 13bc 4f48 9e3c 4fc5 a93c e9f3 4fbc
00000260: 1abe 173c f9de c53c 96d9 67bc 2e8c 9f3c
00000270: 9337 b5bc 2974 773c b6f0 03bc 9a9f a33c
00000280: 5564 9bbc 97c5 a3bc c9c1 a83b eb81 c53c
00000290: 00f1 75bc 3250 96bb 2989 babc 7ed5 80bc
000002a0: 5142 34bc f677 c0bc 8418 6c3c 15cc 19bc
000002b0: c1ff 04bc e613 a43c 8e0e 893b 0535 9bbc
000002c0: 42ec efbb afcb ca3b 87c3 c9bc 37ad ba3b
000002d0: 1fcb 4ebb 96da 713c 74be b93c fe45 983c
000002e0: e285 8cb9 5481 a7bb bd7a 603c 3515 bbbc
000002f0: e3b7 4d3b 49ae 473c 66ca ae3c d2f6 aabc
00000300: 5541 8b3c 30a1 6dbb 4d62 07bc 2fa0 8bbc
00000310: 38b7 293c 9052 afbc 5597 703c 1575 0bbc
00000320: ddc9 cdbc cbf8 30bc feec 99bc db4b a03c
00000330: bb84 e0bc b24d 973c 5ee8 90bc 1f36 793c
00000340: 8285 cfbc 4663 96bc 99f9 d73c acdd 923c
00000350: 0865 00bc 6bb5 833b 5e4b 5dbc 5812 df3b
00000360: 2f2d bcbc be4f 243c 0872 34bc 3703 50bb
00000370: 9491 a0bc 9c42 8dbc 0424 d43a f578 1a3c
00000380: dfa6 b0bc 3489 253c af62 17bb 56e6 f23b
00000390: 8d57 b53c fdb7 23bc 4590 e1bc 3a81 90ba
000003a0: 3520 b83c c9b3 92bc 95f8 b5bc 7686 a13c
000003b0: f241 a23b 6923 59bc c3b1 523c 6a15 e53a
000003c0: a745 a0bc 3efe 34bc 601a a2bc 0ede 683b
000003d0: 5f6c d6bb 9bf2 66bc a6e3 053c 03d7 b0bc
000003e0: a47c 86bc 146c 3abb 35fd 233b a28b d5bc
000003f0: 0252 6dbc 24aa a23c 253c 90bc d81c 083c

layer1.bias f4 [128]
-0.0076203635 -0.019168975 -0.019362047 -0.011716228 0.009008225 0.017296892 0.012947112 -0.022108829
-0.006038068 -0.00081727724 -0.0096503785 -0.008439422 0.010306336 0.012450113 -0.012420794 0.005316033
0.020948818 -0.01405516 0.008966015 -1.6500322e-05 0.012715008 0.015543988 0.016100628 0.02273363
-0.006490648 -0.025872609 -2.8937116e-05 0.010232355 0.011673841 0.023631265 -0.012853381 0.024156787
-0.025152873 -0.009806035 -7.2610615e-05 -0.01227264 0.0032600919 0.0013782589 -0.0014806277 0.020932425
0.01011481 0.013273637 0.017609894 -0.021815905 0.013081 -0.00847224 -0.006285765 -0.013661793
0.0063287625 -0.0023989151 0.016525611 0.017339798 -0.012342336 -0.01335114 -0.016396098 0.016697746
-0.0058800387 0.015536181 0.0068909274 -0.008374704 -0.0110736685 0.020511312 -0.0066776406 -0.02118189
0.022526205 -0.023394084 -0.014978832 0.022416456 0.00063345657 0.0067821145 0.01890021 -0.0167935
-0.001651818 0.0064335843 0.023301752 0.018340126 -0.019778633 0.0021946377 -0.025554175 -0.0034937838
-0.01511575 0.0041837334 0.016602589 0.011349178 0.013769257 -0.021697665 -0.000118223055 0.019516112
0.0066390755 -0.021710929 -0.0055950116 0.021147836 0.016645981 0.01883921 0.011892884 0.0074704294
0.024973754 -0.0040092696 -0.01365909 0.005844018 -0.005371419 -0.012312224 0.015335768 0.025406413
-0.011152594 -0.017238028 0.008616411 -0.014780219 -0.0139384875 -0.0074052494 -0.01558444 0.016464932
0.013950889 -0.021085806 -0.0024000045 -0.013777652 -0.013669844 -0.0174867 0.0062771915 0.0055903434
-0.013649892 -0.008354571 -0.002013634 0.0051146094 0.015825633 0.00878743 -0.02439526 -0.016346928
00000000: 3eb4 f9bb 4108 9dbc 289d 9ebc 6cf5 3fbc
00000010: 3c97 133c 36b2 8d3c 2020 543c 931d b5bc
00000020: fcda c5bb 8c3e 56ba 9f1c 1ebc 8045 0abc
00000030: e8db 283c 8ffb 4b3c 9680 4bbc 1e32 ae3b
00000040: db9c ab3c 9d47 66bc 31e6 123c 2c6a 8ab7
00000050: 9c52 503c 36ac 7e3c 77e5 833c e13b ba3c
00000060: 80af d4bb cbf2 d3bc fcbd f2b7 9ca5 273c
00000070: a343 3f3c 5b96 c13c fd96 52bc 74e4 c53c
00000080: 660d cebc 7ea9 20bc 8746 98b8 2f13 49bc
00000090: 44a7 553b b2a6 b43a 9f11 c2ba 7a7a ab3c
000000a0: 97b8 253c ab79 593c a042 903c 45b7 b2bc
000000b0: b151 563c 26cf 0abc d2f8 cdbb b7d5 5fbc
000000c0: 8261 cf3b 1e37 1dbb b860 873c 310c 8e3c
000000d0: 8237 4abc bdbe 5abc 1c51 86bc b6c9 883c
000000e0: 57ad c0bb 778b 7e3c 4acd e13b 0e36 09bc
000000f0: 556e 35bc 5707 a83c 1cd0 dabb a585 adbc
00000100: e088 b83c f3a4 bfbc c669 75bc b7a2 b73c
00000110: 8d0e 263a 803c de3b 9dd4 9a3c 8692 89bc
00000120: d181 d8ba d1d0 d23b 51e3 be3c 083e 963c
00000130: cd06 a2bc e9d3 0f3b fd56 d1bc f7f7 64bb
00000140: 0da8 77bc b317 893b 2702 883c e7f1 393c
00000150: 7398 613c 4dbf b1bc 85ee f7b8 41e0 9f3c
00000160: 9a8c d93b 1edb b1bc 5c56 b7bb 3a3e ad3c
00000170: 275d 883c b054 9a3c 5fda 423c 81ca f43b
00000180: c295 cc3c 3160 83bb 60ca 5fbc 2d7f bf3b
00000190: ba02 b0bb 36b9 49bc e042 7b3c 1c21 d03c
000001a0: 5fb9 36bc c436 8dbc d92b 0d3c bb28 72bc
000001b0: 415e 64bc bca7 f2bb e155 7fbc 77e1 863c
000001c0: 4592 643c 24bc acbc 6549 1dbb a9bb 61bc
000001d0: 7bf7 5fbc 4540 8fbc e6b0 cd3b 332f b73b
000001e0: cca3 5fbc 9ce1 08bc 2cf7 03bb 7498 a73b
000001f0: c2a4 813c 27f9 0f3c 91d8 c7bc fee9 85bc

layernorm1.weight f4 [128]
0.99763554 0.9987425 0.9937377 1.0444297 1.0221918 0.99020314 0.9910104 1.0647153
0.9961096 0.9799027 1.0022999 0.99828726 1.0063232 1.0001837 1.004132 0.9951194
1.0137116 0.9954477 0.9956479 0.99335086 0.993015 0.99931896 0.9911176 0.9940639
0.99864537 0.9932596 0.991925 0.99633557 1.0183873 1.0006038 1.013774 0.9852945
0.9954218 0.9993221 1.0040286 0.98086596 0.9955766 0.9954334 0.98368335 0.99248123
1.0103467 1.0022488 0.98770565 0.99236035 0.9920074 1.0046551 0.99802625 0.9904453
1.0009737 0.9813772 1.0062557 0.9960186 0.97560066 1.004466 0.995878 0.9841953
1.0086974 1.0020167 0.9974005 1.0016463 0.99746 0.976344 1.0017453 0.99056756
0.9892055 1.0013669 1.0099624 0.9971474 0.9951141 1.0149187 1.0052686 1.0173643
1.0137651 0.9968153 0.9904418 0.99196756 1.0004917 0.9931264 0.9987006 1.0152992
0.9918429 1.0061933 1.0153881 0.9950625 0.9785634 0.99961555 1.009803 0.9973793
0.9768565 1.0074661 0.9882971 0.99638766 1.0051483 1.009523 0.9887424 1.0406542
0.9966155 0.99954987 0.9987286 0.9917047 0.9921652 1.0331403 1.004057 1.0101209
0.9958223 0.9943063 0.99387866 1.007383 0.99851716 0.9986182 0.9998332 0.997183
1.0068305 0.9716809 0.9889744 0.99472636 0.9956705 1.0009699 0.9967253 0.99687886
1.0036235 0.99285924 1.001081 0.9976794 1.0216591 0.992581 0.9981565 0.9930998
00000000: 0b65 7f3f 97ad 7f3f 9865 7e3f dfaf 853f
00000010: 2ed7 823f f47d 7d3f dcb2 7d3f 9748 883f
00000020: 0a01 7f3f e7da 7a3f 5d4b 803f c18f 7f3f
00000030: 33cf 803f 0506 803f 6687 803f 25c0 7e3f
00000040: 4dc1 813f a9d5 7e3f c8e2 7e3f 3e4c 7e3f
00000050: 3b36 7e3f 5ed3 7f3f e2b9 7d3f f97a 7e3f
00000060: 39a7 7f3f 4346 7e3f ccee 7d3f d90f 7f3f
00000070: 845a 823f c913 803f 59c3 813f 433c 7c3f
00000080: f7d3 7e3f 93d3 7f3f 0284 803f 081a 7b3f
00000090: 1cde 7e3f b9d4 7e3f acd2 7b3f 4013 7e3f
000000a0: 0a53 813f b049 803f 47da 7c3f 540b 7e3f
000000b0: 32f4 7d3f 8a98 803f a67e 7f3f d38d 7d3f
000000c0: e81f 803f 893b 7b3f fdcc 803f 13fb 7e3f
000000d0: f7c0 793f 5892 803f dcf1 7e3f 39f4 7b3f
000000e0: ff1c 813f 1542 803f a455 7f3f f235 803f
000000f0: 8a59 7f3f aef1 793f 3139 803f d695 7d3f
00000100: 923c 7d3f ca2c 803f 7346 813f 0d45 7f3f
00000110: ccbf 7e3f dbe8 813f a4ac 803f fe38 823f
00000120: 0ec3 813f 4a2f 7f3f 988d 7d3f 96f1 7d3f
00000130: 1d10 803f 883d 7e3f d8aa 7f3f 53f5 813f
00000140: 6be9 7d3f f1ca 803f 3df8 813f 6abc 7e3f
00000150: 2283 7a3f cee6 7f3f 3a41 813f 4054 7f3f
00000160: 4513 7a3f a6f4 803f 0a01 7d3f 4313 7f3f
00000170: b3a8 803f 0d38 813f 391e 7d3f 2834 853f
00000180: 3222 7f3f 80e2 7f3f adac 7f3f 5ce0 7d3f
00000190: 8afe 7d3f f13d 843f f184 803f a44b 813f
000001a0: 36ee 7e3f dc8a 7e3f d56e 7e3f edf1 803f
000001b0: d29e 7f3f 71a5 7f3f 12f5 7f3f 6347 7f3f
000001c0: d2df 803f 14c0 783f 6d2d 7d3f 63a6 7e3f
000001d0: 43e4 7e3f c81f 803f 6429 7f3f 7433 7f3f
000001e0: bc76 803f 062c 7e3f 6c23 803f eb67 7f3f
000001f0: bac5 823f ca19 7e3f 2f87 7f3f ca3b 7e3f

layernorm1.bias f4 [128]
-0.005084091 -0.004705554 -0.0075779227 0.00067374937 0.0072220117 0.0007524236 -0.0057024905 -0.0045043696
-0.0052498835 -0.0028357175 -0.005666831 -0.0069999364 -0.00044920915 -0.0074582305 -0.004084862 -0.0010440131
0.005248788 -0.0045311325 -0.0024195015 -0.013758642 -0.00014865762 0.0020598227 -0.001939214 -0.0062076156
-0.003215534 -0.008710162 -0.0066446597 0.0004552226 0.004592112 0.0010630472 0.0012756705 -0.010510756
-0.005408558 -0.0023770728 0.0031161248 -0.015432849 0.0012626975 5.98369e-05 -0.00025675196 -0.00749493
0.00090794236 0.0022424124 -0.0007109873 -0.005394074 -0.0075829728 0.005524244 0.00094663823 -0.0052019595
0.002087995 -0.018399157 0.00076635374 -0.008018968 0.003641065 0.00048072237 -0.0068484875 -0.015198809
0.00625107 0.002900897 -0.0024278406 -0.002486099 0.00042781088 -0.002818983 -0.0057194494 -0.0020077932
-0.006346171 0.0037521496 0.007891162 -0.0040242667 0.0025723719 0.003322058 0.013032353 0.0019775457
0.009513975 -0.0048565404 -0.0012621355 -0.009233972 0.006064522 -0.0073791277 -0.002886629 0.0020481446
-0.00082428847 -0.0059565767 0.001067376 -0.00033507295 -0.00016696268 -0.0013328299 0.00782401 -0.0028390256
-0.0013508359 -0.0017915276 0.0003720115 -0.0064104903 0.008268322 -0.004681594 -0.002609983 0.0011510062
-0.0033391144 -0.00010204756 -0.0033567275 -0.0052545792 -0.0001504315 0.019520666 0.00023077455 0.0031990588
0.00039032855 -0.0024996225 0.00029719563 0.004199136 0.0008326121 -0.0047802324 0.0013633823 -0.0041118953
-0.004370428 -0.027645435 0.0026037407 -0.00390677 -0.0038776062 -0.0020038593 -0.007320812 -0.005619063
0.0018210951 -0.0022371581 0.0011770509 -0.004616787 0.002227855 0.002880073 -0.0035946365 -0.0027689275
00000000: 7298 a6bb 0c31 9abb 3950 f8bb 8e9e 303a
00000010: a0a6 ec3b 4b3e 453a f5db babb 6499 93bb
00000020: 3707 acbb 72d7 39bb d3b0 b9bb b95f e5bb
00000030: d583 ebb9 2c64 f4bb 4eda 85bb 44d7 88ba
00000040: 06fe ab3b e579 94bb 8090 1ebb ed6b 61bc
00000050: fae0 1bb9 17fe 063b 392d feba 4169 cbbb
00000060: b5bb 52bb 11b5 0ebc 72bb d9bb f1aa ee39
00000070: 6d79 963b f255 8b3a 6634 a73a 4e35 2cbc
00000080: 463a b1bb aac8 1bbb e637 4c3b 0fda 7cbc
00000090: 1981 a53a 62f9 7a38 aa9c 86b9 0898 f5bb
000000a0: fb02 6e3a 70f5 123b 8d61 3aba c6c0 b0bb
000000b0: 967a f8bb b804 b53b d127 783a 3375 aabb
000000c0: bed6 083b d4b9 96bc 21e5 483a fd61 03bc
000000d0: ef9e 6e3b 7709 fc39 4769 e0bb 6d04 79bc
000000e0: c7d5 cc3b fa1c 3e3b 681c 1fbb d2ed 22bb
000000f0: ce4b e039 b0be 38bb 386a bbbb 2e95 03bb
00000100: 8af3 cfbb a0e6 753b ef49 013c ffdd 83bb
00000110: 3d95 283b e2b6 593b a685 553c b699 013b
00000120: 81e0 1b3c 9d23 9fbb 3d6e a5ba 164a 17bc
00000130: e6b8 c63b 9ccc f1bb 992d 3dbb 2a3a 063b
00000140: 1015 58ba 632f c3bb 32e7 8b3a bbac afb9
00000150: b412 2fb9 5ab2 aeba 4730 003c f20e 3abb
00000160: 880e b1ba b1d1 eaba 8a0a c339 170f d2bb
00000170: db77 073c 0f68 99bb 400c 2bbb 5cdd 963a
00000180: 0bd5 5abb 5e02 d6b8 8bfc 5bbb 9b2e acbb
00000190: 26bd 1db9 cee9 9f3c 12fc 7139 4da7 513b
000001a0: 03a5 cc39 b5d0 23bb ecd0 9b39 e898 893b
000001b0: a743 5a3a 7fa3 9cbb 85b3 b23a 14bd 86bb
000001c0: cf35 8fbb ae78 e2bc 85a3 2a3b 5d04 80bb
000001d0: 701f 7ebb 2e53 03bb 6ce3 efbb 1e20 b8bb
000001e0: d0b1 ee3a 499d 12bb 4647 9a3a 6b48 97bb
000001f0: 3401 123b 9bbf 3c3b fe93 6bbb e576 35bb

blocks.0.fcn_layer.weight f4 [128, 128]
0.029508226 0.07563625 -0.06541142 0.007776591 -0.058975015 -0.016386038 -0.05592314 -0.07411417
0.03842203 0.064612485 0.07275353 0.08549663 -0.013185133 -0.056930337 0.032105867 -0.08394422
0.06176115 -0.08046634 0.05532618 0.08008476 0.01361807 0.0089432895 -0.015418867 -0.03956361
0.008937104 -0.009610243 -0.03110752 0.044584844 -0.06459168 -0.06598055 -0.04257429 0.03581025
0.036888286 -0.0013202645 0.053354483 0.07292898 0.043243606 -0.006590181 0.07172285 -0.03315785
-0.04285425 -0.07117448 0.037433103 -0.084721155 0.03519899 -0.037673447 0.07606336 0.036097936
-0.0030862298 0.033898886 0.06499104 0.0048413877 -0.026230143 0.033368006 0.083083145 0.04360049
-0.056773294 -0.05733573 0.028842123 0.020926272 -0.0023022923 -0.042758502 -0.003528102 0.08051502
-0.024198363 -0.04504141 -0.026434416 0.061553426 -0.05543104 -0.021005293 0.0684447 0.04737166
0.040292334 0.06555626 -0.018087162 -0.07020772 -0.09053892 0.0075308485 -0.056066185 -0.073719434
0.018943325 -0.0099103125 0.032154333 -0.052831803 -0.0029039506 0.04350722 0.08887335 -0.07828744
0.0699031 0.09775029 -0.01764841 0.041539088 -0.051996652 0.004972956 -0.07990164 0.082348414
-0.032445986 -0.019205894 -0.004257576 0.030625049 0.02978318 0.05545652 0.071589656 -0.04455361
-0.06117 -0.05616359 -0.0782494 0.10392516 -0.06507451 0.081751205 -0.02501278 0.047411814
-0.024100088 -0.010181925 -0.05850376 -0.020506663 -0.021644387 -0.08493889 0.072574556 -0.009517065
-0.04011086 0.04684724 -0.073754154 0.040913444 -0.009350105 -0.07201251 -0.070242085 0.03148417
-0.08466159 0.0720019 0.06212709 -0.0009266309 0.038878072 -0.088940986 -0.038051233 0.13360582
0.014813045 0.02699616 0.09561195 0.07319669 -0.10392159 0.05133347 -0.018566528 -0.07829667
0.04530528 -0.019254325 0.04445484 0.08415141 -0.061929744 -0.043866113 0.024725718 0.004552009
-0.0113223605 0.1069445 -0.06060813 -0.05573891 -0.0398952 0.023738064 0.023382837 0.0008958159
-0.062827274 0.07555842 -0.04458139 -0.021853115 -0.05817787 -0.00577478 -0.026859758 -0.016276963
0.043072443 -0.089668214 -0.02179176 0.06521851 0.027680239 -0.003824026 -0.06193523 0.015277373
0.012077752 -0.008696736 0.047644004 0.07956136 -0.09726507 -0.052724767 -0.05103467 -0.06450303
0.11660484 0.069329746 -0.0414649 0.035617363 0.062873155 -0.0070556994 -0.04673682 0.008991925
-0.002237081 -0.050553527 0.0032832033 0.020372972 -0.0061673294 0.056154057 -0.05326756 0.06283379
0.06907283 -0.0007309399 -0.009995938 -0.059064806 -0.051927187 0.063079454 0.07765076 0.00695638
0.03495756 0.0647946 -0.047606338 0.05599204 0.03477431 0.062621586 -0.0032858152 -0.0793462
0.0139530515 0.021152558 -0.0023133757 -0.075831555 0.08666828 -0.01235007 -0.079522714 0.033181272
0.067521736 -0.08745554 0.06777678 0.04432725 -0.052021183 -0.03776855 0.067114905 -0.036096126
0.0014005661 -0.037678085 0.032021426 0.10058532 -0.060264733 0.07182349 0.012760031 0.036565337
0.10270015 -0.00010450381 0.07766057 -0.0832739 -0.07337224 -0.010110718 0.04043359 -0.085089356
0.033014912 0.037174318 -0.05356242 -0.036544897 0.011702868 0.043969 0.036881335 -0.029832458
00000000: 3cbb f13c 2ee7 9a3d 6cf6 85bd c6d2 fe3b
00000010: c98f 71bd 033c 86bc aa0f 65bd 2cc9 97bd
00000020: 6b60 1d3d 8d53 843d ceff 943d db18 af3d
00000030: 7506 58bc c92f 69bd 7181 033d f2ea abbd
00000040: 42f9 7c3d 89cb a4bd b49d 623d 7b03 a43d
00000050: 531e 5f3c e086 123c 6a9f 7cbc 740d 22bd
00000060: ee6c 123c 4874 1dbc 33d5 febc 999e 363d
00000070: a548 84bd d020 87bd 6162 2ebd c5ad 123d
00000080: 2c18 173d ba0c adba 3b8a 5a3d ca5b 953d
00000090: 3520 313d 72f2 d7bb 6ee3 923d 87d0 07bd
000000a0: f087 2fbd edc3 91bd 7453 193d 4982 adbd
000000b0: d12c 103d 794f 1abd 1bc7 9b3d 6edb 133d
000000c0: 5842 4abb 8fd9 0a3d 061a 853d 81a4 9e3b
000000d0: 99e0 d6bc e4ac 083d 7f27 aa3d 6d96 323d
000000e0: 1d8b 68bd dfd8 6abd 5146 ec3c 936d ab3c
000000f0: 0ee2 16bb 8a23 2fbd bb37 67bb 0fe5 a43d
00000100: a53b c6bc 577d 38bd fd8c d8bc 721f 7c3d
00000110: a80b 63bd 4b13 acbc bc2c 8c3d c908 423d
00000120: 9309 253d 5c42 863d 872b 94bc 11c9 8fbd
00000130: 786c b9bd 56c5 f63b a8a5 65bd 37fa 96bd
00000140: 082f 9b3c dd5e 22bc 43b4 033d 2966 58bd
00000150: 3550 3ebb a034 323d 3b03 b63d 2a55 a0bd
00000160: 5b29 8f3d 4e31 c83d 6693 90bc e424 2a3d
00000170: 71fa 54bd 2ef4 a23b 79a3 a3bd 49a6 a83d
00000180: 15e6 04bd ae55 9dbc 2383 8bbb 62e1 fa3c
00000190: dbfb f33c 6026 633d 999d 923d d97d 36bd
000001a0: 658d 7abd cb0b 66bd 3941 a0bd b7d6 d43d
000001b0: c945 85bd 2d6d a73d 9ae7 ccbc e432 423d
000001c0: 8c6d c5bc 17d2 26bc a3a1 6fbd 97fd a7bc
000001d0: 924f b1bc 71f4 adbd f8a1 943d 77ed 1bbc
000001e0: 494b 24bd e4e2 3f3d 6b0c 97bd db94 273d
000001f0: 2f31 19bc 4b7b 93bd 15db 8fbd 8cf5 003d
00000200: 0e63 adbd bb75 933d fa78 7e3d 26e9 72ba
00000210: 9d3e 1f3d b126 b6bd 9cdb 1bbd f7cf 083e
00000220: 6ab2 723c 0d27 dd3c 33d0 c33d 25e8 953d
00000230: d8d4 d4bd 0b43 523d d518 98bc 015a a0bd
00000240: 0792 393d 3fbb 9dbc 4716 363d 9357 ac3d
00000250: 0baa 7dbd f4ac 33bd 978d ca3c 0529 953b
00000260: 6c81 39bc b805 db3d 3b40 78bd 7c4e 64bd
00000270: 2669 23bd 5476 c23c 5d8d bf3c 30d5 6a3a
00000280: 96ab 80bd 5fbe 9a3d fa9a 36bd 4e05 b3bc
00000290: eb4b 6ebd 5e3a bdbb ff08 dcbc 4457 85bc
000002a0: bb6c 303d f8a3 b7bd a284 b2bc 4891 853d
000002b0: abc1 e23c 839c 7abb ccaf 7dbd f24d 7a3c
000002c0: c3e1 453c c17c 0ebc 5c26 433d 11f1 a23d
000002d0: e932 c7bd edf5 57bd bb09 51bd 2a1a 84bd
000002e0: 85ce ee3d c1fc 8d3d 19d7 29bd 83e3 113d
000002f0: a4c3 803d 7f33 e7bb 1c6f 3fbd de52 133c
00000300: fe9b 12bb 3711 4fbd 032b 573b 38e5 a63c
00000310: 4f17 cabb cc01 663d 162f 5abd 01af 803d
00000320: 0e76 8d3d 8c9c 3fba 01c6 23bc f0ed 71bd
00000330: 9ab1 54bd cd2f 813d 5d07 9f3d 58f2 e33b
00000340: a92f 0f3d 08b3 843d ddfe 42bd e957 653d
00000350: 826f 0e3d bf3f 803d d556 57bb 4380 a2bd
00000360: 579b 643c 2148 ad3c 019c 17bb 934d 9bbd
00000370: 247f b13d f357 4abc cedc a2bd 16e9 073d
00000380: d648 8a3d e41b b3bd 8dce 8a3d 7e90 353d
00000390: 2a14 55bd 32b3 1abd 8a73 893d 88d9 13bd
000003a0: 3393 b73a 5654 1abd e628 033d adff cd3d
000003b0: 27d8 76bd 3218 933d 730f 513c 89c5 153d
000003c0: 7554 d23d 0e29 dbb8 810c 9f3d 828b aabd
000003d0: 2f44 96bd 6da7 25bc b19d 253d 5443 aebd
000003e0: a53a 073d 1944 183d 4564 5bbd 1ab0 15bd
000003f0: 63bd 3f3c d718 343d e210 173d 3363 f4bc

blocks.0.fcn_layer.bias f4 [128]
-0.01689957 0.031741343 -0.036408488 0.049626265 0.07607653 -0.014286199 0.06217161 -0.040531438
-0.07024724 0.057572085 -0.0018315351 0.08880912 -0.02765904 -0.077569395 -0.06133054 0.04713382
-0.079753645 -0.01737968 -0.013654474 0.08022751 -0.022878224 0.008712139 -0.020700393 -0.00087231805
0.0062407274 -0.046745252 0.06949521 0.02054728 0.010366687 0.054711044 -0.056111094 0.07032956
0.002037444 0.06889454 0.019822638 0.027322372 0.02264053 -0.057295 0.077422254 -0.0014507481
0.04800503 -0.08075826 0.053209256 -0.023111332 -0.041615944 -0.06624677 -0.07832248 0.028031005
0.002164502 0.015226877 -0.023858842 -0.061741866 0.08336995 0.046908174 0.05817401 -0.0592184
-0.012029319 0.018031638 0.0638772 0.03933917 -0.074845195 -0.02461232 0.06997103 -0.055848096
-0.021220665 0.038180012 0.04122545 -0.068666734 -0.07637634 0.06992367 0.079593174 -0.031852994
-0.07079241 -0.08439512 -0.07147506 -0.011205954 -0.060630333 0.04974059 -0.022018505 -0.043082267
0.0042488994 0.039909147 0.04146884 0.03301608 -0.011184169 0.018128095 0.017120218 0.04859787
-0.0845766 0.064058185 -0.05495359 -0.045817662 0.077958286 -0.089474194 0.04877578 -0.064055614
-0.046084847 0.072274595 -0.038281992 -0.010442887 0.0025460103 0.004248462 0.021410752 0.05492199
0.07752729 -0.046988465 -0.019829897 0.087110974 0.05929077 0.06757779 0.0865641 0.021322694
-0.002110688 -0.013371371 -0.064346746 0.009831362 -0.032877244 -0.06335539 0.038890187 0.01645247
-0.0007535615 0.05612495 0.053288456 -0.010618502 -0.019545399 0.057624273 -0.043483682 -0.0131812785
00000000: f870 8abc 3603 023d 1121 15bd e944 4b3d
00000010: 03ce 9b3d a910 6abc a8a7 7e3d 4b04 26bd
00000020: c9dd 8fbd b5d0 6b3d 1f10 f0ba 8ee1 b53d
00000030: 3695 e2bc b4dc 9ebd bb35 7bbd 640f 413d
00000040: e155 a3bd d55f 8ebc 04b7 5fbc 524e a43d
00000050: 1d6b bbbc 5cbd 0e3c df93 a9bc 46ac 64ba
00000060: 047f cc3b f377 3fbd 8153 8e3d c552 a83c
00000070: 09d9 293c b018 603d bfd4 65bd f208 903d
00000080: a386 053b 9518 8d3d 1663 a23c 2bd3 df3c
00000090: a278 b93c 29ae 6abd 8f8f 9e3d 0727 beba
000000a0: eca0 443d 9664 a5bd f3f1 593d fa53 bdbc
000000b0: 7b75 2abd 63ac 87bd 8967 a0bd 47a1 e53c
000000c0: 51da 0d3b 277a 793c 9e73 c3bc 0ae5 7cbd
000000d0: ddbd aa3d c922 403d df47 6e3d fe8e 72bd
000000e0: 9f16 45bc 16b7 933c 0dd2 823d 1c22 213d
000000f0: 7048 99bd c79f c9bc f94c 8f3d f9c0 64bd
00000100: f6d6 adbc a562 1c3d 04dc 283d 25a1 8cbd
00000110: 336b 9cbd 2434 8f3d bf01 a33d 4978 02bd
00000120: 9cfb 90bd 59d7 acbd 8461 92bd 2d99 37bc
00000130: 8357 78bd cabc 4b3d 2760 b4bc 0877 30bd
00000140: 5a3a 8b3b c677 233d 3bdb 293d de3b 073d
00000150: ce3d 37bc 5f81 943c b33f 8c3c 8f0e 473d
00000160: 7f36 adbd f030 833d 0417 61bd 4dab 3bbd
00000170: 98a8 9f3d 3f3e b7bd 1dc9 473d 972f 83bd
00000180: 77c3 3cbd b404 943d 94cd 1cbd a518 2bbc
00000190: f7da 263b af36 8b3b 9a65 af3c e1f5 603d
000001a0: a1c6 9e3d fa76 40bd 4f72 a2bc 3d67 b23d
000001b0: e1da 723d 3966 8a3d 8548 b13d eeac ae3c
000001c0: 7853 0abb 9813 5bbc 3ac8 83bd b913 213c
000001d0: 4aaa 06bd 79c0 81bd 514b 1f3d 55c7 863c
000001e0: a88a 45ba 47e3 653d ff44 5a3d 3af9 2dbc
000001f0: ac1d a0bc 6e07 6c3d f21b 32bd 4af6 57bc

blocks.0.layer_norm.weight f4 [128]
1.0076988 1.0006089 1.0115757 1.0573007 1.0086656 1.0153579 0.9882633 1.0701993
1.0218533 1.0018705 1.0018998 1.0493529 1.0766301 1.0018 1.0416906 1.075968
1.0958332 1.0126601 1.0708249 0.99241984 1.0135697 0.9900192 1.0008847 1.0585179
1.0041271 0.97653234 1.0043722 1.0582217 1.0216984 0.99842465 1.0961168 1.071916
1.0751592 1.0785763 1.0756379 1.0141408 1.0253594 1.0508047 1.000339 1.0366505
1.0271562 1.0120953 0.97355616 1.037027 1.0302836 1.0150471 1.0649519 1.0824143
1.0838467 1.0441557 1.0054963 1.0802402 1.0224034 1.0072182 1.0757247 1.0563437
1.0094603 1.0287615 0.9545842 1.0503614 1.0900933 1.001386 1.0761623 1.0128134
1.0890471 1.054574 1.0372552 1.0113407 1.0419129 1.0112661 1.0594225 1.0588362
1.0218604 1.0426118 1.0152581 0.9921088 1.0144957 1.0322518 1.0643147 0.992228
1.0931641 1.0350825 1.0375793 1.0030459 1.0685173 1.0676489 1.0573398 1.0030831
1.0627443 1.0420088 1.0680254 1.0506561 1.003872 0.99988854 1.0761532 1.0931188
1.0521172 1.0747799 1.0764335 0.9924341 1.121934 0.99885345 1.0580552 1.0643681
1.0580037 0.99789065 1.0746645 0.99848294 0.99889404 1.0955778 1.0967565 1.0000209
1.0728124 1.0684086 0.9822359 1.0163314 1.0368218 1.0995001 1.0561438 1.0785389
1.0057645 0.99653655 1.0597643 0.9591288 1.0148337 1.0316166 1.0321509 1.0630542
00000000: 46fc 803f f413 803f 507b 813f a155 873f
00000010: f41b 813f 3ff7 813f d3fe 7c3f 4afc 883f
00000020: 17cc 823f 4b3d 803f 413e 803f 3251 863f
00000030: 04cf 893f fb3a 803f 1e56 853f 52b9 893f
00000040: 4344 8c3f d99e 813f ca10 893f 3a0f 7e3f
00000050: a7bc 813f e671 7d3f fd1c 803f 847d 873f
00000060: 3d87 803f 06fe 793f 458f 803f cf73 873f
00000070: 03c7 823f c298 7f3f 8e4d 8c3f 8b34 893f
00000080: d19e 893f ca0e 8a3f 81ae 893f 5ecf 813f
00000090: fa3e 833f c580 863f 1c0b 803f f7b0 843f
000000a0: db79 833f 578c 813f fa3a 793f 4dbd 843f
000000b0: 55e0 833f 10ed 813f 5850 883f 8d8c 8a3f
000000c0: 7dbb 8a3f e5a6 853f 1ab4 803f 5045 8a3f
000000d0: 1dde 823f 87ec 803f 59b1 893f 4536 873f
000000e0: ff35 813f 75ae 833f a15f 743f 3e72 863f
000000f0: 2d88 8b3f 6b2d 803f b0bf 893f dfa3 813f
00000100: e565 8b3f 48fc 863f c7c4 843f 9d73 813f
00000110: 675d 853f 2b71 813f 289b 873f f287 873f
00000120: 52cc 823f 4e74 853f faf3 813f d8fa 7d3f
00000130: ffda 813f d420 843f 773b 883f a702 7e3f
00000140: cdec 8b3f 957d 843f 66cf 843f cf63 803f
00000150: 2dc5 883f b8a8 883f e956 873f 0765 803f
00000160: 0108 883f 8b60 853f 0eb5 883f e67b 863f
00000170: e17e 803f b2f8 7f3f 63bf 893f 51eb 8b3f
00000180: c7ab 863f 6392 893f 93c8 893f 2910 7e3f
00000190: 899b 8f3f dcb4 7f3f 5a6e 873f 373d 883f
000001a0: aa6c 873f c375 7f3f 9b8e 893f 949c 7f3f
000001b0: 85b7 7f3f e53b 8c3f 8462 8c3f af00 803f
000001c0: eb51 893f 9dc1 883f d073 7b3f 2617 823f
000001d0: 94b6 843f 6bbc 8c3f b82f 873f 900d 8a3f
000001e0: e4bc 803f 051d 7f3f 5ba6 873f 7789 753f
000001f0: 12e6 813f 030c 843f 851d 843f 2912 883f

blocks.0.layer_norm.bias f4 [128]
0.0066467514 -0.007449404 0.014089632 0.054951183 0.011863531 0.0042449282 -0.005015737 0.025030285
0.007820461 0.004766253 0.018222753 0.05378273 0.06052068 -0.00281982 0.05818957 0.060599446
0.076141514 0.008782886 0.038281586 -0.008553987 0.007117626 -0.008266899 0.0010580672 0.054342497
0.00094609614 -0.020317188 0.00900796 0.056863915 0.011096623 -0.003777497 0.078434974 0.04620506
0.04309986 0.061249655 0.03189146 0.009563686 0.0054250085 0.05267436 -0.0005753189 0.015939135
0.013284315 0.0017268491 -0.030869288 0.058113195 0.007904776 0.005116273 0.032588653 0.06775593
0.025509307 0.014956807 0.002568838 0.03458948 0.021315642 0.007113107 0.067919336 0.025131552
0.00685658 0.010225376 -0.06289365 0.055013143 0.07123533 0.00018598359 0.058540877 0.007416051
0.068283506 0.031136043 0.010406713 0.008215472 0.05571838 0.0035361957 0.054346126 0.021158423
0.013713892 0.052846838 0.01754443 -0.004989263 0.008219762 0.014397534 0.055950865 -0.005955327
0.043774232 0.01752679 0.05424091 -0.0004676438 0.059108958 0.01773191 0.055625148 0.005573707
0.011952821 0.009698868 0.054692008 0.052978355 0.0034247453 0.00046376785 0.06634528 0.055274814
0.023709616 0.06329467 0.071943216 -0.003600195 0.09472413 -0.0020319005 0.031455185 0.018478353
0.019668525 -0.0053175515 -0.008514666 -0.003843537 -0.0053844317 0.06713894 0.07023434 0.005687661
0.06477986 0.048863046 -0.009269654 0.0058499463 -0.00014930127 0.06667672 0.05767761 0.030239437
0.016594797 -0.006249428 0.05500262 -0.038607158 0.011452986 0.017797899 0.0134715475 0.036695592
00000000: fecc d93b 211a f4bb 33d8 663c 7e14 613d
00000010: 415f 423c 0a19 8b3b 0d5b a4bb 500c cd3c
00000020: 6421 003c 3a2e 9c3b e247 953c 484b 5c3d
00000030: 88e4 773d bbcc 38bb 3058 6e3d 2037 783d
00000040: 15f0 9b3d 18e6 0f3c 27cd 1c3d 0626 0cbc
00000050: f93a e93b e371 07bc d8ae 8a3a 3d96 5e3d
00000060: 7003 783a 3b70 a6bc 1f96 133c 23ea 683d
00000070: 9cce 353c e28f 77bb 84a2 a03d 8441 3d3d
00000080: 7b89 303d ebe0 7a3d 9fa0 023d 02b1 1c3c
00000090: 45c4 b13b 12c1 573d ffd0 16ba ca92 823c
000000a0: 75a6 593c 7157 e23a 97e1 fcbc 1a08 6e3d
000000b0: 0983 013c 69a6 a73b ae7b 053d 9fc3 8a3d
000000c0: e5f8 d03c 650d 753c f359 283b b3ad 0d3d
000000d0: 249e ae3c 1115 e93b 4b19 8b3d afe0 cd3c
000000e0: 29ad e03b 5688 273c 63ce 80bd 7655 613d
000000f0: d4e3 913d 9704 4339 8fc8 6f3d 5802 f33b
00000100: 39d8 8b3d 0411 ff3c eb80 2a3c 309a 063c
00000110: f538 643d 85bf 673b 0b9a 5e3d 6e54 ad3c
00000120: 3bb0 603c ed75 583d 56b9 8f3c f97c a3bb
00000130: 2eac 063c a2e3 6b3c bc2c 653d e724 c3bb
00000140: 9c4c 333d 5894 8f3c b72b 5e3d 172e f5b9
00000150: 3c1c 723d 8342 913c 32d7 633d a5a3 b63b
00000160: c4d5 433c 00e8 1e3c ba04 603d d5ff 583d
00000170: b171 603b de25 f339 09e0 873d d867 623d
00000180: ab3a c23c a3a0 813d f756 933d 40f1 6bbb
00000190: bafe c13d a229 05bb 27d7 003d ea5f 973c
000001a0: e31f a13c db3e aebb 1981 0bbc dae3 7bbb
000001b0: e36f b0bb 2480 893d 06d7 8f3d 8f5f ba3b
000001c0: 4eab 843d 9e24 483d bfdf 17bc e8b0 bf3b
000001d0: c18d 1cb9 ce8d 883d 5c3f 6c3d b2b8 f73c
000001e0: d0f1 873c 00c8 ccbb 6d4a 613d 8a22 1ebd
000001f0: 4ea5 3b3c e6cc 913c c4b7 5c3c 1e4e 163d

last_layer.weight f4 [1, 128]
0.04226825 0.07012146 0.024758324 -0.12341002 -0.024908308 0.09925042 -0.0039207884 0.108864404
0.027490353 0.002456355 0.006163675 -0.112738274 -0.15174541 -0.087894455 -0.06741983 -0.12072093
-0.11429606 0.043362062 0.07129839 -0.034012478 0.06680525 -0.0019465411 -0.060842317 -0.13026176
0.0380032 -0.0014467224 -0.01508268 -0.12493556 0.04230959 -0.06683127 -0.14553148 0.02864754
0.11681465 -0.11604375 0.09112014 0.06433864 0.058066197 -0.12402894 -0.02226549 0.09554442
0.039890807 0.036168937 0.038469605 -0.0611668 0.028930347 0.08591739 0.09819783 -0.16143966
0.16328074 0.08968891 0.06551802 0.1407475 0.04965701 0.008722094 -0.09699368 0.030380312
0.009878816 0.097665206 -0.02829213 -0.107992746 -0.117079586 -0.063145086 -0.14278796 0.034166034
-0.10203078 0.037120994 0.015120299 0.009213746 -0.08622012 0.049410984 -0.13651715 0.13643497
0.054119386 -0.114280045 0.010742573 -0.025239863 0.054417826 0.02998874 -0.1373968 -0.016257664
0.14855434 0.10345347 -0.08114705 0.067579836 -0.13150112 0.12768473 -0.11310788 -0.017819867
0.047425866 0.10922414 -0.1390458 -0.12783544 0.072052844 -0.012917134 -0.11995535 0.044243045
0.0937846 -0.11384495 -0.093789294 -0.020182692 -0.15110458 -0.009949376 0.12894915 0.13552076
0.104670905 -0.00026009337 0.069026925 0.054930173 0.08692839 -0.16541034 -0.10462455 -0.0041208714
-0.121291965 0.02056344 -0.018612746 0.074318945 0.11175175 -0.17157663 -0.09581966 0.12584718
-0.030965652 0.0076729623 -0.13356738 -0.0076505854 0.06903932 0.022993831 0.09195105 0.0321731
00000000: 7921 2d3d d79b 8f3d f8d1 ca3c 64be fcbd
00000010: 820c ccbc ce43 cb3d f579 80bb 4df4 de3d
00000020: 7333 e13c ccfa 203b a7f8 c93b 53e3 e6bd
00000030: 2663 1bbe 0202 b4bd 6813 8abd 893c f7bd
00000040: 0d14 eabd 6b9c 313d e404 923d ab50 0bbd
00000050: 31d1 883d 1523 ffba cb35 79bd 5763 05be
00000060: 3ea9 1b3d f39f bdba 581d 77bc 37de ffbd
00000070: d24c 2d3d d5de 88bd 3406 15be 3fae ea3c
00000080: 853c ef3d 58a8 edbd 329d ba3d fac3 833d
00000090: d2d6 6d3d e302 febd 1e66 b6bc cbac c33d
000000a0: 8b64 233d e125 143d 4e92 1d3d 0a8a 7abd
000000b0: 56ff ec3c 75f5 af3d f21b c93d 7050 25be
000000c0: 1133 273e d2ae b73d 502e 863d 1d20 103e
000000d0: 2665 4b3d 1de7 0e3c 9fa4 c6bd 22e0 f83c
000000e0: c2da 213c b204 c83d e6c4 e7bc 4d2b ddbd
000000f0: 6cc7 efbd 3652 81bd 0237 12be aff1 0b3d
00000100: 83f5 d0bd 2f0c 183d 21bb 773c 40f5 163c
00000110: 2d94 b0bd 2c63 4a3d 27cb 0bbe 9cb5 0b3e
00000120: 4aac 5d3d a80b eabd 9e01 303c d4c3 cebc
00000130: 3ae5 5e3d f2aa f53c bfb1 0cbe cb2e 85bc
00000140: a11e 183e 6adf d33d 6d30 a6bd 4c67 8a3d
00000150: 3ba8 06be c9bf 023e 1ba5 e7bd f8fa 91bc
00000160: a041 423d e8b0 df3d 0662 0ebe 4be7 02be
00000170: 7190 933d 63a2 53bc 27ab f5bd 3238 353d
00000180: 2412 c03d 8b27 e9bd 9a14 c0bd 2c56 a5bc
00000190: 29bb 1abe b502 23bc 3f0b 043e f4c5 0a3e
000001a0: b35d d63d 245d 88b9 fd5d 8d3d 76fe 603d
000001b0: 8307 b23d 5461 29be 6545 d6bd 6008 87bb
000001c0: ec67 f8bd a974 a83c c279 98bc 8834 983d
000001d0: 1ade e43d c9b1 2fbe 193d c4bd 15de 003e
000001e0: aeab fdbc 796d fb3b e3c5 08be c3b1 fabb
000001f0: 7d64 8d3d 8f5d bc3c d550 bc3d f1c7 033d
