wkey/openwakeword_models/hey_computer_personal.onnx (onnx, 205430 bytes, 9 tensors)

layer1.weight f4 [32, 1536]
00000000: f97e fd3c 7981 23bc 0870 fdbc 2290 3c3d
00000010: a851 7d3a e8c3 8c3b 51f8 213c 26dd 223c
00000020: a817 19bb d731 84bc ab39 8b3c b6a5 87bb
00000030: f2ff 9bbc 4b21 2abd c252 d3bb c6fe 073c
00000040: c63f 19bc 1925 1fbd 9e52 ac3c 26cc c4bc
00000050: de80 b03c dfb4 413c 4a78 1f3c 8a12 04b9
00000060: 8146 3cbd 2477 a13c 12df babc 0f18 1d3d
00000070: 099d 513c c23b d83c 0206 c3bb cc28 2238
00000080: 9af0 bfbb 5dd1 b5bb 28c4 62bc 5ea3 4e3c
00000090: 554f 453c e2f4 843b 5106 083c d50b 8b3c
000000a0: c585 98bc b714 98bb e7aa 6a3c 4f51 91bb
000000b0: 9f87 f0bc 7be9 c7bc 1d9e b4bc 428c 093d
000000c0: 6f97 1a3c 3c5a 55bb cff7 1f39 8f8f 193c
000000d0: 13bf d43c bca0 edbc 6311 27bc bd4a 90bc
000000e0: 33fd 9e3c 6b63 9bbb b099 c03b 1688 753c
000000f0: 0683 38bc c413 5fbc dfbd 9cbc aa69 853b
00000100: 9d3e d13b 2187 69bc a84b 5fbd c283 7fbc
00000110: ce79 07bc 08e7 7c3c 9867 54bb 19e3 2a39
00000120: d144 36bb ff0f a13b 505b f13c 0e5a 00bd
00000130: 5fdb 3b3c a8de 7abc f386 5f3c c4a6 5cbc
00000140: 1e2a 733c 7ded 07bc 04a6 633c 5b5c 0dbd
00000150: 5276 e63c ab41 223d c9f4 693b 3dcf c3bb
00000160: ab30 10bd f911 073d 89b1 3cbd 9a62 a53c
00000170: 9973 60bc aa02 75bc ee41 b43c 646e ceba
00000180: 60cb 5dbc 0c69 14bc cd58 42bd 9b26 ff3c
00000190: d6a5 d83b 8d94 f9bb 25e8 debc 6732 023c
000001a0: 7fce c3bb fcab 3e3c 8ab2 633c 08b9 b3bb
000001b0: 5c2c 86bc 5737 12bd 30a3 703c 6a47 373d
000001c0: 6879 bebc 7fa8 63bc f42b 8dbc 94e7 65bc
000001d0: a0a4 d6ba 3dbb 5a3c 1999 533b b3e0 483c
000001e0: f486 29bd 3fe8 f6bc c133 d13b ead6 2c3b
000001f0: 5cae adbc 3196 af39 6241 303c 0356 503c
00000200: 4bf9 093c 651e 163d b0d4 9d3a cad7 cabc
00000210: 3601 43bc a9ec fcbb 33d0 25bd 6acf f73b
00000220: 8da9 a73c 3d42 9339 0a95 393b e31d 4fbc
00000230: f719 be3b 78d3 9c39 adc7 cfbb 69a7 c73c
00000240: 8f1c a73c d178 d53c d2ab 99b9 07a1 9abc
00000250: 1824 c3bb 85f6 22bd db89 ed3b 33bd 77ba
00000260: 437e a3bc 354b da3c ce17 05bc 929d b83c
00000270: 58e0 07bc 0c28 173c d056 8fbb a50d 40bc
00000280: 4232 c03a 34d6 433c 326d 69bc 9588 b33a
00000290: 87f7 7e3c a002 973c 62b1 4fbd 0481 a9ba
000002a0: 3606 e73b e420 08bd f5c8 b93c 3e0c d0bc
000002b0: 1f0a 91bc 98a0 9d3c 8635 b6bb a681 01bc
000002c0: 3b85 dcba b730 ce3b 3d6a a1bc e802 f7bb
000002d0: e625 26bc 1150 603c 517f dd3c da5d af3b
000002e0: 9086 513c 1262 b73c b98e 3ebd 73e3 34bc
000002f0: c57c 70bc d1a6 643c e463 b7bc 87e5 08bc
00000300: fc57 18bd 1d41 2a3b e7fd 5e3c 7131 cd3b
00000310: c9d2 0f3c b0c3 533c c013 4fbb 8dec 053c
00000320: c64b 80b9 ce8a 1d3c 3c48 57bc 0fc0 87bc
00000330: 8812 88bb b18f a2bc c6d8 e03c 53d3 fd3c
00000340: 2229 4f3c 8e3d a5ba 48a4 9c3c dbc9 773c
00000350: 9440 8bbc 44a7 e83a 0343 6ebc d38c 983c
00000360: c9d6 c8bb 926d 603c 73f7 b73b 830e ba3c
00000370: 9f63 7e3c 7025 073d 72d9 12bd d125 203b
00000380: f253 15bc 586c 983c 9edf c4bc db3c 9f3c
00000390: d878 8f3c c09a ed3c ed62 03bc 5fe1 dbbb
000003a0: 2d53 c63c 884e 20bb 2e22 9ab9 b955 6bbc
000003b0: b9a2 e5bc 09f9 313c 6caa 89bc 1ed9 133c
000003c0: 8081 383c 6cbf d9bc dba9 c43b bed3 953c
000003d0: 8e85 023c 1c4b 283c ab14 ea3b 3367 83bc
000003e0: f8bd 613c 8065 4f3a c059 0abd 43fa 7a3c
000003f0: 2d22 51bc 6aa0 e53c 0c90 c738 12c6 6fbc
0.030944334 -0.009979599 -0.03093721 0.046035893 0.0009663352 0.004295815 0.009885863 0.009940421
-0.0023360047 -0.016137047 0.016995272 -0.0041396273 -0.019042943 -0.041535657 -0.0064490745 0.008300489
-0.009353584 -0.03885374 0.021035489 -0.024023127 0.021545824 0.011822908 0.009733269 -0.00012595407
-0.045965675 0.019710131 -0.022811446 0.038353022 0.012793788 0.026395682 -0.005951644 3.8661805e-05
-0.0058575394 -0.0055486397 -0.013840713 0.012612192 0.01204284 0.0040575126 0.008302287 0.016973415
-0.018618474 -0.0046411413 0.014322973 -0.0044347416 -0.029361544 -0.024403324 -0.02204805 0.033581026
0.009435519 -0.0032555005 0.00015255738 0.009372606 0.025970018 -0.029007308 -0.010197016 -0.017613763
0.019407844 -0.004742076 0.005877696 0.014986059 -0.011261707 -0.013615552 -0.019133506 0.004071434
0.006385638 -0.014253409 -0.05451551 -0.015595378 -0.008268787 0.0154359415 -0.003241038 0.00016297064
-0.0027812014 0.004915237 0.029462487 -0.031335883 0.011465876 -0.015311874 0.013643014 -0.013467494
0.0148415845 -0.008296368 0.013894562 -0.034511905 0.028132591 0.039613407 0.0035698882 -0.0059756325
-0.035202663 0.032976124 -0.04606775 0.020188618 -0.013699436 -0.014954248 0.022004094 -0.0015749452
-0.013537258 -0.009058248 -0.04744797 0.031146338 0.006611566 -0.0076165856 -0.027210305 0.007946587
-0.005975544 0.011637684 0.0138975475 -0.005484704 -0.016378574 -0.035697307 0.014687344 0.04474584
-0.02325125 -0.013895153 -0.017232873 -0.014032263 -0.0016375966 0.013350305 0.0032287298 0.012260604
-0.041388467 -0.03014004 0.0063843434 0.0026373216 -0.021201305 0.00033490502 0.010757776 0.012715819
0.0084212525 0.03665008 0.0012041535 -0.0247611 -0.011902144 -0.007718642 -0.040481757 0.0075625675
0.02046659 0.00028087376 0.0028317594 -0.012641403 0.005801435 0.00029912195 -0.006340942 0.02437182
0.02039936 0.026058586 -0.0002931045 -0.018875612 -0.0059552304 -0.03978588 0.0072490997 -0.0009450495
-0.019957667 0.02664719 -0.008123351 0.022536073 -0.008293234 0.0092258565 -0.0043743625 -0.011722003
0.0014663415 0.0119529255 -0.014247226 0.0013697321 0.015561945 0.018433869 -0.050706275 -0.0012932126
0.007050301 -0.033234492 0.022678832 -0.025396463 -0.017705021 0.019241616 -0.0055605797 -0.007904446
-0.0016824374 0.0062924284 -0.019703979 -0.0075381882 -0.010140872 0.013690964 0.027038248 0.005351764
0.01278843 0.02238563 -0.04652283 -0.011040556 -0.014678185 0.013955788 -0.022386499 -0.008355505
-0.037193283 0.0025978752 0.01361034 0.0062619974 0.008778282 0.0129250735 -0.0031597465 0.008174074
-0.00024470518 0.009615613 -0.013139781 -0.016571073 -0.0041525997 -0.019843908 0.027447116 0.030984556
0.012644084 -0.0012606846 0.019121304 0.01512381 -0.016998567 0.0017750044 -0.014542344 0.018621838
-0.00612912 0.013697999 0.005614215 0.022711998 0.015526681 0.032994688 -0.035851903 0.0024436603
-0.009114252 0.01860635 -0.02403241 0.019438198 0.017513677 0.029004455 -0.008019191 -0.006710216
0.024209583 -0.002446087 -0.00029398635 -0.0143637 -0.028031694 0.010862597 -0.016804896 0.009023933
0.011261344 -0.026580535 0.0060016937 0.018289443 0.007966412 0.010271814 0.007143577 -0.01604042
0.013778202 0.0007911548 -0.033777 0.015318456 -0.012764496 0.028030593 9.51589e-05 -0.014634626

layer1.bias f4 [32]
00000000: 5e48 803a c417 eab8 0286 0dbb 83e9 2fbc
00000010: 1bcb 61bc 1042 90bb 61da a53c efce afb8
00000020: d278 14bb 136e a2bb 55a6 8b3c 90ea 19ba
00000030: 217f c4bb 12ee 75bc 6a9b 1dbc 064e ae3c
00000040: f80f 88bc e919 a9ba 6350 30bc 184f 5abc
00000050: 6960 d13c 487f 37bc a830 76bc daf8 473c
00000060: c790 de3c 08a8 dabb ddcc 91bc ccb9 8c3c
00000070: bd3a 6dbc 39dd d0bb 2b1f 573c ab48 02ba
0.0009787192 -0.00011162416 -0.0021594767 -0.010736826 -0.013781334 -0.0044024065 0.020245733 -8.383195e-05
-0.0022655022 -0.0049569695 0.017047087 -0.00058714394 -0.0059966003 -0.015010374 -0.009619573 0.021277439
-0.016609177 -0.0012901399 -0.010761353 -0.0133245215 0.025558667 -0.01119978 -0.015026249 0.012205327
0.027168645 -0.006672863 -0.017797882 0.017178439 -0.014479336 -0.006374028 0.01312999 -0.0004969935

layernorm1.weight f4 [32]
00000000: bfba 833f 3782 823f 729a 733f e0ca 7e3f
00000010: 7af6 7d3f e2d6 7e3f 602a 7d3f ae2b 7f3f
00000020: 7cfa 7e3f 7e8a 823f f484 823f 0986 7f3f
00000030: 00c1 823f a090 803f eada 7d3f 079c 7b3f
00000040: b91a 7e3f 3901 7e3f 05d5 7d3f bd10 7c3f
00000050: 19c0 7d3f 78f5 833f 0467 7a3f e731 7d3f
00000060: e7b5 833f f4eb 813f 4011 7e3f 0986 7d3f
00000070: 45ff 803f 5aa7 7e3f 89e3 7e3f f313 803f
1.0291365 1.0195988 0.9515754 0.9952831 0.9920422 0.99546635 0.98892784 0.99676025
0.9960096 1.0198514 1.0196824 0.99813896 1.0215149 1.0044136 0.9916216 0.98284954
0.99259526 0.99220616 0.99153167 0.9846304 0.9912124 1.0309286 0.9781344 0.9890427
1.0289887 1.0150132 0.9924507 0.99032646 1.0077902 0.9947411 0.9956594 1.0006088

layernorm1.bias f4 [32]
00000000: 0e8f 313c abbe 723c 8e34 8639 4463 8abb
00000010: 7b7c a03c f224 c9bc 2a05 c63c 567d 4dbc
00000020: aeeb 39bc 7e70 da3b a10a 9ebb db03 2cbc
00000030: 2da2 c13b 6aca 013b c1a9 99bc 1bdf dbbc
00000040: 3de1 2fbc a1ed 3dbc 325d 5bbc a0ad 1b3c
00000050: 6e66 b83b e047 fa3c 3153 68bc f8a1 013d
00000060: 185f 073d 1f35 0e3c 5bba 72bc 3e51 62bc
00000070: 05cc 463c 8547 77bb 8c70 94bc 5fcf 9bbc
0.01083733 0.014815967 0.00025597628 -0.004223259 0.019590607 -0.02455375 0.024172384 -0.012542089
-0.011347694 0.006666242 -0.0048230444 -0.010498966 0.0059092254 0.0019804486 -0.018757703 -0.026839783
-0.010734853 -0.0115923 -0.013388919 0.009501845 0.005627445 0.03055185 -0.014179991 0.031648606
0.033049673 0.008679657 -0.014814938 -0.013813315 0.012133603 -0.0037731838 -0.018120073 -0.01901978

blocks.0.fcn_layer.weight f4 [32, 32]
00000000: d1a4 b33d d665 043d c5c5 83bd 974c 183d
00000010: 9c67 b93c 891f 783c e44c 85bd 06f6 e53d
00000020: a194 213d 6c24 35be ca40 cbbd 89b2 27be
00000030: 0503 72bd aa13 cf3d 6b76 3a3e 9d6f 1fbe
00000040: 15b1 783d 4d0f bc3c 0435 f93d 4974 c13b
00000050: e2dd 9a3d c267 333e 5e6d c3bd efbe 003e
00000060: 1632 d8bd 2420 09be 37c5 08be a0ab 173e
00000070: 2cb7 aa3d b5c2 5dbd a8e1 1a3e 4e59 81bc
00000080: 6c7d c13c e42d cabd 1056 f73d 5abd 163e
00000090: 2e4c 6abe 6299 18bd 93c5 e63d 1448 f9bc
000000a0: 094b e3bd 0fa1 803d 49df 923b c563 95bd
000000b0: e0de bc3d 4629 ed3d 78b9 0cbe 23e4 303e
000000c0: b60b 053e d081 a33d 6a2d 06bc 607f 283e
000000d0: 444a 0abe db9e b93c 394f 3c3e f8ed 633d
000000e0: c968 013e 1001 9a3d aa78 eebd 6cb7 d3bd
000000f0: dff9 33be 68bd 0c3e 6330 f13d fd86 4f3e
00000100: 9f0c 5a3c ae1b 98bd 6b7f 0bbd 21e7 89bb
00000110: 869e 25be 6a07 1f3d 0eff 16bc e871 d83c
00000120: 93d9 b03b bfa3 4b3e b060 0c3e 43b4 333e
00000130: bdc0 6f3c 0c04 bcbd 03eb 4cbd a360 83bd
00000140: 4f5c 8a3d bb88 123e 6589 3d3d 7745 15be
00000150: e789 253d 3704 1abe dd22 863d cf0c 5bbc
00000160: 2af9 4b3c 2c75 343e e21b 11bd 7088 d13d
00000170: 7a8e 323e ddb6 09bd f02d 9f3d 2194 c0bd
00000180: 482d 003d 21cb 203e 62ce 37bd 7e60 2cbe
00000190: 5808 59be 1a62 0b3d 7da4 fa3c 4415 0d3e
000001a0: f8b3 d63d 1c7f 6fbd 07cb 1d3e 5447 79bd
000001b0: 92e8 f63d f09d 18bc 85bc b8bd fa98 67bd
000001c0: 0d54 1fbd 58f2 423c 136e 193d 30ad 2dbe
000001d0: 1dda 36be 9e2d 04bd 9ed2 ec3b 2755 0a3e
000001e0: c24b ddbd a50c 253e f013 f2bd 1109 e9bd
000001f0: 947b 813d 421d b73d 5314 fc3c b14f 6e3d
00000200: 715a 573d 54a6 1a3e 2cdf 4b3d 4942 0cbe
00000210: 718e 443d 0dad 7abc eecd 26be 2f99 42bd
00000220: 76cd 26be 0559 3cbe 9225 96bd 4d90 33be
00000230: 150a 163d 6414 923d 7228 9abc 365b c73d
00000240: 4a3b c3bd 2896 ccbd 73b4 8c3c e348 16bc
00000250: eef5 cb3d eba9 063e 65df 593d bbf3 c83b
00000260: 1130 3cbe fc92 fd3d a21e c0bd ebe8 613d
00000270: 299a 0b3e f6d5 0bbe 9107 f73d 5ae4 023d
00000280: bb7a db3d 825a fe3d d5c6 383e 0a11 973d
00000290: 610c 013e 3515 d53d 5712 033d 30ee dfbd
000002a0: 9a2e 2dbe 31b7 20be 808f 073c 49fb 2fbe
000002b0: 076d 2dbe 04bc 90bc edf5 903d 1b43 643d
000002c0: a84e 04be 266d 083c 79de 03be ed0a 9c3d
000002d0: c8e1 263e 6036 26be e0bd 35bd 6578 0e3e
000002e0: 95a9 22be 90eb ef3d 8d78 383c c9c8 a23d
000002f0: 6103 293e 23f1 81bd 8b46 273e edb9 163e
00000300: ddaf 6b3d 875d f5bd 20bf 6b3d 7605 803d
00000310: 5035 c4bd 8dc7 1d3e 3186 fcbd 878e 4abd
00000320: ff2e c7bd e3eb d53d 0f5b b13d 472c a4bd
00000330: 3c40 c1bc 97c6 aebd 658e 1a3e 0ab3 4c3d
00000340: 4aee e4bd 0624 1a3e c191 013e 62ab 0abd
00000350: 1ec2 143e cd01 f8bd 17c2 3dbd 019a 373d
00000360: d52c 98bd 2feb 163e 0319 be3d 7891 e9bc
00000370: e85a e53d a160 b6bd e606 e13d d6dd d23d
00000380: afff c43d dc56 22be 4dfa a0bd ee92 0a3d
00000390: b157 a03c 2eaa 223e 0e29 fbbd 8a5c ff3d
000003a0: e001 fabc 4f26 b13d 276c ee3d c306 243e
000003b0: 04c5 75bd e904 c53d 974a 953c 42e6 df3c
000003c0: 2117 183e 02c8 cabc c055 ffbd ecd1 063d
000003d0: 6398 1a3e df78 303e 9db0 db3d b6be a03d
000003e0: 8c15 a13d dbf4 33bd 7b9f 29be 2626 08be
000003f0: 3a40 483d 2445 863d 5905 973d 53d7 69bd
0.087716706 0.03232368 -0.06434206 0.037182417 0.022632413 0.015144237 -0.06508806 0.11228566
0.039448384 -0.17689675 -0.09924467 -0.163767 -0.05908491 0.101111725 0.18209235 -0.15569921
0.060715754 0.022956515 0.12168315 0.005903755 0.07561852 0.17520049 -0.095423445 0.12572835
-0.10556428 -0.13391167 -0.13356481 0.14811563 0.083357185 -0.054140765 0.15125144 -0.015789654
0.023619376 -0.09872034 0.12076962 0.1472067 -0.22880623 -0.037255652 0.11268153 -0.030429877
-0.11098296 0.062807195 0.004482184 -0.0729442 0.092221975 0.11580138 -0.13742626 0.17274527
0.12992749 0.07983744 -0.0081895385 0.1645484 -0.13504893 0.022658756 0.18389596 0.055646867
0.12637629 0.07519734 -0.116441086 -0.10337719 -0.17575787 0.13744128 0.11776807 0.20266338
0.013308673 -0.074271545 -0.034057062 -0.004208461 -0.16173753 0.03882543 -0.009216083 0.026421502
0.0053970306 0.19886683 0.13708758 0.17549233 0.014633355 -0.091804594 -0.050028812 -0.06414916
0.06755888 0.14309971 0.046273608 -0.1457728 0.040414717 -0.1504067 0.065496184 -0.013369753
0.012449542 0.17622823 -0.03542698 0.102311015 0.17437163 -0.033621658 0.07772434 -0.09403253
0.031293184 0.15702488 -0.044874556 -0.16833684 -0.21194589 0.034029104 0.030596012 0.13777643
0.10483545 -0.05847083 0.1540948 -0.06085904 0.12056078 -0.009314999 -0.09020332 -0.056542374
-0.038898516 0.0118986 0.03745849 -0.16960597 -0.17856641 -0.032270066 0.007227256 0.13509046
-0.10805465 0.16118105 -0.11820209 -0.113786824 0.06322399 0.08941127 0.03077141 0.05818147
0.052576486 0.15102512 0.04977338 -0.13697161 0.047987405 -0.015300048 -0.16289493 -0.04750937
-0.16289315 -0.18393333 -0.07331385 -0.17535515 0.03663071 0.071327955 -0.018818114 0.09734194
-0.09532793 -0.099895775 0.017175889 -0.009172651 0.09959017 0.13150756 0.05319156 0.0061325706
-0.18377711 0.12381551 -0.09380843 0.05515377 0.13633026 -0.13655838 0.1206199 0.031956054
0.10716768 0.12419607 0.18044598 0.07376297 0.12602378 0.104044355 0.031999912 -0.109341025
-0.16912308 -0.15694882 0.008273959 -0.17185701 -0.16936122 -0.017667778 0.070781566 0.05572806
-0.1292063 0.008326804 -0.12877835 0.076192714 0.16297066 -0.1623168 -0.044370532 0.13913114
-0.15885003 0.11714852 0.01125921 0.07948453 0.16505195 -0.06344821 0.16335504 0.14719363
0.057540763 -0.119807296 0.057555318 0.062510416 -0.09580481 0.15408154 -0.123302825 -0.04945233
-0.09725761 0.104453824 0.08659946 -0.08016258 -0.0235902 -0.08533972 0.15093382 0.049975432
-0.111782625 0.15052804 0.12653257 -0.03385485 0.14527175 -0.121097185 -0.046327677 0.044824604
-0.07430426 0.14738153 0.09282114 -0.028511748 0.111989796 -0.08905149 0.10987644 0.10296218
0.0961908 -0.15853447 -0.07860241 0.03383153 0.019573065 0.15885231 -0.1226369 0.12468822
-0.030518472 0.08649885 0.11641722 0.16018204 -0.060002342 0.09620077 0.018224044 0.027331475
0.14852573 -0.024753574 -0.124675274 0.03291504 0.15097193 0.17233609 0.10727046 0.07848875
0.07865438 -0.043934684 -0.16564743 -0.13295802 0.048889376 0.06556156 0.07374067 -0.057090115

blocks.0.fcn_layer.bias f4 [32]
00000000: 4b54 283e 5a45 9a3c e885 173e 6241 abbd
00000010: 383a 1c3d c0f0 04be af18 e63d 79f4 2d3e
00000020: ddd6 d3bd 8223 183e e025 183b baed da3d
00000030: a345 13be 4cae 83bd ac2b 083e e0d7 383d
00000040: c5d8 4b3c 73b0 46bc 2bd0 813d 0085 9c3d
00000050: eb0e 72bd 6daf fc3d 3976 743c a361 30bd
00000060: ef1b 17be 122b 3cbc f33a 93bd 1fa2 1b3d
00000070: 4075 213e 869f b5bb c7fb 9fbd c87e 3bbe
0.16438405 0.018831898 0.14797175 -0.0836208 0.03814146 -0.12982464 0.11235177 0.1698779
-0.10343716 0.14857295 0.0023215935 0.10689874 -0.14382033 -0.06429729 0.1329791 0.04512775
0.012441819 -0.01212703 0.06338533 0.07642555 -0.059096258 0.12338147 0.014920765 -0.043061864
-0.1475675 -0.011484878 -0.07188978 0.037996408 0.15767384 -0.0055426983 -0.078116946 -0.18310082

blocks.0.layer_norm.weight f4 [32]
00000000: 4f2d ae3f 58a5 8b3f 80a8 833f b3b2 853f
00000010: 080b a73f 8529 9c3f 1c0e 833f 6077 ae3f
00000020: bdc2 a23f c570 8b3f c5c1 873f e7ba 733f
00000030: 6151 8e3f d699 813f ef89 803f 23bd 803f
00000040: bd91 7d3f 41dd 893f 63af 9e3f 7b9e 823f
00000050: 0aeb 683f 4721 9d3f 5398 a33f bbd7 853f
00000060: 1767 883f cc4b 803f 122d a13f 9109 803f
00000070: 10ed 9a3f 9d25 813f d228 803f e7d0 7f3f
1.3607577 1.0909834 1.0285797 1.044516 1.3050241 1.2200171 1.0238681 1.363018
1.271568 1.089379 1.0606009 0.95207065 1.1118585 1.0125072 1.0042094 1.005772
0.99050504 1.0770646 1.2397274 1.0204614 0.9098364 1.227578 1.2780861 1.0456461
1.065646 1.0023131 1.2591879 1.000292 1.2103596 1.0089604 1.0012457 0.99928135

blocks.0.layer_norm.bias f4 [32]
00000000: eb3e 943e 1c8b 383d f835 ec3c deb5 043d
00000010: 7e2c 8d3e 0183 6f3e 3996 333d 27e9 953e
00000020: 87fb 833e 4657 8d3d 275e 343d 3a4a 32bd
00000030: eecf 513d 94d7 ca3c aeff fcba a37f 3b3b
00000040: 7ead ae3b 44a4 203d 9098 793e 6d73 b23b
00000050: 5ddb b8bd 03c6 6e3e 3c87 833e 14dc d03c
00000060: f734 343d 5313 213c 1116 823e 5fa3 7dbb
00000070: 7929 6e3e a8a0 1c3c 1032 8139 83de 30bb
0.28954253 0.04505454 0.028834328 0.032400005 0.27573007 0.23389818 0.043844435 0.29279444
0.25777838 0.06901412 0.044035103 -0.04352782 0.051223688 0.024760999 -0.0019302273 0.0028610013
0.0053307405 0.039219156 0.24374604 0.0054458887 -0.09026215 0.23317723 0.25689113 0.025495566
0.043995824 0.009831267 0.2540746 -0.0038702113 0.23258008 0.009559788 0.00024642097 -0.0026988096

last_layer.weight f4 [1, 32]
00000000: 28cc b7be a99c 3f3e 57df 8d3d cd66 113d
00000010: fa5e 99be 6460 b5be 0c61 3cbd 904e aabe
00000020: fcfc a4be 2848 103e 8c64 fe3d 5ae6 ea3c
00000030: bca0 543e c588 133e 6fa7 773d 5186 0d3e
00000040: 93c4 4fba 8274 483e 62af a8be 6dbc 613d
00000050: cf5f 9cbc 97b9 bcbe 2764 aabe 1a0a 2c3e
00000060: 799d 0d3e 9c37 aebd b257 a0be 2fbe 06be
00000070: ec2b b0be 74dd 283e a2cc e73d fdff 433d
-0.35897946 0.18712105 0.06927364 0.03549843 -0.29955274 -0.35425103 -0.04599099 -0.33263063
-0.32224262 0.14090025 0.124215215 0.028674293 0.2076444 0.14407642 0.06046241 0.13820769
-0.0007925715 0.19575694 -0.32946306 0.055111337 -0.019088654 -0.36860344 -0.33279535 0.16800728
0.13829602 -0.085067004 -0.31316906 -0.13158487 -0.3440851 0.16490728 0.113183275 0.04785155
