wkey/openwakeword_models/hey_computer6.tflite (tflite, 860700 bytes, 9 tensors)

Const_1 f4 [128]
0	0x3bfe59a2	0.00776215
1	0x3c84d357	0.016214056
2	0xbb2ef017	-0.0026693398
3	0xbc65f1c4	-0.014034692
4	0x3b807813	0.003920564
5	0x3c41d03f	0.011829435
6	0xbb975283	-0.0046179905
7	0x3af7c26b	0.0018902546
8	0x3a4ae498	0.00077397516
9	0x3bbf1119	0.0058308956
10	0x3c5ff896	0.013670107
11	0xbbdddb81	-0.0067705517
12	0x3a945a1a	0.0011318356
13	0x3b3d60d1	0.0028896818
14	0xb8a76c99	-7.9834084e-05
15	0x3b0c426c	0.0021401895
16	0x3c4049ff	0.011736392
17	0x3cb479a6	0.022030663
18	0x3c165067	0.009174443
19	0x3cb9a41a	0.022661258
20	0xbc354e1b	-0.011065985
21	0x3c80a6ed	0.015704596
22	0x3b50747d	0.0031807714
23	0xbc711690	-0.014714852
24	0x3cb0ff53	0.021606123
25	0xbb9be870	-0.0047579333
26	0xbbf68d71	-0.0075241853
27	0xbb48064d	-0.0030521334
28	0xbbe6e926	-0.0070468364
29	0xbca9c069	-0.020721631
30	0x3c60b6df	0.013715475
31	0x3c1a3a3c	0.009413298
32	0x3cad834f	0.021180777
33	0x3cdf93d8	0.027292177
34	0x3c4c0cac	0.012454193
35	0x39d6b9fc	0.0004095583
36	0x3c8cc447	0.017183436
37	0xbc5dff04	-0.01354957
38	0xbc98bf81	-0.018646004
39	0x3cc04223	0.023469036
40	0x3a4e679d	0.0007873716
41	0xbcca0cbd	-0.024664277
42	0x3c956467	0.018236352
43	0x3aa4a285	0.0012560642
44	0x3ca8699e	0.020558175
45	0xbcbd8736	-0.023135763
46	0x3c8ca331	0.01716766
47	0xbab87375	-0.0014072495
48	0x3bf13fdc	0.007362349
49	0x3cc8cc3a	0.024511445
50	0x3cb1ee7f	0.02172017
51	0x3c11aa7d	0.008890745
52	0x3cc5ad40	0.024130464
53	0x3c936e70	0.017996997
54	0x3cef1ada	0.029187609
55	0x3c5d251e	0.013497619
56	0xbc4ef1c0	-0.01263088
57	0xbb3e5c7e	-0.002904683
58	0x3c16001c	0.0091552995
59	0x3b08cf6b	0.0020875584
60	0x3cb2d3f6	0.021829586
61	0xbc78c86d	-0.015184504
62	0xbca6a7b3	-0.020343637
63	0x3c9e127e	0.019295927
64	0x3c68e36a	0.014214376
65	0x3cc05522	0.023478094
66	0xbc6df7de	-0.014524428
67	0x3cae6943	0.021290427
68	0x3c72c70d	0.014817965
69	0xbc6b2177	-0.01435124
70	0x3d0565f5	0.032567937
71	0x3c99a767	0.018756581
72	0x3c8a1141	0.01685393
73	0x3bd68fd3	0.006547907
74	0x3c438c35	0.011935283
75	0x3c14ee6c	0.009090047
76	0xbcbdcb4c	-0.023168229
77	0x3baae83d	0.0052156732
78	0xbb8ee68d	-0.00436098
79	0xbb3611db	-0.0027781639
80	0xbbb761c3	-0.005596371
81	0xbb9963c7	-0.004681084
82	0xbc9f29d2	-0.019429121
83	0xbc58f3cf	-0.013241722
84	0x3cc8c738	0.024509057
85	0x3c862118	0.016373202
86	0xbc86a56e	-0.016436305
87	0xbc557089	-0.013027319
88	0xbc98f8a2	-0.018673245
89	0x3b7f8d18	0.003899401
90	0x3bfc3bc6	0.0076975552
91	0xbc3f1f73	-0.011665213
92	0x3b57da6e	0.003293659
93	0xbb5f14b1	-0.0034039433
94	0x3c13db51	0.009024457
95	0x3caf80e0	0.021423757
96	0x3a6e0ff5	0.0009081357
97	0xbaf4f58c	-0.0018688901
98	0x3c826e4d	0.015921736
99	0xbcd7dc85	-0.02635027
100	0x3bb2e818	0.0054597966
101	0xbcb0df12	-0.021590743
102	0xbca35c43	-0.019941455
103	0xbaa9920f	-0.0012937206
104	0xbb90155f	-0.004397079
105	0x3c366b0a	0.011133919
106	0x3bfaa02a	0.0076484876
107	0xbcb85c70	-0.022505015
108	0xbc5ec8a8	-0.013597645
109	0xbc19ae04	-0.009379867
110	0xbc568315	-0.013092776
111	0xbc9dbd51	-0.019255312
112	0xbb29eb4d	-0.0025927604
113	0x3cb5560e	0.02213576
114	0x3c8f70ab	0.017509779
115	0x3ca784a1	0.020448985
116	0xbc52629d	-0.012840894
117	0xba2bdf38	-0.00065563945
118	0xbcad9a23	-0.021191662
119	0x3ca37281	0.01995206
120	0x3c963258	0.018334553
121	0x3c3986d8	0.011323653
122	0x3954d986	0.0002029893
123	0xbc9fe5e5	-0.019518802
124	0x3c6f0118	0.014587663
125	0xbc99a441	-0.01875508
126	0xbc2db43f	-0.010602056
127	0x3cc8e678	0.024523959

Const_2 f4 [128]
0	0x3f816a73	1.0110611
1	0x3f7d7ce1	0.99018675
2	0x3f8942e3	1.0723537
3	0x3f7d6e42	0.98996365
4	0x3f7f553f	0.9973945
5	0x3f7f870b	0.99815434
6	0x3f81e416	1.0147731
7	0x3f8159e0	1.0105553
8	0x3f7eaa1d	0.9947832
9	0x3f7c0558	0.98445654
10	0x3f85173b	1.0397714
11	0x3f818b7d	1.0120693
12	0x3f80c8d1	1.0061284
13	0x3f807b67	1.003766
14	0x3f78132a	0.9690424
15	0x3f81bed7	1.0136365
16	0x3f7ca19a	0.98684084
17	0x3f826f05	1.019013
18	0x3f7ec9d8	0.9952674
19	0x3f829f63	1.0204891
20	0x3f812a97	1.0091122
21	0x3f7d36a2	0.9891149
22	0x3f81b5e2	1.0133631
23	0x3f824d1a	1.017978
24	0x3f7d0c33	0.9884674
25	0x3f805287	1.0025185
26	0x3f7ce840	0.98791885
27	0x3f800d1e	1.0004003
28	0x3f82bba9	1.0213519
29	0x3f7a5052	0.9777881
30	0x3f7b1d7d	0.9809187
31	0x3f7e9ec9	0.99461037
32	0x3f7e8603	0.99423236
33	0x3f7c1b3b	0.9847905
34	0x3f854380	1.0411224
35	0x3f80fddc	1.0077472
36	0x3f7f88c5	0.9981807
37	0x3f7e3511	0.9929972
38	0x3f7f7f7f	0.9980392
39	0x3f7e4c6b	0.99335355
40	0x3f7b7cd8	0.9823737
41	0x3f795d8e	0.9740838
42	0x3f7dca07	0.99136394
43	0x3f860162	1.0469172
44	0x3f7c2510	0.9849405
45	0x3f82389a	1.0173523
46	0x3f7fd42c	0.99933124
47	0x3f7c76a2	0.9861852
48	0x3f819a7a	1.0125268
49	0x3f7db40e	0.99102867
50	0x3f7fe54b	0.9995925
51	0x3f7c0c68	0.9845643
52	0x3f83ce1e	1.0297277
53	0x3f83b9a7	1.0291032
54	0x3f84090f	1.0315264
55	0x3f830f18	1.0238981
56	0x3f7be543	0.983967
57	0x3f878dc6	1.0590141
58	0x3f80f8ff	1.0075988
59	0x3f7cfc5c	0.9882257
60	0x3f7f3ec9	0.9970518
61	0x3f7bf7a6	0.98424757
62	0x3f802ad1	1.0013067
63	0x3f7e6186	0.9936756
64	0x3f7e213a	0.9926945
65	0x3f7e8deb	0.994353
66	0x3f84229a	1.032306
67	0x3f8051ec	1.0025
68	0x3f7e8092	0.9941493
69	0x3f81d02d	1.0141655
70	0x3f80a569	1.0050479
71	0x3f7b8459	0.9824882
72	0x3f7ae4de	0.98005474
73	0x3f7cc094	0.9873135
74	0x3f7f89a2	0.99819386
75	0x3f7e072b	0.9922969
76	0x3f7e28e7	0.9928116
77	0x3f875a26	1.0574386
78	0x3f803bad	1.0018212
79	0x3f7c420e	0.9853829
80	0x3f7cddb0	0.9877577
81	0x3f826066	1.0185668
82	0x3f7f60d9	0.9975715
83	0x3f7cb4e9	0.98713547
84	0x3f7d21ec	0.98879886
85	0x3f7ecb1e	0.9952868
86	0x3f8061ff	1.0029906
87	0x3f7d9228	0.9905114
88	0x3f7b4f40	0.981678
89	0x3f7e671e	0.99376094
90	0x3f806bb4	1.0032868
91	0x3f81141b	1.0084261
92	0x3f81643b	1.0108713
93	0x3f7cccec	0.98750186
94	0x3f7d4d29	0.9894586
95	0x3f7b74fb	0.98225373
96	0x3f7f022d	0.99612695
97	0x3f75b920	0.95985603
98	0x3f7e505b	0.9934136
99	0x3f7e70ed	0.9939106
100	0x3f7b3a45	0.9813579
101	0x3f838a03	1.0276493
102	0x3f7e570c	0.99351573
103	0x3f893e74	1.0722184
104	0x3f812076	1.0088031
105	0x3f7eef35	0.9958375
106	0x3f7e7640	0.99399185
107	0x3f7d2c5f	0.9889583
108	0x3f805bb6	1.0027988
109	0x3f8266d2	1.0187628
110	0x3f811971	1.0085889
111	0x3f7f4a1b	0.9972245
112	0x3f783502	0.96955884
113	0x3f80b170	1.005415
114	0x3f82c7d3	1.0217232
115	0x3f7be3e4	0.9839461
116	0x3f805fba	1.0029213
117	0x3f7e440b	0.99322575
118	0x3f81ba77	1.013503
119	0x3f80ea8a	1.0071576
120	0x3f78b062	0.9714414
121	0x3f7d7d2a	0.9901911
122	0x3f7d2feb	0.9890124
123	0x3f82360b	1.0172743
124	0x3f80a05d	1.0048939
125	0x3f7fcaa9	0.9991861
126	0x3f8067e2	1.0031703
127	0x3f84520d	1.033754

Const_3 f4 [128]
0	0x3bc1270d	0.005894548
1	0xbb09fc24	-0.0021054829
2	0xbbcec344	-0.0063098986
3	0x374392bb	1.1657069e-05
4	0xbb87305e	-0.004125639
5	0xbb8c5dc5	-0.004283639
6	0x3ad53f1d	0.001626942
7	0xbc0574e4	-0.008145545
8	0xbc2fef8e	-0.010738267
9	0xbb07d95f	-0.0020728929
10	0x3bff4aaf	0.0077908854
11	0x3bc0f101	0.005888105
12	0x3a48de57	0.0007662526
13	0x3ad77df4	0.0016440735
14	0xbcb62c89	-0.022238033
15	0x3bf6d2f9	0.007532474
16	0xbc1b0f46	-0.009464091
17	0x3bf09e89	0.0073431176
18	0xbc7eac2d	-0.01554398
19	0xbbba8bee	-0.0056929504
20	0x3b21b333	0.0024673461
21	0xbc5c1a34	-0.013433982
22	0x3bad6f96	0.005292843
23	0x39bf56ee	0.00036495127
24	0x3b365d65	0.0027826664
25	0xbc4f7ab0	-0.012663528
26	0xbac747d4	-0.0015203902
27	0xba9aaa62	-0.0011800046
28	0xb9dbc049	-0.000419142
29	0xbc5e9524	-0.013585363
30	0xbc353d06	-0.011061912
31	0xbbf673e3	-0.007521139
32	0xbb6da8f2	-0.003626403
33	0xba458908	-0.0007535373
34	0x3b895a95	0.0041917064
35	0x3be275ad	0.0069110007
36	0xb9761109	-0.00023466734
37	0xbc24f725	-0.0100686895
38	0xbabf44d5	-0.0014592657
39	0xbab798b2	-0.0014007299
40	0x3b2c800e	0.0026321444
41	0xbc7d1adc	-0.015448298
42	0xb9d38e37	-0.00040351014
43	0x3c05f07e	0.008175014
44	0xbc9a133d	-0.018808002
45	0x3b9e1598	0.0048243515
46	0xba8db48b	-0.0010811252
47	0xbc5955cb	-0.013265084
48	0x3bd69937	0.0065490264
49	0x3afffc6d	0.0019530185
50	0xbb816ff2	-0.0039501125
51	0xbb3fc016	-0.002925878
52	0x3b03dd4e	0.0020120922
53	0x3a9ea298	0.00121029
54	0x3bd61a17	0.006533872
55	0x3b7916f9	0.0038008078
56	0xbbcd262d	-0.0062606544
57	0x3901bd3f	0.00012372898
58	0xbb94bb5e	-0.0045389375
59	0xbc0d299b	-0.008615877
60	0xba35b8d6	-0.0006932145
61	0xbc6580c7	-0.014007754
62	0xbb768214	-0.0037614154
63	0x3a2f3158	0.0006683073
64	0x3b2b8825	0.0026173678
65	0x3a179f81	0.0005783961
66	0x3c72a885	0.014810686
67	0xbbd12a81	-0.0063832407
68	0xba8f9018	-0.0010952977
69	0x3aae8a6d	0.00133164
70	0x3b688954	0.0035482245
71	0xbc1835fa	-0.009290213
72	0xbc5f31a3	-0.013622674
73	0xbc197917	-0.009367249
74	0xbc356935	-0.011072447
75	0xbb27ed51	-0.002562363
76	0xbc03b551	-0.008038835
77	0x3b3ed3d8	0.0029117968
78	0x3b011ec8	0.0019702185
79	0xbc3c3174	-0.0114864
80	0xbbbf1bcd	-0.0058321715
81	0xbb5aa68b	-0.0033363428
82	0xba9949b5	-0.001169494
83	0xbc01379d	-0.007886794
84	0x3a437eef	0.0007457574
85	0xb99d4b7b	-0.0003000161
86	0x3b6b1761	0.003587209
87	0xbc34fb4b	-0.011046241
88	0xbc4a2655	-0.012338241
89	0xba88610d	-0.00104049
90	0x3b789ee7	0.003793651
91	0x3b0e35dc	0.0021699583
92	0xbb251ba7	-0.0025193484
93	0xbbc1c335	-0.005913163
94	0xb9f7af0f	-0.0004724194
95	0xbc5f5c9e	-0.0136329215
96	0xba6dad70	-0.0009066677
97	0xbbb5b60c	-0.0055453833
98	0xbbcbc250	-0.006218232
99	0xb9b8fcab	-0.00035283467
100	0x3adf9249	0.0017057146
101	0x3c17fd85	0.009276752
102	0xbb71b902	-0.0036883955
103	0xba0d453b	-0.0005389039
104	0x3a82f817	0.000999215
105	0xbc69846c	-0.014252763
106	0xbb97aac2	-0.00462851
107	0xbc473e9f	-0.012160926
108	0xbc459768	-0.012060024
109	0x3af5da95	0.0018757159
110	0xbb4a3055	-0.0030851562
111	0xbc108ff3	-0.008823383
112	0xbc2b52a0	-0.010456711
113	0xbbe822ce	-0.007084227
114	0x3b514bd7	0.0031936073
115	0xbc251226	-0.010075128
116	0x3b1dac4e	0.0024059
117	0x3bc5dd4e	0.0060383445
118	0xbc4625cf	-0.012093975
119	0x3aa7c9a7	0.0012801186
120	0xbc5fc85f	-0.013658612
121	0xbae04ff9	-0.0017113677
122	0xbc3c654e	-0.011498762
123	0x3c04b65e	0.00810012
124	0x3b7ad092	0.003827129
125	0xbabcf4ce	-0.0014416219
126	0xba876e81	-0.0010332615
127	0x3b92e6c4	0.004483076

Const_5 f4 [128]
0	0xbc9f5a15	-0.019452134
1	0x3cb3209c	0.021866135
2	0x3d40f605	0.047109623
3	0xbb3a02a9	-0.0028382933
4	0x3d019496	0.031635843
5	0xbd8111fb	-0.063022576
6	0x3dacf46b	0.084450565
7	0xbc033a17	-0.008009455
8	0xbcac8131	-0.021057697
9	0x3d706604	0.05869104
10	0xbd9af1c7	-0.075656466
11	0x3d36d2e5	0.04463472
12	0x3b83159f	0.00400038
13	0xbda4475e	-0.08021425
14	0xbc812652	-0.015765343
15	0xbdafa1a6	-0.08575754
16	0x3da69186	0.08133225
17	0xbc8173f1	-0.015802355
18	0xbda1642e	-0.07880436
19	0xbd4a3379	-0.049365494
20	0x3db21c52	0.08696808
21	0x3c6eb7b5	0.014570166
22	0xbd34e554	-0.044164017
23	0xbc70df8e	-0.014701737
24	0x3d0d6473	0.034519624
25	0xbc3578e9	-0.0110761905
26	0x3ce3bdff	0.027800558
27	0x3d88ea8c	0.06685361
28	0xbd8294d5	-0.06376044
29	0xbd362e1f	-0.04447758
30	0xbd3a711d	-0.04551803
31	0x3d8041b3	0.06262531
32	0x3da3cd43	0.07998135
33	0x3c9f4fe1	0.019447269
34	0xbca926b7	-0.020648343
35	0x3bf7c571	0.0075613786
36	0xbda284d1	-0.07935489
37	0x3d09d8d3	0.033654045
38	0x3db1c8d7	0.08680885
39	0x3d830ae8	0.063985646
40	0x3d8686fd	0.06568716
41	0x3c422f10	0.011852041
42	0x3d41ea1e	0.047342412
43	0x3dbf8e37	0.09353297
44	0x3ccb1637	0.024790866
45	0x3d727e96	0.059202753
46	0xbcc8c2dd	-0.02450698
47	0x3d7f55cb	0.062337678
48	0xbb9929fa	-0.0046741934
49	0x3cc4d40e	0.024026897
50	0xbcadca55	-0.021214643
51	0xbcab71fb	-0.020928374
52	0x3d2d5fad	0.04232757
53	0x3c940a06	0.018071186
54	0xbda34977	-0.07972997
55	0x3d9a0ce2	0.075219885
56	0xbd0760c1	-0.033051256
57	0xbd79f8d3	-0.061028313
58	0x3d7252bf	0.059160944
59	0xbc906283	-0.017625099
60	0x3c48f04e	0.012264324
61	0x3bb5beca	0.0055464255
62	0xbbe63685	-0.007025542
63	0xbcbeb632	-0.023280237
64	0xbd949981	-0.07255841
65	0x3d25aef4	0.04045005
66	0xbd4a8e34	-0.04945202
67	0xbc264d3e	-0.010150252
68	0x3d41eb7f	0.047343727
69	0x3d081e53	0.033232044
70	0x3d92f8ba	0.07176347
71	0x3c849a95	0.016186992
72	0x3cb84abd	0.022496575
73	0x3c2bffa1	0.010497958
74	0xbd9bcf85	-0.076079406
75	0x3d48f2eb	0.04905979
76	0x3d873c07	0.06603246
77	0xbd74e655	-0.059789974
78	0xbd75cb87	-0.060008552
79	0x3db03454	0.08603731
80	0x3d9768b0	0.073930144
81	0xbd7192da	-0.05897794
82	0x3d684742	0.05670858
83	0xbda072f3	-0.07834425
84	0xbd8f138c	-0.0698615
85	0x3d2be50c	0.041966483
86	0xbd3a9331	-0.04555053
87	0xbc2e1a32	-0.010626363
88	0x3d62e1dc	0.055391178
89	0xbd97db47	-0.07414871
90	0x3d717372	0.058947988
91	0xbd582481	-0.052769188
92	0xbd634b3c	-0.05549167
93	0xbd27c1b9	-0.040956233
94	0x3cd264e7	0.02568288
95	0xbd855665	-0.06510619
96	0x3d8a455a	0.06751509
97	0x3b67fd11	0.0035398642
98	0xbd9f45eb	-0.07777008
99	0xbcc277f0	-0.023738831
100	0xbcf59ec1	-0.029982926
101	0xbdad2493	-0.084542416
102	0x3c976d74	0.018484809
103	0x3d940711	0.0722791
104	0x3d10205b	0.035187107
105	0xbd96f621	-0.07371164
106	0x3d851ae4	0.064992696
107	0xbd25cd90	-0.040479243
108	0xbc722b6c	-0.01478086
109	0xbc68d5f2	-0.014211165
110	0x3d3ca1a5	0.046052594
111	0x3d635497	0.055500593
112	0xbd8ed7e4	-0.069747716
113	0x3d375079	0.04475448
114	0xbc7fcd44	-0.015612904
115	0xbcbc892b	-0.023014626
116	0xbcfa2b30	-0.030538172
117	0xb9b924ab	-0.0003531327
118	0xbb8bb108	-0.004263047
119	0x3c008f0e	0.007846607
120	0x3cf53fa8	0.02993758
121	0xbd0c259b	-0.03421555
122	0x3d392d4e	0.04520922
123	0x3d3dbef1	0.046324674
124	0x3d9198bb	0.07109209
125	0x3d8e0e3b	0.06936308
126	0xbd382516	-0.044957243
127	0x3c9de349	0.019273417

Const_6 f4 [128]
0	0x3f7f90ae	0.9983014
1	0x3f858fec	1.0434546
2	0x3f7d2616	0.9888624
3	0x3f914796	1.1349971
4	0x3f7df42b	0.99200696
5	0x3f86d7f2	1.0534651
6	0x3f7a92e6	0.978804
7	0x3f8095b0	1.0045681
8	0x3f8dc13a	1.1074593
9	0x3f7e20f6	0.99269044
10	0x3f93a601	1.1535035
11	0x3f876ce0	1.0580101
12	0x3f82583f	1.018318
13	0x3f8e03ee	1.1094949
14	0x3f89da8b	1.0769819
15	0x3f82f380	1.023056
16	0x3f7ea478	0.9946971
17	0x3f861695	1.0475641
18	0x3f86ee7e	1.0541532
19	0x3f904bb3	1.1273102
20	0x3f868415	1.0509058
21	0x3f80a00c	1.0048842
22	0x3f8f0ced	1.117582
23	0x3f8d1d2d	1.1024529
24	0x3f90fab4	1.1326509
25	0x3f87908f	1.0590991
26	0x3f829f4d	1.0204865
27	0x3f854469	1.0411502
28	0x3f849f4c	1.0361114
29	0x3f835e3f	1.0263137
30	0x3f832654	1.0246072
31	0x3f8d6408	1.1046152
32	0x3f831596	1.0240963
33	0x3f7d533c	0.9895513
34	0x3f8ce09d	1.1006047
35	0x3f84c218	1.0371733
36	0x3f832e4c	1.0248504
37	0x3f90feff	1.1327819
38	0x3f84c89b	1.037372
39	0x3f853a26	1.040837
40	0x3f80dae1	1.0066797
41	0x3f83026f	1.0235118
42	0x3f841c80	1.0321198
43	0x3f9243e1	1.1426965
44	0x3f891344	1.0709004
45	0x3f852f7d	1.0405117
46	0x3f85dccf	1.045801
47	0x3f8a2d1c	1.0795016
48	0x3f8f4d4b	1.1195463
49	0x3f8d185c	1.1023059
50	0x3f866326	1.0499008
51	0x3f85c7d8	1.0451612
52	0x3f8e869e	1.1134832
53	0x3f809654	1.0045877
54	0x3f84ff25	1.0390364
55	0x3f7ee89b	0.9957368
56	0x3f88580d	1.0651871
57	0x3f86942a	1.0513966
58	0x3f86d421	1.0533487
59	0x3f91d344	1.1392598
60	0x3f80d1ab	1.0063986
61	0x3f82ce3e	1.021919
62	0x3f7e1f18	0.99266195
63	0x3f846f9b	1.0346559
64	0x3f830746	1.0236595
65	0x3f8344d6	1.0255382
66	0x3f8d3426	1.103154
67	0x3f74209a	0.95362246
68	0x3f882b16	1.0638149
69	0x3f88e793	1.0695671
70	0x3f88a950	1.067667
71	0x3f85201d	1.0400425
72	0x3f7f3d71	0.9970313
73	0x3f8b19fc	1.0867305
74	0x3f8c1697	1.0944394
75	0x3f82e1c3	1.0225147
76	0x3f8a634e	1.0811555
77	0x3f866dd5	1.0502268
78	0x3f88a319	1.0674773
79	0x3f8e044f	1.1095065
80	0x3f8a0a66	1.0784423
81	0x3f89b29c	1.0757632
82	0x3f7d781c	0.990114
83	0x3f8821a0	1.0635262
84	0x3f8bc63a	1.0919869
85	0x3f857431	1.0426084
86	0x3f8c3bdf	1.0955771
87	0x3f848b90	1.0355091
88	0x3f831563	1.0240902
89	0x3f8c48f3	1.0959762
90	0x3f7c40f4	0.9853661
91	0x3f8413ed	1.0318581
92	0x3f8afc43	1.0858234
93	0x3f836430	1.026495
94	0x3f850a3e	1.0393751
95	0x3f837fe3	1.0273403
96	0x3f82d59c	1.0221438
97	0x3f8b269f	1.0871161
98	0x3f8b556a	1.0885441
99	0x3f7fa6f6	0.9986414
100	0x3f7f84a8	0.9981179
101	0x3f80e0e2	1.0068629
102	0x3f8e4efa	1.1117852
103	0x3f822f3b	1.0170664
104	0x3f833c9a	1.0252869
105	0x3f8467b3	1.0344146
106	0x3f8424d3	1.0323738
107	0x3f93b85b	1.1540636
108	0x3f8146f1	1.0099775
109	0x3f8e594e	1.1121004
110	0x3f7c66db	0.98594445
111	0x3f8a7246	1.0816123
112	0x3f7dd402	0.99151623
113	0x3f823778	1.0173178
114	0x3f7edbec	0.99554324
115	0x3f8307c4	1.0236745
116	0x3f890732	1.0705321
117	0x3f86cbeb	1.0530981
118	0x3f8a5997	1.0808591
119	0x3f826461	1.0186883
120	0x3f761e85	0.9614032
121	0x3f834236	1.0254581
122	0x3f7eaf7a	0.99486506
123	0x3f8a3fc0	1.0800705
124	0x3f885c73	1.0653213
125	0x3f848039	1.035163
126	0x3f862c22	1.0482218
127	0x3f90bfbc	1.1308513

Const_7 f4 [128]
0	0xba7169e4	-0.00092091993
1	0x3d9476f5	0.07249252
2	0xbc007996	-0.007841488
3	0x3dadff31	0.084959395
4	0xbc65d4f7	-0.014027826
5	0x3ca4df85	0.020126114
6	0xbc917082	-0.017753843
7	0x3c0d422e	0.0086217355
8	0x3d3b6a85	0.04575588
9	0xbc52a11c	-0.012855794
10	0x3dcaa3f2	0.09894551
11	0x3c53605e	0.012901394
12	0x3b44c476	0.0030024326
13	0x3da71d27	0.08159857
14	0x3d8bccce	0.06826173
15	0x3c87b151	0.016564043
16	0xbb2cf0ea	-0.0026388713
17	0x3ce66c2d	0.028127754
18	0x3cfcab9c	0.030843548
19	0x3d002449	0.031284604
20	0x3d17645a	0.036960937
21	0x3c3446b0	0.011003181
22	0x3d9beba7	0.076133065
23	0x3c310002	0.0108032245
24	0x3dc931a0	0.09823918
25	0x3c9a9679	0.01887058
26	0x3cb8dd6c	0.02256652
27	0x3ca7e6d2	0.020495806
28	0x3c257eb9	0.010101014
29	0x3c943437	0.018091304
30	0x3ad52025	0.001626019
31	0x3d92871e	0.07154678
32	0x3c9a9931	0.018871875
33	0xbca435af	-0.02004513
34	0x3dab5d9e	0.083674654
35	0xbb669376	-0.0035183108
36	0x3a9ce9b6	0.0011971507
37	0x3d73c3f6	0.059513055
38	0x3c4b6247	0.012413568
39	0x3d862790	0.06550515
40	0x3be9723f	0.007124215
41	0x3b9288ee	0.0044718897
42	0x3cb2cbd9	0.021825718
43	0x3db85f71	0.09002579
44	0x3d9245ab	0.07142194
45	0x3cc4aba6	0.02400763
46	0x3d92723c	0.07150695
47	0x3cdd9598	0.02704887
48	0x3db00a05	0.08595661
49	0x3d8a2c69	0.06746752
50	0x3cf2171d	0.029552037
51	0x3cdb7e9d	0.026793772
52	0x3d17e6a2	0.037085183
53	0xbaa15701	-0.0012309254
54	0x3c6f73f1	0.014615045
55	0xbb88ddd8	-0.0041768365
56	0x3d78e06b	0.060760897
57	0x3ca0a0fe	0.019608017
58	0x3ce7b3d9	0.028284
59	0x3dd1343f	0.10215043
60	0xb876a358	-5.8803096e-05
61	0xba090cb8	-0.00052280305
62	0xbbc8dd4c	-0.0061298963
63	0x3d86d76b	0.065840565
64	0x3c4537d3	0.012037235
65	0x3c73a827	0.014871634
66	0x3da9022e	0.08252369
67	0xbd27d65e	-0.04097592
68	0x3c4c5bee	0.01247309
69	0x3c79ee69	0.015254595
70	0x3d8216a1	0.06351972
71	0x3c2dc9d6	0.0106072035
72	0xbbad68b6	-0.0052920235
73	0x3dafc38d	0.0858222
74	0x3d94aff6	0.072601244
75	0x3c75ae1f	0.014995127
76	0x3cd97ac4	0.026547797
77	0x3c9fd8fd	0.019512648
78	0x3d88fc5f	0.06688761
79	0x3d9a38e0	0.07530379
80	0x3d1c695d	0.03818642
81	0x3ce17bb5	0.027524808
82	0xbbae6327	-0.0053218785
83	0x3c89986a	0.01679631
84	0x3d8edf71	0.06976212
85	0x3cb17a22	0.021664683
86	0x3d90f9a5	0.07078866
87	0x3c93b8c8	0.018032447
88	0x3c93da8e	0.018048551
89	0x3ca9ce46	0.020728242
90	0xbc718681	-0.014741541
91	0x3c32470f	0.0108811995
92	0x3d879c16	0.06621568
93	0x3c60d3ed	0.013722402
94	0x3c57557e	0.0131429415
95	0x3d01f135	0.031724174
96	0x3bd6cdc5	0.0065552914
97	0x3ca5ccda	0.020239282
98	0x3d9d7db9	0.07689995
99	0x3b03ee42	0.0020131026
100	0xbb0fd869	-0.002194906
101	0x3b108929	0.002205441
102	0x3da806aa	0.08204396
103	0x3b36e95f	0.0027910096
104	0x3c9272c9	0.017877
105	0x3d86bf95	0.0657951
106	0x3cb84d7e	0.022497889
107	0x3dd7f851	0.105454095
108	0x3b0d9ccf	0.0021608358
109	0x3d0c7480	0.03429079
110	0xbc4d68a0	-0.012537152
111	0x3d81bbb5	0.063346304
112	0xbb7596b1	-0.0037473852
113	0x3ca224de	0.01979297
114	0xbc3bec6f	-0.011469944
115	0x3c969bca	0.018384833
116	0x3ce49379	0.027902352
117	0x3cecfa47	0.028927935
118	0x3d14cc46	0.036327623
119	0x3cba1794	0.022716321
120	0xbcd260f8	-0.025681004
121	0x3c881d9f	0.016615687
122	0xbc062c09	-0.00818921
123	0x3d7d301a	0.06181345
124	0x3d77ac2c	0.06046693
125	0x3cc68e0d	0.024237657
126	0x3c4c9c95	0.012488504
127	0x3dc8f6fd	0.09812734

MatMul f4 [128, 1536]
0	0xbc857c50	-0.016294628
1	0xbcb5801a	-0.02215581
2	0x3c1bfa72	0.00952016
3	0xbdcc152f	-0.09964978
4	0x3cdb0101	0.026733877
5	0x3c86028d	0.016358638
6	0x3cd8a15d	0.026444132
7	0x3b0fcdbf	0.0021942703
8	0xbd484ec4	-0.04890324
9	0xbc5456d4	-0.012960155
10	0xbc048694	-0.008088727
11	0x3c74f56d	0.014951092
12	0x3ba5db5f	0.0050615515
13	0x3d003cb7	0.031307902
14	0x3b2a21b7	0.0025960037
15	0x3c2d708f	0.010585918
16	0xbca7e22b	-0.020493587
17	0xbc4f632e	-0.012657924
18	0xbc1309bd	-0.00897449
19	0xbbbc2f26	-0.005742925
20	0xb9c49243	-0.00037493007
21	0xbc176b97	-0.00924196
22	0xb97ad191	-0.00023919927
23	0x3ca81919	0.02051978
24	0x3bc37d00	0.005965829
25	0xbc06c3cd	-0.0082253935
26	0x3a86d2e0	0.0010286234
27	0xbd3d05a3	-0.046147954
28	0xbc93329c	-0.017968468
29	0x3c21484a	0.009843895
30	0xbc587fc7	-0.013214058
31	0xbc72b557	-0.014813743
32	0xbc2dadeb	-0.010600547
33	0xbcf67190	-0.030083448
34	0xbb33c931	-0.0027433152
35	0xb9d645f0	-0.00040869368
36	0xbc82bf6f	-0.015960423
37	0xbcde567a	-0.027140845
38	0xbd8ce72e	-0.068800315
39	0x3c285914	0.010275144
40	0xbbad8694	-0.005295584
41	0x3c606e83	0.013698223
42	0xbc0674f0	-0.008206591
43	0xbbc7d86d	-0.006098798
44	0xbd2b2032	-0.04177875
45	0xbbb8839e	-0.0056309244
46	0xbcb673dc	-0.022272043
47	0xbd5bc090	-0.05365044
48	0xbcbd3c0a	-0.023099918
49	0xbc239074	-0.009983171
50	0x3a42953d	0.0007422751
51	0x3d13328f	0.03593689
52	0xbcac0be1	-0.021001758
53	0x3d91d5c0	0.07120848
54	0xbc874b54	-0.016515411
55	0xbb33be04	-0.002742649
56	0x3d07a858	0.03311953
57	0xbc86b48f	-0.016443519
58	0x3cc73623	0.024317807
59	0xbd28d143	-0.041215193
60	0x3d160ad1	0.03663141
61	0xbc019055	-0.007907947
62	0x3c8b8b0c	0.017034076
63	0xbc6888ec	-0.014192801
64	0xbb92c5cd	-0.004479146
65	0x3c399c99	0.01132884
66	0x3cc5ef15	0.024161855
67	0xbbeeb640	-0.0072849095
68	0x3cb5c774	0.022189833
69	0xbca6fcd7	-0.020384235
70	0xbd17d5cf	-0.03706914
71	0xbc88061a	-0.016604472
72	0x3cd28ab8	0.025700912
73	0x3bc5770a	0.0060261535
74	0x3ba1f59f	0.0049426104
75	0x3ccb8ea3	0.024848288
76	0x3d0bdf79	0.034148667
77	0xbc520abc	-0.012819942
78	0xbaffb5a0	-0.0019509085
79	0xbb986864	-0.004651116
80	0x3b0b9260	0.0021296963
81	0xbc1b8f3f	-0.009494602
82	0x3d07a815	0.03311928
83	0x3c9ffcc3	0.019529706
84	0xbca273ac	-0.019830547
85	0xbd4c6e7f	-0.049910065
86	0xbc8c7253	-0.017144358
87	0xbc1753bd	-0.009236273
88	0xbcc8f876	-0.024532538
89	0x3b61bd69	0.0034445173
90	0x3d464b4d	0.048411656
91	0x3c421910	0.011846796
92	0xbcbfef6b	-0.023429593
93	0x3c68db5b	0.014212455
94	0x3c9068fa	0.017628182
95	0x3b18ae60	0.0023297295
96	0x3d359df9	0.044340108
97	0x3c8c78e5	0.01714749
98	0xbce82820	-0.028339446
99	0xbccdabe1	-0.025106372
100	0x3c350beb	0.011050205
101	0xbcb6fa64	-0.022336192
102	0xbc22714d	-0.009914708
103	0x3ca1a31f	0.019731103
104	0xbc087a24	-0.008329902
105	0x3c070db3	0.008243012
106	0xbc29c5ed	-0.010362131
107	0x3d3279af	0.043573078
108	0xbd0457ca	-0.032310285
109	0x3d440979	0.047860596
110	0x39624408	0.00021578383
111	0xbca5f102	-0.020256523
112	0x3bad7d3a	0.005294469
113	0xbc898059	-0.016784834
114	0xbc953044	-0.018211491
115	0xbc627134	-0.013820935
116	0xbcbc96cc	-0.023021124
117	0xbc6ce561	-0.014458985
118	0x3a90192c	0.001099383
119	0xbc9f2c6d	-0.019430364
120	0x3c0a1886	0.008428698
121	0xbc4deccc	-0.012568664
122	0x3c1f3df6	0.0097193625
123	0xbd39c726	-0.04535594
124	0xbc814bb7	-0.015783174
125	0x3ae355ce	0.0017344297
126	0x3c017fe4	0.007904027
127	0x3bba18ed	0.005679241
128	0x3cda52ee	0.026650872
129	0x3b06771d	0.0020517774
130	0xbc1f2b84	-0.009714965
131	0x3bffd774	0.0078076664
132	0x3ad6b151	0.0016379749
133	0xbbb1b47f	-0.005423128
134	0xbb8e241a	-0.0043377997
135	0xbc05c1a7	-0.008163846
136	0x3ccc440a	0.024934787
137	0x3d1e3ef3	0.03863425
138	0xbc9f9920	-0.019482195
139	0xbb8c6543	-0.0042845323
140	0xbc2dc0d4	-0.010605056
141	0x3b9488a1	0.004532889
142	0x3c7d2ac7	0.015452093
143	0xbcd91622	-0.026499812
144	0xbca6ebf8	-0.02037619
145	0x3d0f1b01	0.034937862
146	0x3cd1c798	0.025607869
147	0x3cbd74b1	0.023126932
148	0xbc8d81b5	-0.017273763
149	0x3d7421e5	0.059602637
150	0x3b8a19ab	0.0042144856
151	0x3afb1c65	0.0019158243
152	0x3d0300cf	0.031983193
153	0xbcc520bf	-0.024063466
154	0x3b217d43	0.0024641312
155	0xbc1e6730	-0.0096681565
156	0xbbb14215	-0.005409489
157	0x38f4ab2c	0.0001166671
158	0x3cd8f4d0	0.026483923
159	0xbb97133d	-0.0046104477
160	0x3c14b0e9	0.009075382
161	0xbb95b4fe	-0.004568695
162	0x3c3f4874	0.011674989
163	0xbc6d6cb7	-0.014491252
164	0xbc4e9573	-0.012608874
165	0x3be68d25	0.0070358687
166	0xbcff64ff	-0.031176088
167	0x3ca6163c	0.020274274
168	0x3d2cc46b	0.042179506
169	0x3c10d486	0.008839732
170	0x3c73f4ac	0.014889877
171	0x3cfa150c	0.030527614
172	0x3c0eeb93	0.008723157
173	0xbc94cddc	-0.018164568
174	0xbc4786d1	-0.012178139
175	0x3c73fa05	0.014891152
176	0xbcd5def7	-0.026107294
177	0xbbbb3a75	-0.0057137557
178	0x3c8f0895	0.017460147
179	0x3b943806	0.00452328
180	0x3cc7d217	0.02439217
181	0xbc88daf6	-0.016705971
182	0x3a91bcde	0.0011118909
183	0xbc6508f5	-0.013979186
184	0x3b982dcc	0.0046441313
185	0x3c29786a	0.01034365
186	0x3c31f0b9	0.010860615
187	0x3cad6b5d	0.021169359
188	0xba9bd628	-0.0011889385
189	0x3c16bd4c	0.009200405
190	0xbcb05a8a	-0.021527547
191	0xbc1eb138	-0.009685807
192	0x3b6f901c	0.0036554402
193	0xbccd9dd7	-0.025099678
194	0xbc7c2722	-0.015390189
195	0x3caf0478	0.021364436
196	0x3c3a4c6f	0.011370762
197	0xbba0a4fb	-0.0049024797
198	0x3c196bea	0.009364108
199	0xba98a258	-0.0011645062
200	0xbd6fdae2	-0.058558352
201	0xbcbf88e1	-0.023380699
202	0xbcbf988b	-0.023388168
203	0x3d232593	0.039830755
204	0xbceea76b	-0.029132565
205	0x3d104ada	0.035227634
206	0xbcfb8a4a	-0.03070559
207	0xbc63c567	-0.013902045
208	0x3d4a8253	0.049440693
209	0x3ce6a6eb	0.028155765
210	0x3c315b63	0.010825011
211	0x3c16253e	0.009164153
212	0xbcc4a7f4	-0.024005868
213	0xbca297cb	-0.019847771
214	0xbcf218f2	-0.02955291
215	0x3ce29bf0	0.027662247
216	0x3d25afc5	0.04045083
217	0x3c864b02	0.016393188
218	0x3c863238	0.016381368
219	0xbd35eb9e	-0.044414155
220	0xbcdb3120	-0.026756823
221	0xbcee631f	-0.029099999
222	0x3ca4eced	0.020132506
223	0x3be0f206	0.006864789
224	0x3b36d0ef	0.002789553
225	0x3b59b11a	0.0033217133
226	0xbc704dc3	-0.014666977
227	0xbc5f6425	-0.013634716
228	0xbbd8003a	-0.006591824
229	0xbc20d64b	-0.009816716
230	0xb9327942	-0.00017020575
231	0x3c8fc907	0.017551912
232	0xbc11ee46	-0.0089069065
233	0x3b8d9d99	0.0043217656
234	0xbcb21ed6	-0.02174322
235	0xbc9d6ddc	-0.019217424
236	0xbc825465	-0.015909383
237	0x3c15a94c	0.009134602
238	0x3c6dac92	0.014506476
239	0x3bc7f800	0.006102562
240	0x3b894485	0.0041890764
241	0x3b1e03e5	0.0024111208
242	0xbc9c15c9	-0.019053357
243	0xbc264f68	-0.010150768
244	0x3b878322	0.0041355053
245	0x3d72b2bf	0.059252497
246	0x3c87656b	0.016527852
247	0x3c51b7c2	0.012800159
248	0x3a171205	0.0005762878
249	0xbc7ec7ef	-0.015550598
250	0x3c920d53	0.01782862
251	0x3c04cb37	0.008105091
252	0xbba87ea5	-0.0051420503
253	0x3b6db253	0.003626962
254	0x3b85ccab	0.004083236
255	0xbbaf85df	-0.005356535

MatMul_1 f4 [128, 128]
0	0x3db446d1	0.0880257
1	0xbd13f45f	-0.036121722
2	0xbdaf4b1f	-0.0855925
3	0x3ca46ceb	0.020071467
4	0xbc780ed5	-0.015140255
5	0xbc7e4bb5	-0.01552098
6	0xbd6b2d36	-0.057416163
7	0x3c80ac53	0.01570717
8	0x3d5500d4	0.052002743
9	0x3d98423e	0.0743451
10	0xbd12f279	-0.03587577
11	0xbc76422b	-0.015030424
12	0xbb196a50	-0.0023409314
13	0x3d72fea1	0.059324864
14	0x3d3dd9a1	0.046350125
15	0xbd4a8380	-0.049441814
16	0x3db4d1be	0.08829068
17	0x3d81d34a	0.06339128
18	0xbd9c427c	-0.076298684
19	0xbc824fbf	-0.015907167
20	0xbc85272f	-0.016254036
21	0x3d8d8207	0.069095664
22	0xbd4a63c7	-0.04941156
23	0x3d8f64cf	0.070016496
24	0xbd0b27a5	-0.033973355
25	0xbcaf3c8e	-0.02139118
26	0xbc2470f6	-0.010036698
27	0x3d8155bb	0.0631518
28	0xbd8af877	-0.06785672
29	0xbc281508	-0.0102589205
30	0x3d070d9c	0.032971963
31	0x3d8921c1	0.06695891
32	0x3ced234e	0.028947499
33	0x3d5573d0	0.0521124
34	0x3cad29ab	0.021138033
35	0x3d9ab4e9	0.07554037
36	0xbcd0470f	-0.025424508
37	0xbd88e71f	-0.06684708
38	0xbd87b008	-0.06625372
39	0xbca55f33	-0.020186996
40	0xbd9f33fb	-0.07773586
41	0xb8ae130d	-8.300515e-05
42	0x3d241cc0	0.04006648
43	0xbbc285af	-0.0059363465
44	0xbdb07801	-0.08616639
45	0xbc24903a	-0.010044152
46	0x3d964740	0.073378086
47	0x3c9ca03e	0.019119378
48	0x3d2e1bcd	0.04250698
49	0x3d863ea1	0.06554914
50	0xbc27bf75	-0.010238518
51	0x3cef0c23	0.029180592
52	0x3da266e1	0.07929779
53	0xbd4d7d51	-0.05016834
54	0x3c9ee1f6	0.019394856
55	0xbcc4ecd9	-0.024038719
56	0xbdae2ae8	-0.085042775
57	0xbd22ea68	-0.03977433
58	0x3cedbd55	0.029020945
59	0xbd065eab	-0.032805126
60	0xbb8fec08	-0.004392151
61	0xbd4b1e11	-0.04958922
62	0x3d459b26	0.048243664
63	0xbd3f6180	-0.046723843
64	0x3c117b7e	0.0088795405
65	0x3d41bec8	0.047301084
66	0x3aebf4c2	0.0018002021
67	0xbd3e8d74	-0.04652162
68	0x3d9468d6	0.07246558
69	0xbd13c0ec	-0.036072657
70	0x3d560523	0.052250993
71	0xbc6118c7	-0.013738818
72	0xbb14f73e	-0.0022730376
73	0xbbc3ab5d	-0.005971356
74	0x3d8414f5	0.0644931
75	0xbc58b865	-0.013227557
76	0x3d44df50	0.04806453
77	0x3da15a77	0.07878583
78	0xbd4e6e98	-0.05039844
79	0x3d91df0e	0.071226224
80	0x3d8bee60	0.06832576
81	0xbd22f135	-0.039780814
82	0xbc9ed750	-0.019389778
83	0xbd57b029	-0.052658234
84	0xbd7ca8ff	-0.061684605
85	0xbd570a7d	-0.052500237
86	0xbd0b9198	-0.034074396
87	0xbd2f93bc	-0.0428655
88	0xbdbc5f6f	-0.0919789
89	0xbc549fa4	-0.012977514
90	0x3d749683	0.05971385
91	0x3b4241a9	0.0029641187
92	0xbd1c97cf	-0.038230713
93	0x3c1d9d45	0.0096200155
94	0x3bc6299d	0.006047441
95	0x3b12ff4b	0.0022429998
96	0xbc333ab6	-0.010939291
97	0x3d4d9e11	0.050199572
98	0x3da08fd8	0.07839936
99	0xbdaa246d	-0.08307729
100	0x3d5bd368	0.05366841
101	0x3b5dffe3	0.0033874444
102	0x3dab2579	0.08356757
103	0xbcf5d3f3	-0.030008292
104	0xbce2d8f1	-0.027691336
105	0xbb53739f	-0.003226496
106	0xbd5d2594	-0.053990915
107	0xba5e7a88	-0.00084868865
108	0xbd4727f9	-0.048622105
109	0x3c94bf17	0.018157525
110	0x3d5ab0e9	0.05339137
111	0xbd218470	-0.039432943
112	0x3cf0957d	0.029368157
113	0xbcd5f443	-0.02611745
114	0xbd97651c	-0.07392332
115	0xbc21aff1	-0.009868608
116	0x3d099cc3	0.033596765
117	0xbcf49eac	-0.029860817
118	0x3886c21a	6.425772e-05
119	0xbcc88d21	-0.024481358
120	0x3c467ba2	0.012114437
121	0x3ca9faa1	0.020749392
122	0x3d63f9ad	0.05565803
123	0xbd8d8917	-0.069109134
124	0x3ac34f9e	0.0014901047
125	0xbc6e95d2	-0.014562087
126	0x3ca206d7	0.019778652
127	0x3d458d62	0.048230536
128	0xbcaae2d3	-0.020860111
129	0xbdb21012	-0.086944714
130	0x3d423b16	0.04741963
131	0x3d9da3d3	0.076972626
132	0xbd84660f	-0.06464779
133	0xbd86fc25	-0.065910615
134	0x3c79e634	0.015252639
135	0x3c672fcb	0.014110516
136	0x3da0bb4a	0.078482226
137	0xbb032321	-0.0020009952
138	0x3c041a4e	0.008062912
139	0xbd01ea7e	-0.03171777
140	0xbd494e2e	-0.049146824
141	0xbc974a69	-0.018468099
142	0xbc7d44da	-0.01545831
143	0x3cee947c	0.029123537
144	0xbdc5a679	-0.09650893
145	0xbd0d9fcb	-0.03457622
146	0xbcb58d00	-0.02216196
147	0x3d738631	0.059454147
148	0x3ca5dfe6	0.020248365
149	0x3d4f6919	0.05063734
150	0x3d4a5d7d	0.049405564
151	0xbc469a3d	-0.012121734
152	0xbd28f352	-0.041247673
153	0x3cf47c07	0.029844297
154	0xbcddfd82	-0.027098421
155	0x3d7e7237	0.062120643
156	0x3cdd31b5	0.027001241
157	0xbdadd711	-0.08488286
158	0xbd8307f6	-0.06398003
159	0x3c310879	0.010805243
160	0x3d1f716f	0.038926538
161	0xbd8c6ea6	-0.06857042
162	0xbce202f2	-0.027589295
163	0x3d928d5e	0.0715587
164	0xbd3c878f	-0.046027716
165	0xbda44e3a	-0.08022733
166	0x3d360aea	0.044444002
167	0x3d10f50c	0.035389945
168	0x3cf6ef5f	0.030143438
169	0x3d317cdf	0.043331977
170	0x3d2c75ac	0.04210441
171	0x3d82c6c8	0.06385571
172	0xbcd0729f	-0.02544528
173	0xbc30f403	-0.010800364
174	0xbd746293	-0.05966432
175	0x3d827f50	0.06371939
176	0xbda06bb5	-0.078330435
177	0x3c79e0a5	0.015251313
178	0x3d8b7de2	0.068111196
179	0xbca265ff	-0.019824026
180	0x3a9dddb0	0.0012044217
181	0xbd615564	-0.055013075
182	0xbd92b0a8	-0.07162601
183	0xbcde3f74	-0.027129866
184	0x3d868525	0.06568364
185	0xbd02fbda	-0.031978466
186	0x3d66690e	0.05625253
187	0x3d7d5447	0.06184795
188	0x3d4022be	0.046908133
189	0xbd3f70e1	-0.04673851
190	0x3d8472b6	0.06467192
191	0x3d87eb88	0.06636721
192	0xbdac9acf	-0.08427965
193	0x3d979552	0.074015275
194	0x3c829a85	0.015942821
195	0x3d75c59f	0.06000292
196	0x3d6047b2	0.054755874
197	0x3d5e63b0	0.05429429
198	0x3d033352	0.032031365
199	0xbcadb069	-0.021202283
200	0x3d6bfc37	0.057613578
201	0xbc513f52	-0.012771444
202	0xbced868a	-0.028994817
203	0xbdbbe6ec	-0.09174904
204	0xbb8eaee5	-0.004354345
205	0xbda37b78	-0.07982534
206	0xbdb62697	-0.08894079
207	0x3d37fe31	0.04492015
208	0x3c19fb4c	0.009398293
209	0x3b8c48eb	0.0042811534
210	0x3d53db08	0.051722556
211	0xbcc59b92	-0.024122033
212	0xbd9f53fd	-0.07779691
213	0x3d521b35	0.051295478
214	0x3d6ae534	0.05734749
215	0xbb7bf65b	-0.00384464
216	0xbb157203	-0.0022803552
217	0xbdabdd93	-0.08391871
218	0xbcbb09a5	-0.022831747
219	0xbd5f34a3	-0.054493558
220	0xbb88376c	-0.0041569974
221	0x3d72229a	0.05911503
222	0x3d994094	0.074830204
223	0xbd97677f	-0.07392787
224	0x3d82a90d	0.063799
225	0xbd87ad73	-0.0662488
226	0x3da50b48	0.08058792
227	0x3d2ebc99	0.04266033
228	0x3d4891ef	0.048967298
229	0x3cdeda6b	0.02720376
230	0xbca2437c	-0.01980757
231	0xbd50b61a	-0.050954916
232	0x3d95b9d0	0.073108315
233	0x3d129bce	0.03579312
234	0xbd3d0a81	-0.046152595
235	0x3d6830f2	0.056687303
236	0x3d2e8dbe	0.042615645
237	0xbcd9f751	-0.026607187
238	0xbd40250c	-0.04691033
239	0xbda5c135	-0.08093492
240	0x3cee1c98	0.029066369
241	0xbda47d6c	-0.08031735
242	0xbd632bd5	-0.055461723
243	0xbd8b48ad	-0.06800971
244	0xbd8de647	-0.069286875
245	0xbdaca436	-0.08429758
246	0x3d01026a	0.031496443
247	0xbd3cfd89	-0.046140227
248	0xbb8abef5	-0.0042341896
249	0x3d1e9d75	0.03872438
250	0xbd864bdd	-0.065574385
251	0xbbac0d38	-0.0052505992
252	0xbd931139	-0.07181019
253	0x3da61a36	0.08110468
254	0xbce1e9fc	-0.027577393
255	0x3d5d90c1	0.054093126

MatMul_2 f4 [1, 128]
0	0xbcdfd098	-0.027321145
1	0xbd5ab03f	-0.053390738
2	0xbd596958	-0.05307898
3	0xbe22769d	-0.1586556
4	0xbbb0e66e	-0.005398563
5	0x3dc665f0	0.09687412
6	0xbbae5930	-0.0053206906
7	0xbc973139	-0.018456088
8	0x3db0f385	0.08640198
9	0x3d865722	0.06559588
10	0xbe1edbe2	-0.15513566
11	0x3d799471	0.06093258
12	0x3dd80589	0.10547931
13	0xbe1abff8	-0.15112293
14	0xbe05670c	-0.1302759
15	0x3dc20af2	0.09474744
16	0x3c97894f	0.018498091
17	0x3dfb8b7c	0.12282464
18	0x3d8fc034	0.07019082
19	0x3ddf39db	0.10899707
20	0x3d676695	0.056494314
21	0x3cc0aee5	0.023520896
22	0xbe0bb77c	-0.13644212
23	0x3e365d31	0.17808987
24	0xbded96c0	-0.11601019
25	0x3df7a9ba	0.1209292
26	0x3ceb3f77	0.028716786
27	0x3dcb2bc3	0.09920456
28	0x3db500cd	0.08838043
29	0x3d83915c	0.064242095
30	0x3cb2ee96	0.021842282
31	0xbe1bd581	-0.15218164
32	0x3dd291b3	0.10281696
33	0xbb7d9caa	-0.0038698115
34	0xbe1cd70a	-0.15316406
35	0x3dbb44a7	0.09143954
36	0x3d36347d	0.04448365
37	0xbe536edc	-0.20647758
38	0x3df09123	0.11746433
39	0xbd9fa9c5	-0.07796053
40	0x3da09492	0.078408375
41	0x3d9f8f7d	0.0779104
42	0x3d47b28e	0.048754267
43	0x3d9c11ef	0.07620608
44	0xbdd027ca	-0.10163839
45	0x3ddc1ebf	0.10748052
46	0xbd8a3953	-0.06749215
47	0x3d978a13	0.073993824
48	0xbe34b669	-0.17647709
49	0xbe25036d	-0.16114588
50	0x3d7d3e5e	0.061827056
51	0x3d19e61a	0.037572958
52	0x3d7fe469	0.06247369
53	0x3c9813bd	0.0185641
54	0x3dacc6c9	0.08436353
55	0x3b120d1c	0.0022285646
56	0xbe0b8405	-0.1362458
57	0x3dce71cb	0.10080298
58	0x3e0876a3	0.13326506
59	0xbe0b9b9b	-0.13633578
60	0x3c994120	0.018707812
61	0x3dabdb77	0.08391469
62	0xbc1309bd	-0.00897449
63	0xbd76cef3	-0.060255956
64	0x3d8a51f6	0.06753914
65	0x3d2dbc5d	0.042415965
66	0xbe22ba72	-0.15891436
67	0xbc0f31a0	-0.008739859
68	0x3db8b2c6	0.09018473
69	0x3dba3732	0.09092559
70	0xbdff678e	-0.12470923
71	0x3de8f466	0.1137474
72	0x3b4b1122	0.0030985554
73	0xbda74fd7	-0.08169525
74	0xbe2b0e68	-0.16704714
75	0x3dded414	0.108802944
76	0x3dabada3	0.08382728
77	0x3e02b198	0.12763059
78	0xbdf45872	-0.11930932
79	0xbe0b1f08	-0.13586056
80	0x3dc92b7b	0.09822746
81	0x3e01bdb4	0.12670022
82	0xbbe9e7df	-0.007138237
83	0x3d221143	0.039567243
84	0xbe1b83c9	-0.15186991
85	0x3db49d20	0.08819032
86	0x3dc0c9f4	0.094135195
87	0x3d52c5ea	0.051458277
88	0x3d64f348	0.055896074
89	0x3daa9eca	0.08331068
90	0xbbd36d2a	-0.0064522224
91	0x3db9cac1	0.09071875
92	0xbe0ad498	-0.1355766
93	0x3daa269b	0.08308145
94	0x3d205ef2	0.039153047
95	0x3cd283fd	0.025697703
96	0x3d6464fe	0.055760376
97	0x3e185127	0.14874707
98	0xbe07c2ca	-0.132579
99	0xbceca4ac	-0.028887115
100	0x3c0da488	0.008645184
101	0x3c6e5812	0.014547365
102	0xbe3afe4b	-0.18261068
103	0x3d95e873	0.07319727
104	0x3d5a1ffd	0.053253163
105	0xbd72c688	-0.059271365
106	0x3c9abf1a	0.018889952
107	0xbe199b72	-0.15000704
108	0x3daf570c	0.08561525
109	0x3e0dd4c6	0.13850698
110	0xbaaca5d4	-0.0013171979
111	0xbe222c84	-0.15837294
112	0xbc3eff12	-0.011657493
113	0x3c8bc8c4	0.017063506
114	0xbadf4631	-0.0017034468
115	0x3c99046b	0.018678864
116	0xbe097c0b	-0.13426225
117	0x3c853779	0.016261803
118	0x3e13e8a2	0.14444211
119	0x3cd79a78	0.026318774
120	0x3b855246	0.0040686456
121	0x3d9df9e1	0.07713676
122	0xbbf2a33d	-0.0074047134
123	0xbe1a1d36	-0.15050206
124	0xbe06ac08	-0.13151562
125	0x3de0331b	0.109472476
126	0x3dfcd259	0.12344808
127	0xbe292475	-0.16517814
