wkey/openwakeword_models/heycomputer3.tflite (tflite, 860700 bytes, 9 tensors)

Const_1 f4 [128]
000000 72 8b e4 bb 35 11 55 3b 50 f4 e9 bc c2 64 34 bc
       -0.006974631 0.0032511477 -0.02855888 -0.011010351
000010 33 80 9a bc 73 1d 85 bc 07 36 9b bb ee e3 b8 3c
       -0.018859958 -0.016249394 -0.004736665 0.022569623
000020 5f f0 1f 3c 20 1d 98 bc b4 c3 80 bc d1 42 68 3c
       0.009761899 -0.018568575 -0.015718319 0.0141760865
000030 cd ec 97 3c 8b 64 4a 3b 21 c4 b5 bb 09 e7 90 bc
       0.018545533 0.0030882682 -0.005547062 -0.017688291
000040 78 25 77 3a 23 ea a0 bc 5f 3a ac bc 26 39 33 bc
       0.00094278855 -0.019642895 -0.021023927 -0.010938918
000050 c9 ec 73 3b 13 af 86 bc 26 62 99 ba 1e 41 31 bc
       0.0037219992 -0.016440904 -0.0011702224 -0.010818748
000060 a1 e9 e7 3a 18 c6 60 3c 07 69 5d 3c e9 d7 fd bb
       0.0017693528 0.013719104 0.01351381 -0.0077466858
000070 9d 81 ee 3c 8d 3f c7 3c 38 d0 2b 3c 98 a0 41 3b
       0.029114539 0.024322296 0.010486655 0.0029545184
000080 ef 1e c0 3c 18 61 14 bc 3f 89 25 3c 01 05 ae bc
       0.02345225 -0.009056352 0.010103523 -0.02124262
000090 25 24 22 3b 76 12 9d bc 07 76 66 bc df c9 44 bc
       0.0024740782 -0.019173842 -0.014066226 -0.01201102
0000a0 8b 2d ad 3c 66 82 49 3c 8e 49 a1 3c ef aa d7 bc
       0.02113988 0.012299156 0.019688394 -0.026326625
0000b0 4a 00 73 bc d0 ac 23 3c 9a 48 b0 bb 04 e7 02 3c
       -0.014831612 0.009989932 -0.0053797485 0.007989649
0000c0 71 38 b7 3c a8 f5 a9 bc c8 a1 f7 3c 66 7a b0 3a
       0.02236578 -0.02074702 0.03022851 0.0013464212
0000d0 db aa 4b 3b b8 16 92 bc c6 18 1b 3c d8 11 61 bc
       0.003107718 -0.017833099 0.009466356 -0.013737164
0000e0 52 82 2f bc f3 bd 6a bc 00 cc 89 bc fc ec 67 bc
       -0.010712223 -0.014327514 -0.016820908 -0.014155623
0000f0 7b f9 ca bc 70 83 bc ba d2 fe 8f 3c 31 2d f1 3b
       -0.024777165 -0.0014382433 0.017577562 0.0073601236
000100 05 08 b0 bc b1 f9 34 3c 08 97 8d 3b 9c fd 7c bc
       -0.021488199 0.011045859 0.004320983 -0.015441325
000110 ee 5f a7 3c b2 d0 aa bc db 25 c9 3b 85 24 bb 3c
       0.020431485 -0.020851467 0.006138546 0.022844562
000120 47 21 0a 3c ca b9 9a 3c fc 2e d2 3c 22 68 91 bc
       0.0084307855 0.01888742 0.02565717 -0.01774985
000130 c5 f3 8a 3b c3 1f 75 bc 10 74 4d 3c f5 0a 58 3c
       0.0042404854 -0.014961186 0.0125398785 0.013186206
000140 9f c8 9f 3c 6d c1 c1 bc 15 b4 a9 bb e3 60 80 bc
       0.019504843 -0.023651803 -0.005178938 -0.0156712
000150 e9 b6 6f bc 71 c0 e9 bb 8f 0d 5e bc 1e 73 28 3c
       -0.0146310115 -0.0071335365 -0.013553037 0.010281352
000160 b8 0e 42 bc 93 ef 2d 3b fc a1 ca b9 d7 44 4b 3a
       -0.01184433 0.0026540502 -0.0003864913 0.00077540934
000170 ef 2d 01 3c 55 69 bc bc 8e 1f a4 bc 30 60 2b 3a
       0.007884487 -0.022999445 -0.020034578 0.00065374654
000180 cf 3c 5b bc aa d1 a1 bb a3 4c 5d bc 09 8d fb 3c
       -0.013381197 -0.004938324 -0.013507041 0.0307069
000190 83 bc ac 3a 4e 27 5d bc 22 26 71 bc 42 fd c7 3b
       0.001317874 -0.0134981405 -0.014718564 0.0061031887
0001a0 cb 4a 8e bc 78 c1 9e 3b af 74 55 bc 15 85 39 3c
       -0.017369648 0.0048448406 -0.013028308 0.011323233
0001b0 b2 bc 93 bc 50 a7 16 bc ee 46 5b bc fb 72 d6 3a
       -0.018034313 -0.009195164 -0.01338361 0.0016361171
0001c0 57 ca d6 bc 6c 1a da b9 4b cc 2d 3b 05 b3 54 3b
       -0.02621953 -0.00041599886 0.0026519473 0.0032455337
0001d0 81 0f 8f bb 68 e9 67 bc a2 48 88 3c 21 6c 08 bc
       -0.004365862 -0.0141547695 0.016636197 -0.008326561
0001e0 54 f9 46 3c 10 1d b5 3c 62 c3 54 3b c3 14 8c 3c
       0.012144405 0.022108585 0.003246509 0.017099744
0001f0 8b cc 99 bb c7 b9 44 bc ad dc c6 bb 0b 63 b4 bc
       -0.004693573 -0.012007183 -0.006068787 -0.022019884

Const_2 f4 [128]
000000 7d 0e 7e 3f 43 89 80 3f 2f 90 7d 3f 94 49 7d 3f
       0.9924086 1.0041889 0.9904813 0.98940396
000010 f7 93 7b 3f 8d d6 81 3f 1b 40 82 3f bf 7f 7d 3f
       0.9827265 1.0143601 1.0175813 0.9902305
000020 99 ab 7b 3f 31 f7 7d 3f 89 f9 80 3f 2e 16 81 3f
       0.9830871 0.9920531 1.0076152 1.0084894
000030 11 eb 82 3f 25 83 7e 3f a4 b5 7e 3f dd 2c 7f 3f
       1.0227987 0.9941886 0.9949591 0.9967783
000040 35 c8 7d 3f 0f 35 7f 3f f6 08 7d 3f 14 bd 81 3f
       0.99133617 0.99690336 0.988418 1.0135827
000050 42 3b 83 3f 64 5f 7f 3f bb 1a 7f 3f 02 c0 7d 3f
       1.0252459 0.9975493 0.9965016 0.99121106
000060 8a f6 78 3f ed c6 81 3f 3e ba 7a 3f 81 e7 7d 3f
       0.9725119 1.0138832 0.97940433 0.9918137
000070 e7 00 83 3f 55 8b 7f 3f df 7f 7c 3f 16 a9 89 3f
       1.023465 0.9982198 0.98632616 1.0754726
000080 ad 6a 7e 3f 10 e3 82 3f b3 15 7f 3f 7e 64 80 3f
       0.99381524 1.0225544 0.99642485 1.0030668
000090 3b a8 87 3f 0f ec 80 3f b0 e7 81 3f 05 26 80 3f
       1.0598215 1.0072039 1.014883 1.0011603
0000a0 98 94 7d 3f cc 86 7a 3f 0b db 80 3f c8 f2 7b 3f
       0.9905486 0.97861934 1.0066847 0.9841733
0000b0 d8 f6 7f 3f d3 6a 84 3f 38 5f 80 3f 24 7d 7f 3f
       0.9998603 1.03451 1.0029058 0.99800324
0000c0 46 40 7e 3f 54 e6 82 3f a2 3f 7c 3f c5 89 7f 3f
       0.99316823 1.022654 0.98534596 0.99819595
0000d0 4a 6d 80 3f 30 d5 7d 3f 2d d0 7f 3f 55 d9 81 3f
       1.0033352 0.99153423 0.99927026 1.014445
0000e0 e8 68 7f 3f 06 eb 83 3f 97 ff 7d 3f ce f0 7d 3f
       0.9976945 1.0306098 0.99218124 0.99195564
0000f0 27 66 7f 3f 04 ac 7b 3f d6 bb 81 3f 3f 57 7d 3f
       0.9976525 0.9830935 1.0135448 0.9896125
000100 30 84 7d 3f d8 a5 7e 3f 4d 87 7f 3f f2 24 80 3f
       0.9902983 0.9947181 0.9981583 1.0011275
000110 21 64 7c 3f 3c 04 81 3f 9e f6 85 3f 46 46 7a 3f
       0.98590285 1.0079417 1.0465887 0.9776348
000120 1d 03 80 3f 0e ca 7b 3f b4 5c 82 3f c9 07 83 3f
       1.000095 0.98355186 1.0184541 1.0236751
000130 ed fa 7e 3f 1f 25 7e 3f 48 27 81 3f c5 09 7e 3f
       0.9960163 0.9927539 1.0090113 0.9923366
000140 ba 9b 81 3f 8e fd 7c 3f 73 cd 7f 3f 6b e1 80 3f
       1.0125649 0.98824394 0.99922866 1.0068792
000150 af 6e 7e 3f 66 b5 7d 3f 16 a3 7a 3f 00 d1 7f 3f
       0.9938764 0.9910492 0.979051 0.99928284
000160 e3 12 7d 3f c2 5c 82 3f bd 25 83 3f 9f b5 81 3f
       0.98856944 1.0184557 1.0245892 1.0133551
000170 c9 33 7c 3f 07 eb 7d 3f fb 00 82 3f a8 0c 7e 3f
       0.9851652 0.9918675 1.0156549 0.9923806
000180 fb c0 80 3f 67 cb 82 3f 9c 17 7b 3f 2c e4 81 3f
       1.0058893 1.0218323 0.980829 1.0147758
000190 a4 7c 7e 3f e2 7e 83 3f 17 d6 7f 3f 32 a0 79 3f
       0.99408937 1.0273097 0.9993605 0.97510064
0001a0 26 4a 81 3f b2 ca 85 3f 72 b0 80 3f 47 9c 7f 3f
       1.0100753 1.0452483 1.0053847 0.99847835
0001b0 09 05 7e 3f 62 00 7f 3f c7 e9 7e 3f 85 73 7b 3f
       0.99226433 0.9960996 0.99575466 0.98223144
0001c0 19 a2 7e 3f 11 6a 7f 3f cc c2 7e 3f 40 b5 7b 3f
       0.9946609 0.9977122 0.99515986 0.9832344
0001d0 cd 5f 80 3f 12 0a 82 3f af 4c 83 3f 08 d2 7c 3f
       1.0029236 1.0159323 1.0257777 0.9875798
0001e0 b4 8b 7f 3f 5a 01 80 3f 0b 7f 7f 3f 16 8d 7d 3f
       0.99822545 1.0000412 0.9980323 0.99043405
0001f0 85 30 80 3f 52 4d 80 3f 78 77 76 3f e0 c0 80 3f
       1.0014807 1.0023596 0.96276045 1.0058861

Const_3 f4 [128]
000000 93 44 2d bc 23 68 69 3b d6 a7 20 bc 11 ac 98 3b
       -0.010575431 0.003561505 -0.00980564 0.004659184
000010 90 11 2c ba 1d 7a 26 bb 61 38 d4 3b e2 cf 10 bc
       -0.00065638963 -0.0025402375 0.0064764475 -0.008838626
000020 14 0b 26 bc 7a 96 ef 3a 2e 8b 83 bb 90 c9 e4 3b
       -0.010134477 0.0018279098 -0.0040143942 0.006982036
000030 81 3c 1e bb 25 a4 29 bc 33 79 ad b8 f7 5e b9 3a
       -0.002414495 -0.0103540765 -8.271858e-05 0.0014142682
000040 94 85 0e bc 27 e2 01 bc bf e0 d9 bb 2e dc e0 3b
       -0.00869884 -0.007927454 -0.0066491063 0.006862185
000050 95 c3 aa 3b f2 a1 60 b9 d6 f6 f7 ba 45 a5 c7 bc
       0.0052113035 -0.00021422634 -0.0018918167 -0.024370799
000060 17 65 5a bc 83 26 8d 3b 4a 52 59 bb 87 b5 a1 3b
       -0.013329766 0.0043075695 -0.003316062 0.00493497
000070 53 11 e0 3b b4 0e 40 3b 77 22 a9 bc d2 1b 40 3c
       0.0068380027 0.0029305639 -0.020646317 0.011725383
000080 a0 b2 86 bc f6 81 e3 bb ff 0e bc bb fb 0e 00 bb
       -0.016442597 -0.006942983 -0.0057390924 -0.001954018
000090 6f 5f 62 3c 96 b0 33 3b 68 74 90 ba 40 1b 69 3a
       0.013816698 0.0027418486 -0.001102102 0.0008892305
0000a0 1e fd a2 bb 82 9c 03 bc 69 36 51 bc c9 c4 35 bc
       -0.0049740216 -0.00803292 -0.01276932 -0.0110942805
0000b0 30 9f 75 ba 18 9d 86 3b 4f df 18 3a 5e 97 07 bc
       -0.0009369729 0.0041080825 0.00058316154 -0.008275835
0000c0 9d 3b fc 3a ec bd 88 3b 35 29 89 bb c9 64 f6 ba
       0.001924384 0.004173031 -0.0041858205 -0.0018798347
0000d0 d3 91 42 bb 19 19 18 bb ce a9 37 bc e4 36 46 3b
       -0.0029688969 -0.0023208319 -0.011209918 0.003024512
0000e0 ac b1 a0 bb 51 eb be 3b 29 68 de bb 05 a3 16 bc
       -0.0049039926 0.0058263917 -0.006787319 -0.00919414
0000f0 1e d5 46 3b d0 0c 83 bc 56 8c 0e 3b 34 e6 08 3c
       0.003033943 -0.01599732 0.0021751127 0.008355666
000100 9c 4d 0c bb 49 0f 79 3a 22 c6 a1 bb 53 3a 9d 3b
       -0.0021408563 0.0009500874 -0.0049369493 0.0047982126
000110 e5 fa b2 3b 1c cf e0 b9 82 b9 f4 3b 26 6f 60 bc
       0.005462038 -0.00042878918 0.0074684033 -0.013698375
000120 71 f9 8a 3a 8f b8 23 bc 01 dd aa 3b f1 3b c6 3b
       0.0010602904 -0.009992733 0.005214334 0.006049626
000130 be 2e 15 3c 10 9a a6 3b 19 fe c8 bb 8f d9 b8 bb
       0.0091053825 0.0050842836 -0.0061338064 -0.0056411694
000140 56 34 e2 3b 74 c9 3c bb 96 07 d1 3a 24 ba 22 ba
       0.0069032116 -0.00288066 0.0015947695 -0.00062075467
000150 62 01 8f bb d7 d2 3c bc 8e 93 a8 3b d7 09 7c ba
       -0.0043641785 -0.0115248775 0.005144543 -0.00096145034
000160 94 09 a4 bb 84 02 56 bb 36 a2 ed 3b 8f e1 40 3b
       -0.0050060246 -0.0032655308 0.007252003 0.0029431318
000170 ed 4f 32 bc a4 0c 60 bc 2d 7d cf 3b 2d e6 ae bc
       -0.010883314 -0.013674889 0.006332061 -0.02134999
000180 0e fa 04 3b 7b 4c bb 3b 80 5c 4c 3b ee 7a 99 3b
       0.0020290646 0.0057159043 0.0031183064 0.004683844
000190 8f 77 7a ba ba 14 98 3b 18 16 24 3b cf 37 c1 bb
       -0.0009554559 0.0046411427 0.0025037583 -0.0058965455
0001a0 48 55 42 bc 27 a7 12 3c 89 be c7 3a ce f8 4a bb
       -0.011861153 0.008950985 0.0015239279 -0.0030971053
0001b0 9b 17 f3 3a 02 67 6e 3b 2a 17 26 bb 94 9d 42 bc
       0.0018546464 0.0036377315 -0.0025343397 -0.01187839
0001c0 d0 79 df bb 2d ee 34 3b 92 5c 8d 3a da eb 3a bb
       -0.006819941 0.0027607784 0.0010785034 -0.0028521926
0001d0 e3 29 7a 3a 6b cd 03 3c 5a a7 ab 3b a3 2d 33 bc
       0.0009542985 0.008044581 0.0052384557 -0.010936174
0001e0 d1 1d 5c 3a 51 54 20 3c e1 20 0c 3c e8 ff 3c bc
       0.0008396777 0.009785728 0.008552761 -0.011535622
0001f0 80 d7 0d ba aa 81 96 3b df df 2e b9 90 98 dd 3a
       -0.0005410835 0.004593094 -0.00016677332 0.0016906429

Const_5 f4 [128]
000000 ee 77 93 bd 99 9a 95 bc c9 ca 82 3c c4 0c 90 bd
       -0.07200609 -0.018262194 0.015965836 -0.07033685
000010 f7 4a 9f bd 41 c4 4d 3d 19 63 a1 bc 54 8a b0 3d
       -0.0777797 0.05023599 -0.019700574 0.08620134
000020 d7 93 52 3d 91 24 dc 3c 05 80 1e ba d2 e5 04 bd
       0.051410522 0.026872905 -0.0006046298 -0.032445736
000030 1e af fe 3c 67 a9 6f bd 39 45 f6 bb c2 2c 14 bd
       0.031089362 -0.058511164 -0.007515576 -0.036175497
000040 79 56 83 bd 1a 5a c8 3c 55 97 d9 3b 35 10 a1 3c
       -0.06412978 0.024457026 0.0066403546 0.019661048
000050 80 98 29 3d 35 d9 b0 3d fc f2 a4 bd f5 af a1 3b
       0.0414052 0.08635179 -0.08054158 0.004934306
000060 f5 1e 24 bd 8a b5 a0 bd e9 0b 1e bd 00 9e 01 3d
       -0.040068585 -0.07847126 -0.038585577 0.03164482
000070 e7 b4 6e bd 9d 27 74 3d a9 6a 9d bd 0d 5e 1a 3d
       -0.05827799 0.05960809 -0.076863594 0.03768735
000080 0c 3d 3c bc 2e 73 a1 3d 8c d9 53 3d 44 e7 85 3d
       -0.011489164 0.07883297 0.05172114 0.06538251
000090 63 38 b8 3d 8c 01 05 3d 7a 51 54 3d e9 02 65 3d
       0.0899513 0.03247218 0.051835515 0.05591098
0000a0 68 db 87 3d bf 40 c3 bc ea 80 31 3d 11 9a 8e bd
       0.06633645 -0.023834584 0.043335833 -0.069629796
0000b0 42 06 34 bc 91 54 3d bd 5e 1e fe bc 6b 0e 9f bd
       -0.01098782 -0.046223227 -0.03102034 -0.07766422
0000c0 e6 14 2c 3c 61 9c ac 3c ab 82 1c bc 33 94 88 bd
       0.010503029 0.021070661 -0.009552638 -0.06668892
0000d0 33 b2 19 3d bb 94 4e 3d 1e 65 97 bd 5e e3 88 bd
       0.03752346 0.05043481 -0.073923334 -0.06683992
0000e0 5b ca 81 bd e4 f3 73 bc 56 48 db bc 18 eb 68 bd
       -0.06337424 -0.014889691 -0.02676789 -0.056864828
0000f0 02 43 4e bd 1f de 9b bd 36 b9 a8 3d 73 8d e0 3c
       -0.050356872 -0.076107256 0.08238451 0.027411198
000100 5f 39 12 3d 04 b1 74 3d 85 56 32 3c e0 bf e1 3c
       0.035699245 0.059739128 0.010884886 0.027557313
000110 56 79 31 bd 5e d2 76 bd e2 56 75 bd aa dc 20 3c
       -0.043328606 -0.060259216 -0.05989731 0.009818235
000120 29 52 9e 3d 25 18 8d bd bd 45 f4 3c ea 27 ac bd
       0.077305146 -0.06889371 0.02981841 -0.084060505
000130 8b 9d cd 3c 3c c7 a4 3d b1 f3 52 3d b4 11 9c 3c
       0.025099536 0.080458134 0.051501933 0.01905141
000140 02 dd 86 3d 06 cb fe 3c b5 e0 8e bc 9e 6e 2f bd
       0.06585123 0.031102668 -0.017441133 -0.042830102
000150 e3 01 35 bd 3c f8 9f bc 21 e0 73 bd d7 06 91 bd
       -0.044191252 -0.019527547 -0.059539918 -0.07081383
000160 a3 6c 87 bd a9 ac 21 3d 33 ae 9e bc d2 ad 8c bd
       -0.06612518 0.039471302 -0.019370174 -0.06869091
000170 51 37 a0 3d 65 36 9f 3d 16 56 a5 bd 28 74 1e bd
       0.07823051 0.07774047 -0.0807306 -0.038684994
000180 81 4a 2b bd c3 41 09 3d 9f c3 fc bc 16 64 b5 bd
       -0.0418191 0.03350998 -0.030854998 -0.088569805
000190 30 e3 01 bd 24 6e a1 3d 86 3d ab 3d f0 ff 32 3d
       -0.031710804 0.07882336 0.08361344 0.043701112
0001a0 c0 40 07 3d 19 6e 7c bb 22 ab 28 bd f2 46 06 bd
       0.033020735 -0.0038517772 -0.04117883 -0.032782502
0001b0 25 f9 73 bc de 70 3c 3c f4 51 64 bd b7 ac 4c bd
       -0.014890944 0.011501519 -0.05574222 -0.0499694
0001c0 d8 22 44 3d d1 a6 40 3d 8e 47 8d 3d 6b 1d 50 3d
       0.047884792 0.04703409 0.068984136 0.050809305
0001d0 5f cc a8 3d 80 5c 75 bc 32 a2 d7 bc 24 1a 3e 3d
       0.08242106 -0.014975667 -0.026322458 0.04641165
0001e0 e8 cc 32 3c c3 eb e0 bc df fd 9e bd b8 7e a2 bc
       0.010913111 -0.02745617 -0.07763266 -0.019835815
0001f0 d1 74 2d bc 15 d5 b4 bd 56 0f 6a bd 46 ce 89 3d
       -0.010586933 -0.08829705 -0.05714353 0.06728797

Const_6 f4 [128]
000000 e2 bf 7b 3f 7f 0a 86 3f e7 a2 8d 3f 2a f8 88 3f
       0.98339665 1.0471953 1.1065339 1.0700734
000010 d6 4c 79 3f 69 f3 8a 3f 61 44 8f 3f a9 98 8a 3f
       0.9738287 1.0855533 1.1192743 1.0827838
000020 b6 69 84 3f 82 bb 8c 3f 55 6d 8a 3f 94 69 83 3f
       1.034476 1.0994723 1.0814615 1.0266595
000030 83 62 89 3f 20 55 78 3f cd 4a 8d 3f 96 fd 84 3f
       1.0733188 0.9700489 1.1038452 1.0389888
000040 24 50 8c 3f 83 94 7c 3f 5f a6 84 3f 1a 25 85 3f
       1.0961957 0.9866411 1.0363272 1.0401947
000050 c6 c7 77 3f 10 a8 82 3f 10 f2 8a 3f f1 c6 80 3f
       0.96789205 1.0207539 1.0855122 1.0060712
000060 97 34 86 3f 24 4e 7f 3f b3 a9 8b 3f b4 1d 85 3f
       1.0484799 0.9972861 1.0911163 1.039969
000070 99 59 84 3f 2c 97 8a 3f d1 49 87 3f 6f 03 8d 3f
       1.0339843 1.0827384 1.0569402 1.1016673
000080 26 a2 82 3f 5d 8a 83 3f b6 72 84 3f 98 4b 85 3f
       1.0205734 1.02766 1.0347507 1.0413694
000090 ba a5 90 3f b9 d7 7e 3f 01 74 7f 3f c0 13 83 3f
       1.1300576 0.99547917 0.9978638 1.0240402
0000a0 58 a4 82 3f 96 51 84 3f 5a b1 88 3f c0 61 8c 3f
       1.0206404 1.0337398 1.0679123 1.0967331
0000b0 4f bb 84 3f 25 4a 84 3f 93 57 8c 3f 61 3c 83 3f
       1.0369662 1.0335127 1.0964226 1.0252801
0000c0 8d 5d 90 3f 72 7a 8e 3f 00 ed 8a 3f 58 f8 83 3f
       1.127855 1.1131117 1.0853577 1.0310163
0000d0 39 c8 90 3f 8d e3 81 3f 69 78 83 3f 7e 54 88 3f
       1.1311103 1.0147568 1.0271121 1.0650785
0000e0 a1 52 82 3f c0 01 82 3f 1b 26 8e 3f 31 5d 85 3f
       1.0181466 1.0156784 1.1105379 1.0419065
0000f0 5c 73 8c 3f 7d 0e 91 3f cd 14 8c 3f 9c 45 85 3f
       1.0972705 1.1332546 1.0943848 1.0411868
000100 5a 10 7f 3f a1 4d 87 3f a5 a3 8a 3f c7 c5 84 3f
       0.99634326 1.0570565 1.083119 1.0372857
000110 23 79 8c 3f a5 3f 88 3f 7e 22 87 3f d8 5d 7b 3f
       1.0974468 1.0644423 1.0557401 0.9819007
000120 c2 17 81 3f 6c 09 90 3f 1f 86 8d 3f 06 b3 84 3f
       1.0085375 1.1252875 1.1056556 1.0367134
000130 ed 91 85 3f 1e c5 89 3f 10 e4 8e 3f 18 0a 88 3f
       1.0435158 1.076328 1.1163349 1.062808
000140 5d 12 81 3f ea 9d 8b 3f 29 75 88 3f 49 27 8c 3f
       1.0083729 1.0907567 1.0660754 1.0949489
000150 07 9d 7f 3f f6 e1 8b 3f 53 04 8b 3f a9 09 85 3f
       0.9984898 1.0928333 1.0860695 1.0393573
000160 3d c0 8c 3f dd 37 8d 3f 05 4c 80 3f e6 dc 8d 3f
       1.0996166 1.1032673 1.0023199 1.1083038
000170 90 fc 81 3f 68 56 82 3f 43 e2 86 3f 23 b7 88 3f
       1.0155201 1.0182619 1.05378 1.0680889
000180 83 e4 81 3f 05 ec 81 3f 0f 03 80 3f 99 1e 88 3f
       1.0147861 1.0150152 1.0000933 1.0634338
000190 38 e8 7f 3f 51 61 7e 3f 21 48 84 3f d1 f7 7b 3f
       0.9996371 0.99367243 1.0334512 0.9842501
0001a0 63 17 80 3f 3d 8b 8b 3f 58 a5 8d 3f 01 03 80 3f
       1.0007137 1.0901867 1.1066084 1.0000917
0001b0 8e ea 7f 3f 25 29 7e 3f b0 9b 83 3f dd 02 7b 3f
       0.9996728 0.9928153 1.0281887 0.98051244
0001c0 51 fc 83 3f 41 e9 87 3f e8 17 7e 3f 11 7f 88 3f
       1.0311376 1.0618058 0.9925523 1.0663778
0001d0 72 ab 90 3f 9e 89 81 3f 9f 2b 8a 3f ed 65 82 3f
       1.1302321 1.0120122 1.0794562 1.0187355
0001e0 56 6f 8f 3f 8e 59 79 3f 24 b4 88 3f 46 df 84 3f
       1.1205852 0.97402275 1.0679975 1.0380638
0001f0 9c 69 82 3f ed 5a 83 3f e5 5e 84 3f 4a c4 89 3f
       1.018848 1.0262123 1.034146 1.0763028

Const_7 f4 [128]
000000 4c d3 c8 bc a3 cd f2 3c 7c 2b 66 3d 24 cd fd 3c
       -0.024514817 0.02963907 0.056193814 0.030981608
000010 c7 fc ab bc 86 34 95 3d 0c 71 3c 3d a9 6e 9e 3d
       -0.020994557 0.07285409 0.046006247 0.077359505
000020 1f c5 b7 3b 8e f0 ab 3d ae 7b 87 3d 1a 26 8d 3c
       0.0056082155 0.083954915 0.06615387 0.017230082
000030 e9 7b 92 3d d9 72 14 bd f9 e6 38 3d 56 0a a6 3c
       0.0715254 -0.03624234 0.045142148 0.0202686
000040 48 4c a1 3d db 87 df bc 93 2e 2d 3b a5 1c a4 3c
       0.078758776 -0.02728646 0.0026425465 0.02003319
000050 0c ac 32 bd d5 44 8d 3c 44 5a 8c 3d 25 41 b2 3c
       -0.043621108 0.017244736 0.06853154 0.021759579
000060 d5 78 b5 3c 1f 3f 90 bb 3e 8f 91 3d a3 3a 3a 3c
       0.022152344 -0.004402056 0.071073994 0.011366519
000070 2c d4 8f 3c 2a cf 8d 3d c9 d4 04 3d a1 e6 b6 3d
       0.017557226 0.06924279 0.03242949 0.08930708
000080 e2 fc 3f 3c 66 95 38 3c f1 b9 7b 3c 7c 3e 7f 3b
       0.011718007 0.011266088 0.015364156 0.0038947156
000090 bf 33 a1 3d dd b9 87 bb 9f fe 0f bc 96 67 80 3c
       0.07871198 -0.0041420297 -0.008788734 0.015674394
0000a0 bb ed 5e ba 8d 5f 77 3c aa 86 8e 3d 57 f7 ad 3d
       -0.00085040525 0.015098465 0.06959279 0.08494442
0000b0 19 3e 01 3d a6 0c 55 3c e8 8b a8 3d 63 0f 2d 3c
       0.03155336 0.013003504 0.0822981 0.0105627505
0000c0 3a 18 b4 3d 94 99 59 3d ab 24 91 3d e9 81 10 3c
       0.08793683 0.05312498 0.07087072 0.0088200355
0000d0 d3 94 ca 3d 12 1c a3 3c 9c ec bf 3c 57 14 e3 3c
       0.09891667 0.019910846 0.023428254 0.02771966
0000e0 0b 2f 43 3c 45 a3 af 3c 05 3e b6 3d ff a5 1e 3b
       0.011913071 0.021440158 0.08898548 0.0024207828
0000f0 19 21 a3 3d c2 76 c6 3d 37 22 92 3d 71 2d 9e 3c
       0.07965297 0.0969062 0.07135432 0.019308778
000100 89 79 8e bb 9d 68 92 3c 78 ef 93 3d 34 3c f9 ba
       -0.004347984 0.01787215 0.072234094 -0.0019015134
000110 1b cc 96 3c 77 49 9f 3d b9 7c 45 3c e3 c2 bb bc
       0.018407872 0.07777684 0.012053662 -0.022920078
000120 46 c9 f7 3b 02 65 7b 3d d1 c7 9d 3d 6d 8d 3a 3c
       0.0075618355 0.061375625 0.077041276 0.011386258
000130 6b e1 c1 3c 01 c7 1e 3d 2f 15 c3 3d 42 da 29 3d
       0.023667058 0.038764004 0.09525525 0.041467912
000140 c7 ea 0b 3d 5b 5b 93 3d 81 2e 85 3d 24 b8 90 3d
       0.034159448 0.07195159 0.065030105 0.07066372
000150 a2 f6 46 3b 0f 2e 95 3d 5b 5d 5d 3d ca a2 88 3d
       0.0030359407 0.072841756 0.05404411 0.066716745
000160 3c e2 aa 3d a9 41 a6 3d 1f d9 9c 3a ea fa 1c 3d
       0.08343932 0.081179924 0.0011966563 0.038325228
000170 f1 02 42 3d 13 b5 69 bb c7 3f ce 3c 93 03 36 3d
       0.047366086 -0.0035660907 0.025176896 0.044437002
000180 e3 5e 18 bb 7d ab 8a 3c 42 bc b5 ba 29 9d 85 3d
       -0.0023249916 0.016927475 -0.0013865309 0.065241165
000190 80 8b ff 3b ed 09 03 3b 8a 46 57 3c 41 10 2b bd
       0.007798612 0.001999493 0.013139376 -0.041763548
0001a0 e7 14 2f bc 1d 85 9b 3d 3e 7a 26 3d 9e 8d e3 3b
       -0.010686136 0.07593749 0.040643923 0.0069443723
0001b0 8b 1b 01 3c 11 28 28 bc 23 2e 91 3c 12 ea d9 bb
       0.007880102 -0.010263459 0.017722195 -0.006650218
0001c0 26 f8 22 3b 3c 9d 8e 3d ac a1 19 bb bf 9b 90 3d
       0.0024867146 0.06963584 -0.0023442311 0.07060956
0001d0 5e db b6 3d 14 f7 ee 38 12 80 93 3d b1 ac 35 3c
       0.0892856 0.00011394746 0.07202162 0.011088536
0001e0 5d 36 55 3d b3 ee 27 bd 20 db f1 3c 3c db b1 3c
       0.052053798 -0.040999126 0.029523432 0.021710984
0001f0 a3 40 3f bb 4c 6f 92 3b 01 41 15 3c d1 4a 8b 3d
       -0.0029182814 0.004468834 0.009109736 0.068013795

MatMul f4 [128, 1536]
000000 f0 85 b2 ba 14 97 d0 3b af 9e 95 3c 03 0c ba bb
       -0.0013620239 0.006365666 0.018264143 -0.0056777014
000010 a8 f6 dd 3c 54 d9 69 3c 67 37 2d 3c 79 71 08 bd
       0.027095154 0.0142730065 0.010572291 -0.03331134
000020 b5 84 91 bc cd e4 bd 39 ae 01 ac bc 1b 1e 5a bc
       -0.017763475 0.0003621936 -0.020996895 -0.013312842
000030 ce 2d 04 3b 77 57 fa bb ca de 13 3b ba 95 4d bc
       0.0020168903 -0.007639821 0.0022563213 -0.012547905
000040 77 32 88 3c 02 40 fb 3c d9 69 0e 3c 3a f6 48 3c
       0.016625626 0.03067017 0.008692228 0.012265736
000050 69 70 3c 3c 9c 7a 4d 3c bd 53 e1 bc 5b 0d 9c 3b
       0.01150141 0.012541439 -0.02750575 0.0047623343
000060 fa 8d d6 bc 6c 94 b7 3b 5d c0 a3 bc db 0b 1a bc
       -0.026190747 0.00560241 -0.019989187 -0.009402241
000070 01 07 60 3c 9b 27 b3 bc bd 0b a0 ba 97 40 da 3c
       0.013673545 -0.021869471 -0.001221053 0.026642127
000080 9f 46 b6 3a cd 02 e7 3b d3 df 83 bc 09 aa d4 ba
       0.0013906545 0.0070498944 -0.016097939 -0.0016224991
000090 cf e7 b3 bb 1c 89 a4 3c 1e 62 e1 bb fe 2f 96 3b
       -0.00549028 0.02008491 -0.0068781516 0.004583358
0000a0 af c7 62 bc e0 1c c9 bb ad 35 77 3c b7 5b 65 3c
       -0.013841554 -0.0061374754 0.015088481 0.013998917
0000b0 9a d6 d6 bc ef fe 1d 3b ce ab 6a bc 0c b7 09 bb
       -0.026225377 0.002410825 -0.014323188 -0.0021013645
0000c0 5d cb ae bc 57 67 96 bc 01 cc fd bc f1 57 88 bc
       -0.021337206 -0.018359823 -0.030981066 -0.016643496
0000d0 60 34 09 bc 63 90 32 3c eb 5a 67 bc e4 93 a2 bc
       -0.008374304 0.010898682 -0.014120798 -0.01984591
0000e0 e6 63 0f bc fe 65 6f bc d2 85 7c bc ff 38 b0 bb
       -0.008751845 -0.014611719 -0.015412765 -0.005377888
0000f0 aa 2d 9b 3c ee 2e b5 3c bc 66 47 bc e4 d5 7f bb
       0.018942673 0.022117104 -0.01217049 -0.00390374
000100 53 c5 3e bc 40 4f c4 3c 29 60 35 bc b1 a0 a1 bb
       -0.011643725 0.02396357 -0.01107029 -0.004932486
000110 69 9f 6e 3c ba 3d c0 bc 54 c5 87 bd ff 5b b6 3c
       0.0145643735 -0.023466934 -0.06629434 0.022260664
000120 0a f8 bf bb c1 94 20 bc 47 11 26 bb 5d 6c 4d 3c
       -0.005858426 -0.009801091 -0.0025339888 0.012538043
000130 a7 03 9e 3c 06 d4 9c 3b 18 bc 0e bb c1 c2 ae bc
       0.019288851 0.0047860174 -0.0021779593 -0.0213331
000140 bd c1 d6 3c b5 a1 23 3c 47 52 b3 bb 5c 02 94 bb
       0.026215428 0.009987284 -0.0054724547 -0.004516883
000150 26 9e 47 bb 6d 84 3e 3c 9e ff 30 3b 11 83 a9 bb
       -0.0030459254 0.011628252 0.0027007828 -0.005173095
000160 a7 6a 17 3c 6e 40 f9 b9 ce 6c 60 3c ca 7f cf bb
       0.0092417365 -0.00047540985 0.013697816 -0.0063323723
000170 7a b7 0c bb aa eb 49 3c 5d a3 c8 ba 93 db d4 bb
       -0.0021471665 0.012324253 -0.0015307475 -0.006495902
000180 f5 67 aa 3b 59 af 8f 3c ce 3b e3 bc 1e 14 85 bc
       0.005200381 0.017539667 -0.027738478 -0.016244944
000190 3b 23 96 3c 39 92 c0 bb 88 92 2d bc 46 c5 36 bc
       0.018327346 -0.005876806 -0.010594018 -0.011155432
0001a0 ce 3b 11 3c 24 0c 61 3c b2 67 d2 3b b7 75 a6 bc
       0.008864356 0.013735805 0.006421053 -0.020319803
0001b0 49 50 b2 bc 0c 9e 0b bd 3a af e2 bc 64 fc 2d bb
       -0.021766799 -0.034086272 -0.027671445 -0.0026548142
0001c0 6f 25 33 bc c1 05 8c 3c 2f 1d 31 bc a0 b2 27 3c
       -0.010934218 0.017092587 -0.010810181 0.010235459
0001d0 13 6e 02 3c 4b 1f ad 3b 33 88 06 bc 94 67 d6 bc
       0.007960814 0.0052832714 -0.008211183 -0.026172437
0001e0 9d 33 a6 bc 1d 8e 54 bc f1 ea 52 3c 49 be 03 bc
       -0.020288283 -0.012973336 0.012873397 -0.008040973
0001f0 dc 4c a2 bc 22 7f 44 3c 6c da ab bc ab 30 8d 3c
       -0.01981204 0.011993201 -0.020978175 0.01723512
000200 4d 04 e8 b9 6d 63 c4 bc eb 10 d2 bb f8 08 04 3a
       -0.00044253693 -0.023973191 -0.006410708 0.0005036737
000210 57 9f 30 3c df c3 23 bc 27 33 86 3b f4 64 c7 bb
       0.010780177 -0.00999543 0.0040954533 -0.0060850326
000220 df a9 f2 ba 32 5e e7 3c 36 81 d6 3c fc 66 9e bc
       -0.001851376 0.028243158 0.02618466 -0.019336216
000230 3f 12 38 bc a5 e8 11 bd 47 c1 90 3b 5f 05 b7 b8
       -0.011234819 -0.035622258 0.0044175717 -8.7271204e-05
000240 27 ef 35 bc 02 6e 35 bc ca 24 e9 bc 38 3a 05 3c
       -0.011104382 -0.011073591 -0.028459925 0.008131556
000250 43 3d 1a 3b 25 31 f9 bb 65 2c 57 3c 2f de d8 3b
       0.002353505 -0.0076047354 0.013133143 0.006618283
000260 6c f4 d5 3c 5c 20 a9 3b 18 82 6d 3c ac 40 8b 3c
       0.026117526 0.0051613282 0.014496349 0.016998611
000270 8c 18 de 3b 64 ac 58 3c ec f3 84 3c 0a b2 b0 39
       0.0067778286 0.013224695 0.016229592 0.00033701985
000280 7e 1a 33 3c f7 c4 b6 bb fc 6f c5 bb 94 fd 63 bc
       0.010931609 -0.0055776793 -0.0060253125 -0.013915438
000290 16 21 d9 3b 5c 9f dc 3b 54 44 77 bd 3e 95 36 3c
       0.0066262586 0.0067328643 -0.060367897 0.011143981
0002a0 f1 3e 85 bc 8b eb b0 3c c2 a8 e4 3c 5f 09 1f ba
       -0.016265364 0.02159669 0.027912501 -0.0006066765
0002b0 30 3b 33 bc af eb db ba 1b 91 90 bc d7 ce 68 3c
       -0.010939404 -0.0016778613 -0.017647317 0.014209471
0002c0 63 b7 b9 3c 22 d5 9e bc d0 a7 23 ba b8 1d 15 3a
       0.022670453 -0.019388739 -0.00062429626 0.00056883274
0002d0 8d 8e 53 3c a5 01 45 3c b7 25 b3 bc d4 e7 66 bb
       0.012912405 0.012024318 -0.02186857 -0.0035233395
0002e0 9e 18 06 3d 95 c3 77 bc 01 d6 e1 3c 70 52 b4 3b
       0.03273832 -0.015122314 0.027567865 0.0055029914
0002f0 c5 c5 39 3b b3 a3 89 bc b2 73 b2 3c 51 ef 04 3c
       0.002834664 -0.01680169 0.021783683 0.008113698
000300 04 1d 67 bc 0e 72 29 3c 25 5c 55 bc 32 85 90 bc
       -0.014106039 0.010342134 -0.013022457 -0.017641637
000310 bc d1 e8 3c 41 a9 50 3c 31 20 29 3c 97 f3 01 bc
       0.028420322 0.012735666 0.010322616 -0.0079316115
000320 71 63 48 bb 73 5e 63 3c 2d ec a1 bc 14 a3 9a 3b
       -0.003057685 0.013877499 -0.019765938 0.0047191475
000330 1a ac 21 bc 89 52 35 bc c0 7e ec 3b 1b 60 90 bc
       -0.009867692 -0.011067041 0.007217258 -0.017623952
000340 2e fd 5a bc 84 b4 58 3c bf ff ae bc b8 cf c1 3c
       -0.013366027 0.013226632 -0.021362184 0.023658618
000350 12 92 d1 3b 6d 97 1e bc 23 47 3f 3c f5 1b 3b 3c
       0.0063955868 -0.009679657 0.011674675 0.01142024
000360 1f 42 39 ba 69 c5 8f 3c 09 52 89 bb 21 b6 b6 bc
       -0.0007067043 0.017550187 -0.0041906876 -0.022303643
000370 6d 2e 98 bc 91 76 24 3b 8e 54 59 3c ff 7e 11 bc
       -0.018576825 0.0025095085 0.013264788 -0.008880376
000380 72 7a e0 bb 8b 90 36 3c e7 06 7d 3b 47 d6 b3 3c
       -0.006850534 0.01114286 0.003860885 0.021952761
000390 70 08 1c bc a8 3d da 3c cb c9 87 bc 0e 3a 83 3c
       -0.009523496 0.026640728 -0.016575715 0.016018894
0003a0 65 2c 56 3c 9b 4c bc 3c 3b a4 07 3c fe b2 82 bc
       0.013072108 0.022985747 0.008278902 -0.01595449
0003b0 6a 81 db bb b3 0e 93 3c f0 e5 a1 bc 4f f5 21 3c
       -0.006698777 0.017951345 -0.019762963 0.009885146
0003c0 f3 e3 3e bc e3 a0 66 3c 28 3c c0 bc a6 42 93 bc
       -0.011651027 0.014076444 -0.023466185 -0.017976116
0003d0 36 6b c4 3c 0b ca 76 3a ba 08 04 3b 1b ce d7 bc
       0.023976903 0.0009414262 0.0020146803 -0.026343396
0003e0 58 ba 0c bd f3 c4 e9 3c 0e 3f 7f bc 02 f5 ca bc
       -0.0343574 0.028536296 -0.015578998 -0.024775032
0003f0 7a 88 a1 3c c6 a7 3b bc 46 8e f6 3a e5 93 cb 3b
       0.019718397 -0.0114535745 0.0018810711 0.0062126988

MatMul_1 f4 [128, 128]
000000 a1 a9 c4 3c 37 a7 6d 3d 9a 49 00 3d 59 1d 47 3c
       0.024006667 0.058020797 0.031320192 0.012152993
000010 62 ed c8 bc 96 62 84 bd 75 6c 8b bd 9a 46 7b 3d
       -0.024527255 -0.06464116 -0.06807796 0.061346628
000020 b6 76 01 3d 95 f3 1d bd d5 9f 97 3c 9e 88 d6 bc
       0.031607352 -0.038562376 0.018508831 -0.026188191
000030 c1 df 12 bc f7 cb a2 bc e9 b8 a7 3d 10 70 a7 3d
       -0.00896448 -0.019872649 0.08189566 0.08175671
000040 7e d1 2d bd ed 4f 74 bd 68 47 21 bd d9 50 1f bd
       -0.042436115 -0.059646536 -0.03937474 -0.03889546
000050 82 5e e3 3c 14 8b 8e bd 58 9e c8 3a ca a9 a2 3d
       0.027755026 -0.06960121 0.0015305979 0.07942541
000060 fa 63 63 3b 90 0e 59 3d c8 95 a6 bd 88 95 44 bc
       0.0034697042 0.052992404 -0.08134037 -0.011998542
000070 7c aa 34 3c 20 8f 20 3d 61 af 8f bd ce 8a 6e bd
       0.011026975 0.039198995 -0.07015873 -0.058237843
000080 ed 0c 23 bd 0d 85 42 bb 3b 6c c1 3d 9f be 23 3b
       -0.03980725 -0.0029681355 0.094444714 0.0024985445
000090 33 a7 80 bd d1 25 a8 3d b4 bf 69 bd c8 b7 32 bd
       -0.06281891 0.08210338 -0.057067588 -0.0436323
0000a0 9f 0f 2a 3c 18 37 8c bc 24 c0 27 bd df 90 67 bd
       0.010379701 -0.017116114 -0.040954724 -0.056534644
0000b0 49 e3 9b 3d 88 04 b2 3c df ac 67 3d 29 ea 99 3d
       0.076117106 0.021730676 0.056561347 0.07515366
0000c0 34 2f 05 3d e0 85 fa 3c e0 fc ff bc 14 9b 22 bc
       0.03251572 0.030581415 -0.03124851 -0.009924669
0000d0 37 b2 24 bd d5 86 2e 3d 40 55 64 3c 1f 48 0e bd
       -0.04020902 0.042609055 0.013936341 -0.03473675
0000e0 e9 92 26 3c 1a a0 06 3d 2b f0 10 bd 10 f8 9b bb
       0.010166862 0.03286753 -0.035385292 -0.004759796
0000f0 01 a3 6a 3d 6f 1d 1f 3d 87 1d 08 bd c1 7a 33 3b
       0.05728436 0.03884643 -0.033231284 0.00273864
000100 92 0d 84 bd 18 93 09 3d 1e 66 51 3d a3 d9 17 bd
       -0.06447901 0.033587545 0.051122777 -0.03707279
000110 71 b2 a3 3d 8d e2 65 bd e0 77 45 3d 09 81 a4 bd
       0.07993019 -0.05612426 0.048210025 -0.08032424
000120 b1 f8 63 bd 9f c5 6a bd 17 cf 55 3c 64 37 de 3c
       -0.055657092 -0.057317372 0.013049862 0.027126022
000130 2c ca 92 bd 6a fe 10 bd f9 64 79 3d 00 09 95 bc
       -0.071674675 -0.03539888 0.06088731 -0.018192768
000140 c9 9d 85 bd fa 2d 8d bd 32 2d a3 3d da 19 ae bc
       -0.06524236 -0.06893535 0.07967605 -0.021252561
000150 18 91 85 bd 66 0c 16 bd 00 fd 9a 3d 9a e2 61 3d
       -0.06521815 -0.036632918 0.07567787 0.055147745
000160 c2 8b d8 3d 34 2c 3a 3d d8 8a 2d bd 6a cb df 3c
       0.10573532 0.04545231 -0.04236874 0.027318675
000170 43 ab a6 bc 37 de f3 bc c5 0e 1b 3d b8 af aa bb
       -0.020345336 -0.029769046 0.037855882 -0.0052089356
000180 a1 39 2e 3d af 85 20 bd 92 c6 f6 3b 73 fb 2d bb
       0.042535428 -0.03918999 0.0075309956 -0.002654758
000190 4d e8 bd bb 11 f6 8d 3c 6a 51 7f 3d e3 05 9d 3b
       -0.0057955147 0.017329248 0.062333502 0.0047919615
0001a0 cc 30 4c bd 0b 5f 93 bd 58 e8 58 bd ca aa 9e 3d
       -0.049851224 -0.071958624 -0.052955955 0.07747419
0001b0 e5 02 8c bd c4 e9 b7 bc 69 92 b8 3c 75 22 8d 3c
       -0.068364896 -0.022450335 0.022530751 0.017228344
0001c0 64 8c 98 ba 64 91 45 3b 4d 81 6e bd b3 51 0a bd
       -0.0011638519 0.0030146474 -0.05822878 -0.03376932
0001d0 05 24 04 3c cf ed 63 bd 62 85 4a bc 0b 19 13 bd
       0.008065228 -0.055646714 -0.0123609025 -0.035912555
0001e0 bc 1f d9 3c 10 15 a9 3d 31 b1 e1 bc 9b 11 7e 3d
       0.02650439 0.082559705 -0.027550312 0.06202851
0001f0 18 7c 86 3d ab c6 4c 3d cb f6 14 bd b9 1a 86 3d
       0.06566638 0.049994152 -0.036368173 0.06548066
000200 71 b8 9c 3c a0 60 44 3b 10 9b 47 3c ae d4 3a 3b
       0.019130917 0.002996482 0.012182966 0.0028508115
000210 22 e0 a0 bc 73 75 5a 3d 75 b7 55 3a 5e be 0a 3a
       -0.019638125 0.053334665 0.00081526424 0.0005292649
000220 d5 90 4c 3d f1 cf 32 3d 4d 54 8b 3d ac 93 80 3d
       0.04994281 0.04365534 0.068031885 0.06278166
000230 a5 9d 8f bd 7a 66 f6 bc 20 1e 7b 3d 42 91 1b bd
       -0.0701249 -0.030078162 0.061308026 -0.037980326
000240 b5 9a a5 bc d9 44 67 bb 6d 5b 35 3d af b3 48 3d
       -0.020215372 -0.003528884 0.044276644 0.048999485
000250 7f 93 d5 3d e3 80 d8 bc 80 66 95 bc 1c 69 a0 bc
       0.10428523 -0.026428645 -0.018237352 -0.01958137
000260 27 86 86 bd 35 44 53 3d c8 b7 2c bd ec 3a 84 3d
       -0.06568556 0.05157872 -0.042167455 0.06456551
000270 08 fd 42 3d ef b4 c4 bb c2 a8 54 bd 1f 31 66 bd
       0.04760459 -0.0060030143 -0.051918752 -0.05619919
000280 d9 9a 8b 3d 3c 92 b6 bd 45 c8 9a 3d b0 cc 55 bd
       0.06816644 -0.08914611 0.0755773 -0.05219716
000290 48 dd 02 3d 78 e6 8a 3d f2 e5 b8 bc ba 12 1e 3c
       0.03194931 0.0678224 -0.022570584 0.009648019
0002a0 44 a3 8a bd 64 73 49 bd 29 b5 86 3d 7c 68 ac bc
       -0.06769422 -0.04918231 0.06577522 -0.021045916
0002b0 54 f1 92 bd 46 de ce 3d 1d 0c be bb a6 ed 21 3d
       -0.07174936 0.10100989 -0.005799784 0.03953328
0002c0 ae c8 e6 bb d6 77 8c 3d 93 55 1c 3d 2e e8 6b bd
       -0.007042966 0.068587944 0.038167547 -0.05759447
0002d0 a5 86 0a 3d 95 4f d3 3c e9 d4 0e 3c a3 61 4d bd
       0.033819813 0.025794784 0.008717754 -0.05014194
0002e0 06 19 47 3d cf 6d 95 bd 47 f1 94 3d 34 1b 5e 3c
       0.04860785 -0.07296335 0.072725825 0.01355629
0002f0 5f ef 39 bd c2 68 bd 3c 41 f5 35 bc 20 00 6e bc
       -0.045394298 0.023121241 -0.011105836 -0.014526397
000300 a4 28 9b bd e3 81 7d 3d 05 7d a2 bd ac 56 a2 bd
       -0.07576111 0.061891448 -0.07934002 -0.079266876
000310 f2 e1 c9 bc d4 ed 0e bd 19 80 9a bd ff 2a ff bb
       -0.024643872 -0.03489478 -0.07543964 -0.007787108
000320 b1 07 b7 bd 9a 51 64 bd 24 fe af bd 43 58 3c 3d
       -0.08937014 -0.055741884 -0.08593395 0.04598261
000330 b6 c0 35 bc a8 c6 1c ba 8c 4c 80 bd fd 7b 78 3d
       -0.011093309 -0.000598053 -0.062646 0.06066512
000340 9e 52 50 3d 64 da 3d bd 67 0c 48 3d 66 80 21 bd
       0.05086004 -0.04635085 0.048839953 -0.03942909
000350 71 8d e5 3c aa fb 44 3d 69 60 80 bd 89 77 9e bd
       0.028021546 0.048091568 -0.06268389 -0.07737643
000360 6c ae 7a 3d 92 6d 75 bd 18 47 7f bd c9 d2 86 3c
       0.061201498 -0.059918948 -0.06232366 0.016457932
000370 dc cb 62 bd 9f a7 3d 3d ff ee 9f 3d 7c 4e 8a bd
       -0.055370197 0.046302434 0.07809257 -0.06753251
000380 16 38 e3 bc 71 08 d8 3c 2f 5a aa 3c d6 e3 d9 3c
       -0.027736705 0.026371213 0.020794956 0.026597898
000390 66 13 a3 3d 29 42 84 3d 21 96 9e bd 6f 22 83 bd
       0.07962684 0.064579315 -0.077434786 -0.06403052
0003a0 e6 4b 8b 3c c7 a0 82 bd 23 ed ca 3c ec 8f a6 3d
       0.017003965 -0.06378322 0.024771279 0.0813292
0003b0 d0 23 b1 bd b6 11 20 3c cd e7 74 bd 30 e8 1c bd
       -0.08649409 0.009769848 -0.059791375 -0.03830737
0003c0 a1 97 51 3d 03 9f eb 3c 5b 82 bb bc 6e b0 81 3d
       0.051169995 0.028762346 -0.022889307 0.063324794
0003d0 ad e8 2d 3d b7 95 4c 3d f6 53 3c 3d 91 00 9d 3b
       0.042458225 0.049947467 0.04597851 0.0047913273
0003e0 b8 92 c4 3c 3e 29 7a bd 45 2a eb 3c 4f 5c 74 3d
       0.023995742 -0.061074488 0.02870668 0.059658345
0003f0 3e 38 79 3d 47 7c 69 bd 71 0e 1f 3d ce 53 5e bb
       0.060844652 -0.057003286 0.03883213 -0.0033924463

MatMul_2 f4 [1, 128]
000000 b7 fc 2d bd 08 a8 39 3d c5 2a bf 3d 8a 9d 01 3e
       -0.042477336 0.045326263 0.093343295 0.12657753
000010 da 68 27 3c 66 7e 21 be 17 c0 c2 3d 07 86 db bd
       0.01021787 -0.15770873 0.095092945 -0.10718923
000020 2e c7 e3 3c 49 be d5 bd 20 76 10 be d1 4a e1 3d
       0.027804937 -0.10436685 -0.14107561 0.11000598
000030 38 46 1c be 6b e9 51 3c 3d 6c e8 3d b6 a7 a3 3d
       -0.15261161 0.012811999 0.1134877 0.07990973
000040 4d 55 fb bd ce eb 80 bd b9 8b e9 3d 7c 73 d9 3d
       -0.12272129 -0.06294976 0.11403603 0.1061773
000050 f9 09 9b bc be 8d 7f 3d 56 bf 17 be da 4e f4 bc
       -0.018925654 0.062391035 -0.14819083 -0.029822756
000060 be 0f 08 3e 68 ac 71 3c be 29 1d be 9b e7 65 3d
       0.13287255 0.0147505775 -0.15347955 0.05612908
000070 00 26 6f 3d b7 c9 07 be 5e 2d b0 3d b7 99 0c be
       0.05838585 -0.13260542 0.08602403 -0.13730513
000080 fb f4 85 3d aa df c1 3c e3 25 26 3d 58 f4 2c 3d
       0.06540867 0.023666222 0.040563475 0.04222521
000090 23 e5 42 3e 03 44 10 bc 40 f1 00 bd 63 fa 83 3d
       0.19032721 -0.008805278 -0.031480074 0.06444242
0000a0 69 96 38 3d 66 21 87 3d 87 e7 f9 bd 26 20 21 be
       0.045065317 0.06598167 -0.122023635 -0.1573492
0000b0 2f a0 86 3d e0 51 ce 3d e4 0b fd bd 18 ce ce 3d
       0.06573521 0.1007421 -0.123557836 0.10097903
0000c0 f5 df 0c 3e 25 d9 38 3e 25 86 07 be bd 77 ab 3d
       0.13757308 0.18051584 -0.13234766 0.08372448
0000d0 99 20 ef bd 7c 16 5a 3d 88 e8 c4 bd b4 3a ea 3d
       -0.116761394 0.0532441 -0.09614664 0.11436978
0000e0 7f 01 d2 3c c1 09 18 3d d7 af 22 be d0 f0 32 3d
       0.025635479 0.037118677 -0.1588739 0.043686688
0000f0 3c bd 08 be f4 03 14 be c3 b5 1e be a8 a9 ed 3d
       -0.13353437 -0.14454633 -0.15499024 0.11604625
000100 e6 fa 36 bd f4 de 82 3d 20 f8 11 be c0 cd 69 3d
       -0.04467287 0.06390181 -0.14254808 0.057080984
000110 cf 3f ec 3d 86 ec 9a bd b0 0a 05 3e 74 0e 79 bc
       0.11535608 -0.075646445 0.12992358 -0.0152012
000120 f8 ea 33 3d f9 61 c5 3d 2c b1 17 be 5f fe 8c 3d
       0.043925256 0.096378274 -0.1481368 0.06884455
000130 fb 83 76 3d df b9 de 3d 37 30 00 be 22 0a 83 3d
       0.06018446 0.10875296 -0.12518393 0.06398417
000140 b2 7c 14 bd b6 ac 03 be f6 97 0f be 93 42 1f be
       -0.03625173 -0.12858853 -0.14022812 -0.1555274
000150 07 ba 2e 3c 5c 11 09 be 4b 08 66 3d 60 db 65 bd
       0.01066447 -0.13385528 0.056160253 -0.056117415
000160 bf fa 10 be 05 80 01 be 56 f2 9c bd c1 29 e5 3d
       -0.14158152 -0.12646492 -0.076634094 0.111896046
000170 14 36 55 3c 58 d5 bb 3d 47 43 d8 3d a1 36 d4 3c
       0.0130133815 0.091715515 0.10559707 0.025904955
000180 09 14 d3 3c a0 e3 c7 3d 49 71 e7 bc 1c 8c 0c be
       0.02576639 0.09760213 -0.02825226 -0.13725322
000190 68 78 e5 bc 5e 84 fa bc 95 88 e5 3d 46 07 61 3d
       -0.028011516 -0.030580696 0.112076916 0.054938577
0001a0 ba f0 8d 3d 7b 42 e6 bd 90 9d 14 3e ff 4d 8d bc
       0.069306806 -0.11243149 0.1451323 -0.017249105
0001b0 cb 9d 00 bd 25 74 ad bb a0 ac ff 3c ba 6a de 3b
       -0.031400483 -0.0052933865 0.031210244 0.006787625
0001c0 57 9d 3c 3d 18 e4 dc bd 9d 3f b9 bb 7a e4 df bd
       0.04604849 -0.10785693 -0.0056533352 -0.1093225
0001d0 54 6e 04 be ab 1d ac 3c a9 8b f2 bd 67 b6 02 3d
       -0.12932712 0.02101024 -0.11843044 0.031912234
0001e0 b7 11 25 3e 71 a9 03 bc 5c 6a fc 3d 38 e7 73 3d
       0.16120039 -0.008036003 0.12324974 0.05954668
0001f0 54 56 77 3d 58 98 15 3d 4b 57 7e 3d e9 28 0a be
       0.060385063 0.03652224 0.062094968 -0.13492168
