wkey/openwakeword_models/heycomputer5.onnx (onnx, 859394 bytes, 9 tensors)

layer1.weight f4 [128, 1536]
0.021666363 0.008221922 -0.012251419 -0.016676486 0.00017902482 -0.011297029 0.0036452021 -0.019260854
-0.041667465 0.0072803088 0.023128828 0.024527997 -0.021484045 0.022865266 0.02203946 -0.04531302
-0.020692673 0.028339587 0.039775435 0.009262777 -0.013764053 -0.009244913 -2.7832225e-06 -0.021086449
0.013209407 0.02028809 0.007770476 -0.013256382 0.0060576536 0.010213089 0.027570402 0.011261227
0.0010668897 0.0140689025 -0.020842077 -0.004329853 -0.009080704 0.02840161 -0.00038739824 -0.011592688
0.032283217 0.009039533 -0.012439022 -0.014920889 0.011057919 -0.004927641 -0.023626594 0.041053835
-0.03319003 0.017821644 -0.005359024 0.022567024 -0.019048775 0.03479531 -0.0065397257 0.00039943578
0.006411462 0.009479433 0.018246623 0.027109062 0.007141083 0.026803955 0.043286186 0.019802595
-0.010801585 0.0067759515 0.0065495204 0.0021821666 -0.0075638485 0.006656104 0.03139314 -0.011918858
3.2242464e-05 -0.015371244 0.007336093 0.01784674 -0.0046272743 0.0040762816 -0.011660641 -0.00049890875
-0.008117966 0.014027781 0.02099909 -0.027690656 0.004913304 0.008946381 -0.02688774 -0.034013975
-0.017088834 0.010567544 0.053862333 0.014037701 0.023086954 -0.0081116725 -0.014085613 -0.0051867366
0.004864257 -0.0028937333 -0.0065031582 0.027792694 0.026887208 -0.019242978 0.006295445 0.017215082
-0.052709885 0.00060057984 -0.018300978 0.014129165 0.0023416022 0.0056981496 -0.0100757275 -0.0111593865
-0.0070686373 0.02033332 0.02651111 0.011356373 -0.0063491305 0.01237513 -0.031045854 -0.002425902
-0.017454572 0.025864448 0.00184253 -0.025353564 -0.034961957 0.027397517 0.004114721 -0.02549022
0.00956723 -0.043253943 0.010815032 -0.006991401 -0.012842713 0.006000256 -0.007333741 0.0113773765
0.008462579 0.005312527 -0.0006467284 0.0059515247 -0.007677777 0.015050348 -0.0066395327 0.003752299
-0.01497432 0.055739954 -0.022369396 0.021446113 0.008734341 0.02088474 0.006223349 0.0013929454
0.025433827 -0.026586268 0.006892161 -0.014227156 0.011618538 -0.007898472 0.026380897 0.03685901
0.011198318 0.018171351 0.0050129574 0.016121296 -0.013650627 0.0058161784 0.036624216 -0.0021491065
0.03357171 -0.0019032587 0.0116253 0.0535443 0.02814347 0.00945276 0.0151409395 0.0019525565
0.0002315343 0.02190408 -0.014143844 0.0055264677 -0.013021272 -0.018582337 -0.040085677 -0.024533538
0.03326117 0.015680496 0.029045003 -0.008040289 0.02051114 -0.0037617253 -0.003002893 -0.023450276
-0.01640591 -0.0015085996 -0.0082462635 -0.037361432 0.024900673 -0.026669921 -0.010195585 0.023435062
-0.038575225 0.008583928 -0.023267496 0.024751268 -0.037179865 0.021164665 -0.0028969762 -0.026935555
-0.020563433 0.042774677 0.0112583535 -0.011754095 0.008624391 0.009475759 -0.025277833 0.025949853
0.013249234 -0.009082759 0.03299632 0.015733156 -0.023265334 -0.021868084 -0.00021038057 0.019773101
0.014490535 -0.002249239 0.00045389912 -0.015041499 0.019773902 -0.010808336 0.008828203 0.021999644
-0.0041397484 -0.016991021 -0.025843956 -0.016570378 -0.0033688934 0.022018358 -0.014092012 0.004493775
-0.034279272 0.045081276 -0.0059593483 0.0145994 -0.0064936485 0.014126478 -0.012019084 -0.01225186
0.0028689844 -0.00036705637 -0.02521625 0.0071681724 0.0045837997 0.035586797 0.010408101 -0.018667197
00000000: a87d b13c 3eb5 063c 2dba 48bc 209d 88bc
00000010: 9cb8 3b39 2d17 39bc 58e4 6e3b f0c8 9dbc
00000020: 81ab 2abd a88f ee3b ab78 bd3c f0ee c83c
00000030: 4fff afbc f04f bb3c 198c b43c 259a 39bd
00000040: ae83 a9bc 6c28 e83c 91eb 223d e7c2 173c
00000050: 9f82 61bc fa77 17bc 66c7 3ab6 7dbd acbc
00000060: 456c 583c 3533 a63c 7a9f fe3b 4c31 59bc
00000070: 487f c63b cd54 273c 53db e13c 0281 383c
00000080: e1d6 8b3a 4181 663c 01bd aabc 71e1 8dbb
00000090: 3cc7 14bc 7eaa e83c b61b cbb9 42ef 3dbc
000000a0: 683b 043d 8d1a 143c 0acd 4bbc bf76 74bc
000000b0: 462c 353c 0c78 a1bb 8f8c c1bc 1128 283d
000000c0: 45f2 07bd b2fe 913c c09a afbb 7bde b83c
000000d0: 2d0c 9cbc 8785 0e3d 324b d6bb 5d6b d139
000000e0: 3e17 d23b a04f 1b3c f179 953c d313 de3c
000000f0: bfff e93b f893 db3c db4c 313d 0d39 a23c
00000100: 22f9 30bc cd08 de3b 5c9d d63b ae02 0f3b
00000110: 29da f7bb 721b da3b 1896 003d 5047 43bc
00000120: 153c 0738 acd7 7bbc 9c63 f03b 5433 923c
00000130: 64a0 97bb 5492 853b 460c 3fbc 33c9 02ba
00000140: 3801 05bc c7d4 653c 4906 ac3c 84d7 e2bc
00000150: c8ff a03b d793 123c ad43 dcbc 3d52 0bbd
00000160: e2fd 8bbc 7e23 2d3c c09e 5c3d 63fe 653c
00000170: da20 bd3c d2e6 04bc 58c7 66bc 80f5 a9bb
00000180: 5864 9f3b caa4 3dbb 7218 d5bb 81ad e33c
00000190: 9042 dc3c 73a3 9dbc 054a ce3b a506 8d3c
000001a0: 52e6 57bd 3b70 1d3a efeb 95bc 037e 673c
000001b0: 9175 193b 8bb7 ba3b aa14 25bc dcd5 36bc
000001c0: 07a0 e7bb 1092 a63c d42d d93c 1510 3a3c
000001d0: 5e0c d0bb 0fc1 4a3c e053 febc e2fb 1ebb
000001e0: e4fc 8ebc aee1 d33c 0c81 f13a 47b2 cfbc
000001f0: 4534 0fbd c270 e03c c8d4 863b ded0 d0bc
00000200: dfbf 1c3c 0c2b 31bd 8831 313c 1f18 e5bb
00000210: 3e6a 52bc cc9d c43b e14f f0bb 2d68 3a3c
00000220: a1a6 0a3c b514 ae3b 3589 29ba 0205 c33b
00000230: dd95 fbbb bc95 763c 7090 d9bb 21e9 753b
00000240: da56 75bc 944f 643d 0640 b7bc c2af af3c
00000250: 7b1a 0f3c 7916 ab3c 3ced cb3b 7e93 b63a
00000260: 9a5a d03c 72cb d9bc a3d7 e13b 0419 69bc
00000270: ae5b 3e3c 9868 01bc c01c d83c 79f9 163d
00000280: 2679 373c 16dc 943c bc43 a43b cf10 843c
00000290: e1a6 5fbc a495 be3b 4603 163d 06d8 0cbb
000002a0: 7d82 093d c476 f9ba 0b78 3e3c 4551 5b3d
000002b0: 228d e63c c0df 1a3c b411 783c edec ff3a
000002c0: 04c8 7239 2f70 b33c 95bb 67bc 5f17 b53b
000002d0: 2c57 55bc fc39 98bc e130 24bd 8ffa c8bc
000002e0: dd3c 083d 6274 803c c9ef ed3c 6bbb 03bc
000002f0: fa06 a83c 4787 76bb 2fcc 44bb cb1a c0bc
00000300: b065 86bc 34bc c5ba 561b 07bc 4d08 19bd
00000310: 7ffc cb3c e17a dabc 620b 27bc e3fa bf3c
00000320: 0e01 1ebd 9ba3 0c3c 7a9b bebc 2cc3 ca3c
00000330: ea49 18bd 8561 ad3c 32db 3dbb f4a7 dcbc
00000340: a574 a8bc 8034 2f3d f574 383c 3f94 40bc
00000350: 514d 0d3c 3740 1b3c 7513 cfbc c994 d43c
00000360: 5113 593c dacf 14bc 2627 073d d2e2 803c
00000370: f196 bebc b224 b3bc 9b99 5cb9 33fb a13c
00000380: b569 6d3c f867 13bb 4ff9 ed39 9f70 76bc
00000390: e1fc a13c 7215 31bc 2ba4 103c 9938 b43c
000003a0: baa6 87bb c130 8bbc b4b6 d3bc 9abe 87bc
000003b0: a7c8 5cbb d85f b43c 2fe2 66bc 8440 933b
000003c0: 6c68 0cbd 25a7 383d a346 c3bb 5232 6f3c
000003d0: acc8 d4bb be72 673c b1eb 44bc 07bc 48bc
000003e0: 9205 3c3b 7971 c0b9 4f92 cebc fde2 ea3b
000003f0: b333 963b 76c3 113d bd86 2a3c f3eb 98bc

layer1.bias f4 [128]
0.008055264 -0.011265647 -0.004644557 0.014548686 -0.018429425 0.010507349 0.011262714 0.01911205
0.0072131897 0.00490596 0.019373635 0.019157829 -0.014076071 0.026796363 -0.011913603 -0.019532977
0.009087174 -0.021331387 -0.021712791 -0.021855935 0.018579414 -0.004589629 -0.01743064 -0.017205248
-0.0076718824 -0.024948485 -0.01790153 -0.011651182 0.019868555 0.007684947 -0.002183203 0.016949208
-0.004544632 -4.604395e-05 -0.011096589 0.011515993 -0.0014235253 0.0049454276 0.020611538 0.018414376
0.019298317 0.021738091 0.014898005 0.008598104 0.01616222 0.02561552 -0.0063201324 0.0021777344
0.007168887 0.020798096 -0.0142936725 -0.0017705166 -0.024493197 -0.023085149 0.015357718 -0.02374646
-0.00753914 -0.015917096 -0.005092532 0.0053609516 -0.003666872 -0.00636072 -0.02103886 -0.009803286
-0.0072817826 0.0017625985 -0.0014198752 0.0065094596 0.0108224135 -0.009261909 0.017187588 -0.020016795
-0.0050797835 -0.0029093062 -0.0024577032 0.010319736 0.016947227 0.00083246006 -0.01858169 -0.016413694
0.023636011 -0.0031144002 -0.014427756 0.006898961 0.0112842135 -0.016679112 -0.008445633 -0.012840382
0.0053352537 -0.012470278 4.9566235e-05 0.0036006796 -0.016467392 0.022820527 -0.013784218 0.023853995
0.009271423 0.025414554 0.010193949 0.019504247 -0.010524216 -0.008381254 -0.004907307 0.002117385
-0.014057243 0.01542193 0.025357656 -0.013104532 0.014827763 -0.021498913 -0.019009277 0.009019534
-0.0041419575 0.01702606 0.02134732 -0.0034620755 -0.013909743 0.022689156 0.011785098 0.028173931
0.025883941 -0.016752586 -0.013156546 0.02559648 0.022399232 -0.025776928 -0.011345207 0.018438254
00000000: 3afa 033c 8c93 38bc 5e31 98bb 9d5d 6e3c
00000010: 4ef9 96bc 0427 2c3c 3f87 383c e090 9c3c
00000020: 9f5c ec3b 2dc2 a03b 75b5 9e3c e1f0 9c3c
00000030: 529f 66bc 0c84 db3c 4631 43bc 9f03 a0bc
00000040: 5fe2 143c 29bf aebc 06df b1bc 380b b3bc
00000050: db33 983c 9964 96bb b4ca 8ebc 05f2 8cbc
00000060: 6a64 fbbb c460 ccbc 3ba6 92bc 99e4 3ebc
00000070: 61c3 a23c 02d2 fb3b 1114 0fbb 11d9 8a3c
00000080: 23eb 94bb 511f 41b8 78ce 35bc 93ad 3c3c
00000090: 9595 baba 410d a23b 87d9 a83c bfd9 963c
000000a0: 8117 9e3c 1514 b23c c316 743c 10df 0c3c
000000b0: a266 843c a4d7 d13c 1d19 cfbb 52b8 0e3b
000000c0: fce8 ea3b c560 aa3c 0230 6abc ae10 e8ba
000000d0: f5a5 c8bc 111d bdbc f09e 7b3c f087 c2bc
000000e0: e40a f7bb 9264 82bc 41df a6bb ecaa af3b
000000f0: e74f 70bb 966d d0bb b059 acbc f69d 20bc
00000100: 059c eebb fe06 e73a 1b1b baba 4e4d d53b
00000110: 7e50 313c 43bf 17bc fccc 8c3c 43fa a3bc
00000120: 5074 a6bb 0faa 3ebb 6b11 21bb 1c14 293c
00000130: e9d4 8a3c 7339 5a3a a138 98bc 0376 86bc
00000140: 4fa0 c13c f71a 4cbb 6562 6cbc ae10 e23b
00000150: 6ce1 383c a2a2 88bc 8d5f 0abc 7760 52bc
00000160: 5ad3 ae3b 2350 4cbc 57e5 4f38 61f9 6b3b
00000170: a0e6 86bc 1df2 ba3c 33d7 61bc 7469 c33c
00000180: 2be7 173c 2f32 d03c 8504 273c 5fc7 9f3c
00000190: c36d 2cbc 8751 09bc 7acd a0bb d3c3 0a3b
000001a0: 5a50 66bc 43ac 7c3c dcba cf3c 64b4 56bc
000001b0: 25f0 723c 7d1e b0bc 58b9 9bbc abc6 133c
000001c0: 42b9 87bb 3c7a 8b3c 93e0 ae3c fde3 62bb
000001d0: b1e5 63bc 9cde b93c 4916 413c 04cd e63c
000001e0: 8f0a d43c b83c 89bc 8e8e 57bc b6af d13c
000001f0: 987e b73c 232a d3bc 3fe1 39bc d20b 973c

layernorm1.weight f4 [128]
0.9885913 0.9903474 1.0014689 0.9929138 1.0174564 0.9727457 0.99281013 0.98241043
0.9793018 0.99090195 0.99279934 0.9967028 0.97756726 0.987577 0.99249375 0.9970062
1.0280323 0.9848497 0.9938228 0.98517406 0.98767006 0.996775 1.0042454 0.994354
1.0430796 1.0022105 0.99582547 0.9822394 0.9999093 0.99861866 0.99418133 0.98896456
1.005596 1.0176293 0.9906856 0.99239266 0.9890846 0.9857776 0.99075514 1.0375444
0.98888665 0.9874619 0.9891472 0.99101454 0.98466545 0.9822965 1.0265764 1.0017029
0.9883183 1.0095322 0.99738157 0.9781832 0.9953746 0.98796725 0.99503815 0.99712086
0.9972725 0.9764097 0.99958205 0.99349606 0.993958 0.98796576 0.99743974 0.988704
0.98877835 0.9854971 1.0106629 0.9985377 0.98771316 0.9994904 1.0055652 0.98925185
0.9826449 0.99667406 0.99226165 0.9838068 0.9852134 0.9921434 1.0779985 0.99287885
1.0200589 0.9846794 1.0090293 0.9938641 0.98369795 1.0082712 0.99191624 1.1124746
1.0322009 0.99708855 0.9880273 0.9734898 1.0201432 0.99994737 0.99289596 0.99190235
0.9961322 1.0021198 0.9804484 0.9854811 0.99800736 0.9734154 0.9900449 1.0665165
1.0002253 1.0107098 1.0013363 0.99165654 1.0032337 0.992847 1.0006372 1.0007259
1.0095575 0.9947404 1.0164195 0.9909608 1.0017375 1.0220153 0.9911497 1.0474768
0.9940322 0.98711926 0.9946487 0.98094916 1.0305285 0.98192596 1.0124272 0.99740887
00000000: 5214 7d3f 6887 7d3f 2230 803f 992f 7e3f
00000010: 033c 823f dd05 793f ce28 7e3f 407f 7b3f
00000020: 86b3 7a3f c0ab 7d3f 1928 7e3f ea27 7f3f
00000030: d941 7a3f d9d1 7c3f 1214 7e3f cc3b 7f3f
00000040: 9096 833f 1c1f 7c3f 2c6b 7e3f 5e34 7c3f
00000050: f2d7 7c3f a52c 7f3f 1d8b 803f fc8d 7e3f
00000060: a283 853f 6f48 803f 6bee 7e3f 0b74 7b3f
00000070: 0efa 7f3f 79a5 7f3f ab82 7e3f c82c 7d3f
00000080: 5fb7 803f ad41 823f 929d 7d3f 720d 7e3f
00000090: a634 7d3f ec5b 7c3f 21a2 7d3f 41ce 843f
000000a0: ad27 7d3f 4eca 7c3f c038 7d3f 21b3 7d3f
000000b0: 0913 7c3f c977 7b3f db66 833f cd37 803f
000000c0: 6e02 7d3f 5a38 813f 6654 7f3f 376a 7a3f
000000d0: dfd0 7e3f 6ceb 7c3f d2ba 7e3f 5043 7f3f
000000e0: 404d 7f3f fcf5 793f 9ce4 7f3f c255 7e3f
000000f0: 0874 7e3f 53eb 7c3f 3658 7f3f b51b 7d3f
00000100: 9420 7d3f 8a49 7c3f 675d 813f 2ba0 7f3f
00000110: c5da 7c3f 9ade 7f3f 5cb6 803f 9c3f 7d3f
00000120: 9e8e 7b3f 0826 7f3f dc04 7e3f c3da 7b3f
00000130: f236 7c3f 1cfd 7d3f dbfb 893f 4f2d 7e3f
00000140: 4a91 823f f313 7c3f df27 813f e16d 7e3f
00000150: a1d3 7b3f 080f 813f 39ee 7d3f 9165 8e3f
00000160: 291f 843f 3241 7f3f 5bef 7c3f a136 793f
00000170: 0d94 823f 8dfc 7f3f 6e2e 7e3f 50ed 7d3f
00000180: 8502 7f3f 7645 803f abfe 7a3f 7d48 7c3f
00000190: 697d 7f3f c031 793f 9573 7d3f 9d83 883f
000001a0: 6207 803f f05e 813f ca2b 803f 34dd 7d3f
000001b0: f669 803f 392b 7e3f e114 803f c917 803f
000001c0: 2e39 813f 4fa7 7e3f 091a 823f 9baf 7d3f
000001d0: ef38 803f 66d1 823f fdbb 7d3f b813 863f
000001e0: e578 7e3f d9b3 7c3f 4ca1 7e3f 7c1f 7b3f
000001f0: 5ce8 833f 805f 7b3f 3797 813f 3056 7f3f

layernorm1.bias f4 [128]
-0.0155536635 -0.011197525 0.007213477 -0.007221202 -0.0015571811 -0.027969683 0.0023340534 -0.015704298
-0.025011733 -0.004173219 -0.022316385 -0.010182751 -0.008369789 -0.010431382 -0.0044664675 0.0036840236
0.005034803 -0.013644077 -0.0042268885 -0.014880226 0.0036626523 0.0025399067 0.006076176 -0.004983024
0.0043564206 0.0056654513 -0.0041737594 -0.009146769 0.00024429263 -0.0111932885 -0.008490976 -0.0028403767
-2.1348944e-05 0.009616247 -0.008575612 0.005405461 -0.0007926062 -0.008872348 -0.0020944518 0.006279398
-0.013306927 0.0008051217 -0.0015762422 0.0012570157 0.0013673438 0.0017401184 0.005289236 -0.0038625223
-0.008451014 0.017630784 0.006787379 -0.008966042 0.0008236378 -0.015313018 0.0010200749 -0.0022236207
0.004035984 0.00447802 -0.005006802 0.0066224462 -0.0064243707 -0.0056269947 -0.0054014195 -0.005290302
-0.0036823058 -0.009568934 0.0055427444 -0.0068678604 -0.0073049874 0.0025238197 0.0033034042 -0.004565772
-0.012464894 0.004488204 -0.002577489 -0.010595908 -0.0040049576 0.008414718 0.007990661 -0.008325618
0.0036736983 -0.014951534 0.0009827049 0.0013459915 0.0005408991 -0.007726596 0.0016046304 0.00746637
0.0021326388 0.00029667825 -0.0048104506 -0.006282527 0.016268041 0.008327409 -0.010058684 -0.009006764
-0.01660577 -0.004051591 -0.013368952 -0.012594959 -0.000902351 -0.014874192 -0.0058106515 0.013522701
-0.005348788 0.0028971126 -0.0024745753 -0.007571576 0.00073127344 0.00071319245 -0.007306938 -0.0016331952
0.0038987093 -0.0064673764 0.0039178915 -0.0060848105 0.0057050935 0.008242762 0.0025591229 0.007097249
0.0030499431 -0.010567484 -0.008498022 -0.0013918091 0.019434115 -0.013430334 0.0037716147 0.003241046
00000000: cbd4 7ebc d375 37bc 085f ec3b d59f ecbb
00000010: 541a ccba ad20 e5bc ebf6 183b 4da6 80bc
00000020: 68e5 ccbc 80bf 88bb dad0 b6bc 8ed5 26bc
00000030: 7121 09bc 63e8 2abc 725b 92bb a96f 713b
00000040: fdfa a43b 688b 5fbc b681 8abb 31cc 73bc
00000050: 1c09 703b 9074 263b a91a c73b a348 a3bb
00000060: 4ec0 8e3b 40a5 b93b 08c4 88bb 54dc 15bc
00000070: 6714 8039 0e64 37bc bc1d 0bbc 9d25 3abb
00000080: 8216 b3b7 778d 1d3c b980 0cbc 4b20 b13b
00000090: e7c6 4fba 535d 11bc 1243 09bb 69c3 cd3b
000000a0: 4c05 5abc cd0e 533a e999 ceba 73c2 a43a
000000b0: 7238 b33a af14 e43a 5451 ad3b 5f22 7dbb
000000c0: 1f76 0abc 6f6e 903c a968 de3b 4ee6 12bc
000000d0: 66e9 573a 74e3 7abc 09b4 853a 2aba 11bb
000000e0: 4a40 843b 5bbc 923b 1910 a4bb 1b01 d93b
000000f0: 8783 d2bb a762 b8bb 64fe b0bb 455a adbb
00000100: d752 71bb 05c7 1cbc e99f b53b ca0b e1bb
00000110: ad5e efbb ab66 253b ed7d 583b 799c 95bb
00000120: 8e39 4cbc c911 933b 17eb 28bb 769a 2dbc
00000130: 053c 83bb e3dd 093c 43eb 023c 2c68 08bc
00000140: 6ec2 703b 47f7 74bc 1bce 803a fb6b b03a
00000150: 20cb 0d3a 632f fdbb 7652 d23a 73a8 f43b
00000160: bec3 0b3b 7b8b 9b39 fca0 9dbb a8dd cdbb
00000170: 8e44 853c af6f 083c 2ecd 24bc 1b91 13bc
00000180: d308 88bc 35c3 84bb 7309 5bbc 165b 4ebc
00000190: c08b 6cba e2b2 73bc 4767 bebb 528e 5d3c
000001a0: e344 afbb 7cdd 3d3b 7c2c 22bb fc1a f8bb
000001b0: eeb2 3f3a 89f5 3a3a 0a6f efbb f010 d6ba
000001c0: 7d81 7f3b 49ec d3bb a861 803b 1763 c7bb
000001d0: cbf1 ba3b a60c 073c f5b6 273b 0a90 e83b
000001e0: 8ee1 473b 3e23 2dbc 4a3b 0bbc 5d6d b6ba
000001f0: 4b34 9f3c e70a 5cbc 322d 773b bb67 543b

blocks.0.fcn_layer.weight f4 [128, 128]
0.020844728 -0.087935984 -0.06354023 0.02718756 0.062483776 0.023348471 0.0464874 0.009751415
0.038751554 0.023427648 -0.0021261512 0.030292861 -0.0012494351 0.00082013436 -0.013445381 0.07196199
-0.05268438 -0.05930838 -0.03769851 -0.015542722 -0.01997621 -0.020275027 -0.013360802 -0.044960894
0.049829893 0.032362226 0.06071284 0.06408516 -0.077832766 0.009341451 0.025541473 0.059440922
0.029237762 -0.06644725 0.004845173 0.07438152 -0.016688034 0.0699812 0.045103982 -0.04813654
-0.040262166 0.05486838 -0.048667178 -0.09687416 0.019884648 0.048638515 -0.040622436 -0.037595473
-0.022839943 0.0696011 -0.06404304 0.030322935 0.0072128973 0.042513367 -0.07991665 0.015965829
0.0345784 -0.0017584716 0.009383147 0.017983986 0.089711405 -0.06715151 -0.020243477 0.06778578
-0.027936203 0.051487595 -0.04855005 -0.030853657 -0.005199924 -0.022173988 0.05710338 0.07655843
0.08403464 0.09934658 -0.026094474 -0.049481355 -0.07079903 -0.05134772 -0.07722903 0.03175805
0.051291887 0.035949323 0.027631864 0.044185504 0.043647587 0.06820119 -0.003992647 0.023440419
0.070302136 0.06372761 0.004776179 -0.053779617 0.013109042 -0.03380266 -0.020797297 0.025758654
-0.03598336 -0.09709268 0.002637777 0.058875468 0.014601972 -0.048399072 0.019741993 -0.09398188
0.035779666 0.030246627 0.029048879 -0.013322007 -0.03615892 -0.04996013 0.01273937 0.07051347
0.073576055 0.005149085 -0.06453265 0.0052921902 0.04710991 0.10397661 0.06282297 0.07069089
-0.06613468 0.042259112 -0.06708791 0.068638735 0.12110652 0.059723552 0.042266626 -0.049545377
0.034779895 -0.058495022 0.009081094 0.055731025 0.08195905 -0.06127967 -0.03795239 0.058173727
0.047786664 -0.039105885 -0.026052397 0.07362992 -0.04893713 -0.05935856 -0.041333087 -0.036666952
-0.03779853 -0.0037585413 0.05729567 0.045417264 -0.00634686 0.053688508 0.053639513 -0.05725416
0.09663825 0.04991363 -0.03715445 -0.0027983026 0.06447644 -0.010108827 -0.050467145 0.055155
0.051682003 -0.010503359 -0.030571325 0.0093796095 0.089149766 0.060296126 0.022329882 -0.06301776
0.022738073 0.07054847 0.06355019 -0.08211507 -0.044821747 -0.07456908 -0.058681063 -0.050528593
0.049604457 0.051276896 -0.06776627 -0.03486153 0.022656905 0.014840126 0.055315007 0.005527217
0.01753136 -0.06223051 -0.06698776 0.017621446 0.03551772 0.022494216 0.058550995 0.04893461
-0.08757114 0.04363841 -0.06896801 0.078757 -0.00032666305 -0.017569566 0.07135119 -0.03842706
0.07861454 -0.04901508 0.060994744 -0.037405975 0.0784547 0.017693205 0.07770881 -0.009214589
-0.048892133 0.048247214 -0.010976134 0.03866672 -0.008451291 0.0472388 0.045277182 0.030001713
0.08363148 -0.0887726 0.024745118 -0.040055986 0.042541873 0.007251236 0.06117787 0.028146502
-0.06518418 0.07981059 0.019631457 0.059850894 -0.012017173 -0.061564017 -0.021493763 -0.10705963
0.00027284396 0.0066143456 0.01583775 -0.05335162 -0.016782437 0.095729455 0.04989727 0.029566932
-0.0074407803 -0.046824444 -0.04505848 -0.00974287 0.044300556 0.021990625 -0.01641323 -0.030318223
-0.011193372 0.040481705 -0.05623365 -0.04448783 -0.0057231397 0.081117034 -0.078505635 -0.0639753
00000000: 90c2 aa3c c817 b4bd 6121 82bd 72b8 de3c
00000010: fdee 7f3d 4b45 bf3c 9269 3e3d 66c4 1f3c
00000020: f3b9 1e3d 57eb bf3c e656 0bbb bc28 f83c
00000030: 16c4 a3ba 49fe 563a 044a 5cbc cf60 933d
00000040: 94cb 57bd 58ed 72bd c169 1abd e7a6 7ebc
00000050: 26a5 a3bc d017 a6bc 44e7 5abc ea28 38bd
00000060: 6e1a 4c3d 418e 043d 07ae 783d 153f 833d
00000070: c966 9fbd e30c 193c 5a3c d13c 5378 733d
00000080: 0884 ef3c 7f15 88bd 42c4 9e3b 5755 983d
00000090: 58b5 88bc 4e52 8f3d f4be 383d d22a 45bd
000000a0: f1e9 24bd abbd 603d 3c57 47bd f665 c6bd
000000b0: 21e5 a23c 2e39 473d b663 26bd b6fd 19bd
000000c0: d51a bbbc 068b 8e3d ff28 83bd ce67 f83c
000000d0: 2b5a ec3b 7f22 2e3d 57ab a3bd c5ca 823c
000000e0: 15a2 0d3d 847c e6ba c5bb 193c 2753 933c
000000f0: 9dba b73d bb86 89bd a6d5 a5bc 45d3 8a3d
00000100: 77da e4bc a8e4 523d 6bdc 46bd cfc0 fcbc
00000110: 2064 aabb 39a6 b5bc 3ce5 693d abca 9c3d
00000120: 5a1a ac3d 3876 cb3d 14c4 d5bc f6ac 4abd
00000130: 15ff 90bd fd51 52bd 412a 9ebd bb14 023d
00000140: 7117 523d 993f 133d 385c e23c dcfb 343d
00000150: d0c7 323d 11ad 8b3d c0d4 82bb 1f06 c03c
00000160: 91fa 8f3d 9f83 823d 7e81 9c3b 0448 5cbd
00000170: 4fc7 563c a874 0abd 185f aabc d003 d33c
00000180: 4a63 13bd 87d8 c6bd 8ede 2c3b 6727 713d
00000190: 1c3d 6f3c 1b3e 46bd f6b9 a13c 9279 c0bd
000001a0: b38d 123d c6c7 f73c eaf7 ed3c 8c44 5abc
000001b0: 601b 14bd fea2 4cbd cab8 503c 5e69 903d
000001c0: 0baf 963d a8b9 a83b b229 84bd 1c6a ad3b
000001d0: 52f6 403d b0f1 d43d 54a9 803d 63c6 903d
000001e0: 9e71 87bd e417 2d3d 6365 89bd 7792 8c3d
000001f0: b206 f83d afa0 743d c51f 2d3d 18f0 4abd
00000200: 5d75 0e3d 7a98 6fbd dec8 143c 3746 643d
00000210: 25da a73d 6400 7bbd f773 1bbd 9347 6e3d
00000220: f3bb 433d 7e2d 20bd d66b d5bc 49cb 963d
00000230: 4d72 48bd f621 73bd e24c 29bd 1630 16bd
00000240: a2d2 1abd dc51 76bb ddae 6a3d 7407 3a3d
00000250: 52f9 cfbb 7be8 5b3d 1bb5 5b3d 5783 6abd
00000260: 46ea c53d 3c72 4c3d 442f 18bd ba63 37bb
00000270: 390c 843d 7e9f 25bc a3b6 4ebd 36ea 613d
00000280: 82b0 533d 4816 2cbc b770 fabc efac 193c
00000290: 2794 b63d 12f9 763d 28ed b63c 750f 81bd
000002a0: 3245 ba3c b77b 903d 9a26 823d f22b a8bd
000002b0: 0297 37bd acb7 98bd 8e5b 70bd 12f7 4ebd
000002c0: 0b2e 4b3d b907 523d 0bc9 8abd f7ca 0ebd
000002d0: f99a b93c 0024 733c fd91 623d a81d b53b
000002e0: ed9d 8f3c 6be5 7ebd e130 89bd da5a 903c
000002f0: 077b 113d ca45 b83c 2bd3 6f3d a86f 483d
00000300: 7f58 b3bd 30be 323d 1a3f 8dbd 5a4b a13d
00000310: f943 abb9 0dee 8fbc 9320 923d b165 1dbd
00000320: a900 a13d 09c4 48bd a0d5 793d 0237 19bd
00000330: dcac a03d 57f1 903c cc25 9f3d caf8 16bc
00000340: 1e43 48bd df9e 453d 3ed5 33bc ff60 1e3d
00000350: 4977 0abc 797d 413d 9174 393d 27c6 f53c
00000360: fb46 ab3d 69ce b5bd 46b6 ca3c bf11 24bd
00000370: 6340 2e3d c79b ed3b a595 7a3d 7e93 e63c
00000380: 497f 85bd bc73 a33d 26d2 a03c 3626 753d
00000390: ade3 44bc 8d2a 7cbd b013 b0bc 1442 dbbd
000003a0: 7f0c 8f39 27bd d83b 2bbe 813c 3a87 5abd
000003b0: 527b 89bc ce0d c43d 1461 4c3d 5a36 f23c
000003c0: cad1 f3bb fdca 3fbd 3e8f 38bd 8fa0 1fbc
000003d0: 8074 353d af25 b43c 0a75 86bc ec5d f8bc
000003e0: 6864 37bc 25d0 253d 4155 66bd df38 36bd
000003f0: 2d89 bbbb b020 a63d 90c7 a0bd 7b05 83bd

blocks.0.fcn_layer.bias f4 [128]
-0.018971415 0.02207719 -0.025092727 0.002480756 -0.06263458 0.082895555 0.07785693 -0.0561513
-0.023551716 0.06387528 -0.036162835 0.054789398 -0.03331996 0.071729235 -0.010447842 0.041649967
-0.025772875 0.043291852 0.026579056 -0.06945948 0.03167878 0.077564806 0.01133512 -0.006968549
-0.06734079 -0.07725689 0.009597185 -0.0011238345 0.07061601 0.05794812 -0.058725346 -0.055120423
-0.058427017 -0.03297179 0.032475494 0.0432189 0.021681225 -0.07749095 -0.032196976 -0.0638289
0.08665202 -0.06346961 0.00049203227 -0.055002145 -0.08188754 0.02013609 0.07671488 -0.014042066
-0.020938342 0.03334892 0.06610774 -0.061316494 0.018034108 0.053342704 -0.047125254 -0.06455141
0.07835883 -0.039219126 -0.046224862 0.00014271337 0.006467563 -0.059492067 0.0058593294 0.025187999
0.059438 -0.009093922 -0.046089876 0.033320192 0.022361984 0.05762254 0.07198364 0.008075837
-0.06746166 -0.030812196 -0.06480681 -0.037813213 -0.039609514 -0.085789695 -0.076932244 -0.014483828
0.08476395 0.058776926 0.079452954 0.07871171 0.04842021 0.048817795 -0.030550115 0.0029146092
-0.025184255 0.040721677 0.086297475 0.010229696 -0.021616269 0.055095237 -0.040565755 0.029738123
-0.020451076 -0.06263453 -0.03945699 -0.064535774 -0.05934475 0.027799342 0.0321708 0.025670564
-0.08288369 0.08120366 0.06617904 -0.026255932 -0.007814342 -0.066613495 0.02425287 0.0017603098
0.058596607 -0.03562422 0.04431174 0.08504913 0.07834281 -0.0021450934 0.031206733 0.07302815
-0.0641995 -0.0075623947 0.039520986 0.0430018 -0.06892938 -0.07534292 -0.07135861 -0.040104844
00000000: f169 9bbc 39db b43c 438f cdbc 2e94 223b
00000010: 8f46 80bd 25c5 a93d 7473 9f3d e8fe 65bd
00000020: 87ef c0bc 0bd1 823d 7b1f 14bd d96a 603d
00000030: 837a 08bd c7e6 923d 6d2d 2bbc 2899 2a3d
00000040: a321 d3bc cc52 313d 52bc d93c c640 8ebd
00000050: 9cc1 013d 4cda 9e3d f0b6 393c 6d58 e4bb
00000060: f8e9 89bd dc38 9ebd 833d 1d3c a14d 93ba
00000070: 209f 903d 025b 6d3d fd89 70bd f4c5 61bd
00000080: 2b51 6fbd 6d0d 07bd 0605 053d 4d06 313d
00000090: d39c b13c 93b3 9ebd fae0 03bd bab8 82bd
000000a0: 9d76 b13d 5bfc 81bd bafb 003a ee49 61bd
000000b0: a8b4 a7bd 71f4 a43c b11c 9d3d b210 66bc
000000c0: e386 abbc e198 083d 7f63 873d 0127 7bbd
000000d0: 44bc 933c e17d 5a3d 6906 41bd 8833 84bd
000000e0: 987a a03d 3ca4 20bd 4856 3dbd 54a5 1539
000000f0: daed d33b f4ad 73bd 9eff bf3b 1057 ce3c
00000100: 4375 733d acfe 14bc bdc8 3cbd c17a 083d
00000110: 7b30 b73c 9d05 6c3d 296c 933d 8450 043c
00000120: 5729 8abd dc69 fcbc 6fb9 84bd 07e2 1abd
00000130: 963d 22bd 82b2 afbd a78e 9dbd 944d 6dbc
00000140: b998 ad3d 13c0 703d 3bb8 a23d 9b33 a13d
00000150: 4554 463d 2bf5 473d 3c44 fabc 0703 3f3b
00000160: 364f cebc c6cb 263d bbbc b03d 749a 273c
00000170: 9a14 b1bc 8bab 613d 4728 26bd 5d9d f33c
00000180: 0489 a7bc 8846 80bd a79d 21bd 552b 84bd
00000190: 7b13 73bd 72bb e33c 87c5 033d 134b d23c
000001a0: edbe a9bd 1b4e a63d e088 873d ae16 d7bc
000001b0: ba07 00bc a86c 88bd f4ad c63c 32ba e63a
000001c0: ff02 703d b4ea 11bd 3a80 353d 3d2e ae3d
000001d0: 3272 a03d b294 0cbb 43a5 ff3c c88f 953d
000001e0: 077b 83bd f7cd f7bb c2e0 213d a822 303d
000001f0: d92a 8dbd 644d 9abd 7724 92bd fa44 24bd

blocks.0.layer_norm.weight f4 [128]
0.9916505 1.0204312 1.0944324 1.110814 1.0238104 1.1011112 0.9926647 1.0740678
1.0979595 1.131754 1.0376697 0.99344903 0.97819227 1.0413201 1.0036765 1.1669196
1.1162682 1.0761281 1.0482644 1.0673277 1.12687 1.097284 1.0765018 0.99843043
1.1041461 1.0496796 1.0118558 1.0403204 1.0866982 1.1115217 1.0818464 1.0979981
0.95501286 1.0904531 1.0174742 1.0291845 1.0130974 1.024606 1.0447398 1.1784335
0.943088 1.1071683 1.0845227 1.046561 1.0429174 1.045994 1.0829002 1.083172
1.0705401 1.0941089 1.0151651 1.0499462 1.0319431 1.0011699 1.0692575 1.0508254
1.086143 1.0061449 1.0899825 1.0948068 1.0809873 0.98345405 1.1019229 1.1619014
1.0895174 1.0476305 1.044304 1.0853132 1.0782504 1.1072936 1.0635972 1.0700867
0.9943936 1.0910912 1.027102 1.1407738 1.0942658 1.1054732 1.0538142 1.0759465
1.1051587 1.0310471 0.9934296 1.062742 1.1082326 1.0399299 1.0283768 1.073361
1.0100372 1.1112741 1.0808259 1.015081 1.0877073 1.0824252 1.0561466 1.1479125
1.0997925 1.0572407 1.009547 1.0971442 1.0866039 1.0089072 0.99157315 1.0882866
1.1071893 1.042102 1.0439326 1.0796158 0.99604374 0.9787286 1.0537796 1.0350564
1.0865546 0.9995744 1.0950705 0.98816764 1.0659051 1.0749484 1.0369204 1.0287083
1.0811371 1.0525331 1.1035337 1.0969337 1.0650643 1.079254 1.0553603 1.0299289
00000000: cfdc 7d3f 7d9d 823f 5c16 8c3f 272f 8e3f
00000010: 380c 833f 36f1 8c3f 461f 7e3f 0e7b 893f
00000020: f089 8c3f 51dd 903f 5cd2 843f ad52 7e3f
00000030: cf6a 7a3f fa49 853f 7978 803f 9f5d 953f
00000040: e0e1 8e3f 91be 893f 872d 863f 329e 883f
00000050: 473d 903f cd73 8c3f d0ca 893f 2399 7f3f
00000060: a954 8d3f e75b 863f 7e84 813f 3829 853f
00000070: ed18 8b3f 5846 8e3f f179 8a3f 348b 8c3f
00000080: b97b 743f f893 8b3f 983c 823f 51bc 833f
00000090: 2dad 813f 4a26 833f 09ba 853f e9d6 963f
000000a0: 376e 713f b1b7 8d3f a4d1 8a3f b6f5 853f
000000b0: 517e 853f 22e3 853f 799c 8a3f 61a5 8a3f
000000c0: 7507 893f c30b 8c3f eef0 813f a364 863f
000000d0: b616 843f 5626 803f 6edd 883f 7281 863f
000000e0: bc06 8b3f 5bc9 803f 8c84 8b3f a122 8c3f
000000f0: cb5d 8a3f a5c3 7b3f cf0b 8d3f 2fb9 943f
00000100: 4e75 8b3f c218 863f c1ab 853f 8beb 8a3f
00000110: 1c04 8a3f ccbb 8d3f f423 883f 9af8 883f
00000120: 9490 7e3f e0a8 8b3f 1478 833f e004 923f
00000130: e710 8c3f 2580 8d3f 62e3 863f 9db8 893f
00000140: d775 8d3f 5af9 833f 6751 7e3f ee07 883f
00000150: 91da 8d3f 6c1c 853f daa1 833f e563 893f
00000160: e648 813f 3b3e 8e3f 8158 8a3f 2dee 813f
00000170: fe39 8b3f e98c 8a3f d02f 873f ccee 923f
00000180: 00c6 8c3f aa53 873f d638 813f 396f 8c3f
00000190: d615 8b3f df23 813f bdd7 7d3f fa4c 8b3f
000001a0: 61b8 8d3f 9963 853f 959f 853f da30 8a3f
000001b0: b9fc 7e3f f58d 7a3f 40e2 863f ba7c 843f
000001c0: 3914 8b3f 1ce4 7f3f 452b 8c3f 8ef8 7c3f
000001d0: 946f 883f e997 893f cfb9 843f b7ac 833f
000001e0: b362 8a3f 68b9 863f 9840 8d3f 5368 8c3f
000001f0: 0754 883f ff24 8a3f 0c16 873f b6d4 833f

blocks.0.layer_norm.bias f4 [128]
-0.001297543 0.0039928057 0.06962359 0.036352854 0.011692099 0.07841608 -0.018534433 0.06880397
0.08567519 0.08271534 0.013638913 -0.0098643415 -0.035891254 0.020364944 -0.002700969 0.103505686
0.09222799 0.0645011 0.03420552 0.0182861 0.02548591 0.08242401 0.038967986 -0.012312325
0.080704615 0.027664024 0.010005881 0.015906978 0.07129329 0.05167691 0.029525237 0.020672195
-0.06783937 0.0515108 7.381617e-05 -0.0031657482 0.012730642 0.020778105 0.016898915 0.04878577
-0.036352817 0.08581356 0.06820732 0.016411068 0.026455672 0.010725529 0.07294923 0.03798321
0.013571452 0.08453741 0.0019160297 0.037228588 0.014027246 0.0043001575 0.06488871 0.01589615
0.07195694 -0.007263572 0.04467944 0.06892963 0.07825185 -0.017807325 0.072206914 0.037922446
0.04169595 0.001604594 0.041987684 0.043042317 0.06929363 0.028102206 0.06120217 0.06756146
-0.01686679 0.031211758 0.015883962 0.096565776 0.07537531 0.0038316625 0.021158775 0.06828067
0.04960799 0.004186278 -0.01923682 0.043253567 0.056047272 0.014843638 0.019390307 0.028823877
0.00034153592 0.037571702 0.067045145 0.0036429272 0.06597048 0.030487195 0.008538495 0.03318425
0.076638415 0.029729156 0.0113149 0.07728153 0.04009024 0.0056707268 0.007635698 0.023948777
0.07651171 0.025521971 0.014867525 0.0706673 -0.010930413 -0.037948698 0.04299999 0.034326658
0.051886886 -0.010182128 0.07248457 -0.018822858 0.080215685 0.06811147 0.01733295 0.01976277
0.04429756 0.04137334 0.07502035 0.07321204 0.016388685 0.065604344 0.011708614 0.017287167
00000000: 5212 aaba 15d6 823b d096 8e3d bbe6 143d
00000010: 3890 3f3c 9c98 a03d 86d5 97bc 19e9 8c3d
00000020: 7976 af3d a966 a93d bf75 5f3c 0c9e 21bc
00000030: b502 13bd 62d4 a63c be02 31bb cafa d33d
00000040: 07e2 bc3d 2719 843d 161b 0c3d bbcc 953c
00000050: d4c7 d03c ebcd a83d e59c 1f3d a2b9 49bc
00000060: 7648 a53d aa9f e23c b5ef 233c 5a4f 823c
00000070: 3702 923d 2bab 533d e9de f13c bc58 a93c
00000080: 5eef 8abd fdfc 523d c1cd 9a38 7178 4fbb
00000090: 2f94 503c d836 aa3c 986f 8a3c 96d3 473d
000000a0: b1e6 14bd 05bf af3d 48b0 8b3d 8170 863c
000000b0: 91b9 d83c 21ba 2f3c 6866 953d 4894 1b3d
000000c0: cc5a 5e3c f321 ad3d 4a23 fb3a 017d 183d
000000d0: 89d2 653c 56e8 8c3b 5fe4 843d a538 823c
000000e0: 295e 933d 4203 eebb ca01 373d fa2a 8d3d
000000f0: 8242 a03d abe0 91bc 38e1 933d 9154 1b3d
00000100: 5fc9 2a3d 3e51 d23a 47fb 2b3d 244d 303d
00000110: d2e9 8d3d 9936 e63c 20af 7a3d aa5d 8a3d
00000120: 392c 8abc cdaf ff3c 151f 823c 47c4 c53d
00000130: 5f5e 9a3d a11c 7b3b 2b55 ad3c bcd6 8b3d
00000140: bf31 4b3d 0c2d 893b 8996 9dbc a72a 313d
00000150: d391 653d bb32 733c 6cd8 9e3c 0d20 ec3c
00000160: 2d10 b339 c9e4 193d f74e 893d 2dbe 6e3b
00000170: 881b 873d 48c0 f93c 0be5 0b3c 35ec 073d
00000180: 9af4 9c3d 8f8a f33c 2162 393c c745 9e3d
00000190: aa35 243d 81d1 b93b e134 fa3b 3a30 c43c
000001a0: 2cb2 9c3d 7413 d13c eb96 733c 04ba 903d
000001b0: 7a15 33bc 1870 1bbd c220 303d 1c9a 0c3d
000001c0: 5887 543d f1d2 26bc ca72 943d 6532 9abc
000001d0: 1f48 a43d 077e 8b3d d5fd 8d3c 88e5 a13c
000001e0: 5c71 353d 1777 293d 45a4 993d 32f0 953d
000001f0: 9041 863c 925b 863d 7dd5 3f3c d19d 8d3c

last_layer.weight f4 [1, 128]
-0.0051042493 0.029471878 -0.15253451 0.081754066 0.028763637 -0.11657279 -0.0027119585 -0.12500343
-0.094058655 0.097919285 0.106843054 -0.00197478 -0.043047186 0.06754338 0.089164875 -0.14848432
-0.12604256 -0.1400595 0.055554733 0.10685013 0.11802227 0.16575484 0.10971559 -0.011050894
-0.11563908 0.050529853 0.020680692 0.066354066 -0.15043527 0.11491548 0.16380093 0.13944136
-0.025666887 0.14153491 0.022822306 0.032787688 0.085788555 0.031276807 0.110682935 0.18269467
0.008866161 -0.1284781 -0.1589783 0.11703662 0.07611196 0.12349585 -0.114955366 0.090663955
0.1106389 -0.09389322 0.031581033 0.04062696 0.07861216 -0.013062375 -0.1438451 0.07918421
-0.12781122 0.072176985 0.13515402 -0.14982013 -0.116466396 0.0018854864 -0.1772315 0.13532625
0.16016454 0.06765384 -0.11374217 0.07730782 -0.12111552 0.071843766 -0.12881851 -0.11435944
0.03357448 0.088949986 0.07419841 -0.14584567 -0.12835692 0.15870814 0.10545351 -0.1386234
0.09866212 0.05167569 -0.0047862595 0.05275209 0.11796154 0.08581702 0.09616843 0.14124314
0.05775561 0.102953896 -0.14724822 0.10210017 -0.15416983 0.16476841 0.13338144 0.07642822
-0.15157059 0.070822254 0.0432252 -0.12539323 0.103944264 0.047659185 -0.0053958404 0.07102491
-0.120417334 0.05482443 0.101277485 -0.14034225 -0.0217074 -0.065606825 -0.13459022 0.038827285
0.057241123 0.044983864 -0.124856964 -0.005612852 -0.089624114 -0.109983385 0.12046843 0.031750042
0.07167513 0.052776832 -0.15328592 -0.15913351 0.044165395 -0.15359078 0.12656298 0.08774108
00000000: 8c41 a7bb 026f f13c 0232 1cbe ad6e a73d
00000010: b8a1 eb3c b7bd eebd 1dbb 31bb e600 00be
00000020: d3a1 c0bd e889 c83d 88d0 da3d 506b 01bb
00000030: 3f52 30bd 2f54 8a3d 139c b63d 460c 18be
00000040: 4d11 01be c26b 0fbe 5c8d 633d 3ed4 da3d
00000050: a9b5 f13d a3bb 293e 91b2 e03d cf0e 35bc
00000060: 2fd4 ecbd 64f8 4e3d 8e6a a93c a4e4 873d
00000070: b40b 1abe cf58 eb3d 6ebb 273e b7c9 0e3e
00000080: 5d43 d2bc 87ee 103e d8f5 ba3c 624c 063d
00000090: e9b1 af3d 1c1c 003d bcad e23d 5014 3b3e
000000a0: 6043 113c c38f 03be 35cb 22be e5b0 ef3d
000000b0: 96e0 9b3d 64eb fc3d b86d ebbd 06ae b93d
000000c0: a696 e23d 174b c0bd 1d5b 013d 7568 263d
000000d0: 6aff a03d 9203 56bc 214c 13be 552b a23d
000000e0: f2e0 02be 87d1 933d d165 0a3e 736a 19be
000000f0: ef85 eebd 6d22 f73a 2d7c 35be f792 0a3e
00000100: 2c02 243e 198e 8a3d a8f1 e8bd 9053 9e3d
00000110: 6a0b f8bd d322 933d 00e9 03be 4835 eabd
00000120: 6585 093d 692b b63d 56f5 973d 9158 15be
00000130: ff6f 03be 6384 223e 03f8 d73d 4bf3 0dbe
00000140: 5e0f ca3d e3a9 533d 0ed6 9cbb 9312 583d
00000150: d295 f13d d5c0 af3d f4f3 c43d 0ba2 103e
00000160: 2691 6c3d 7ed9 d23d 3dc8 16be e519 d13d
00000170: b2de 1dbe 0db9 283e 2595 083e 6686 9c3d
00000180: 5235 1bbe 420b 913d e80c 313d 1567 00be
00000190: bbe0 d43d 4736 433d 97cf b0bb 8275 913d
000001a0: 5d9d f6bd 958f 603d 926a cf3d e1b5 0fbe
000001b0: b8d3 b1bc df5c 86bd 05d2 09be 5c09 1f3d
000001c0: ab75 6a3d 0041 383d 02b5 ffbd 04ec b7bb
000001d0: d98c b7bd f83e e1bd 27b8 f63d 550c 023d
000001e0: 69ca 923d 852c 583d fcf6 1cbe e5f3 22be
000001f0: c6e6 343d e746 1dbe ba99 013e 98b1 b33d
