wkey/openwakeword_models/heycomputer4.onnx (onnx, 859394 bytes, 9 tensors)

layer1.weight f4 [128, 1536]
00000000: 8ca3 76bc b8d2 893c a05e 47bc 1ba7 d3bc
00000010: e538 c63b 6912 a93b e32d f23c ef6c 4c3c
00000020: 0b4a 5bbc 8555 12ba d320 79bc 038c 5d3c
00000030: e369 823c 484a 873b 4873 4cbc e2dc a63c
00000040: d9bc 94bb 156f 363c 6df2 f8bb 18c3 bfbc
00000050: 82a6 19bc 415c 08bc 504c 83bc 3592 cf3c
00000060: 23bd c6bc ade8 8e3c 2c14 febc 43aa ae3a
00000070: 442b 87bc 85d6 d9bb 15d9 6e3b 48d1 d63c
00000080: 4ee6 9bbb 2456 c1ba 2908 1cbb e930 bc3c
00000090: eda7 753c c33d 9abc 8067 42bc c94d 173c
000000a0: 9d95 763c 7c5c aabc 57cd 25bc 79fe 013b
000000b0: 7450 febc 65fa ceb8 cc0e c43b 07f3 8e3b
000000c0: 849c ca3c fbf7 5a3c cd7e d13b 97d9 d63b
000000d0: b314 d33c 2db1 0c3c 517f 9abc 2ef4 82bc
000000e0: 7106 44bc d520 32bc 8818 8c3c 5df4 e63b
000000f0: 7d9f 803c 04d3 f93c 0565 d5bb 4cdb 9f3c
00000100: e5f5 933b d5a2 d03b c380 aabb 0939 62bc
00000110: 939f dbbb 4db6 fdba 33f5 343c 7948 e53c
00000120: ed27 393c a095 b1bc bf54 f43b 3dc5 23bc
00000130: b353 883c c12f bb3c 84ec bebb 41b6 823b
00000140: 5971 a4bc 9539 c73c db6c 8fbc 95d4 40bc
00000150: 1775 62bc d0ae 66bc 21fc 063c 4056 933b
00000160: 0d18 e7bb aced 133c eb02 8ab8 6f70 643b
00000170: a129 8f3a 6dd1 9dbc 691b c0bb e93c 76bc
00000180: 4d2d 023c 3d6b e23a 1cae 9bbb 130b b13a
00000190: 3c0a bbbc 0c87 953c a169 85bc 0c6f 0abd
000001a0: 5bdd e0bc 57a0 1e3c 8353 dbbc a082 2fbc
000001b0: 0b1d 41bc ab3a b5bc f031 033c 65ed 3a3c
000001c0: 99b9 0e3a 47ed 7bbb 25b0 bc3c 20d9 7fbc
000001d0: db62 af3c edd1 8abc 49f3 cfbc 8606 a0bc
000001e0: f85e ebbc 0413 86bc 055b edbc 3ea5 033c
000001f0: 1d70 debc 8b29 52bb 8c43 af3c 9761 853c
00000200: 6a75 8b3c 8829 dfbc 1f95 75bc 4302 de3c
00000210: 3b39 ffbb 1d26 943c 8427 673b 4004 88bc
00000220: 9dfa 50ba 6b84 d2ba 5e22 8d3c c0e4 3a3c
00000230: 25aa 4dbb 0037 2cbc 0722 83bc edb4 d13c
00000240: 3b3d b9ba 21ef 54bc a43a 63bb 3f58 c53c
00000250: 5c07 1fbc 1096 2a3c c5de 5f3c 5f84 283c
00000260: b0af 58bb 99ab 3b3a 2858 cbbc eb6b 28bc
00000270: 3c50 2dbb 70e7 073c 3f88 c03c a6a6 873b
00000280: 9d54 81bc ebe3 b33c 9ab3 1a3c c1d1 753c
00000290: 15cb 22bc 1330 93bc 8767 9e3c 0e02 0ebc
000002a0: 4307 35bc df9a 74bc db74 d1bb cd0e 84bc
000002b0: cb40 76bc 5484 3bbc 044b 9abc 0573 f33b
000002c0: b740 7cb9 50e9 023b 036b b43b 20f5 653c
000002d0: 00f8 9c3c 2036 fd3a 75e8 ae3c b3ac b1bc
000002e0: 7673 0c3d da74 0f3b 5bd6 93bb 709d d33c
000002f0: b9a0 f73b 392b 043c d083 083c 2853 e1bb
00000300: bd8b 2cbc bd2c af3a 0799 233b 919f dabc
00000310: 330e a13b 6f14 a13c fcc3 d23c c5bf b1bc
00000320: d49e 8ebc 6862 3a3c 9962 cabb d9d5 aebc
00000330: 2f4e 8cbc 6ec4 973b d101 a23b 1834 6b3b
00000340: a80c 9e3c f34f deba 81a1 a93c fdbd 54bc
00000350: fcc4 d03b df73 48bc cc72 08bc edc0 9b3c
00000360: 9b0b 12bd 77a2 ea3b 9058 ef3b 616c fc3b
00000370: cb60 123c 9807 023c f1e5 bbbb e5b3 f73a
00000380: a4dd 98bc 1378 f5bc 1c0f 00bd 351e 113c
00000390: b1fc c03c ac96 a0bc b4c0 c5ba 5b82 aabb
000003a0: adfa 04bc a3a0 313c 9be9 323c 43e4 d1bc
000003b0: eb13 243c d3fc a5bc ac0f 2e3c 67b2 00bb
000003c0: e515 00bc c701 b2bb 0505 48bc 5982 b23c
000003d0: b71c 083b fc36 653b 8946 06bc 5376 9ebc
000003e0: 3103 2ebc b574 dc3c 05bf 5cbb 1ee6 1ebc
000003f0: e9d4 a639 bd37 4039 e09d f23b dd3c 293b
-0.015053641 0.016824111 -0.012168556 -0.025836518 0.006049263 0.0051596654 0.029562896 0.012477144
-0.013384352 -0.00055822014 -0.01520558 0.013522151 0.015919631 0.004128728 -0.012478657 0.020368997
-0.004539114 0.011134882 -0.007597259 -0.023408458 -0.009378077 -0.008322776 -0.0160276 0.025338272
-0.02426011 0.017444933 -0.031015478 0.0013325888 -0.016500123 -0.006647887 0.003644531 0.02622284
-0.004757679 -0.0014750403 -0.0023808575 0.02297254 0.01499365 -0.018828278 -0.011865497 0.009234854
0.015050319 -0.020796053 -0.010119758 0.0019835515 -0.031044222 -9.869485e-05 0.0059832092 0.004362467
0.024732836 0.013364787 0.0063932897 0.0065567004 0.025766706 0.008587164 -0.018859537 -0.015985575
-0.011964426 -0.010872086 0.017101541 0.0070481733 0.01570105 0.030496128 -0.0065122866 0.019513749
0.004515397 0.0063670673 -0.005203338 -0.013807544 -0.0067023723 -0.0019356698 0.011044788 0.02798866
0.011301023 -0.021677792 0.0074563916 -0.009995756 0.016641473 0.02284992 -0.0058265347 0.0039890115
-0.02007358 0.02431945 -0.017507961 -0.0117694335 -0.013821862 -0.0140797645 0.008238823 0.004496366
-0.0070524276 0.009028833 -6.580896e-05 0.0034857055 0.001092244 -0.019264901 -0.0058626425 -0.015029171
0.007945371 0.0017274391 -0.00475098 0.0013507329 -0.022832029 0.018252872 -0.01628572 -0.03379731
-0.0274493 0.009681783 -0.02677322 -0.010712296 -0.01178671 -0.022122702 0.0080075115 0.011409138
0.00054445263 -0.003844099 0.023033211 -0.0156157315 0.021409443 -0.016945804 -0.025384562 -0.01953436
-0.028731808 -0.01636649 -0.028974066 0.008035002 -0.02715307 -0.0032068219 0.021394514 0.016281886
0.01702376 -0.027241483 -0.0149891665 0.027100688 -0.007788805 0.01808458 0.0035271356 -0.016603589
-0.00079719146 -0.0016061192 0.017228302 0.011407077 -0.0031381932 -0.01051116 -0.016007436 0.025598967
-0.0014132628 -0.012996466 -0.0034672404 0.02408993 -0.009706344 0.010411754 0.013663952 0.010285466
-0.0033063702 0.0007159054 -0.02482231 -0.010279636 -0.0026445528 0.008294925 0.023502467 0.004139739
-0.015787417 0.021959266 0.009442234 0.0150036225 -0.009936114 -0.01796726 0.019336475 -0.008667482
-0.011049095 -0.014929502 -0.006392104 -0.016120339 -0.015030096 -0.011445124 -0.018834598 0.007429483
-0.00024056701 0.001997549 0.005505921 0.014035493 0.019161224 0.0019318499 0.021351079 -0.021688795
0.0342898 0.0021889717 -0.004511637 0.025831908 0.0075570014 0.008066946 0.008332208 -0.006876368
-0.010531363 0.0013364773 0.0024963038 -0.026687415 0.0049150228 0.019663064 0.025728218 -0.021697888
-0.01740972 0.011376001 -0.0061763045 -0.021342205 -0.017127125 0.0046315705 0.004944064 0.0035889205
0.019293144 -0.0016961083 0.020706894 -0.01298475 0.0063711386 -0.012234657 -0.008328151 0.019012893
-0.0356556 0.0071604806 0.0073042586 0.0077033495 0.00893421 0.007936381 -0.0057341983 0.0018898217
-0.018660374 -0.029964482 -0.03126441 0.0088573 0.023557993 -0.019603096 -0.0015087337 -0.005203528
-0.008116406 0.010841521 0.010919954 -0.025621539 0.010014514 -0.020262158 0.010623854 -0.0019637586
-0.00781772 -0.005432341 -0.012208228 0.02179067 0.0020769069 0.00349754 -0.008195528 -0.01934353
-0.010620878 0.026911119 -0.0033683192 -0.009698419 0.00031820618 0.00018331311 0.007404074 0.002582363

layer1.bias f4 [128]
00000000: 1f6a 0abc 256a c73b 15e0 3f3b db73 4c3c
00000010: cd44 99bc 1f84 bc3c eff5 ff3c ada5 13bc
00000020: 9f79 8b3c 1f79 f5b8 35ac b7bc 8314 8dbc
00000030: 0ceb cf3c 38d6 0f3b ecff 41bc 07e6 cebb
00000040: b900 f838 e83b b2bc 9197 033c 33f9 713c
00000050: 49de 79bc 8861 42ba 4192 3f3c 8413 c33b
00000060: b085 e63c 5177 0a3c c5b8 81bc a7ac d43b
00000070: cc0f a63c 2b71 b73c f7c9 1ebc 0d2f fabb
00000080: bc56 7c3c 004f babb bb3b e23c 9d13 813c
00000090: bb50 afbc 0544 5abc 0cdf 3c3c bb49 f93a
000000a0: 53a5 a23c cdc9 47bc 4db8 d4bb f82c 313c
000000b0: 73c5 c5bc ab2a c3ba 195d 9f3c 3849 9e3c
000000c0: 3c24 afbc dba8 0d3c 1f51 5dbc f3ad c83b
000000d0: c4ad 9e3c 58b0 2dbc 730c 793c a9d2 a33c
000000e0: 2971 a8bc d5f8 d7bb c3eb a5bb f1bc 8c3c
000000f0: 93df 573c b15b b83c 01ed 74bc d8fc b9bc
00000100: cd7a 7ebc 9874 9c3c c16b 793c 7b62 f9bb
00000110: 1e66 a9bc 04a0 7dbc 4089 dc3b 29f3 b3bc
00000120: effa e03c 0895 d03c 277b a8bc 71e8 84ba
00000130: e32b d33b 7bd9 d53c 79e9 163b a0b6 7a3c
00000140: d881 d6bc 3bb7 873c 6094 b3bc 194d b03c
00000150: e40e 9d3c a5bc db3b 4616 9a3b 28cc 323c
00000160: 5df8 99bc 8bb7 eebb 046c b33c db69 723c
00000170: 8f9a 66bc 59ab ac3c 7331 a7bc 7d7b 1b3c
00000180: 11e2 c2bc 79e8 a73b b040 bbbb 1d24 7cba
00000190: 2b1b adbc bcbc c3bc 8876 8ebc acad b4bb
000001a0: 4381 b63c c0fe 743c dcfd 27bc 95e8 c1bc
000001b0: 1b38 2cbc 876a fb3b 34c9 60bc 1f46 93bc
000001c0: 1bd8 ffba 68e2 91bc 8030 d1bb 6b57 c1bc
000001d0: 0316 3cbc d84d 83bc bc04 933c ef16 d73c
000001e0: e71f a33b 6ddd 10bc 80df 2d3b 619a 86bb
000001f0: e163 33bc 97dd 983c 89c0 e73b bbbc 35bc
-0.008448153 0.0060856515 0.002927785 0.012478794 -0.018709565 0.023012219 0.0312452 -0.009011668
0.017025767 -0.00011705071 -0.022420982 -0.017221695 0.025380634 0.0021947753 -0.011840802 -0.0063140425
0.00011825696 -0.021757081 0.008031742 0.014768886 -0.015250751 -0.0007415046 0.0116925845 0.005953254
0.028139919 0.008451299 -0.015835175 0.0064903083 0.020271204 0.02239283 -0.009691707 -0.0076350034
0.015401538 -0.005685687 0.027616372 0.015756423 -0.0214008 -0.013321881 0.011527788 0.0019019166
0.019854223 -0.012194109 -0.006491697 0.010813944 -0.024142003 -0.0014890035 0.019453572 0.019322023
-0.021379583 0.008646215 -0.01350811 0.006124252 0.019369967 -0.010601126 0.015200722 0.019997912
-0.020561771 -0.0065909424 -0.0050635054 0.017179938 0.013175863 0.02250466 -0.014949084 -0.022703573
-0.015532208 0.019098565 0.015223444 -0.0076106167 -0.020678576 -0.015480045 0.0067302287 -0.021966534
0.027463404 0.025461689 -0.020566536 -0.0010140074 0.0064444407 0.02610468 0.0023027344 0.01530233
-0.026184961 0.016566863 -0.021921337 0.021521138 0.01917214 0.006705838 0.004702362 0.010912932
-0.018795187 -0.0072850636 0.021902092 0.014795746 -0.014074936 0.021077799 -0.020409321 0.009489891
-0.023789437 0.0051241484 -0.0057144985 -0.00096184184 -0.021131119 -0.023893707 -0.017390504 -0.0055138674
0.022278434 0.014953315 -0.010253396 -0.023670474 -0.010511423 0.007672611 -0.013719846 -0.017977772
-0.001951936 -0.017808154 -0.0063839555 -0.023601254 -0.011479857 -0.01602833 0.017946593 0.026256053
0.0049781683 -0.0088418545 0.0026530921 -0.004107759 -0.010949106 0.01866035 0.0070725125 -0.01109236

layernorm1.weight f4 [128]
00000000: 05c1 783f f2dc 813f 9410 7b3f c9cb 853f
00000010: 9019 823f 370b 7e3f 6518 7e3f 79a6 7e3f
00000020: 1b42 7f3f a050 7e3f e845 7d3f d06a 7d3f
00000030: b533 7b3f f5ee 7c3f dfed 7d3f 5866 7e3f
00000040: bd9c 7b3f c1e1 7c3f 63b5 7e3f 28a7 7f3f
00000050: 059d 7f3f c130 7b3f e517 803f 1d36 7e3f
00000060: 46f4 833f 7537 773f 8fe1 7e3f e9df 823f
00000070: df65 7d3f 80b5 803f 542b 7c3f 0877 7f3f
00000080: 80b2 7c3f 3528 803f dbdc 7a3f 5019 7c3f
00000090: 8b3c 7f3f 771e 7f3f d485 793f 721b 813f
000000a0: 0881 7f3f b4c6 803f 32c0 803f 0d45 7d3f
000000b0: c92b 7e3f 682f 803f 7187 813f 0c04 7c3f
000000c0: d832 7c3f ebd9 803f d1f4 813f 394a 813f
000000d0: c091 7e3f 3c3e 7f3f 14da 7e3f 831f 803f
000000e0: a59a 843f c12a 813f b144 803f dcc3 7f3f
000000f0: f901 803f 09eb 793f 6d8f 7e3f 648b 7c3f
00000100: 4f83 7c3f b3ad 793f 83f1 7b3f c8ac 7e3f
00000110: d758 833f 6bba 803f 9ebb 813f abf6 7e3f
00000120: 6d20 7e3f 35f4 7b3f 93b3 7a3f d627 853f
00000130: 17cb 813f 4391 803f 77b5 7b3f af60 7f3f
00000140: 10ad 7c3f 740b 803f 640a 7f3f ad03 813f
00000150: 843e 843f cb9b 7e3f 256e 813f 581d 803f
00000160: a3c1 7b3f 2956 7f3f 05cf 7b3f 10dc 843f
00000170: 2519 843f c1ae 7b3f 38ec 773f 1bf4 7a3f
00000180: 7ca5 7b3f 1b9c 853f 01c2 803f 89ea 7e3f
00000190: 73a7 833f 1125 7f3f 297c 7d3f 9df6 7d3f
000001a0: 6f61 8a3f b088 7e3f 18be 7c3f dbf4 7d3f
000001b0: 406c 803f 349a 7c3f 24e8 7d3f e9d5 803f
000001c0: 0415 7a3f b80d 7e3f 58cf 803f 97b1 803f
000001d0: 33f6 7d3f 4148 793f ad6f 7c3f bc1e 813f
000001e0: 2099 7e3f 2980 823f b3d8 7b3f 7447 803f
000001f0: 6104 7f3f 3cdd 7d3f a878 7d3f c8cd 7e3f
0.97169524 1.0145552 0.9807217 1.0452815 1.0164051 0.9923586 0.99255973 0.9947277
0.99710244 0.99341774 0.98934793 0.9899111 0.98125774 0.9880212 0.9919109 0.99374914
0.9828604 0.98781973 0.99495524 0.99864435 0.9984897 0.9812127 1.0007292 0.9930132
1.0308921 0.96568996 0.99562925 1.0224582 0.9898357 1.005539 0.98503613 0.99791
0.9870987 1.001227 0.9799325 0.98476124 0.99701756 0.9965586 0.9746983 1.0086501
0.9980626 1.0060639 1.0058653 0.9893349 0.9928556 1.0014467 1.0119458 0.98443675
0.9851508 1.0066503 1.0152837 1.0100776 0.99441147 0.9970434 0.9955151 1.0009617
1.0359694 1.0091172 1.0020963 0.9990823 1.0000602 0.9762426 0.994376 0.98650193
0.9863786 0.9753067 0.9841539 0.99482393 1.0261487 1.005689 1.0135381 0.99595135
0.9926823 0.98419505 0.9793026 1.0402782 1.0140103 1.004433 0.9832377 0.997569
0.9870157 1.0003495 0.9962523 1.0079247 1.0331578 0.9945647 1.0111738 1.0008955
0.9834234 0.99740845 0.9836276 1.0379658 1.0320174 0.9831353 0.96844816 0.98028725
0.98299384 1.0438265 1.0059205 0.9957662 1.0285476 0.99665934 0.9901758 0.99204427
1.0810984 0.9942732 0.9872756 0.99201745 1.0033035 0.98672795 0.99182343 1.006528
0.9768832 0.99239683 1.0063276 1.0054196 0.99203795 0.97375876 0.98607904 1.0087504
0.994524 1.0195361 0.9837753 1.0021806 0.99616057 0.991657 0.9901223 0.9953275

layernorm1.bias f4 [128]
00000000: a52b 0c3b 5880 c33b 9d87 febb 472a 4bba
00000010: 3868 f13b c720 0cbc 8fbf d93a cfbf c23a
00000020: 0fd5 663b 179b 81bc 213f 5bbb 4c2a c9bb
00000030: f523 14bc ab55 1c38 a866 4e39 f5d8 4c3b
00000040: 6494 81bb ffad f3bb b5d8 59bb e70e d63b
00000050: 13c2 623a 7b43 0dbd abee 2c3c 389f 4e3c
00000060: 95ec 023c 397b 85bc 08b7 8439 60e3 063c
00000070: 5b38 dcbb 08f1 ad3b 990a 9bbb c0de cbbb
00000080: db61 0c3b 5361 913b f3ee 87bb 7331 54bc
00000090: bfd3 93bb 905e 51bc 3dfa ccbc 3803 6e3b
000000a0: eab8 823b b32f 2bbc d0c7 71ba 13df 34bb
000000b0: 6d69 e9bb 15db 2ebb 58a8 303c 31ea 97bb
000000c0: 67d9 453b 21a3 173c 209e 943c 0da8 f4ba
000000d0: 9c8e f7bb 2ef4 09bc ebf5 dc3a 27f7 a23b
000000e0: 835d 493c f983 54bb 1c1a 3ebc 4dbf 333b
000000f0: e098 4a3b 5c08 7bbb 6b27 423b 4d6b 68bb
00000100: 5001 6d3b cf53 98bb 2819 22bc dc33 243b
00000110: 78ca dd3b b439 d73b 4551 4d3c c5b5 dbbb
00000120: 83f5 ad39 7fbe 4e3b 4fdf c1bb 1863 323c
00000130: bc64 a93b 6fde cf3b 1d45 11bc b37a 0b3b
00000140: 4f1b 83bc f035 70ba 5084 96ba ed43 e53b
00000150: 29d1 48bb 7195 b53a 7fed 63bb 7489 99bb
00000160: 3b2f 51bc 26df 1fbb 4fde 2dbc 4e1c 083c
00000170: 4df4 9a3b bf72 88bc 4474 bebc ed24 84ba
00000180: 482f bdbc 1194 813b b0b4 0fba bd35 13bc
00000190: 2529 e03b 81ca 0e3c fb85 36bc 17d1 1ebc
000001a0: 9504 613c e331 413b 3112 61bc 44ff ddbb
000001b0: 5096 593b f74a 1abc 04b8 04bc 388f 4a3b
000001c0: 1b1a 02bb a198 4a3b eff3 6d3b af55 0cbc
000001d0: efc3 e8bb 6823 49bc 08c3 d6ba bd2c a63b
000001e0: a5d0 223b 348f 563c c701 34bc 3782 f73a
000001f0: 93d4 86bb 3453 f8bb edd4 b7bb 6fc9 cfbb
0.002138832 0.0059662275 -0.007767631 -0.0007750135 0.00736716 -0.008552737 0.0016612875 0.0014858189
0.0035222208 -0.015821023 -0.0033454376 -0.0061390754 -0.009041776 3.7273083e-05 0.00019683933 0.0031257246
-0.003954457 -0.0074365134 -0.003324074 0.006532538 0.0008650135 -0.034488183 0.01055495 0.012611203
0.007990976 -0.016294109 0.0002531337 0.008232921 -0.0067205853 0.005308274 -0.004731488 -0.006221622
0.002142063 0.004436651 -0.004148358 -0.012951243 -0.004511326 -0.012778893 -0.025021667 0.0036317836
0.0039893286 -0.010448384 -0.0009223195 -0.0027598783 -0.0071231634 -0.0026680876 0.010782324 -0.004636072
0.0030189396 0.009255202 0.018141806 -0.0018665806 -0.007554842 -0.008420033 0.0016857957 0.0049733105
0.012290361 -0.0032427295 -0.011602905 0.0027427257 0.0030913875 -0.0038304543 0.0029625546 -0.0035464347
0.0036164112 -0.0046486626 -0.009893693 0.0025055325 0.006768521 0.006568158 0.012531583 -0.006705018
0.00033180052 0.003154665 -0.005916513 0.010887884 0.005169479 0.006343655 -0.008866576 0.0021282851
-0.016004233 -0.0009163311 -0.0011483524 0.006996623 -0.0030642247 0.0013853741 -0.003477901 -0.004685575
-0.012767608 -0.0024394481 -0.0106120845 0.00830753 0.00472883 -0.016656278 -0.0232488 -0.0010081806
-0.023093835 0.0039544185 -0.00054819416 -0.00898498 0.0068408423 0.008715273 -0.011140342 -0.009693406
0.013734003 0.0029479198 -0.013737247 -0.006774815 0.0033201165 -0.009417287 -0.008100513 0.003090812
-0.0019851986 0.0030913728 0.0036308726 -0.00856535 -0.007103435 -0.012276508 -0.0016385028 0.005071251
0.00248436 0.013095666 -0.010986752 0.0018883412 -0.0041146963 -0.007578278 -0.0056100995 -0.0063411514

blocks.0.fcn_layer.weight f4 [128, 128]
00000000: 99c2 4a3d 7cf0 a5bd 780a aa3a 3d8e 31bd
00000010: 7be5 8ebc 13fb 8bbc 0e5a a2bd c887 8f3b
00000020: a08d be3d 593b 49bd e7f7 c2bb e7bb bc3d
00000030: adaa 34bd 8587 4ebd 1bed 51ba ac35 833d
00000040: 0008 e4bc 1447 9c3d 8147 06bd d0c4 fb3c
00000050: bd8f f6b9 3347 913d 3b01 8cbd 5d3b d53b
00000060: c4a1 84bd 6551 8d3c 1430 b33c 15fe 9fbc
00000070: c819 8a3d 24dc 89bd 947d 293d 6316 fc3c
00000080: 0f7e 5cbd 00cf 4bbd 27e0 05bd 387c 4f3d
00000090: 4f80 06bc fc2c e93c 8584 763d 5986 0f3c
000000a0: 79db 283d fc54 39bc 8101 e7bc af9f a63d
000000b0: 874f 133b 0a39 973d ac19 063d edca 6cbd
000000c0: 9416 18bd 4bdb 623d 50dc 88bb 05ce 5d3d
000000d0: ffb5 84bd 0bfc 993d f8fe 48bd ebf1 313c
000000e0: a58b 24bd 5c28 093c d366 61bc 5d87 353d
000000f0: b824 4d3d d3f4 f6bc ac6c 90bd 0bbb 22bb
00000100: 8da0 4cbd 789e 793d f16f 2ebd fc9a 0a3d
00000110: 17db 793d a1b4 b73c 87d7 aa3b cbb2 b33c
00000120: 5537 ba3b 78f9 453d 8db1 873c e927 45bc
00000130: 553e 65bc d310 4a3d 4c13 3abd 2d32 1f3d
00000140: d090 d33b 5dd2 843d 2fba b73d 93d1 58bc
00000150: 64d4 4f3d 0f1a 51bb 1c2f 68bd 45f6 8d3d
00000160: a4b8 a3ba 03c7 a03d 336d 103d 6551 9b3b
00000170: cb35 b73d bde1 b43d ad8f 1abd a06c 8fbd
00000180: bdb8 ddbc fa13 20bb 7388 a33d 1bf1 75bd
00000190: 7b88 973d ffb2 c1bc 82cf 9cbd 67f5 6e3c
000001a0: a860 4f3d c4d8 3dbd 262f a9bd a86b 41bd
000001b0: b776 c33c b5a6 2c3d 752c 343d 535f 103d
000001c0: 3ba4 8cbd b36c d93c db51 f03b 98ff 373d
000001d0: a0e3 11bc fef9 1e3d cd27 153d 9d93 573d
000001e0: bd01 3cbd f8e9 d93c 2016 ed3b fa14 913c
000001f0: a2ca 0dbc 21ed 9dbd 8fa9 b43c 9dff 46bc
00000200: 8359 0bbd 2cf9 c5bc 59b4 b63c a0f3 1b3d
00000210: ec13 d73c b367 96ba 3f7e b33c c43e 4abd
00000220: 3dad 623d b744 dfbc a80f 903d 142d d13c
00000230: aa23 8e3d 492e 9e3d f261 903d 3052 58bd
00000240: 69ca 363b 5d1d 35bd c18a 173c a18f 1d3d
00000250: c7c9 c13b c549 22bc dbb7 79bd 532e 883d
00000260: 7d63 ccbb 90b3 e9bc 71a8 31bc 68e9 be3d
00000270: 34f9 903c 65af b7bd c88b 77bd 4bb9 9fbc
00000280: e84f 2e3d f180 67bd 7d77 f63c bb0a f1bb
00000290: 7794 a23d 3533 3ebb 0081 073d 3b42 84bd
000002a0: bcaf be3c d060 a3bc 91d8 733d 21cc bbbd
000002b0: 3f00 50bd c3f4 e03c 926c 9bbc 75cd 97bc
000002c0: d98d 063d 7d35 bebc f54b 583d 78d1 c73c
000002d0: 35a2 7e3d ef0d 4fbd e7b4 9bbd 0b3f 3cbd
000002e0: b8cb 053e 7ed9 14bd a88b d53a 23f6 d33d
000002f0: 1125 933d 9ca7 68bd f1e1 a0bb a92d 89bd
00000300: 20a6 b83c 8b48 c7bc fd1e 22bd 0770 67bd
00000310: e2da 83bd abb3 44bd 60b9 08bd b30e 853c
00000320: 8b87 f9ba 6430 99bd 7dd0 7d3d 1171 30bd
00000330: 23a7 c83d 8f0a 80bc 8b2e a1bc b34e 19bc
00000340: 95ee 243c 71a6 80bd 2c5e 3f3c e76b 99bc
00000350: 1506 b13d 88bc 68bc 15e1 a83d a130 53bd
00000360: f580 aa3d c9df a93c 2d29 3ebc 9b24 9b3d
00000370: 910f 08bd 2b88 e1bc 0de6 bbbc 9fb0 3bbd
00000380: d364 ff3b bc6c b73c 0fc4 493d 5feb 1d3d
00000390: b7ae 883d c1e1 ea3c f96d 653c 41a4 303d
000003a0: dcdf 0bbd 310b 413d 3dd5 ff3c 453b e93c
000003b0: 8020 983d 0982 7a3d dd6d 56bb ef6a c3bd
000003c0: 289e f53c a0df 9d3d 696f 8a3d a7dd 6d3d
000003d0: 4f3a 783c 732e 36bb 9570 a4bb 4327 37bd
000003e0: 1830 6cbc 6540 b7bb 35e2 b53c 1836 a43b
000003f0: 5fd0 7e3d 99d7 1e3d 42b8 0b3d 534a e4bc
0.04950199 -0.081025094 0.0012973091 -0.04334854 -0.01744341 -0.017087495 -0.07927333 0.0043802
0.093043566 -0.049128864 -0.0059499624 0.09215527 -0.04410808 -0.05042221 -0.0008008049 0.064067215
-0.027835846 0.076307446 -0.032783035 0.030733496 -0.0004702787 0.07093658 -0.06836172 0.006507321
-0.06476167 0.017250726 0.021873511 -0.019530335 0.06743199 -0.067314416 0.041379526 0.030772394
-0.053831156 -0.049757957 -0.03268447 0.050655574 -0.008209302 0.028463833 0.060184974 0.008760058
0.04122493 -0.011311766 -0.02819896 0.08135926 0.0022477822 0.07383926 0.032739326 -0.057810713
-0.037130907 0.055384915 -0.004176654 0.054151554 -0.064800255 0.075187765 -0.049071282 0.0108609
-0.040172238 0.008371439 -0.013757425 0.044318546 0.050083846 -0.030146038 -0.070519775 -0.0024830725
-0.0499578 0.060942143 -0.042587224 0.03383921 0.060999956 0.022424998 0.005213681 0.021935841
0.0056828656 0.048333615 0.016564155 -0.012033441 -0.013991912 0.04933245 -0.04542856 0.03886621
0.006456472 0.06485436 0.089710586 -0.01323356 0.05073966 -0.0031906401 -0.056685552 0.06931738
-0.001249094 0.078504585 0.03526039 0.0047399276 0.08945807 0.08832119 -0.037734676 -0.070031404
-0.02706563 -0.002442597 0.0798501 -0.06004439 0.073990785 -0.023644922 -0.076567665 0.014584876
0.050629288 -0.046349302 -0.08260946 -0.04722181 0.023860319 0.04215117 0.04398771 0.03524716
-0.06867262 0.02654109 0.0073339767 0.044921488 -0.008904368 0.03881263 0.03641491 0.05263101
-0.045900095 0.026600823 0.0072353035 0.017710198 -0.008654268 -0.077112444 0.022053508 -0.012145904
-0.034020912 -0.024166666 0.022302793 0.038074136 0.026254617 -0.0011474997 0.021910785 -0.049376264
0.055340994 -0.027254445 0.07034236 0.02553419 0.06940396 0.07723672 0.070499316 -0.052812755
0.0027891642 -0.044217456 0.00924939 0.038467053 0.0059139463 -0.009905283 -0.060966354 0.06649461
-0.006237446 -0.028528005 -0.010843382 0.093218625 0.017696954 -0.08969001 -0.06043604 -0.019497534
0.042556673 -0.056519452 0.030086273 -0.0073560155 0.07938474 -0.002902222 0.03308201 -0.06457945
0.023277156 -0.019943625 0.059532706 -0.09169794 -0.050781485 0.027460461 -0.018972669 -0.018530587
0.03285012 -0.023218865 0.052806813 0.024391875 0.06216641 -0.050550397 -0.07602864 -0.04595856
0.13065994 -0.03634023 0.0016292231 0.10349681 0.07184804 -0.05680047 -0.004909747 -0.06698162
0.022540152 -0.024326583 -0.039580334 -0.056503322 -0.06438233 -0.048022907 -0.033379912 0.01624236
-0.0019037587 -0.07479933 0.061966408 -0.04307658 0.09797504 -0.015630035 -0.019675514 -0.009357142
0.010066648 -0.06281746 0.011680167 -0.01872821 0.08643738 -0.014205106 0.08246056 -0.051560048
0.08325378 0.020736592 -0.011606497 0.07575341 -0.03321797 -0.02753075 -0.022936845 -0.045822736
0.0077940016 0.022390716 0.04925924 0.038554545 0.06673949 0.028672101 0.01400327 0.043125395
-0.034149036 0.047129814 0.03122961 0.028470645 0.07428074 0.061159167 -0.0032719292 -0.0954188
0.029982641 0.07708669 0.06759531 0.058072712 0.015150621 -0.0027798682 -0.0050183036 -0.044715177
-0.014415763 -0.005592393 0.02220259 0.0050113313 0.062210437 0.03877983 0.03411127 -0.027867472

blocks.0.fcn_layer.bias f4 [128]
00000000: d058 88bd 808d 2f3c c4cf 403d db20 83bc
00000010: 3089 38bb 432c d7bb 98d7 f2bc 6849 f9bc
00000020: 44b4 27bd a39b 7fbd cc46 73bd 151f a03d
00000030: ef6e 823d dde7 95bd b9a5 bb3c 6cb0 6a3c
00000040: 0448 d63c e550 743d 103f e8bc 6cf2 07bd
00000050: ffd7 d03c 0c99 f0bc 9471 a3bc 71c8 9cbd
00000060: 334b 69bc 3293 a33d 7f24 02bd 93ba 8cbd
00000070: 2cdb 343c 400d 023d 4b65 12bd b373 25bd
00000080: 7585 7c3d 1a32 023d 09f7 5c3d b762 82bd
00000090: 9906 483d c464 b7bc 179f 80bd 655b 513d
000000a0: b795 c8bb e144 5b3d c8c1 debc 75fe e73c
000000b0: 671a 243d 71bd c63c d5b7 643d e353 b0ba
000000c0: 71d0 c4bc 4be9 6ebd d77e 963d 259b cbbb
000000d0: 80e2 8a3d df18 9dbd 60f2 02bd e3a8 903d
000000e0: 7cf7 0c3d d363 353d 30cf 8e3c a3e5 91bc
000000f0: c0f9 c9bc 6815 853c 8d54 84bd 1591 c2ba
00000100: 06a2 0c3d ddec 6abc 307e 3d3d d1da 09bc
00000110: e389 2d3c d771 a7bd 9f7b 953d 2344 a8bd
00000120: 6950 883d 6dc2 92bb 4ff7 8e3c 4c29 9a3d
00000130: 2da8 6bbc 4f70 00bc 1d52 2ebd 4ba2 443d
00000140: 572b 703c 4342 82bd 3ff2 a63d c147 893d
00000150: d00e 7ebd 4be4 363d 8c88 66bd ccad fb3b
00000160: ed78 95bd 640b 553d ab35 943d 7809 55bd
00000170: 1412 a53d f534 a33d 54ba b23c c9fa 2fbc
00000180: 11f5 6dbd d8f5 b13d cb54 39bc 7944 9bbd
00000190: 5595 5bbd 79fb 80bd 611d 14bd 9404 ac3d
000001a0: d80b 3ebc b577 96bc 319c a8bd f584 6e3d
000001b0: 0f1a 113d 7b38 113d ab1f 4b3d 7c6b e43b
000001c0: 2474 9dbd 9733 983d 4c99 a33d 8145 78bd
000001d0: 438d 643d b334 9fbd a741 8ebd 70dd 333d
000001e0: 8c69 313d e34e 673d 5fd7 f03c 2b15 503c
000001f0: d1ac 4bbd 37b2 da3c 6726 75bd e7e1 92bc
-0.06657565 0.010714889 0.04707314 -0.016006878 -0.0028157942 -0.0065665557 -0.029643819 -0.03043051
-0.0409434 -0.062404286 -0.05939369 0.078184284 0.06368815 -0.07319615 0.022906171 0.014324289
0.026157387 0.05964746 -0.028350383 -0.033190176 0.02549362 -0.029369853 -0.01995162 -0.07655419
-0.01423912 0.0798706 -0.031773087 -0.06871524 0.011038583 0.031750917 -0.03574113 -0.040393542
0.061650712 0.03178606 0.05394653 -0.063664846 0.048834417 -0.022386916 -0.06280344 0.05111255
-0.006121363 0.053532485 -0.027192011 0.028319577 0.04006424 0.024260255 0.05583938 -0.0013452735
-0.024025174 -0.058327954 0.073484115 -0.006213563 0.06781483 -0.076707594 -0.031969428 0.070634626
0.034415707 0.044284653 0.01743278 -0.017809695 -0.024655223 0.016245559 -0.06461439 -0.0014844263
0.034334205 -0.014338699 0.04626292 -0.008413986 0.010591957 -0.0817601 0.072989695 -0.08216121
0.06655962 -0.0044787438 0.01745191 0.07527408 -0.014383358 -0.007839276 -0.042558778 0.048006337
0.0146587705 -0.06360295 0.081516735 0.06703139 -0.062025845 0.04465131 -0.056282565 0.0076806303
-0.072984554 0.052012816 0.07236799 -0.052010983 0.08060089 0.07969085 0.021817364 -0.010740944
-0.05809504 0.08689469 -0.01131172 -0.075814195 -0.05360921 -0.062979646 -0.03616083 0.08399311
-0.011599503 -0.018367628 -0.08232916 0.058232266 0.035425242 0.035454255 0.049590748 0.006970821
-0.07688168 0.07431715 0.079882234 -0.06061316 0.05579878 -0.077737235 -0.06946116 0.04391235
0.043313548 0.056471717 0.029399572 0.012700359 -0.049725357 0.026696308 -0.059851076 -0.017929984

blocks.0.layer_norm.weight f4 [128]
00000000: a3c5 7e3f 13c0 833f 42af 893f be6f 813f
00000010: ab88 7f3f 3204 873f 9c96 8b3f 5980 823f
00000020: 9306 873f a5fb 8c3f ce8c 8a3f 4b16 923f
00000030: 8052 8f3f 63b0 893f 4ccb 943f 21e9 883f
00000040: e936 8c3f 0f1d 913f ffbf 8c3f eb99 863f
00000050: 04bf 893f d177 8c3f 6d1c 933f 7f8b 863f
00000060: 4f17 8f3f 10d0 843f 05ef 923f b1c1 903f
00000070: 5fba 8e3f 52aa 883f 9c5e 803f d5f4 883f
00000080: 95aa 843f 0b86 8a3f 1453 803f 121f 8b3f
00000090: 0ddb 893f 3dd4 853f 2b99 843f 00f2 813f
000000a0: bc4b 833f 7835 813f 0434 8d3f f52a 893f
000000b0: 0978 7a3f 2333 833f 423e 833f 614d 883f
000000c0: 15d1 8e3f 273f 813f 4389 7c3f 8477 873f
000000d0: eb3d 823f 7593 773f 6238 853f 779e 803f
000000e0: 975a 883f 5182 8d3f 9c1c 7f3f f540 833f
000000f0: cc6b 863f 51e5 8e3f b9a9 803f 6f18 8f3f
00000100: 0dc0 8c3f dfdc 823f e4e1 8b3f 0c57 883f
00000110: ea30 843f cddf 813f c390 8a3f 8d5a 7f3f
00000120: d0a1 893f 6083 7f3f 07f1 8a3f c505 833f
00000130: 8c78 893f 95ec 853f e7c5 863f 8cd5 813f
00000140: 6350 8b3f f4d8 893f 193d 8f3f b30e 883f
00000150: 3d12 903f eaac 803f 10ff 8b3f 4414 8b3f
00000160: bb9a 883f 11a4 883f 54f8 8a3f c534 7e3f
00000170: 499c 8d3f 1f85 8c3f 5b2a 883f 13b8 7f3f
00000180: 5dc4 803f c55c 883f ec97 8b3f 3951 913f
00000190: 25c3 843f 4169 813f 4a2b 923f cc11 873f
000001a0: 18d8 813f 790b 883f 13d9 893f af03 803f
000001b0: 6f98 803f f741 823f 3f64 883f bd0e 803f
000001c0: 9f3d 813f b8c2 823f b4dc 843f b76b 883f
000001d0: f543 8a3f 4812 8b3f 237d 8b3f 7d8b 833f
000001e0: 7750 8a3f bb29 853f bd9c 803f c79f 7e3f
000001f0: 9355 883f 3528 7e3f 088a 803f c57c 8d3f
0.9952032 1.0292991 1.075661 1.0112226 0.99817914 1.0548155 1.0905337 1.0195419
1.0548881 1.1014296 1.082422 1.1413053 1.1197052 1.0756954 1.1624541 1.0696145
1.0954257 1.1336993 1.0996093 1.0515722 1.0761418 1.0974065 1.149305 1.0511321
1.1178988 1.0375996 1.1479193 1.130911 1.1150626 1.0676978 1.0028872 1.0699717
1.0364558 1.0822157 1.0025353 1.0868857 1.0769974 1.0455395 1.0359243 1.0151978
1.0257487 1.0094442 1.1031499 1.0716234 0.9783941 1.0249981 1.0253375 1.0648614
1.1157557 1.0097398 0.98646945 1.0583348 1.0175146 0.96709377 1.0407832 1.004836
1.0652646 1.1055394 0.9965303 1.0254198 1.0501647 1.1163732 1.0051795 1.1179332
1.0996109 1.0223655 1.0928311 1.0651565 1.0327427 1.0146424 1.0825428 0.99747545
1.0752506 0.9980984 1.0854806 1.0236136 1.0739913 1.0462824 1.0529145 1.0143294
1.0883907 1.0769334 1.119052 1.0629486 1.1255566 1.0052769 1.0937214 1.086556
1.067222 1.0675069 1.0857034 0.9929927 1.106332 1.0978125 1.0637926 0.9989025
1.0059925 1.0653311 1.0905738 1.1352912 1.0372053 1.0110246 1.1419461 1.0552306
1.0144072 1.0628501 1.0769371 1.0001124 1.0046519 1.0176381 1.0655593 1.0004498
1.009693 1.0215673 1.0379853 1.0657872 1.0801989 1.0864954 1.0897564 1.0276943
1.0805806 1.040336 1.0047833 0.9946255 1.0651115 0.992801 1.0042124 1.1053702

blocks.0.layer_norm.bias f4 [128]
00000000: ac1d 03bc e8fb 083c bc63 943d e064 fb3b
00000010: ba0a 813a ed54 9c3c 7e57 9b3d 73ea 2d3c
00000020: c154 0c3d 255c 3f3d 602b ed3c 5d0a 533d
00000030: 19b2 c43d 9bbb 933d e042 a63d 2392 2b3d
00000040: c7f6 bb3d a150 ca3d 204b 973d e810 c23b
00000050: c820 313c f0d5 ac3d 8b1d d03d 939f db3c
00000060: ab81 d53d d3e8 4f3c 9500 bd3d af02 db3d
00000070: 0042 b73d 5f8b 9e3d 1c98 8e3b 79cb da3c
00000080: b50a 853c 344e 633d e096 e8bb 3b1a 743c
00000090: 4323 ab3c 3c72 e63b 20e2 2c3d 8c0d 133c
000000a0: 3f89 b43c d8be 243c 14f6 853d 9789 973d
000000b0: 9ce9 2ebc 27be 043d 89fb ee3b 8ac8 073d
000000c0: fdfc 7e3d 60e3 3f3c f2a8 17bb 3b56 a63d
000000d0: b8ac 103c a022 c4bc 14b0 893c a36f 5f3a
000000e0: a989 8f3d d7c4 ae3d 61e0 c0bb 8bf5 f13b
000000f0: 74ae 453c 7487 bf3d fdc0 f13b 6d99 c63d
00000100: ac87 b53d b83e c0ba 846f 5c3d 6586 193d
00000110: 551d 9b3c 14ff c1bb 3c9a 213d 6787 46bb
00000120: 4553 bd3d ccc0 aaba 218c 203d 1c59 8f3c
00000130: 30f7 a23d d061 e23c 8187 813c b9cd ecb7
00000140: abcf 793d 2c5d a53d e14e ca3d b356 e93c
00000150: bdcc ca3d 7b5c a93b ff79 ad3d 7c0f a53d
00000160: e8db 723b 0705 be3c ebbf 133d 85e5 023c
00000170: fb4b b33d 6de1 ab3d d7f4 8b3d 7389 36bb
00000180: bc30 5d3c 3dc6 053d 09f3 a03d 45df cd3d
00000190: 97b4 033c 75c2 44bc 600a 093d 1857 bc3c
000001a0: ed0d 863b 9fe1 333d 0c6a 9c3d adef 483b
000001b0: b81f 4a3c 2dbc 063c 5ddc 903d 0da7 ad3b
000001c0: 5d94 143c f33d 5f3c 8761 a23c b7b7 063d
000001d0: 2fc7 0e3d bcde a33d 2ba6 a53d 14c9 593c
000001e0: 15d1 3f3d d5d6 0c3c 48e2 3a3c 8b24 b8bb
000001f0: 5d04 153d 23e0 9abb 2f60 843c 0f24 cd3d
-0.00800268 0.00836084 0.07245585 0.0076719373 0.0009845116 0.019083465 0.07585047 0.010614979
0.034260515 0.046718735 0.028951347 0.051523555 0.09604282 0.07213517 0.08118224 0.041887414
0.091779284 0.0987866 0.07387376 0.0059224255 0.010811038 0.08439243 0.10161885 0.02680949
0.10425123 0.012689787 0.09228627 0.10693871 0.089481354 0.07741427 0.004351629 0.026708351
0.016240457 0.055494502 -0.007098064 0.014898832 0.020890838 0.007032661 0.042207837 0.008975398
0.0220381 0.010055266 0.06541076 0.0739929 -0.010675814 0.032407906 0.007293169 0.033150233
0.062252987 0.011711925 -0.002314147 0.08121916 0.008830242 -0.023942292 0.016807593 0.000852341
0.070086785 0.08533638 -0.005886123 0.0073840073 0.012065519 0.093520075 0.0073777423 0.096972324
0.08863768 -0.0014667129 0.053817287 0.037481684 0.018934885 -0.0059203003 0.03945373 -0.0030293108
0.09244398 -0.0013027429 0.039196137 0.017498545 0.079573035 0.027634531 0.015811684 -2.822919e-05
0.060989063 0.08074412 0.09878326 0.028483724 0.09902332 0.0051684952 0.084705345 0.08059594
0.0037057344 0.023195757 0.0360717 0.007989292 0.087547265 0.08392606 0.06833809 -0.0027852922
0.013500389 0.032659758 0.07858855 0.10052351 0.008038661 -0.012009253 0.03345716 0.022990748
0.0040910156 0.04391634 0.07637414 0.0030660436 0.012336664 0.008223576 0.07073281 0.005299455
0.009068576 0.01362561 0.019821895 0.032890048 0.034857925 0.080014676 0.08088335 0.01329257
0.046830256 0.008596142 0.011406489 -0.0056195906 0.036381114 -0.004726426 0.016159145 0.10016643

last_layer.weight f4 [1, 128]
00000000: 3b3e 98bc 63fe 8e3d 9355 15be 05ef bf3c
00000010: 555b 62bc 5b63 bd3d a3a9 27be 8b93 823d
00000020: acb2 8e3d 0360 283e 9b48 053e d746 cc3d
00000030: 3d9e e4bd 1bb1 14be a1bc bf3d b913 053e
00000040: e9f0 cbbd c9df 14be 7d46 fd3d 1398 473d
00000050: 7650 163e 13a7 03be 6f44 0ebe 17e7 a83d
00000060: 0747 41be d84a f23d 6890 4abe f03a 07be
00000070: 1766 fcbd c802 d7bd d025 ff3c dde1 ac3d
00000080: 2cd1 223d 2dc2 c63d e1ae 033d 678a 173e
00000090: bb39 983d 5373 c63d 785c a0bd 15f9 f13c
000000a0: dd4b 313d 529a 843d 017a 983d 63cd 00be
000000b0: a48c 9dbc f916 a5bd bc59 aa3d b148 783d
000000c0: 7589 2d3e 1b8d 9c3b f8b8 82ba 473c a5bd
000000d0: 88bd cc3d 8f63 423c b117 4d3d 2d16 9d3c
000000e0: b908 02be b662 14be b94b d737 505a 083d
000000f0: c0de 953d a362 ddbd e572 0b3d b4c2 32be
00000100: 112c edbd 22b2 923d a5ca 073e ecaa f53d
00000110: 1d38 ab3d 0750 f03c 0939 223e 07e8 24bc
00000120: 043f 99bd bf11 91bc db44 1d3e 5420 363d
00000130: 80da cdbd 71e1 8a3d a03f 453d ccd7 b03d
00000140: 5b91 ae3d a576 d1bd 789f 07be 0a16 823d
00000150: e1be 09be bde5 e93b 378d e1bd 650d d5bd
00000160: ad67 b83d eb23 f73d 505d e53d 210f 7fbb
00000170: 6e4c 13be 109a 0abe 8d93 10be 4082 963b
00000180: 4501 b5bc 83a2 0e3e 0c52 18be 4b37 f8bd
00000190: 8ffa c73d 6fa5 c83d fb44 bc3d cd8a cf3d
000001a0: f0e9 673d a399 d53d 1bd0 00be 2ca6 99bb
000001b0: e3eb e5bc fbe2 d33d a8b5 efbd 8fe1 b6bc
000001c0: 5ffc a2bd 9536 5e3d 1e80 973d ff0e eb3d
000001d0: 1305 c33d 8c7a f9bd 075a 21be 0872 a83d
000001e0: cc08 bd3d 9bb6 993d 98fc 5ebc 0cf4 1abc
000001f0: ef92 0d3e b56f 94bb 5076 debc 0fc0 01be
-0.018584361 0.06982114 -0.14583425 0.023429403 -0.013815721 0.09247466 -0.16373305 0.06375798
0.06967673 0.16442876 0.13015978 0.09974449 -0.11162994 -0.14520685 0.0936215 0.12995805
-0.09958059 -0.14538492 0.1236696 0.048729014 0.14679131 -0.12856703 -0.13893293 0.08247202
-0.18874751 0.118306816 -0.19781649 -0.13206077 -0.123241596 -0.10498577 0.03114596 0.084415175
0.039750263 0.09705005 0.0321492 0.1479889 0.07432886 0.09689965 -0.07830137 0.029537717
0.04328524 0.06474747 0.074451454 -0.12578349 -0.019232102 -0.08061022 0.08317897 0.0606162
0.16946967 0.0047775633 -0.0009973338 -0.080681376 0.09997088 0.011864557 0.050071422 0.019175613
-0.1269864 -0.1449078 2.5665258e-05 0.033289254 0.07317877 -0.10809829 0.03404512 -0.17457086
-0.115806706 0.071628824 0.13260897 0.119954914 0.08360312 0.029335035 0.1584207 -0.010065085
-0.074827224 -0.017708657 0.15358298 0.044464424 -0.10051441 0.06781281 0.04815638 0.0863491
0.08523818 -0.10227708 -0.13244426 0.0635186 -0.13451721 0.0071379826 -0.11013263 -0.104029454
0.090041496 0.12067398 0.111994386 -0.003891893 -0.14384624 -0.13535333 -0.14118786 0.0045931637
-0.022095332 0.13929181 -0.14875048 -0.12119921 0.09764587 0.09797179 0.091928445 0.10133896
0.056619585 0.104296945 -0.12579386 -0.0046889987 -0.028066581 0.103460275 -0.1170457 -0.022324352
-0.07958292 0.054251272 0.07397483 0.1147747 0.09522452 -0.12181577 -0.15756999 0.08224875
0.092301935 0.07505532 -0.013610028 -0.009457599 0.13825582 -0.004529918 -0.027156025 -0.12670921
