wkey/openwakeword_models/tflite/hey_cumputer.tflite (tflite, 860700 bytes, 9 tensors)

Const_1 f4 [128]
00000000: b453 28bc cd87 5f3c 2af3 9f3c b7d6 9b36
00000010: a140 943c 9729 433b f07a 0a3b ac80 84bc
00000020: 7f04 163c 48cc ae3b 1355 86bb d5a7 2a3b
00000030: e2ef c6bb 2bd6 c63c 399c 683a 6fae 4fbb
00000040: 7608 583c f037 c83c 975d b73b b4f4 5cbc
00000050: cfb0 d8bb 6c5a a2bc f3fa 1a3c 1928 e03b
00000060: 5861 413c 1360 e83b 3cce 2c3c e4b8 4b3b
00000070: 20c5 e6bb 6c67 edbb 7fea 643c 0c5d 5c3c
00000080: fcbd 453c fd62 1c3c e9d1 d03b d2b2 00b9
00000090: df10 253b fba7 e8bb 6751 bc3c 5026 f9bb
000000a0: 4aa1 22bc 4c92 6fbc 135d 39bc eadb d43c
000000b0: d001 773c 558a 863b 2fe0 95bc aa0b a83b
000000c0: 83b7 c73c 100c 233c 3e2f 123c 4675 9cbc
000000d0: 526b a33b 8430 383c 3859 c13c 0a85 c63b
000000e0: 3a75 abbb 213b af3c 71bd 3d3b a145 f93c
000000f0: 6653 a63c 2696 923c 0b74 793c b8e7 24bc
00000100: f7dd a33c 49fe 863c 2419 3abc b97e 123c
00000110: 7d39 b93c 5720 883b aa17 d3bc 2b70 5ebb
00000120: 32d9 c83b 471b dcbb a931 8dbc 8b28 c7bb
00000130: 064f 193c 3819 903b 788d 1d3b f8a2 20bc
00000140: 9aae d73c 6048 b33c e7a3 4eba 0cad 92bc
00000150: c83e 643c 7687 473c e3a0 423c 78bf edbb
00000160: 6971 633c b6c5 ae3c 0a86 42bc 764f a6bc
00000170: f7b8 a239 8d3f bebc 241a 943b 80ed de3c
00000180: 3c3e c1bc 24bd 31bb 4a9e febb 620f c13b
00000190: 5705 3e3c 63ae d53c e6ef c83c 087b 463c
000001a0: d93e 8a3b 5317 d63c b90c ab3c 294f 30b9
000001b0: 6435 6cbc 957b 253c f7ad b53b cfeb 333c
000001c0: 6920 943b cbd2 9a3c 822a 4e3c b954 b73c
000001d0: 0c38 983c 1ced c23c f630 f93b e18f bcbc
000001e0: 2740 29bc 388b 4bbc a3ab 29bc aad9 643b
000001f0: 5375 923c 5ca3 a73b 5173 8cbc c900 03b9
-0.010273863 0.013643217 0.01952513 4.644356e-06 0.018097224 0.0029779428 0.0021130405 -0.016174637
0.009156345 0.005334411 -0.004099497 0.0026039977 -0.0060710767 0.024272045 0.00088733766 -0.0031689664
0.013185611 0.024440736 0.0055958736 -0.013486076 -0.006612874 -0.019818507 0.009459245 0.0068407175
0.011802994 0.007091531 0.010547217 0.0031085545 -0.007042542 -0.007244995 0.013971924 0.0134499185
0.012069222 0.009545085 0.0063726795 -0.00012273647 0.0025187058 -0.007100103 0.022988034 -0.007603444
-0.00992615 -0.014622282 -0.0113136945 0.02598377 0.015076116 0.004105846 -0.018295376 0.0051283436
0.024379497 0.009951606 0.008922396 -0.01909889 0.004987159 0.011242036 0.023602113 0.00605834
-0.0052324804 0.0213905 0.0028952027 0.03042871 0.02030344 0.017893862 0.015225421 -0.010065012
0.020003302 0.016478674 -0.011358533 0.008941346 0.02261042 0.004154246 -0.02576812 -0.003394137
0.0061294073 -0.006717119 -0.017235594 -0.006077831 0.00935722 0.0043975376 0.002404062 -0.00980448
0.026328374 0.021885097 -0.00078827 -0.01790478 0.013930984 0.0121782925 0.011879179 -0.007255491
0.01388202 0.02133451 -0.011872778 -0.020301562 0.00031036857 -0.023223663 0.004519718 0.027212858
-0.023589246 -0.0027120793 -0.0077703344 0.0058917264 0.011597953 0.02608413 0.024528455 0.012114294
0.004218918 0.026134169 0.02088009 -0.00016814157 -0.014417026 0.010100265 0.00554442 0.010981514
0.004520465 0.018899342 0.012583377 0.022379266 0.018581413 0.023794703 0.0076047136 -0.023017826
-0.0103302365 -0.012423329 -0.010355863 0.0034919777 0.01787821 0.0051159095 -0.01714483 -0.00012493426

Const_2 f4 [128]
00000000: 6b0d 7c3f 42f4 813f 2735 803f eb8f 7c3f
00000010: e738 813f 3dca 773f bc12 7b3f 82c2 783f
00000020: 3fb9 7b3f e3e9 803f 0ec0 823f 435c 7d3f
00000030: 49a8 763f aaef 7f3f f171 7e3f 6331 7a3f
00000040: 1caf 793f 41be 7d3f 4330 803f 6f93 743f
00000050: 023f 833f 11a5 803f 04fa 7a3f 6b92 7e3f
00000060: 2249 823f 1247 843f 7340 783f 003b 7e3f
00000070: 442a 7f3f df25 7c3f 1650 803f 83fb 7c3f
00000080: 2549 7a3f 92e6 793f 85b3 7a3f aaf1 7c3f
00000090: d1ce 793f 1cfa 773f ba90 773f f96b 7f3f
000000a0: 835d 843f 2682 793f 402f 7c3f 3cfb 783f
000000b0: 041a 7d3f 9d12 7c3f 01db 803f e460 7c3f
000000c0: a1ce 843f aef7 7d3f a9b7 7d3f fc38 7c3f
000000d0: 3f31 7d3f 75e7 7e3f eb6e 7c3f f97f 7e3f
000000e0: 1200 803f 0b10 7a3f efa9 803f 76d2 793f
000000f0: b6aa 8a3f 16b6 7c3f a16f 7e3f bedb 843f
00000100: 75dd 803f 660f 793f f7ad 7d3f f31d 7e3f
00000110: 83b1 763f 1034 7b3f 775b 7e3f 4bbb 7c3f
00000120: 0328 813f 6b64 7e3f cc5e 7d3f 0b40 773f
00000130: cf07 7f3f 8cda 803f 2aab 7b3f 184a 7b3f
00000140: 712c 8a3f cfae 773f 60cf 853f e4a5 7f3f
00000150: 17fd 833f 4354 7d3f f819 7e3f 02a1 783f
00000160: ce5e 8a3f 5e0b 793f 096f 7e3f 4f9c 783f
00000170: dc2c 7d3f 4cd0 7e3f 497a 7a3f 1a59 7d3f
00000180: 0d55 803f f0cd 833f 440e 7a3f 8312 7e3f
00000190: 5809 813f d11b 7c3f 97b5 833f 59bb 803f
000001a0: 79d3 773f ba66 7b3f 1d8b 7f3f 54ab 7c3f
000001b0: 634b 7f3f 8d09 783f 8abf 813f 2c7e 823f
000001c0: 494f 823f eb05 7d3f 80c0 813f fa34 7b3f
000001d0: 4d7d 7d3f 3502 813f 803b 763f 3d0b 803f
000001e0: bb57 7d3f b177 7f3f c485 7f3f f9f9 7c3f
000001f0: a150 7e3f f5cc 7f3f 5bfe 823f 8445 7f3f
0.98457974 1.0152667 1.0016221 0.986571 1.009549 0.96792966 0.9807546 0.97171795
0.9832954 1.0071377 1.021486 0.98968905 0.9635053 0.99975073 0.9939261 0.9773161
0.9753282 0.9911843 1.0014728 0.95537466 1.0253603 1.0050374 0.98037744 0.99442166
1.0178568 1.0334189 0.9697334 0.99308777 0.9967387 0.98495287 1.002444 0.98821276
0.9776786 0.9761745 0.97930175 0.9880625 0.975812 0.9686601 0.9670521 0.9977413
1.0341038 0.97464216 0.985096 0.97258353 0.9886782 0.984659 1.0066835 0.98585343
1.0375558 0.99206054 0.9910837 0.9852445 0.9890327 0.99571925 0.9860675 0.9941402
1.0000021 0.9768073 1.005186 0.9758676 1.0833347 0.9871534 0.9938908 1.037956
1.0067583 0.9728912 0.99093574 0.9926445 0.9636461 0.98126316 0.99358314 0.98723286
1.0090336 0.99371976 0.98972774 0.96582097 0.9962129 1.0066695 0.9830805 0.98159933
1.0794812 0.9675111 1.0453911 0.99862504 1.0311612 0.989567 0.99258375 0.9712068
1.0810182 0.9728297 0.99388176 0.9711351 0.98896575 0.99536586 0.9784284 0.98964083
1.0025955 1.0297222 0.9767802 0.99246997 1.0080976 0.98479944 1.0289792 1.0057174
0.96807057 0.98203623 0.99821645 0.98698926 0.99724406 0.96889573 1.0136578 1.0194755
1.0180446 0.98837155 1.0136871 0.9812771 0.9901932 1.0078799 0.9618454 1.000343
0.9896199 0.9979201 0.99813485 0.9881893 0.9934178 0.99922115 1.0233873 0.9971545

Const_3 f4 [128]
00000000: 0c82 33bc 6652 77bc 96b4 36bc 679e 4bbc
00000010: 34ee c2ba ecd3 2cbc ae96 33bc f858 1bbc
00000020: 8e02 4dbc 0584 9aba 21c0 56bc 1ca7 1abc
00000030: 7f3e 3fbc df23 43bc 4097 03bc 70ec 80bc
00000040: 8a90 65bb 39ca 74bb ac91 a7bb e138 7bbc
00000050: 64c2 4cbb 7d46 4cb9 c55c 64bc 7998 73ba
00000060: c5b6 883b 9926 2e3a d9a5 38bb 1f6d 253b
00000070: 0fe0 5ebb e036 06bc e4fc 103b 8104 013c
00000080: 186a 22bc e7dc 8cbc 7892 25bb cbfb 0bbc
00000090: e18a dbbb 768a 88bc 3829 c4bc 4b83 23bb
000000a0: 9f87 713b 8d2a 6dbb 02ce 7bbb d396 93bc
000000b0: 99ef 143b 0884 95bc c4e7 b0ba 59d4 79bc
000000c0: d53a a9bb 154b 0dbc 1915 2fbc c93f 83ba
000000d0: 72e7 37bc 5bcb 28bc 085f 3bbc 7c72 a2bc
000000e0: 296d 263b b31d 97bc 1c97 0d3b 3c30 a2bb
000000f0: 5be1 5c3c 409f 063b a4c3 4dbc efac 8dbb
00000100: 9f0f ed3a 77c0 63bc 6bed 3f3a 5d31 2bbb
00000110: 4f0a 4dbc 2f35 98bb d9ec 28bc fb34 ef39
00000120: 697a b6b9 deb6 08bc fcaa c5ba c5b2 d6bb
00000130: b588 c5ba 7441 263c 481c 47bc ee46 2cbc
00000140: d9cd 323c 5887 95bc 7e00 a5bb a36e 77bc
00000150: d789 eb3b 2e26 5aba abf7 06bb 8313 3cbc
00000160: c5c0 253b aaa8 68bc 2a70 99ba 6575 90bc
00000170: d28f dcbb 74e1 11bc 53b1 a2bc 1ddd a1bb
00000180: 3b5f 09bb b526 ecbb b623 aebc ea7d 82bc
00000190: 4ec3 ed3a 68e9 bebc a461 9e3a 7dfe c83a
000001a0: 0577 75bc c427 57bc a817 2fbb d04d 44bc
000001b0: 2904 7bbb 330d 5cbc df8a 3f3b 9188 a939
000001c0: 8c6b 61bb 80fc 73bc 5397 d5bb 8d1f 80bb
000001d0: c60d f9bb 302e dc3a 05e6 9abc e373 56bc
000001e0: e85e 74bb a6a9 c03b f7df f4b8 1965 27bc
000001f0: 46de 9c3a 704b c4b9 5cc0 8bb9 4f76 903b
-0.010956299 -0.015095329 -0.0111514535 -0.012427903 -0.0014872015 -0.010548573 -0.010961218 -0.009481661
-0.012512816 -0.0011788612 -0.013107331 -0.009439256 -0.011672615 -0.011910408 -0.008031666 -0.015737742
-0.003502878 -0.003735198 -0.005113801 -0.015333385 -0.0031243796 -0.00019481215 -0.013938134 -0.00092924346
0.0041721785 0.0006643325 -0.0028175025 0.0025242043 -0.003400806 -0.008191794 0.002212339 0.007874609
-0.00991299 -0.017195178 -0.0025264304 -0.008543919 -0.0066999053 -0.016667586 -0.023945436 -0.0024950083
0.0036854518 -0.0036188692 -0.003842235 -0.018016255 0.002272582 -0.018251434 -0.0013496806 -0.0152483815
-0.005164484 -0.008623858 -0.010686182 -0.0010013516 -0.011224614 -0.01030239 -0.011436231 -0.019829981
0.0025394654 -0.018446779 0.002160496 -0.0049495976 0.013481463 0.0020541698 -0.012558851 -0.004323594
0.001808632 -0.013900868 0.000732145 -0.0026121952 -0.012514665 -0.004645012 -0.010310375 0.00045625106
-0.00034804948 -0.00834438 -0.0015080865 -0.0065520727 -0.0015070649 0.010147441 -0.012152739 -0.010514958
0.010913336 -0.018253013 -0.005035459 -0.015102061 0.0071880626 -0.0008321729 -0.00205944 -0.011479261
0.0025291902 -0.014200369 -0.0011706401 -0.017634103 -0.006731012 -0.00890385 -0.019859945 -0.004939689
-0.0020961303 -0.0072067627 -0.021257263 -0.015929181 0.001813987 -0.023304656 0.0012083543 0.0015334632
-0.01498199 -0.013132039 -0.002671698 -0.011981443 -0.003830204 -0.013430881 0.002922706 0.00032335942
-0.0034396378 -0.014891744 -0.0065182834 -0.003910011 -0.007600519 0.0016798433 -0.01890851 -0.013089153
-0.0037288014 0.0058795987 -0.00011676543 -0.010216975 0.0011968098 -0.00037440239 -0.00026655465 0.0044086347

Const_5 f4 [128]
00000000: 295e 163d 962a e03b 0e95 87bd 549a 0e3d
00000010: 5584 9c3d ed22 9a3d e35a 5ebd d616 353d
00000020: 54b7 a7bd 6bf9 0b3d 2838 4b3d 94a1 9ebd
00000030: e166 5d3d 7f1c 5abb b47c 7cbd c051 69bc
00000040: bcb4 7c3d f982 a1bd 3c9a 893d d6a4 273b
00000050: 91c6 7fbb df49 8ebd 5430 723d cba4 703d
00000060: 7306 77bd 98d2 833d 494b 8f3d 59fa abbd
00000070: 1574 5abd dce7 10bc 1e71 a7bc 3bae f73c
00000080: 75ea 963d ffd4 003c 7c06 6b3d d61f 863d
00000090: 0b1a 0dbd 807d afbc e93c 033d a07c afbc
000000a0: 0aae 683d b19f 17bd 1cc5 b93d 8632 2fbd
000000b0: 689b 2dbd 68b5 5fbd 6212 c5bc 0e99 713b
000000c0: 233f 833d 4010 a6bc 3fae 793d 9df6 723d
000000d0: a668 893b ece3 cc3c 08b6 c63c 956f 9b3d
000000e0: 2fd9 903d b726 723d f50d 603d bc4c 303c
000000f0: a24f 773d 5b4b 82bd c444 423b 169a 43bd
00000100: 2d25 c23b 70b6 91bd 5e5a ef3b c00d a0bd
00000110: b1ca 913d fb1b 10bc ddd2 99bc 87fe 96bd
00000120: 0eb7 3cbc 8ad4 fbbb 55d4 b43d 9690 78bd
00000130: ee84 0a3d 3e91 6f3a 638a fe3c f9eb febc
00000140: 8968 a43d 4590 043d aadf ad3d e61f 97bd
00000150: dbd1 c33c ed8e 8c3d 46af fcbc e906 7cbd
00000160: 7d0c 4cbd 71f6 403b b618 983d 1e39 ac3c
00000170: 2490 873b f076 0f3b 9ff7 903d 9e3a 37bc
00000180: 3a02 fcbc ebf3 573d 9cc9 923d f443 853d
00000190: d555 f0bc 9475 f33c 10db 4dbd 9c79 1c3d
000001a0: 190b 933d 7e09 20bd a066 993d 277b 633c
000001b0: d4a5 72bd 95b8 ca3c df31 493d a229 f53c
000001c0: 2188 803c 3a70 823d e304 efbc fabe 9cbd
000001d0: c0eb 4cbd b0b6 663d 2128 7dbd 747d 74bd
000001e0: 1047 d9bc 8a3f b1bd bac0 0ebc 765e 4e3c
000001f0: c9b8 4ebc dd13 acbd 77ea 783d e4d7 4c3d
0.036710892 0.006841014 -0.06620227 0.034815148 0.07642428 0.07526193 -0.054285895 0.04421123
-0.08189264 0.03417341 0.0496141 -0.07745662 0.05405319 -0.0033281145 -0.061642364 -0.014240682
0.0616958 -0.07886309 0.06718871 0.0025580428 -0.0039028267 -0.069476835 0.05912812 0.05875091
-0.060308885 0.06436652 0.069967814 -0.083973594 -0.05333336 -0.008844342 -0.02043968 0.030234447
0.07368938 0.007863282 0.05737923 0.06549041 -0.034448665 -0.021422148 0.03204051 -0.02142173
0.0568066 -0.037017528 0.09070799 -0.042772792 -0.042384535 -0.05461636 -0.024056617 0.003686491
0.06408527 -0.02027142 0.06095719 0.05931722 0.0041933833 0.025011025 0.024256721 0.07589642
0.070726745 0.059118953 0.05470081 0.010760482 0.06037868 -0.06362029 0.0029643038 -0.04775437
0.005924842 -0.07114875 0.007304474 -0.078151226 0.071187384 -0.008795734 -0.018777305 -0.07372766
-0.011518253 -0.0076852487 0.088295616 -0.060684763 0.033818178 0.0009138769 0.031071847 -0.03111838
0.08027751 0.03236415 0.08489926 -0.07379131 0.023903778 0.068631984 -0.030845296 -0.061530028
-0.049816597 0.0029443766 0.07426588 0.02102333 0.004137056 0.002189096 0.0707848 -0.011183409
-0.03076278 0.052722853 0.0716736 0.06507102 -0.029337803 0.029719152 -0.050257742 0.038201913
0.07179851 -0.039071552 0.07490277 0.013884342 -0.059240177 0.024746219 0.049119826 0.029927079
0.015689911 0.06369062 -0.029177135 -0.076536134 -0.050029516 0.056326568 -0.061805848 -0.059689954
-0.026523143 -0.08654697 -0.008712942 0.012595763 -0.012617298 -0.08402226 0.060770478 0.050010577

Const_6 f4 [128]
00000000: 9a5c 8a3f 75ce 8a3f 9386 8a3f c247 803f
00000010: d249 873f cccd 893f 3e02 843f c5c5 873f
00000020: 4f43 873f 26e2 843f 5b0e 833f 8c8b 8a3f
00000030: 51c2 8a3f 6bf5 8a3f 7d04 893f 4955 863f
00000040: c128 853f 5521 8a3f be94 873f 7a5b 853f
00000050: 3caf 883f c231 8a3f 4b3e 843f b74e 883f
00000060: 9e8a 8c3f effa 873f 18d0 8a3f 246e 863f
00000070: 5467 8f3f 573c 803f be13 8d3f f07e 873f
00000080: 5127 7e3f 4c7c 803f 61e4 883f c58a 813f
00000090: ee41 8d3f 4d03 8a3f 5e0c 7f3f 5576 863f
000000a0: 237a 843f 0808 893f 9549 833f 729c 893f
000000b0: b2ef 853f 69c8 873f 1981 843f 0fae 863f
000000c0: 2bb3 8e3f bf96 8a3f f619 8d3f ae83 893f
000000d0: 34a3 823f 6e10 903f bdf3 7e3f 56ae 843f
000000e0: e8f3 863f a10d 873f 8e72 803f c033 8b3f
000000f0: a200 893f 9b3d 8c3f ee61 833f 625b 8b3f
00000100: 001f 7b3f bb96 8a3f fe8c 8a3f 36ca 923f
00000110: 9eab 853f d679 833f 7279 893f 4cd1 893f
00000120: 3855 8c3f dbcc 8f3f 0999 853f 2c39 893f
00000130: 045f 883f 0f44 8a3f ef3d 793f 13c9 803f
00000140: 0ea5 893f 294a 8b3f 3969 8a3f 669d 913f
00000150: 7dd6 883f a1ee 883f aef3 863f 8b52 873f
00000160: 0fa7 8b3f 366c 833f 0a72 873f 78a5 833f
00000170: 098a 883f bf9e 873f b05b 8b3f 2e88 8e3f
00000180: 5f9b 883f 95d4 843f 714c 793f 7041 883f
00000190: ea7a 8b3f 4813 813f e384 823f cab8 8a3f
000001a0: 14f9 8c3f 89df 893f d536 873f a68e 7b3f
000001b0: 9eaf 853f 213b 7f3f 8c9e 8b3f deed 853f
000001c0: 79a3 8e3f 19d7 7e3f 192d 873f 8c82 8c3f
000001d0: eaa7 7b3f cb4d 843f e2e9 813f febd 893f
000001e0: 8992 8a3f 3f69 863f 683d 893f 190e 793f
000001f0: e261 8f3f 75f9 8c3f 61e8 723f 9f88 893f
1.080951 1.0844256 1.0822319 1.0021899 1.0569403 1.0765929 1.0313184 1.060723
1.0567416 1.0381515 1.0238756 1.0823836 1.0840551 1.0856146 1.0704495 1.0494777
1.0403062 1.0791422 1.0592268 1.0418541 1.0678477 1.0796435 1.033151 1.0649022
1.0979803 1.0623454 1.0844755 1.0502362 1.1203408 1.0018414 1.102165 1.0585613
0.9927874 1.0037932 1.0694696 1.0120474 1.1035745 1.0782257 0.99628246 1.0504862
1.0349773 1.0705576 1.025683 1.0750868 1.0463774 1.0608035 1.0351897 1.0521868
1.1148428 1.0827254 1.1023548 1.074331 1.0206056 1.1255014 0.99590665 1.0365703
1.0543184 1.0551034 1.0034959 1.0875168 1.0703318 1.09563 1.0264261 1.0887263
0.9809418 1.0827249 1.0824277 1.146796 1.0442998 1.0271556 1.0740187 1.0766997
1.0963507 1.1234392 1.0437328 1.0720572 1.0653996 1.080202 0.9736013 1.0061363
1.0753496 1.0882007 1.0813361 1.1376159 1.0690457 1.0697824 1.0543115 1.0572065
1.0910357 1.0267398 1.0581677 1.0284872 1.0667125 1.059532 1.0887356 1.1135309
1.0672415 1.0377375 0.97382265 1.064497 1.0896885 1.0084009 1.0196804 1.0837643
1.1013513 1.0771343 1.0563608 0.9826454 1.0444219 0.996996 1.090776 1.0463216
1.1143638 0.9954696 1.0560638 1.097734 0.9830309 1.033624 1.01495 1.0761106
1.0825969 1.0500869 1.0721865 0.97287136 1.1201746 1.1013628 0.9488583 1.0744818

Const_7 f4 [128]
00000000: 4d97 953d 680a 863d 00ad 373d 5685 cbbb
00000010: 0ef3 333d 6f9a 0d3d 6ba7 b83c ac90 c23c
00000020: 5ccd 783d c821 c63b db31 a33c 5a44 303d
00000030: 11f9 523d c09a 7e3d b109 173d f5e8 f43c
00000040: 1b90 bf3c 6373 d93c a500 7d3d 0ecd 0c3d
00000050: 0830 153d 42fa 513d e3ec 2a3c e6a6 8e3d
00000060: bed6 913d 1c27 6b3d e8b8 7c3c 17d2 723d
00000070: 6213 6b3d 4f04 0dbc 43ef 8e3d 303a 0d3d
00000080: 7812 fbbb 94e9 1c3c f74c 513d 7165 a53c
00000090: 2e04 a53d a31f 683d be43 8dbc c500 093d
000000a0: 812a ad3c be64 7b3d 1ad3 673c 3578 613d
000000b0: ba88 433c 2e8d 313d 483b a03c 8b52 bb3c
000000c0: fbd9 ab3d 7a08 953d b369 9b3d 2116 353d
000000d0: f4c5 473c da68 ae3d c8ec b0b9 b5b0 a93c
000000e0: 7e01 db3c b543 0b3d f495 383c 7e86 853d
000000f0: b49b 253d e25e 963d 08f6 d63c 3c6b 933d
00000100: bdc0 bdbc 55a4 903d 1e47 153d bdd9 b73d
00000110: ba8f 813c 0753 083d 3eff 263d 6ccb 8c3d
00000120: 0753 8f3d 82f2 a03d b909 393d dff1 123d
00000130: 4199 573d 1836 823d 54b0 a4bc df77 773b
00000140: 8068 883d 25b9 8a3d 98b1 7e3d 8833 ae3d
00000150: cd52 683d 2228 333d 89e6 d83c 3998 053d
00000160: 33cf 763d 5371 313b 8ca3 073d e03e ce3c
00000170: 59cf e43b 2b00 8839 d197 8c3d 86f4 a03d
00000180: 3245 193d a276 f83b 75bb 17bd ffd3 013d
00000190: 8229 8c3d c8a9 043c 455f 173c df18 213d
000001a0: fd9c 883d 3b3d 783d 0f69 ef3c 15cb 99bc
000001b0: 97f8 723c 6410 d5bb 0b6a 863d 54e5 a53c
000001c0: 29b0 af3d 7a81 28bc 44ac 1a3d cf2b 943d
000001d0: d16c 87bc 2f8c 013c da64 2b3d cfe2 473d
000001e0: 91c3 393d 739a 993d 1634 013d 3548 02bd
000001f0: e022 783d 80c4 953d aadc 3bbd 4739 f83c
0.07304249 0.065449536 0.04484272 -0.0062109632 0.043932967 0.034571107 0.022540769 0.023750626
0.06074272 0.0060465075 0.019921234 0.043033935 0.05150706 0.0621593 0.036874477 0.029896239
0.023384145 0.026544278 0.061768193 0.034375243 0.03642276 0.051264055 0.010432455 0.06965427
0.07121037 0.057410344 0.015424944 0.05928239 0.05739153 -0.008606984 0.06979229 0.03447932
-0.0076621138 0.009577174 0.05109879 0.020189973 0.08057438 0.056670796 -0.017244216 0.033448
0.021138432 0.061375372 0.014149452 0.05504628 0.011934454 0.04334753 0.019559518 0.022866508
0.08391186 0.072770074 0.0758852 0.044210557 0.012193192 0.085160926 -0.00033745752 0.020714143
0.02673411 0.034000117 0.01126622 0.06519793 0.040431693 0.07342316 0.026240364 0.07198188
-0.023163194 0.07062594 0.036444776 0.08977077 0.015815604 0.033282306 0.04077076 0.06874737
0.06998258 0.07858755 0.045175288 0.035875197 0.05263639 0.06357974 -0.020103611 0.0037760658
0.06660557 0.06773595 0.062181085 0.085059226 0.05671959 0.043739446 0.026477115 0.032615874
0.060256194 0.0027075603 0.033114955 0.025176466 0.0069827256 0.00025940067 0.06864894 0.07859139
0.037419505 0.0075825015 -0.037044007 0.031696316 0.068438545 0.00809712 0.009239023 0.03933036
0.06670568 0.06060527 0.0292249 -0.018773595 0.014829776 -0.006502198 0.06563195 0.020250954
0.08578522 -0.010284776 0.03776194 0.07234918 -0.01653138 0.0079069575 0.041844226 0.048800286
0.045352522 0.07500162 0.031543814 -0.031807143 0.060580134 0.0731287 -0.04586474 0.03030075

MatMul f4 [128, 1536]
00000000: 879f 94bc 550c 3bbc 5e2c 613c 22f4 efbc
00000010: 017e 38bc f533 e53b 801d 1bbc 9676 963b
00000020: 04aa e5bc 5d8d b7bc f40d 903c 9f26 883c
00000030: b046 c83b d977 52bc 146e ef3c db50 cdbc
00000040: b8d3 2bbd 7e36 f03c b5f5 13bc 3fe2 d8bc
00000050: e492 453c b8ec 1dbc 3208 843c f6c4 363a
00000060: 7002 b23b dc38 9bbc 13c4 f0bb dd5c bc3c
00000070: 56ff 8d3a b68f 46bc 9617 033c a786 19bc
00000080: 8fb5 c2b9 a6e1 dc3c 0ffc 7c3c ba64 f63c
00000090: 2809 7bbc c06d 47ba a5c4 953c 3773 30bc
000000a0: c3c8 ffbb 150b 81bc e1c4 9bb8 7562 d43a
000000b0: 3823 eebb 27af 2cbc 2d9b e6bc 7cc7 443d
000000c0: 2b98 cb3b 7a8d b63c bfb9 453a 2268 5f3c
000000d0: 11ac beba d01f a03c ff45 9cbc 0837 be3c
000000e0: 96c2 5a3b 22bb d5ba 54f2 cebc 6009 d1bb
000000f0: 041d 523b 8661 cf3c 091d 8cbc ac8f 1b3c
00000100: 09e2 5dbc 0a07 f03c 4f3a 55bc 1336 2c3c
00000110: 355c f3bb 1081 04bc a65e 62bb 7366 163c
00000120: 67d7 05bc 8280 86bb 6d95 cf3c fa90 373c
00000130: d905 1c3c 774f 91bc e403 e8bb 1cc7 bc3c
00000140: 9411 e43c 83f2 9a3c 3a16 d23c e5cc 7f3c
00000150: 4590 7c3b fd6e b7bc ce50 37bc 8f65 1e3c
00000160: 71b2 ce3c 205d 9d3c 8fb6 cd3c cd0d 843c
00000170: 4e9a d63c 42ad 0dbc e979 103c b180 bc3b
00000180: ac42 adbc e14d 8f3c 4209 9bbb f810 8a38
00000190: 0f77 be3b 8586 343c 2dc3 8cbc 342f e1bb
000001a0: deb8 11bc 5431 1bbc adf9 553c 649e 0b3c
000001b0: 3a5a 87bc 5f03 98bb 685f 88b9 4ae1 f73b
000001c0: 40f6 86b9 bfbc eb3b a005 4c3c e85e babc
000001d0: 4287 86bb 9924 85bc 22b6 2dbc 7fe9 833c
000001e0: 101f 573c 834c 593c 88bf bc3b a826 6cbc
000001f0: c12a 163c a3f3 4c3c 215f 50bc f059 863c
00000200: 4d19 1abc b6ef 1b3b 3c24 80bc 4a58 bd3c
00000210: 33bd 7a3c 4681 d1bb 1c9a 95bc d422 1cbc
00000220: fee2 1d3c dcea 4f3c a39a e03c 93a9 b9bb
00000230: c510 c4bc 15ea 0d3b 2e42 ebbc c071 083d
00000240: 7d57 953b 7ef6 143c 586b b93c 49cb c13a
00000250: 082e f43c f209 a23c df03 b53c 81c9 8a39
00000260: 6c43 82bc 2647 d63c ddf0 bb3c f917 dabb
00000270: 8d0c b53c fb63 ba3c cef3 d4bc fe1f 85bc
00000280: eb96 f73c 6f38 803c 3a4d b93b e83b a5bc
00000290: e62a 493b 0b5c 243c eded 2cbd fb4c 86bc
000002a0: 19de b93c 1dd8 fe3b 001e 2cbc 12be b2bc
000002b0: 5f7a 84bb 68f9 9a3c 5212 86bc b430 b63c
000002c0: 764d 203d e67d 21bc f7a2 c93c 4372 bdbb
000002d0: 1379 063d 0bd2 c33c 4b39 b1bc 6fdd 9dbc
000002e0: d6a7 d23c 9441 d73c 41a1 e2bc e44e f4ba
000002f0: 3442 89bc 396e 293a b003 0cbd 2b5e bdbb
00000300: e1d3 5cbc d51e 3bbc d1f2 d43c aff1 79bb
00000310: f724 da3a 4f54 863c 8214 91bc 2c43 bcbb
00000320: 114f 563c 1e6f ab3c 21e2 f2bc 7a2c 96bc
00000330: 7d57 ce3c 6216 8dbc 917a 2abc db8e 033d
00000340: 502f 0fbc 9985 2dbc 6fa0 d73c 3f16 8538
00000350: 1c19 d33c 227e 7bbc 57a6 b6bc b09d 933c
00000360: b955 c3bc 2ddc 0c3c 5c58 62bc 7f9a 5b3c
00000370: 3919 a23b a225 08bc bfa5 4d3c 98c9 4b3c
00000380: 938e 733c 03e3 13bd c3d0 5e3a 6042 113c
00000390: 658b b3bb a9b5 8dbc 9a0a 06bd 833b c739
000003a0: d70f c03a 5865 563c 06d5 b2bc 7dff 9b3c
000003b0: 1aac d9bc 18fd cc3c b52d 95bc 2479 13bc
000003c0: f5c3 24bc dbbe b6bc 696c 5d3c 2b5d 4038
000003d0: 6fb9 7fbb b49f cc3c 3e82 3f3c a468 e33b
000003e0: 9d4d d6bc 19ff 923c f4be ac3c cd5f ec3c
000003f0: 78e5 163c 3512 003b ba6c 243c f62e 863c
-0.018142475 -0.011416514 0.013743488 -0.029291216 -0.01126051 0.006994719 -0.009467483 0.0045917733
-0.028035171 -0.022406274 0.017584778 0.016619978 0.006111942 -0.012845957 0.029227294 -0.025062969
-0.041949958 0.029322859 -0.009030749 -0.02647507 0.012058947 -0.009638958 0.01611719 0.00069720985
0.0054324195 -0.018948011 -0.0073475926 0.0229935 0.0010833542 -0.012119224 0.008001229 -0.0093704825
-0.00037137835 0.026963066 0.015440955 0.030077327 -0.015322007 -0.00076076016 0.018282244 -0.010769657
-0.007805915 -0.015752355 -7.4276475e-05 0.0016203659 -0.007267382 -0.010539806 -0.028150165 0.048041806
0.006213208 0.022284258 0.0007542632 0.013635667 -0.0014547129 0.01954642 -0.019076345 0.0232196
0.0033380142 -0.001630638 -0.025262035 -0.0063792914 0.0032060752 0.025315057 -0.017103689 0.009494703
-0.0135426605 0.029300231 -0.01301439 0.010510939 -0.0074267634 -0.0080874115 -0.0034541278 0.009179699
-0.008169032 -0.004104675 0.025339806 0.011203999 0.009522879 -0.017738087 -0.007080542 0.023044161
0.027840413 0.018914467 0.025645364 0.0156128155 0.003853814 -0.02239179 -0.011188699 0.009667768
0.025231572 0.019209445 0.025111465 0.016119862 0.026196625 -0.008647265 0.008818128 0.005752646
-0.021149956 0.01749319 -0.004731328 6.5835135e-05 0.0058125327 0.0110184 -0.01718291 -0.006872082
-0.008894173 -0.00947221 0.013060016 0.00852165 -0.016522516 -0.0046390737 -0.00026011025 0.0075646983
-0.00025741942 0.007194131 0.012452513 -0.022750333 -0.0041054795 -0.016252803 -0.010602506 0.01610255
0.0131299645 0.013262871 0.005760137 -0.014413513 0.009165467 0.012509259 -0.012717993 0.016400307
-0.009405446 0.0023794002 -0.015642278 0.023113389 0.015303898 -0.0063935844 -0.018261962 -0.009529788
0.009636639 0.012690272 0.027417487 -0.005665967 -0.023933778 0.0021654416 -0.02871808 0.033311605
0.0045575486 0.009091971 0.022634193 0.0014785315 0.029807106 0.019780133 0.022096572 0.00026471543
-0.01590129 0.026156973 0.022942001 -0.00665569 0.022100711 0.022752753 -0.025995161 -0.016250607
0.03022333 0.01565191 0.005654958 -0.020170167 0.0030695735 0.01003171 -0.04221909 -0.016394129
0.022688912 0.0077772276 -0.010505199 -0.021819148 -0.004042908 0.018917754 -0.016366158 0.02224002
0.039136373 -0.009856677 0.02461384 -0.0057814433 0.03283031 0.023903867 -0.021633765 -0.019270627
0.025714796 0.026276387 -0.027664782 -0.0018639234 -0.0167552 0.0006463263 -0.034183204 -0.005779048
-0.01347825 -0.011420925 0.02599469 -0.003813844 0.0016643096 0.016397623 -0.017709974 -0.005745312
0.013080374 0.020927008 -0.029648842 -0.018331755 0.025188202 -0.017222587 -0.010405199 0.03211866
-0.0087393075 -0.010590934 0.026321618 6.346078e-05 0.025768809 -0.015349897 -0.022296114 0.018019527
-0.023844587 0.008597416 -0.013815012 0.013403534 0.0049468544 -0.008309754 0.012551724 0.0124382
0.014865535 -0.036105167 0.0008499736 0.008865923 -0.0054792636 -0.017298536 -0.032724954 0.00038000577
0.0014653158 0.013085686 -0.021830093 0.019042725 -0.026571322 0.025023028 -0.018210271 -0.00900105
-0.010056485 -0.022307804 0.0135146165 4.5863137e-05 -0.003902044 0.024978496 0.011688767 0.0069399644
-0.026160056 0.017943906 0.021087147 0.028854275 0.009209983 0.0019542102 0.010035688 0.016379815

MatMul_1 f4 [128, 128]
00000000: a8e4 97bb d65c 33bc 9682 c3bb 3511 bcbc
00000010: 8a70 063d f926 393c b7ad b7bc 59bb 9d3c
00000020: 0dc8 823b 4bd7 7d3c d3bc 18bd 3989 883d
00000030: eb7a b4bd 2b6a 993a 6c4a 183d b49a 373c
00000040: ad22 dd3c 75ed a9bc b39b 8abd 6c86 3f3d
00000050: fa26 40bd 80bc 91bd 1f90 3d3d f9d3 463d
00000060: 6a16 113c ee65 883d 64e5 43bc 4d73 513d
00000070: bc59 213d 058c 5bbd c4a8 a0bd a3bd 423c
00000080: e94b 58bc 2d24 fd3c 8f9d fc3a 3b63 32bd
00000090: fdf5 80bc 313a 183d 11c7 aebc e304 78bd
000000a0: d5da 8fbd eb91 74bc 0db6 6fbc a2ed 5f3d
000000b0: 1fa1 283c cacd cbbd 3c02 fa3a bdd2 9cbd
000000c0: 4d0d b63c 4a3f 1d3c 0cdc 48bd 8c93 733c
000000d0: a70c 3cbd 4151 13bc e619 333d 5888 b9bb
000000e0: 5d32 c33d 29e9 583d 666b 0b3d 1c65 3dbd
000000f0: 2e6d b9ba 03ce 8abb 2be6 1c3d dda8 11bd
00000100: a7f4 eabd d221 7d3d a2b9 e8bc 1ae2 6ebc
00000110: 1dfd a4bc 3824 113d def7 71bd 431b 9d3c
00000120: 77c7 323d 2d2b 14bd 65f3 52bd 7a05 ab3d
00000130: 8404 b0bb c49a 82bc 0250 43bd 51da 3f3c
00000140: 5ad4 8dbc 9fa0 70bd d877 98bd ccf6 9d3b
00000150: 81ed 8c3d 0846 843d b003 f23a 385c 593d
00000160: 8df1 0dbd 43ef 213d 9e16 5e3d 5f5b 383d
00000170: 8068 9bbd 0a64 20bc 8557 87bd f601 4e3c
00000180: 7eda 5bbd c1ee 84bc a829 1bbd 2b0c 25bd
00000190: 04ee 8fbd 9588 b33c b802 2abd 4222 87bc
000001a0: c9ef 3e3d d2ce 69bd 2d9d 0d3d acbb d1bc
000001b0: 190c fbbc dc3d 2cbb 33b3 8dbc c9c5 783c
000001c0: 560e 29bd 4f7f 3fbb d87a 413d bb24 09bd
000001d0: f348 95bb 7506 383d 8730 8dbb afcf 92bc
000001e0: 798f 6e3d a900 b1bd 36de b4bd 476e a9bc
000001f0: fc42 e73c 542e bc3d a4b5 7ebc 0702 9f3c
00000200: b53a 17bd 0ad9 7b3d ba36 a1bd 4cd5 913d
00000210: 9cf3 bcbb dafc 8cbd 8cf0 493c b8aa e73c
00000220: 169b 43bd d201 83bd 0686 86bd 4343 8ebd
00000230: df71 4c3b 5287 603c e6d4 683c 0223 2e3d
00000240: 70b4 96bd 4710 4dbd f91c 2e3d b240 bebd
00000250: 5d16 92bd 16f2 58bb fca8 40bc ac6b 973d
00000260: 106d d5bc dd1b 943b 4925 863d 3fee ee3c
00000270: fd63 a03d 2480 2c3d 05dc c4b8 b61b 91bb
00000280: 4fc2 fa3c cc40 20bd 3828 8c3d 4fc8 283d
00000290: a685 82bd 21c7 26bc c40a 01bd 7535 6cbd
000002a0: 68af 143d 0b87 313d f457 8d3d 1aec c5bc
000002b0: a3c0 e23b 7b48 82bc 65bb cc3c 58fe c83c
000002c0: 54a3 f8bc 45ac 8b3c bc0b dbba 20c1 b13d
000002d0: 6a09 943c 9032 603c 38e1 9c3c 7803 58bd
000002e0: 72d5 b43d 737d 52bd 5d08 ae3c 7de9 483d
000002f0: 8f47 0a3d 5b81 07bd 5ee3 93bc fd4c 753c
00000300: 03f3 a8bd dfe6 a63d 8004 723d f9de b63d
00000310: 50d4 673d 5574 62bd 1ccd cdbb 8ab0 47bd
00000320: 4533 86bd f017 8dbd b9d5 cebc e05d 173d
00000330: 4d9b 70bd 99cb 773d 0074 553d f8ff 913c
00000340: 12c6 b33c 760e 783d b991 aebd 9f57 a6bc
00000350: c449 9e3c 7ce9 80bd bc3e 4abc 8bcd 2abd
00000360: 7c9e 663b d5fb 25bd 92a5 cabc e17c 0dbc
00000370: 34cd 7a3c 22a0 87bd 7c53 26bc 1989 85bc
00000380: 5d37 5c3c bcd2 c2bd e5cc e9bc 4881 69bd
00000390: 2306 a0bd 106f 8c3c 62de a3bd 9629 193d
000003a0: 1525 ffbc ae0c 913d 5cd0 77bd 11c0 8cbd
000003b0: d713 cdbc 864b 80bd 0b55 c93d 09cb 50bd
000003c0: 8e2b dabd b437 ec3c d557 fd3a 6bb2 b9bb
000003d0: ffaf f23b 9c7a 2dbd 845b a7bd 2197 aebd
000003e0: 72a2 53bc bdf2 99bd 7c38 30bd f095 b1bc
000003f0: 653e a63c 897f 1a3d 4f3c 84bd cc26 ef3c
-0.0046354122 -0.010947427 -0.005966495 -0.022957424 0.03282217 0.011300796 -0.0224217 0.019254373
0.003991133 0.015493224 -0.03728945 0.06666798 -0.08812507 0.0011704614 0.03718035 0.011206318
0.026994074 -0.020743111 -0.067679785 0.046759054 -0.04691217 -0.07116032 0.046280023 0.048541997
0.008855442 0.066600665 -0.011956546 0.05113535 0.039392218 -0.05360033 -0.078446895 0.011886033
-0.013201692 0.030901039 0.001927303 -0.043551665 -0.015742296 0.03716487 -0.021335157 -0.060551535
-0.07024161 -0.014927368 -0.014630807 0.054669984 0.0102923205 -0.099513605 0.0019074152 -0.07657383
0.02222314 0.009597609 -0.049037978 0.014866721 -0.045910504 -0.00899154 0.04372587 -0.0056620054
0.095310904 0.052956734 0.03403797 -0.046239004 -0.0014146918 -0.0042359843 0.038305443 -0.03556143
-0.11472445 0.06179983 -0.02840883 -0.014580274 -0.020140225 0.03543493 -0.059074275 0.019178038
0.043647256 -0.036173988 -0.05150165 0.08350654 -0.005371632 -0.015942939 -0.047683723 0.0117097655
-0.017313171 -0.05874693 -0.074447334 0.0048206802 0.06881238 0.0645867 0.0018464234 0.053066462
-0.03465419 0.03953482 0.05422079 0.045009013 -0.07588291 -0.009789476 -0.0660849 0.01257371
-0.053675167 -0.016227128 -0.037881523 -0.040294807 -0.0702782 0.021915713 -0.0415065 -0.016495828
0.046615396 -0.057082005 0.034573723 -0.025602184 -0.030645417 -0.0026281988 -0.017297363 0.015183874
-0.041273437 -0.002922017 0.047236294 -0.033482295 -0.0045558154 0.044928033 -0.0043087634 -0.017921297
0.058242295 -0.08642704 -0.08831446 -0.020682467 0.028230183 0.09188524 -0.015546236 0.019410146
-0.03692122 0.06148628 -0.078717664 0.07120761 -0.005766345 -0.06884165 0.012325417 0.028279647
-0.047755323 -0.063968316 -0.06568532 -0.06946423 0.0031195802 0.013704138 0.014210915 0.042513855
-0.073586345 -0.05006435 0.0425081 -0.092896834 -0.07133172 -0.003310328 -0.011759039 0.07393584
-0.026052982 0.004519923 0.0655008 0.029166339 0.07831571 0.042114392 -9.38699e-05 -0.004428352
0.030610232 -0.039124295 0.068436086 0.041206654 -0.06373148 -0.010179312 -0.031504408 -0.057668168
0.036300093 0.043341678 0.06901541 -0.024160434 0.0069199367 -0.015903702 0.0249917 0.024535343
-0.030351318 0.017049918 -0.0016711871 0.08679414 0.018070895 0.01368393 0.019150361 -0.052737683
0.08829774 -0.05138917 0.021244222 0.049050797 0.03375965 -0.033082347 -0.018052753 0.014971969
-0.08249476 0.08149504 0.059086323 0.089292474 0.05659896 -0.055286724 -0.0062805545 -0.048752345
-0.06552748 -0.06889331 -0.025248395 0.03695476 -0.058741856 0.0604969 0.05211258 0.01782225
0.021945033 0.060560666 -0.08523888 -0.020305453 0.019322284 -0.062945336 -0.012344059 -0.041699927
0.003518968 -0.04052337 -0.024737153 -0.0086357305 0.015307713 -0.0662234 -0.01015174 -0.016300725
0.013440934 -0.09512851 -0.028540084 -0.057008058 -0.078136705 0.017142802 -0.080014005 0.037393175
-0.031145612 0.070824966 -0.06050144 -0.06872571 -0.025033874 -0.06264405 0.09830674 -0.05097488
-0.10652839 0.028835155 0.0019328544 -0.005667021 0.0074062343 -0.042353258 -0.08171752 -0.08524919
-0.012917148 -0.07517002 -0.043022618 -0.021677941 0.020293424 0.037719283 -0.064568155 0.029193304

MatMul_2 f4 [1, 128]
00000000: 9544 e7bd 173e 10be 2f96 b73d a670 013c
00000010: 31d6 803d d8fb 1a3e db6c 533d 26d8 5a3d
00000020: eef4 c9bd b223 b53d 248c a53c cd9f 863d
00000030: db20 963d b281 23be a6af ac3d 5aea 683d
00000040: 20fa d63d 5360 933d f82d d6bd 2e91 b43d
00000050: c5a0 0b3e 2b51 913d c903 c23d 7731 9dbd
00000060: 89c0 00be c8b6 fdbd dc1f 963d 0779 a3bd
00000070: 31bf a53d 1030 a2bd 2f1c 28be 2f7e 9b3d
00000080: 92d2 ba3b 80e6 3e3c 76db a53d f26a 163c
00000090: 5d99 0dbe 5d72 1bbe 6653 a2bc db90 c83d
000000a0: 3bf4 8e3d 0bc0 11be 0514 193d 6da0 1dbe
000000b0: f032 f13d 0910 f53d 5f7f be3d bd0c 0d3e
000000c0: 055f 33be 8d99 05be a009 07be 3e0d 033e
000000d0: 137b df3c fb54 0ebe deaa 56bd 4a1b eb3d
000000e0: 3748 b63d db8e cf3c 735d 8f3c 2776 f1bd
000000f0: c8e4 023e d618 13be 3b10 e13c e058 16be
00000100: 5cf0 71bd 910c fcbd 89b5 a23d 8fd9 16be
00000110: 51db d23d bc9a eb3c 9190 6d3d 0ffd b2bd
00000120: 4670 15be 56c6 22be f624 933d da78 d33d
00000130: 1dbe a03d 360a 8f3d 63f0 8fbb 6040 5f3c
00000140: 65ea 8a3d 8de9 07be 252c 10be 3cbd 5bbe
00000150: 7be5 9a3d 937d d43d 3a81 04be 8dca 5f3d
00000160: 0662 1ebe 702f a73d b86b 003e 2cc2 3a3d
00000170: 8522 d23d 244b da3d a8b0 1bbe de90 04be
00000180: b00b 9a3d 99c1 c33d 9279 6dbd 0b9e 163e
00000190: ddda 2abe 4847 e4bc 2581 453d d49c 203e
000001a0: 4418 17be 6a2f 01be 8018 9c3d ca9a 01bc
000001b0: bcc7 c33d 8e4c da3b bb96 0fbe 65ab 723d
000001c0: 5f39 27be 4fdc 133b 684f 6a3d 1f22 26be
000001d0: 5bce 4fbb 0da5 a13d f492 0bbd 620e 7e3d
000001e0: 81df 513d b6ab abbd 0acd c43d d156 bfbc
000001f0: 24cd d03d 4bd9 0ebe 09f9 8bbc 729f 163e
-0.11292378 -0.14086185 0.08964192 0.007900393 0.06290854 0.15135133 0.051617485 0.05342879
-0.0986117 0.08844699 0.020208426 0.06573448 0.073304854 -0.15967444 0.0843194 0.05686412
0.10496926 0.07196107 -0.104579866 0.08816753 0.13635547 0.0709556 0.09473378 -0.0767545
-0.12573446 -0.123883784 0.073302954 -0.079820685 0.080931075 -0.079193234 -0.16417001 0.07592427
0.0057013715 0.011651635 0.080984995 0.009180771 -0.13828035 -0.15180345 -0.019815158 0.09793254
0.06980177 -0.14233415 0.037372608 -0.15393229 0.11777294 0.11965949 0.09301638 0.1377439
-0.17516716 -0.13046856 -0.13187265 0.1279802 0.027280366 -0.13899605 -0.052409045 0.11479814
0.08900493 0.025336673 0.017500615 -0.11790114 0.12782586 -0.14364943 0.02747356 -0.1468234
-0.059067115 -0.12307084 0.07944781 -0.1473143 0.102957375 0.028760307 0.057999197 -0.08739673
-0.1459361 -0.15895972 0.07184784 0.10325785 0.07848761 0.069843695 -0.00439267 0.013626188
0.067829885 -0.13272686 -0.1407934 -0.21458906 0.07563301 0.10375514 -0.12939921 0.054636527
-0.1546708 0.08163345 0.12541091 0.045595333 0.1026049 0.10658863 -0.15204108 -0.12945887
0.075217605 0.0955841 -0.057977267 0.14708726 -0.16685052 -0.02786602 0.048218865 0.15684825
-0.1475535 -0.12615743 0.076218605 -0.00791044 0.09559581 0.006661958 -0.14022343 0.059245486
-0.16330479 0.0022561734 0.057204634 -0.16223954 -0.003170869 0.07892809 -0.034075692 0.062025435
0.05123854 -0.08382361 0.096094206 -0.023356827 0.101953775 -0.13950078 -0.017086523 0.14709261
