wkey/openwakeword_models/tflite/hey_computer8.tflite (tflite, 860700 bytes, 9 tensors)

Const_1 f4 [128]
00000000: 1a67 c83c 668b deb9 4443 0cbc c2ed 7cbb
00000010: 14ca b43c ebc4 9dbc a809 ddbb fdb7 c03c
00000020: 6819 0ebc 067c 3339 c5be 8dbc 2fda b7bc
00000030: 5c16 b43b e7b8 b9bc b903 093b 2fdf ac3c
00000040: af61 8b3b 54b1 ee3c 098b 123c e1e7 60bc
00000050: 09d7 6e3b 98a6 dcbc 0f06 abbc d8b7 cbbc
00000060: 4766 b6bc 2fe2 d4bc 1380 cf3b 5a41 ac3c
00000070: 059a 973c 162f 7fbc 3df8 fc38 290c 4ebc
00000080: 3bb5 863c 650d 32bc 87ea bc3c f71d 1dbb
00000090: ab02 923c e62b a5bb 5632 d33a 2740 c43c
000000a0: 1ca1 0c3d 1781 d9ba c8d0 5b3c f829 723c
000000b0: fd8a fc38 49fc 003c f6fc 603b 3e19 033d
000000c0: 7dcb 833b e842 b6bc 989a 1c3c 17ce 2cbb
000000d0: c841 20bc bea2 043b 35a6 e83b 8de5 2d3c
000000e0: 7a0a 663c 0151 cf3b 759b 043c dcff babc
000000f0: 08f4 42bb 8ac5 293c 254c 8fba 9f8f 5e3c
00000100: d699 d03b 6bd6 cc3b efd5 9ebc f921 72bb
00000110: 29d6 d93c 5490 9b3c 3f54 763c eeb4 8cbc
00000120: f025 b73c ccec 0d3c 486e a03c 1215 1fbc
00000130: 7e8a 9dbb c8b9 a63b 5b6a bb3c 7013 57bc
00000140: 8822 6a3c c60d b13c 086b a3bc 47d8 1ebc
00000150: a8af c03c 2dc7 343b dfa4 1b3c 068c 72bc
00000160: c16c cfbc cee1 6bbc 1eb9 463c 60db 84bc
00000170: 02a4 ba3c eb12 3dbc d4a0 f63c b058 22bc
00000180: 572d 1bbc b718 8d3b 6023 a9bc d464 92bc
00000190: 069e b33b 6236 193c 13af 7f3c ce80 36bc
000001a0: 943a 7bbc 1b83 cb3c f5ef b53c b380 91bb
000001b0: 5ac7 8d3c 477b 92bc 9483 35bc 5833 883c
000001c0: 5d39 513c ee7b 8fbb 23cb fd3c 33ef 55bc
000001d0: df3c 213c 146f babb 5de3 6abc 6677 f439
000001e0: 0275 4d3b ce54 aa3c e4ee 143c 250e 643c
000001f0: 136f fc3c 35a1 ad3c e4e2 ebba 26b0 babb
0.024463225 -0.00042447 -0.008560959 -0.0038593863 0.022069015 -0.019258937 -0.006745536 0.023525232
-0.0086730495 0.00017116973 -0.01730288 -0.022442905 0.0054958295 -0.022671176 0.002090676 0.021102516
0.004253588 0.029137291 0.008944281 -0.013727159 0.003644409 -0.026934907 -0.020876912 -0.024867937
-0.022265567 -0.025986759 0.0063324063 0.021027256 0.01850606 -0.015575191 0.000120625344 -0.012576141
0.01644384 -0.010867451 0.02306105 -0.002397416 0.017823538 -0.0050406335 0.0016113024 0.023956371
0.034333333 -0.0016594258 0.013416477 0.014780514 0.00012042185 0.0078726495 0.0034330464 0.032006495
0.0040220604 -0.0222487 0.009558342 -0.0026367956 -0.0097813085 0.0020238603 0.0070998915 0.010613811
0.014040584 0.006326795 0.0080937045 -0.022827081 -0.0029747505 0.010362038 -0.0010932727 0.013584047
0.006365995 0.0062511466 -0.01938912 -0.0036946519 0.026591377 0.01898972 0.015034734 -0.017176118
0.022356957 0.008662414 0.019583836 -0.009709613 -0.0048077693 0.005088065 0.022877863 -0.013127193
0.014290459 0.021613013 -0.019948497 -0.009695119 0.02352126 0.0027584538 0.009499758 -0.014803892
-0.025320413 -0.014397098 0.012129096 -0.016217887 0.022783283 -0.011540155 0.030105986 -0.00990884
-0.009471259 0.0043059248 -0.02064675 -0.017870344 0.0054814843 0.009351345 0.015605706 -0.011139108
-0.01533379 0.02484279 0.022209147 -0.004440391 0.017306972 -0.017881049 -0.011078734 0.016626045
0.012770024 -0.0043787872 0.030980652 -0.013057518 0.009841173 -0.005689511 -0.014336434 0.00046628265
0.003135026 0.020792391 0.009090159 0.013919388 0.030814683 0.021195034 -0.0017996696 -0.005697268

Const_2 f4 [128]
00000000: c271 7b3f a280 813f 4fd8 7c3f e9a2 7e3f
00000010: e8f9 7d3f b53d 7d3f e847 7c3f 9361 803f
00000020: 25df 7b3f 36ca 7c3f 68fd 7f3f 14a0 823f
00000030: bc90 863f 13e0 813f 8481 823f 3e01 843f
00000040: 4ff4 7d3f 069c 7a3f f770 7b3f 87fb 7b3f
00000050: 02e4 813f 9ebb 843f 50b9 803f 02ea 8a3f
00000060: 88b0 7c3f fbbe 843f 10f0 7a3f 310b 833f
00000070: 9083 7f3f 211b 833f 3b7e 803f da49 7b3f
00000080: 6ae4 813f 11dc 7d3f 47c6 7a3f 7196 7d3f
00000090: e2b8 7f3f e23d 823f 9cf4 7c3f 1e4b 7e3f
000000a0: a72d 823f fb0a 803f e825 823f d535 803f
000000b0: a014 813f f8e8 883f 20dd 7f3f 9c4c 7d3f
000000c0: 480f 7f3f 0fb8 7e3f 5c52 843f 91b2 783f
000000d0: 5032 7a3f 43d1 7b3f 6c3f 813f a80a 833f
000000e0: fe4c 7c3f 2db7 7b3f 9366 853f 16ec 763f
000000f0: c5bc 813f 3fc2 7e3f 342e 7c3f f26d 843f
00000100: 5df6 7e3f 4d81 873f 15b3 7a3f 2288 803f
00000110: 187e 7b3f 46eb 803f 2df3 883f 453f 833f
00000120: 1182 7d3f dce9 7d3f 3462 833f 1475 803f
00000130: 871a 7d3f d548 7b3f ac91 7e3f d896 7f3f
00000140: ea8f 753f 6b13 803f 561d 763f b27f 7e3f
00000150: d094 803f 3dc2 7e3f 8da8 7a3f f516 7b3f
00000160: 8d67 783f 65f4 7a3f 2f38 843f 126b 793f
00000170: ddf4 7e3f 2e3b 7d3f ea59 803f e53e 863f
00000180: 33f4 803f 0d77 7c3f cd35 803f 4a6a 7e3f
00000190: e5ca 803f 821f 813f 03ac 813f 9ad0 7c3f
000001a0: 3c5c 7b3f 751c 7d3f 4039 7a3f 92e1 813f
000001b0: e3e6 7d3f 4a6a 823f 6932 833f 1821 7f3f
000001c0: bed9 783f 52d2 7d3f 9bf7 7e3f 05ae 7c3f
000001d0: d7e1 803f c45f 7f3f 11a3 803f d501 7d3f
000001e0: c141 793f 077c 7b3f daed 7d3f 2e49 803f
000001f0: a4f1 803f 9337 803f 7a25 7e3f 3848 883f
0.98220456 1.0117381 0.9876756 0.9946733 0.9920945 0.9892228 0.9854722 1.0029777
0.98387367 0.9874605 0.9999604 1.0205102 1.051292 1.0146507 1.0195775 1.0312879
0.9920091 0.9789432 0.98219246 0.98430675 1.0147707 1.0369756 1.0056553 1.0852664
0.98706865 1.0370783 0.98022556 1.023779 0.99810123 1.0242654 1.0038522 0.98159564
1.0147831 0.9916392 0.979588 0.9905768 0.99891484 1.0175135 0.98810744 0.9933337
1.0170182 1.0003351 1.0167818 1.0016428 1.0084419 1.0696096 0.99946785 0.9894502
0.9963269 0.994996 1.0337634 0.9714747 0.9773302 0.98366183 1.009748 1.0237627
0.9855498 0.9832638 1.0421928 0.9645399 1.0135733 0.99515146 0.98508 1.0346053
0.9959467 1.0586334 0.9792951 1.0041544 0.9823928 1.00718 1.0699211 1.0253683
0.9902659 0.99184966 1.0264344 1.003573 0.988686 0.9815801 0.9944103 0.99839544
0.9592272 1.0005926 0.96138513 0.994136 1.0045414 0.99515134 0.9791344 0.98081905
0.97033006 0.98029166 1.0329646 0.97429 0.9959238 0.98918426 1.002744 1.0487944
1.0074524 0.9861916 1.0016419 0.99380934 1.0061918 1.008774 1.0130619 0.987558
0.98187613 0.98871547 0.97743607 1.0146964 0.9918043 1.0188687 1.0249759 0.9965987
0.9720725 0.9914905 0.99596566 0.9870303 1.0068921 0.997555 1.0049764 0.9883092
0.9736596 0.98236126 0.9919106 1.0022333 1.0073743 1.001696 0.99275935 1.064704

Const_3 f4 [128]
00000000: cc36 2fbc f029 143a 60fc fcbb 06ab 5cbc
00000010: 2c3e 54bc 94ad 0fbc 7319 3cbc 1cd9 47ba
00000020: 14eb 50bc 5ae1 96bb 0528 0dbc d634 0fbc
00000030: 52f7 893b 0fc2 553b 1e5a 64bc 2aea f9bc
00000040: a30c bfbb fcf7 523b a015 24bb 4fb6 4bbc
00000050: fcf7 333c 4ffe 0ebc 4f8d 46bc b192 2abb
00000060: 0dd3 93bc 5ab1 fdba 6d37 47b9 f7e6 063c
00000070: 8ffe 28ba 6149 923a 794f 2cbc c9ac 25bc
00000080: b312 efbb 0288 34bc 97b1 f3bb a018 a4ba
00000090: f2be 243b 4124 6b3b 9878 393a bd54 96bb
000000a0: baa6 b73b da61 5dbc 03a3 97ba 3f78 7f3a
000000b0: 433c 073a 7663 863b 4f7d aaba 5e20 973a
000000c0: e227 2139 4313 86bc 4da6 b1b9 38c8 f8bb
000000d0: 24d2 edba 866f bcbc 37f1 49bc a989 913b
000000e0: 1d2e 8bbc 2836 33bb 2875 ae3b 1d52 abbc
000000f0: 4518 80bc 9123 11bb 85fb d0bc 3002 073b
00000100: 6379 43bb a2d6 eeb9 a91d 81bc 36d8 f73a
00000110: 2af1 28bc 3c44 3abb c088 a6ba 62b1 3eba
00000120: 4fad 1fbb 7153 92bc 6ba6 863a c645 c4bb
00000130: 586e f73a 0c64 ddbb 564c f6ba e152 b639
00000140: 3b31 acbc e221 be3b 81e3 c9bc 8431 6aba
00000150: 9081 84bb 70ba 03bc 173a 213b 56e8 b6bc
00000160: c2f5 cabc 0557 81bc 1f63 143c 04ea 84bc
00000170: 2bd6 3fbc d685 a0bc c4b9 d43a 6147 363c
00000180: 7445 de3b 2c36 80bc 4eea 23bc 8f45 86bb
00000190: ddd4 ebb9 a8d0 08ba 6253 3f3c bb1a 16bc
000001a0: ea97 2ebc 1e48 193c 4d55 bfbc 796f 8ebb
000001b0: 46b0 11bc d605 85bc 550e a03b 7cde 7cbb
000001c0: 9e65 6cbc 0aa4 08bc 9eaf 10ba 72b1 69b9
000001d0: becb 88bb cefa 28bc 6f2c 293b 524b 29bc
000001e0: 7628 8e3b 4d3c 17bc 9dc5 253c 0479 773b
000001f0: 4a12 2c3a 91db 06ba 2336 62bc 0871 383b
-0.010694217 0.0005652001 -0.007720515 -0.01346851 -0.012954276 -0.008769412 -0.011480677 -0.00076235994
-0.0127513595 -0.0046045007 -0.008615498 -0.008740624 0.004210391 0.0032616889 -0.013937501 -0.030507166
-0.005830364 0.0032191267 -0.0025037304 -0.0124336025 0.010984417 -0.008727624 -0.0121186515 -0.0026027376
-0.018044973 -0.0019355223 -0.00018998767 0.008233777 -0.00064466236 0.0011160785 -0.010516995 -0.010111996
-0.0072959303 -0.011018755 -0.007436942 -0.0012519546 0.0025138226 0.0035879763 0.000707516 -0.0045877383
0.005604592 -0.013512099 -0.0011568967 0.0009745396 0.0005158821 0.004101212 -0.0013007316 0.0011530032
0.00015369014 -0.016366607 -0.00033883975 -0.0075922273 -0.0018144292 -0.023002397 -0.0123255765 0.004441459
-0.016989762 -0.0027345512 0.0053240247 -0.020913178 -0.015636573 -0.0022146443 -0.025510559 0.002060067
-0.002982699 -0.0004555481 -0.015761213 0.001890904 -0.010311404 -0.0028422019 -0.001270555 -0.0007274357
-0.0024364775 -0.017862054 0.0010272985 -0.005989763 0.001887749 -0.0067563113 -0.001879106 0.00034775495
-0.021019569 0.005802379 -0.024644615 -0.000893377 -0.0040437654 -0.008040056 0.0024601275 -0.022327583
-0.02477539 -0.015788564 0.009056835 -0.016224869 -0.0117087765 -0.019595068 0.0016229679 0.0111254165
0.006783182 -0.015650831 -0.010004593 -0.0040976475 -0.00044981288 -0.00052190805 0.011677595 -0.0091616465
-0.010656336 0.009355573 -0.023356104 -0.0043467847 -0.0088921245 -0.016238134 0.004884521 -0.003858476
-0.014428524 -0.008339891 -0.0005519333 -0.00022286715 -0.0041746786 -0.010313703 0.0025813838 -0.010332899
0.0043383194 -0.009230685 0.010117915 0.003776134 0.00065640046 -0.0005144412 -0.0138068525 0.0028143544

Const_5 f4 [128]
00000000: d6a9 853d 7895 ec3c a8ab f73c da9a 293d
00000010: e407 703d 0424 9c3d 7f01 cb3c 8321 513d
00000020: d709 3abd ab3b 453d 4b0c 8c3d 4ff5 90bd
00000030: e32f 503d b2fb 283d 2b77 45bd e1ef 473d
00000040: 05dd ee3c 8ced 733d 5660 11bd 57b2 f93c
00000050: 8b1d e6bc 2c48 b43c 4b7a ce3b b64f 5e3d
00000060: 5250 92bd 1157 45bd e8b9 5b3d 8778 433d
00000070: f596 303d dee4 4d3d dc22 70bd dcec 5b3d
00000080: d2d7 6e3b 63e7 82bd 1562 34bc 9d5a 56bd
00000090: c5ce 36bc 1350 9f3d ecbc a63c 5b35 3b3d
000000a0: ca02 b1bc 7c07 1cbd 1be3 76bc 7ee5 30bc
000000b0: c033 b83d f466 23bd 05e6 763d 7346 54bd
000000c0: dc15 5cbd 3cdb 053d 3109 c93b ea15 48bc
000000d0: 6142 a5bd 8207 13bd 88b6 8fbd 0dd6 98bd
000000e0: 4ed3 003d 7c63 c5bb 81fe 8b3b 0d78 aabd
000000f0: da4a a23d 79d4 173d 156f a7bd 5e15 9b3c
00000100: f4b0 2b3d 7f4b 653d 6638 d5bc ec4d 21bd
00000110: 74d8 243d d2de 33bd 53d4 693d 5ea7 56bd
00000120: 503f f73c 435a b2bd b166 a6bc 7e3c 813d
00000130: 0bd4 46bc 26d4 063c 617b 64bd bf1c 413a
00000140: 5489 aabd 058f 5b3d 8326 823d f357 683d
00000150: 432b 313c 507c 913d 468d 7a3d 76af 9abd
00000160: 4f67 77bd 32f9 35bd a38e 883d 1124 6abd
00000170: e94e 0a3d 4140 ad3d d0c6 c2bd 3fa5 9c3d
00000180: 8ba1 373d 9ce0 af3d 42eb 0abd 8e57 a83d
00000190: 4c1f 6abd 33a6 923d a558 89bd ac9b e23c
000001a0: b8c2 8a3d b67d 4d3a 3da9 85bd c74f 3cbd
000001b0: 716e 613d 19d6 08bc 4f4b 043d 9a2f 50bd
000001c0: 162b 13bd 9b7d 583d 040e 0bbd 0132 68bd
000001d0: e7a7 5bbd 6cb4 a5bc 7ccd 9c3d 478b 20bd
000001e0: cefd 13bd 755e 38bc e909 1bbd 777d 38bd
000001f0: 5741 8b3d 62b0 83bd 0683 013d 6b38 21bb
0.06526534 0.028879866 0.03023322 0.041407444 0.058601275 0.07624057 0.024780987 0.05105735
-0.04541954 0.048152607 0.06838282 -0.07078039 0.05082692 0.04125566 -0.04820935 0.04881275
0.029158125 0.059552714 -0.035492264 0.030480547 -0.028090259 0.02200707 0.0063011996 0.054275237
-0.07144226 -0.048178736 0.05364409 0.047722366 0.043112714 0.050267093 -0.058626994 0.053692684
0.0036444557 -0.0639179 -0.011009713 -0.05233251 -0.011157696 0.07778945 0.020353757 0.04570518
-0.021607775 -0.038093075 -0.015068795 -0.010796903 0.089942455 -0.039893106 0.060277957 -0.051824998
-0.053731784 0.03267978 0.006135129 -0.012212256 -0.080693014 -0.035895832 -0.07017237 -0.07462702
0.031451516 -0.0060238224 0.0042722826 -0.08323679 0.07924433 0.037067864 -0.08175484 0.018931087
0.041916803 0.0559802 -0.02602787 -0.039380953 0.04024549 -0.04391367 0.057087254 -0.052405708
0.030181557 -0.08708622 -0.020312639 0.06310366 -0.012135516 0.008229291 -0.055781726 0.0007366649
-0.083269745 0.05360319 0.06355002 0.0567245 0.010813537 0.07103789 0.061169885 -0.07552998
-0.060401257 -0.044427104 0.06667831 -0.0571633 0.03376666 0.08459521 -0.09510577 0.07648706
0.044831794 0.08587763 -0.033915766 0.08219825 -0.057158753 0.07160606 -0.06706361 0.02766212
0.06775421 0.0007838862 -0.0652642 -0.04597452 0.055036966 -0.008351826 0.032298382 -0.050826646
-0.03592976 0.05285416 -0.033948913 -0.056688312 -0.05362692 -0.020227633 0.076563805 -0.039195325
-0.03613072 -0.011252989 -0.037851248 -0.045041528 0.06799572 -0.06430127 0.031619094 -0.0024600278

Const_6 f4 [128]
00000000: 52a1 883f 4815 7f3f 2630 853f 0861 8a3f
00000010: e986 8a3f a2c4 893f ceed 873f 41fa 853f
00000020: 30aa 8d3f 5ed3 873f 413f 8c3f 769f 893f
00000030: 1a13 803f 7a63 8b3f 8fba 7e3f 2b73 863f
00000040: cad8 843f 2ae7 8b3f ad9b 853f d1b9 893f
00000050: 757f 923f fb9a 903f d25f 973f 41e0 8e3f
00000060: 03d2 763f d259 8c3f 1015 953f ec84 8f3f
00000070: e0c8 8c3f e8f3 833f 51ef 8f3f 4828 883f
00000080: e1b5 883f fea9 8e3f 02c0 883f d5e4 8a3f
00000090: 51a4 8b3f 9959 853f a6c7 913f df16 873f
000000a0: c03c 8a3f f307 823f dc10 8d3f 5e49 813f
000000b0: 22bd 823f e776 903f 6336 7f3f 00ce 883f
000000c0: 1d1f 8c3f 114a 8b3f 1322 8e3f a176 883f
000000d0: c9a2 7f3f 3512 893f 381d 833f e0ae 793f
000000e0: b7a4 863f 75f7 823f fc7d 8b3f 048c 8a3f
000000f0: b26b 8a3f 4c55 7d3f e62d 743f 3c38 843f
00000100: 0ab7 813f c93c 8b3f 20ad 863f a9ff 8b3f
00000110: fc62 7f3f e21d 833f e932 883f e3d8 853f
00000120: 1d1b 873f 89d6 8c3f 1dc4 883f 2d6d 8a3f
00000130: 7923 893f 0c99 853f 4dd5 8d3f f924 8b3f
00000140: 84df 843f cd96 8e3f 2d24 863f 4db0 843f
00000150: 3fcb 883f 19c1 8b3f 6de4 893f b8fa 8b3f
00000160: 7fe1 853f e901 863f cab3 833f 8b80 853f
00000170: 3e90 843f 39c3 8f3f 7200 853f f313 833f
00000180: d413 853f 1d24 883f 1228 7e3f 0864 8b3f
00000190: 4657 8e3f 5870 833f 412c 823f 2062 883f
000001a0: b06e 8d3f 0f51 883f 655d 7f3f bee1 8a3f
000001b0: 8402 863f 9091 8f3f 0607 873f 6406 7e3f
000001c0: 3cc3 8c3f 1d38 8a3f 7d29 8f3f f2be 773f
000001d0: 4d8a 913f 0105 8b3f a0bf 843f 17e1 8a3f
000001e0: 9c68 863f a3b0 903f b1fa 7f3f 10dd 863f
000001f0: 3ecd 7d3f dd12 8a3f 2678 853f 70c9 913f
1.0674231 0.9964185 1.0405319 1.0810862 1.0822421 1.0763133 1.0619447 1.0466996
1.1067562 1.0611379 1.0956804 1.0751789 1.0005829 1.0889733 0.99503416 1.0503896
1.0378659 1.0929921 1.0438133 1.0759832 1.1445147 1.1297296 1.1826117 1.1162187
0.964142 1.0964911 1.1647053 1.121244 1.0998802 1.0308809 1.1244909 1.0637293
1.0680505 1.1145627 1.0683596 1.0851084 1.090952 1.0417968 1.1389053 1.0553855
1.079979 1.0158676 1.102077 1.0100515 1.0213969 1.1286286 0.9969236 1.0687866
1.0946995 1.0881978 1.1104149 1.0661203 0.99857765 1.0708681 1.0243292 0.97532463
1.0519017 1.0231768 1.0897822 1.0823979 1.0814116 0.9895828 0.95382535 1.0329661
1.0133984 1.0877925 1.0521584 1.0937396 0.99760413 1.0243495 1.0640537 1.0456814
1.0555149 1.1002971 1.0684849 1.0814568 1.071395 1.0437331 1.1080719 1.0870658
1.0380712 1.1139771 1.047979 1.0366303 1.0687026 1.0918304 1.0772835 1.0935888
1.0459441 1.0469333 1.0289242 1.0429853 1.0356519 1.1231452 1.0390761 1.0240463
1.0396676 1.0636021 0.9927989 1.0889902 1.1120384 1.026866 1.0169755 1.0654945
1.1049404 1.0649737 0.99751884 1.0850141 1.0469518 1.1216297 1.0549018 0.992285
1.0997081 1.0798374 1.1184536 0.96775734 1.1370331 1.0860902 1.0370979 1.0849942
1.0500674 1.1303905 0.999919 1.0536213 0.991413 1.0787007 1.0427291 1.1389599

Const_7 f4 [128]
00000000: c9d9 9f3c 967c 2ebc f5ce 873c 28f2 943d
00000010: 229d 8f3d 5875 293d 2ad0 173d 647f 403c
00000020: 7997 9a3d 47f8 ed3c 9e01 a03d 3ba9 933c
00000030: d3ce 0ebc 2a7b 943d 500b 9bbc 1488 883c
00000040: e27c 863d 6c39 633d b91c d33c 7d45 8f3d
00000050: fbbc cc3d c4e3 b43d ef1d e83d c0b2 c23d
00000060: 1a29 babc b37d fe3c 3230 d83d d934 ba3d
00000070: f9bc 073d 5a34 0d3d 341b b83d df5f 583d
00000080: 1617 a23c deb9 aa3d 0ddf 723d ad95 3d3d
00000090: f26c 943d c1f0 633c f442 c13d 7d4b 003d
000000a0: bc18 bb3d 0295 4c3c daa3 513d 1b21 8e3b
000000b0: 04f4 a03c a994 bb3d c65b 4ebb 6400 d23c
000000c0: 214c 703d 01ee 0c3d db59 bf3c b1e5 b23d
000000d0: f768 f1bb e319 303d 2d69 c93b e63c d7bc
000000e0: 89cb f03c 82f3 723c ec09 383d 965e 653b
000000f0: 6846 033d 9c1b 7fbc e0ab 3bbd 1ad2 f43c
00000100: 4558 9dbb ef66 a33d 17ad 0dba 9de7 353d
00000110: 1213 12bc 02b1 473c 5eaf 793d eaf8 613c
00000120: 057b 1a3d 53ae 9a3d 29fb 9c3d 6569 223d
00000130: 2344 c53c 9f2e fe3c 3560 023d 597f 993d
00000140: 2647 c83c 56dd cb3c 4a90 283d fe49 4a3c
00000150: 8676 e03c 0ad6 373d 17a6 a43c c741 b83d
00000160: f4d0 f23c eb35 aa3c 841f 1e3c 1c77 933c
00000170: 0ba9 d83c ba85 083d 05b4 433c 35ac da3c
00000180: ec2f b03b 9cef e13c c845 5dbb dc20 a03d
00000190: f7ea 313d f032 383c 7f27 fc3b 97ef 2d3d
000001a0: ecc5 993d 0248 cc3c 3c6a d2bb a3c8 8e3d
000001b0: 3374 803c 92ef af3d 626f ca3c 4b40 21bc
000001c0: c97a 053d 05cc 1f3d 2c23 a83d 6b26 52bc
000001d0: 6e13 ae3d 3d64 903d ca04 0f3d 2da2 af3c
000001e0: 5f61 2a3d e139 b23d a911 29bb d9a1 073d
000001f0: eb90 38bc dade 943d 5c87 253c a5d0 ce3d
0.019513028 -0.010649821 0.016578177 0.0727275 0.070123926 0.041371673 0.037063755 0.011749122
0.07548422 0.029049052 0.078128085 0.018025031 -0.008716303 0.07250054 -0.018926293 0.01666645
0.06566788 0.055474684 0.025770532 0.06995676 0.09996983 0.08832505 0.113338344 0.0950675
-0.022724677 0.031065797 0.105560675 0.09092111 0.033139203 0.034473754 0.089895636 0.052825805
0.019786399 0.083362326 0.05929475 0.04628532 0.07247342 0.013912381 0.094365984 0.03132199
0.09135577 0.012486698 0.05118165 0.0043374426 0.019647606 0.09159214 -0.0031487807 0.025634952
0.058666352 0.034406666 0.023358276 0.087352164 -0.007367249 0.042993437 0.006146571 -0.026274156
0.029393928 0.014828565 0.044931337 0.0034999005 0.032049567 -0.015570547 -0.04581821 0.02988534
-0.0048017823 0.079786174 -0.00054045155 0.044410337 -0.0089156795 0.012188198 0.06095826 0.013792256
0.037714977 0.07552781 0.076650925 0.039651293 0.024080342 0.03102809 0.03183003 0.07494993
0.024447989 0.024885815 0.04115323 0.012346743 0.027400266 0.044881858 0.020098729 0.08996921
0.029640652 0.020777663 0.009651069 0.018001132 0.026447793 0.033330657 0.0119447755 0.026693443
0.0053768065 0.027580075 -0.0033763517 0.078187674 0.04343697 0.011242613 0.007695138 0.04246482
0.07508454 0.02493668 -0.0064213555 0.06971862 0.015680408 0.08590616 0.024711315 -0.009841989
0.0325878 0.039012928 0.082098335 -0.012826542 0.084998 0.07050369 0.034916677 0.021439636
0.041596767 0.08702446 -0.002579788 0.033113334 -0.01126502 0.07269068 0.010103073 0.100983895

MatMul f4 [128, 1536]
00000000: 775e b2bb 8a30 cf3c 7604 cabc f5e5 34bc
00000010: edb4 31bc 5552 85bc ef1e 803b 1ef6 abbb
00000020: a625 30bc 6598 89bc 71a7 4c3c 9e1f ccbb
00000030: ec0e aa3c 2848 7a3c 41cb 11bb 9dec 943c
00000040: 68da 843c ad07 093c 87fc 5cbc a9e4 833c
00000050: faac 24bc cc0e 9ebc 9b53 01bd 92cf a6bc
00000060: c584 5dbc c9fc 61bc be10 963c 4eb8 54bc
00000070: 2f90 043b 50f8 07bc a253 f43b 4f30 ee3c
00000080: 8657 9bbc d9a1 f4bc c8aa a03c 9cdd 1e3c
00000090: 2a62 c83c 40de 8bbc a996 a1bc c004 1e3c
000000a0: 4768 f8b9 907b 313c 2a92 093c 67ef 44bc
000000b0: 18d8 de3a 1299 af3b 8ef5 9cbc 8176 163d
000000c0: cad0 043c 5cbc a5bc 444f 213c 844c f53b
000000d0: b814 d9bc 588b 3c3c fe61 4dba d041 123c
000000e0: 189a 82bc 7a70 0abc 2481 593c 2b05 0cbc
000000f0: 45ee ab3c fc44 c73b fc16 26bc 9f50 86bc
00000100: f165 ea3c 32da c4bb 4abb 84bb b8f1 983c
00000110: a1e4 d9bc e413 8bbc 3174 793c 2e56 40bc
00000120: a52c 913c 0365 973c ecbe ba3c a098 283c
00000130: 8bab b03b 13c8 fbba 65ee edbc f3fd 953c
00000140: ae96 fc3c db27 a43b 114a bdbc ae3d 713c
00000150: e645 47bc 2de7 483c 7ab4 14bb a3f2 56bc
00000160: 79b4 8dbc cd33 c8bb 2b22 d93c c186 4739
00000170: a7d2 bb3b 0b33 973c a18a 8c3c e4a2 d63c
00000180: ca6f d2bc 3a07 78bc 0059 58bc f0b5 bebc
00000190: 6123 803c 7146 7bba 6e46 b63b b1e8 153c
000001a0: 2f03 e0bb b97a 8e3c 5120 273c 06b0 cbbc
000001b0: 9d7b 103c 94b1 e83c 1e94 a3bc f7f4 933b
000001c0: 3e19 cebc 85e3 fb3c c087 92bc 8a0c fe3b
000001d0: 9268 473c 7b48 9eb9 89cb 45bc 3f6a 273b
000001e0: 5590 af3b 7dd3 753c 979f d93a 7024 17bb
000001f0: 19db 6fbc 03c5 763c 9059 4a3c 865a cd3c
00000200: e567 81bc a8af a93c 615a db3c 5b35 8f3b
00000210: aee1 e1bb c6ba 833c f17d 273c 9ad5 083b
00000220: 4588 8abc 546f b43c ebfd 0ebb 14ec cdbc
00000230: 861f adbc 66e9 d6bc 8500 aebc ca7e 143d
00000240: df28 1ebc 94df 033d 1d05 d43b aa98 f23c
00000250: 7a74 68bc 0c18 72bc e4d8 84bc c92d 24bb
00000260: bbf5 51bc d07e d33b d9bf 1cbc d98f d2bc
00000270: 4997 55bc 58cd 51bc 9cae 063c 9d66 02bd
00000280: 65d1 283b b3fe 6abc 50c9 ee3b 2301 9eba
00000290: b7f5 083c 0196 72bc 1437 193c a43a 0c3c
000002a0: e329 dd3a 0193 bcbb a744 d3ba ca75 b0bc
000002b0: 761f b83b b4fe 943c 07b5 fbbc f7e7 4e3c
000002c0: 9536 dabb 7220 88bc 59e6 d53c 2bbf dcb9
000002d0: bca4 c33b 3fb6 bb3c 3b83 083c cf60 a3bc
000002e0: 0db4 973a 450a dc3c 6d4d 8c3c 51fb cdbb
000002f0: 2af1 3c3c ff46 d2bc cbba 1e3c b2f9 6fbc
00000300: b69e fc3b 614b b0bc b155 a4bc da39 9cbc
00000310: 7190 9f3c 96de 5ebb dbc5 38bc 4ea3 0d3b
00000320: cacd d0bc da62 023d a111 10bc 2d66 4b3c
00000330: b92f c1bc b0b4 f03c ff30 23bc 4e3f ae3c
00000340: 66e8 86bc e3d6 fe3c 5216 bfbb f0f6 1ebc
00000350: 7897 c7bc 8645 d73c 5306 6e3c 080c 40bc
00000360: 696b 063c ff3a 49bc 48ee b6ba 98e3 503c
00000370: 0f90 0e3b 2c3a d33c 2dd0 dcbc fe6d 913c
00000380: e075 393c 1de5 4f3c 1d3b f4ba 0f91 f2bb
00000390: 49c1 cd3c b575 ce3b 63b2 e63b c776 02bc
000003a0: ead4 d6bc 7d58 283c 3176 993a 0088 e8bc
000003b0: 7e50 353a febc 483c 23bc 82bb 46d6 2f3c
000003c0: 7be9 a63c f7f4 2abc e848 d93c 9fd3 41bc
000003d0: e55f 39bc b568 81bb dfb5 dcbc 2d76 d83c
000003e0: b425 f83b a0cc 4c3c b6bf eabc 5716 e6bb
000003f0: 49e9 e5bb c8f2 cc3b 8a19 c83c a213 a83b
-0.00544339 0.0252917 -0.02466033 -0.011041154 -0.010846359 -0.01627461 0.0039099376 -0.0052478453
-0.010751164 -0.0167963 0.012491093 -0.006229355 0.020759068 0.015275992 -0.0022246393 0.018179232
0.016217425 0.008363646 -0.013487942 0.016100245 -0.010051006 -0.019294165 -0.031573873 -0.02036265
-0.013520424 -0.013793179 0.01831853 -0.012983395 0.0020227542 -0.008298948 0.007456259 0.02907577
-0.018962633 -0.029862331 0.019612685 0.0096963905 0.02446087 -0.01707375 -0.01972516 0.009644687
-0.0004737994 0.010832682 0.008396665 -0.012019969 0.0017001657 0.0053588236 -0.019160058 0.036734108
0.00810642 -0.020231418 0.009845559 0.007485928 -0.026499137 0.0115078315 -0.00078347314 0.008926824
-0.015942618 -0.008449668 0.013275418 -0.008546154 0.02098764 0.0060812216 -0.010137316 -0.016395865
0.028613063 -0.006007456 -0.004050647 0.018669948 -0.026598277 -0.016977258 0.015225456 -0.011739297
0.017721483 0.018480783 0.022796117 0.010290295 0.0053915433 -0.0019209407 -0.02904434 0.018309569
0.030833568 0.005009634 -0.023106607 0.014724178 -0.012162661 0.012262148 -0.002269058 -0.013119373
-0.01729797 -0.0061096908 0.02650555 0.00019028319 0.005731899 0.018456956 0.017155947 0.02620072
-0.02568807 -0.015138442 -0.013204813 -0.023280114 0.01564187 -0.0009585387 0.005562595 0.009149716
-0.006836317 0.017392503 0.010200576 -0.024864208 0.008818534 0.028404988 -0.019968089 0.004515286
-0.02515852 0.030748138 -0.017886996 0.0077529596 0.012170928 -0.0003019011 -0.012072452 0.0025545505
0.005357782 0.015004036 0.0016603348 -0.002306249 -0.014639639 0.01506162 0.012350455 0.025067579
-0.015796611 0.020713642 0.026776494 0.004370374 -0.006893358 0.016080271 0.010222898 0.002087927
-0.016910682 0.022025742 -0.0021818827 -0.025136985 -0.021133196 -0.02623434 -0.021240482 0.036253728
-0.009653299 0.032195643 0.006470336 0.029613812 -0.014187926 -0.014776241 -0.016216703 -0.0025051704
-0.012814934 0.006454326 -0.009567224 -0.025703358 -0.0130365575 -0.012805305 0.008220341 -0.03183614
0.0025759574 -0.014342952 0.007287182 -0.0012054782 0.008359364 -0.0148062715 0.009351511 0.008558903
0.0016873445 -0.005754829 -0.0016118482 -0.021540541 0.005618985 0.018187858 -0.030725969 0.012628547
-0.0066593387 -0.016617034 0.026110815 -0.000421041 0.0059705656 0.02291405 0.008332069 -0.019943623
0.0011574045 0.026860366 0.017126763 -0.0062860628 0.011532107 -0.02566862 0.00968809 -0.014646934
0.0077093495 -0.021520318 -0.020060392 -0.019070555 0.019478055 -0.0034007183 -0.011277641 0.002161223
-0.025488753 0.031832553 -0.008793266 0.012414497 -0.023582326 0.029383034 -0.009960412 0.02127042
-0.016468238 0.031108325 -0.005831518 -0.009702429 -0.024364218 0.026278269 0.014527875 -0.0117216185
0.0082043195 -0.012282132 -0.0013956511 0.012749575 0.0021753346 0.025784574 -0.026954735 0.017752644
0.0113196075 0.012688902 -0.001863334 -0.0074025462 0.02511658 0.006300653 0.0070403083 -0.007962889
-0.026224572 0.0102750035 0.0011708197 -0.028385162 0.00069165963 0.0122520905 -0.003989713 0.010732239
0.020375004 -0.010434381 0.026524022 -0.01183024 -0.011314367 -0.0039492496 -0.026942192 0.026423538
0.007572854 0.012499958 -0.028655868 -0.007021706 -0.007016335 0.0062545277 0.02442624 0.0051292935

MatMul_1 f4 [128, 128]
00000000: 065a 7d3d 928a 1ebd 305c 043c 37de ba3c
00000010: 57be 603d 7e8b 71bd 4f45 c13d 556a a5bd
00000020: 53aa cfbb 3990 413d ad26 1cbd e5a5 403d
00000030: a6bb 1a3b cb78 c9bc 9063 3fba 9e95 343d
00000040: 6b2e 1dbb 752b 5d3d 2aa4 8dbd d3b9 923c
00000050: 21b6 593c bdce 1bbd 8306 76bc bcad 7a3b
00000060: 8e8f 9b3d 8147 733d 6f71 2a39 2677 323d
00000070: c0cc 2e3d f507 5c3d cbbb e33b 1d38 153d
00000080: a77d 46bd 58f6 893d 085c d43c a52d 663c
00000090: 4cfc 2fbd 58f6 6e3d e919 93bd 2a3a a3bb
000000a0: b88d ba3c 7574 99bd 9dc6 8dbb 8b6b 183d
000000b0: 4123 8b3d 07ce 1f3e e88e 79bd 9d4c 923d
000000c0: 2e4b 393c e442 233d 2af7 60bd bb23 96bd
000000d0: 7312 953d e347 1e3d 1c72 30bc 7321 c2bd
000000e0: b098 33bc d57c 973d f52c 61bd 46d4 393c
000000f0: e540 433c 65de e4bc 43a6 983b 5537 b1bc
00000100: b3a7 973d 6c59 9c3d 3dfa 623c b8c0 da3c
00000110: d8d0 4ebc 7c15 6d3d cd23 18bd 5d80 c53d
00000120: 595d cdbd 2bb2 a93d aea0 ba3d 87a1 c63c
00000130: 6b66 153d 4a60 023c 9a38 95bd b751 a53d
00000140: 8ebd 413c a9ff ccbd d85c 0abd eb3e 8f3d
00000150: 464f dfba 5c20 963b 031a 693d 9962 843d
00000160: abb7 a73c 8b2d 893d b192 bbbc 7d89 cebc
00000170: 6788 60bc f13a 633d 277a 8ebd f629 03be
00000180: d106 ed3c 2828 963d fb40 66bd ec97 843c
00000190: 2f1b 163d 608f 4fbb 2678 23bd 434c bd3d
000001a0: decc a3bd feab 183c ba88 fcbc 55d1 733d
000001b0: e92e b5bd d490 e3bc 89cc 173d e380 7cbb
000001c0: fa67 063d e8f8 8cbd 816d 86bd b58d 5d3d
000001d0: cc88 c23d 966b 783d ae6e 8b3d e2ab 24bd
000001e0: 5073 853d 56bb 973c 0f28 583d e5a2 61bd
000001f0: 2171 da3b df5d 213b 4564 a53d a4ba ad3d
00000200: c5ec 6b3b 108e 1dbd 4927 38bd f880 adbd
00000210: 2e1f 8d3d a1bc d8bc 3ede 87bd a999 a4bd
00000220: abc0 f2bc d626 9bbd b34e 86bd 994c 993d
00000230: d9ae 04bc dff8 8c3d 81d1 243d 0bc8 943c
00000240: 325c 343d b1a6 103d c8db a83c b6ae b53c
00000250: bccd 8c3d de88 343c 8be8 543c 81cc 8e3d
00000260: 583e cb3c 7eb3 debb 8819 113d 408e 6ebd
00000270: 25a6 803d cbf3 2dbd 1d4d 87bd d070 873b
00000280: 6ab7 8f3b 59a7 b23c 710c 513c 8f5b c0bd
00000290: de19 68bb 9bcd b6bc cfc9 f93b 2db2 973c
000002a0: 7eba e43c ec5e ec3c 8000 d4bc b4d6 f8bc
000002b0: 58ad bebc 5f92 29bd 8583 adbc e02c 503d
000002c0: 129d 373d bc0c 95bd 2ac5 4fbb fc04 013a
000002d0: 18bb afbd b3cc 59ba 2c11 b53b 9922 763d
000002e0: 61a6 b13c ac5f 3bbc 5c45 833c 73c1 f6bb
000002f0: 89dc a23c 8546 613d 7992 353d 44cb c43c
00000300: d684 933d 0442 c13d 9f34 833c da60 38bc
00000310: 3563 a4bc 2f7d 243d 1c85 173d 3fff 2c3d
00000320: 49e0 633d 93bd 633d 98dd 93bd bafa 2bbb
00000330: 9c50 02bd 02c4 923d 494a 23bd 41bd 25bd
00000340: 1320 863d be6f 15bd ce85 513d 1eeb 40bd
00000350: 6861 8abc 6cdd 383d f149 863d cbf9 993d
00000360: 1920 83bc a543 54bd 0073 a13d 0722 833d
00000370: 9a67 02bb f9dc ea3c 32c4 2d3c e536 063c
00000380: 80db dfbc c078 a53d 472d 7fbc 0c84 9f3d
00000390: 8ea3 b2bc ec3f 853d da6a c0bb f32e a83c
000003a0: 65fc ea3c 86a2 29bd 75fb 1a3d 05e9 42bb
000003b0: e326 873d 55d0 86bd 20fc 3d3d eb29 823c
000003c0: 806d f4bc 86cf 203b 6f75 8fbb a5b7 d0bd
000003d0: 3adb ad3b 08bc e9bb fb7b 45bd 8fe6 953d
000003e0: fb97 3dbd 1b95 9c3d c6b9 5dbd 3f6d a63c
000003f0: fd7a 38bd 7325 6c3d 6dec 86bd 4f17 613b
0.06185343 -0.03870637 0.00807862 0.022811038 0.054869022 -0.05897092 0.09437048 -0.08076922
-0.006337443 0.047256682 -0.03812282 0.04703321 0.0023610382 -0.024593731 -0.0007300908 0.044088
-0.0023983966 0.053996522 -0.069160774 0.017910874 0.013288052 -0.038038958 -0.015016201 0.0038250526
0.0759574 0.059394363 0.0001625472 0.04357066 0.042675734 0.053718526 0.006949877 0.036430467
-0.048459675 0.067364395 0.02592279 0.014048968 -0.04296522 0.0583404 -0.07182676 -0.004981299
0.022772655 -0.074929155 -0.004326655 0.037211936 0.067938335 0.15605937 -0.0609273 0.07143519
0.011309428 0.039858714 -0.054923214 -0.07331034 0.072789095 0.038642775 -0.010769393 -0.09479036
-0.0109616965 0.07396857 -0.054974515 0.011342114 0.0119173275 -0.027938077 0.004658492 -0.02163283
0.07405033 0.07634243 0.013853607 0.026703224 -0.012623034 0.057881817 -0.037143517 0.09643624
-0.1002757 0.08285936 0.091126785 0.024246944 0.036474627 0.007957527 -0.072861865 0.080722265
0.0118249785 -0.10009701 -0.03377995 0.069944225 -0.0017037175 0.0045814943 0.056909572 0.064641185
0.020473322 0.0669814 -0.022897096 -0.025212044 -0.013704396 0.055476133 -0.069568925 -0.12808976
0.028933914 0.07331878 -0.056214314 0.016185723 0.036647018 -0.0031671152 -0.039909504 0.092430614
-0.0799806 0.00931835 -0.030826915 0.059525806 -0.08846838 -0.02777902 0.037060294 -0.003852897
0.032814004 -0.068834126 -0.06563855 0.05409022 0.09498748 0.060649477 0.0680822 -0.040202983
0.06516135 0.018521946 0.052772578 -0.05508699 0.006666318 0.0024622602 0.080757655 0.084828645
0.003599928 -0.03846556 -0.04495934 -0.084718645 0.06890713 -0.026457133 -0.06634186 -0.08037121
-0.029632887 -0.07575767 -0.065579794 0.07485313 -0.008098328 0.06883406 0.04023886 0.018161794
0.044033237 0.03531522 0.020612612 0.022178035 0.06875178 0.01101896 0.012994896 0.069726
0.024810001 -0.0067962995 0.03542474 -0.05824113 0.062816896 -0.042468827 -0.06606505 0.0041333213
0.0043858783 0.021808313 0.012759314 -0.093924634 -0.0035415809 -0.022314837 0.0076229344 0.018517578
0.027920958 0.028853856 -0.025879145 -0.030375816 -0.023276016 -0.041399356 -0.021180877 0.050824046
0.04482753 -0.072778195 -0.0031703212 0.0004921702 -0.08580607 -0.00083083956 0.0055257287 0.06009159
0.021685781 -0.011436384 0.016024284 -0.007530385 0.01988055 0.054998893 0.04432914 0.024022706
0.07203071 0.094364196 0.016016303 -0.01125356 -0.020066837 0.040158447 0.036992177 0.04223561
0.055633817 0.055600714 -0.0722 -0.0026241974 -0.031815156 0.07166292 -0.039865766 -0.04046369
0.065490864 -0.03648352 0.051152997 -0.047099225 -0.01689215 0.04513304 0.06557072 0.07518347
-0.016006516 -0.051822323 0.07883263 0.064029746 -0.0019898177 0.028669821 0.010605859 0.008191799
-0.027326345 0.08079672 -0.01557476 0.07788858 -0.021806505 0.06506333 -0.0058721127 0.0205302
0.028684804 -0.04141476 0.037837464 -0.0029740941 0.06599214 -0.06582705 0.046383023 0.015889129
-0.02983737 0.0024537756 -0.004378013 -0.101912774 0.005305675 -0.007133011 -0.04821394 0.07319366
-0.046287518 0.07645627 -0.054132245 0.020315764 -0.045039166 0.0576529 -0.065880634 0.0034346168

MatMul_2 f4 [1, 128]
00000000: 22d4 ad3d 6ecc 5abc 65ff ab3d e3fd 15be
00000010: d711 10be c99c a43d 8e44 123d e959 be3d
00000020: 0eaf 20be 9bd7 a23d 6521 05be e7ad b83d
00000030: 8a85 8fbd 0824 27be 5c15 35bc 3fd6 df3d
00000040: b7c8 54bd d5d2 ec3d 981a a13d b81a 16be
00000050: 1e5e 1dbe 9fd7 16be cf19 2bbe 860b 23be
00000060: 6586 663c e010 313e 239a 1bbe b74e f6bd
00000070: a668 f33d b459 b03c 740c 31be 725c a73d
00000080: 743d 0a3e 1d2f 2dbe eb1f 343d 40d2 963d
00000090: 2b42 1dbe c36f d93d 95c4 12be 62cb f03d
000000a0: 1245 adbd 4b33 423d 6783 b23d d173 d43c
000000b0: ce79 b13d ccd1 22be 890d 853b c254 0d3e
000000c0: 9913 e83d c51d 283e 8e96 2e3e 4dbe 9fbd
000000d0: f889 08bd bbd9 b03d 6447 7f3d 4d86 6cbd
000000e0: 14bb 9e3d 7ee3 b03d 58ad db3d 2b9d 133e
000000f0: 0ef1 aa3d 74d4 a7ba c2e1 9cbc e440 7d3d
00000100: fb16 c63d db42 f9bd 8846 863d 4080 e03d
00000110: a990 283a 959b db3c 0732 073d d4fe 313d
00000120: b33c 5b3d 9a8e 13be 9498 e8bd db9d e13d
00000130: 6cfc 1b3e 61b6 a33d 1d65 0e3e 5a00 0cbe
00000140: e7d0 4a3d d192 b83d e095 b13d 2571 2b3d
00000150: a604 d43d cd83 af3d 9abf f13d 7f45 cbbd
00000160: d8be ca3d aef8 033e ebd9 803d 4729 fe3d
00000170: 9add 273d f56e ed3d e1d6 573d d8b4 953c
00000180: 154c be3d b067 fc3d 479e 1abd b4ea 01be
00000190: e96a 953d b0e4 903d 1470 8a3c 793e 9a3d
000001a0: a322 28be 4b99 af3d 76d5 a0bc c58d 1ebe
000001b0: 3b6f ae3d c611 21be 206e db3d 3a3b 0a3c
000001c0: 17e9 d13d 3769 813d 036a 1cbe 61b7 dabc
000001d0: c56e 24be f2e0 22be 29fc 493d 2bbb 153e
000001e0: 2cf2 b33d 1666 15be 5a68 22bc cc35 1d3d
000001f0: baa4 01bc 982e 10be 01b0 ec3d 0486 35be
0.08487727 -0.013354404 0.08398322 -0.14647631 -0.14069305 0.08037717 0.03570991 0.09294493
-0.15691778 0.0795128 -0.1300102 0.09017544 -0.070078924 -0.16322339 -0.011052456 0.10929536
-0.05194923 0.115636505 0.078664005 -0.1465863 -0.15367934 -0.1473069 -0.16709064 -0.15922365
0.014070128 0.17291594 -0.15195517 -0.120267324 0.118851945 0.021527149 -0.17289907 0.081719294
0.13500005 -0.16912504 0.04397575 0.07364321 -0.15357272 0.1061702 -0.14332803 0.11757542
-0.0846044 0.047412198 0.08716469 0.025934132 0.086658105 -0.15900344 0.0040604514 0.13801864
0.11331863 0.16417606 0.1704962 -0.07799969 -0.033334702 0.08635279 0.062323943 -0.057745267
0.07750526 0.08637141 0.10726422 0.14415424 0.08346759 -0.0012804405 -0.019150618 0.061829463
0.09672352 -0.12170955 0.065564215 0.10961962 0.00064302474 0.026807586 0.033006694 0.043455914
0.053524684 -0.14409867 -0.11357227 0.11016437 0.1523301 0.079937704 0.13905759 -0.13672009
0.04951563 0.09012378 0.086711645 0.04185595 0.10352449 0.08570061 0.11804123 -0.09925365
0.09899682 0.12887833 0.062915646 0.12410217 0.04098282 0.11593429 0.05269516 0.01827471
0.09291855 0.12324464 -0.0377486 -0.12687188 0.07295782 0.07074869 0.016899146 0.07531447
-0.16419463 0.0857416 -0.019633036 -0.15483768 0.08517309 -0.15729436 0.10714364 0.008436972
0.102495365 0.06318896 -0.15274815 -0.02669877 -0.1605788 -0.15906122 0.049312744 0.1462218
0.08786425 -0.14589724 -0.009912575 0.038381383 -0.007912809 -0.14080274 0.115570076 -0.17726904
