wkey/openwakeword_models/tflite/hey_computer.tflite (tflite, 206748 bytes, 9 tensors)

Const_1 f4 [32]
0	0x3c8fa25a	0.01753347
1	0x3c74e410	0.014946952
2	0x3cdd51c1	0.027016522
3	0x3a1154b9	0.00055439357
4	0xbb96ac07	-0.004598144
5	0x3c052565	0.008126591
6	0xbc9156dd	-0.017741615
7	0xbcfc95cc	-0.030833147
8	0x3ce14e57	0.027503176
9	0x3cafacb9	0.021444665
10	0xbbeb48f7	-0.007180329
11	0xbcbb3afa	-0.02285527
12	0xbc8849a4	-0.016636677
13	0xbb1e0999	-0.0024114607
14	0x3cc251a7	0.023720575
15	0x3c6561a9	0.014000335
16	0x3c84bc24	0.016202994
17	0xbcc4f366	-0.024041843
18	0xbb706bc2	-0.0036685322
19	0x3c554634	0.013017226
20	0x3c1f4b6f	0.009722575
21	0xbb40bd40	-0.0029409677
22	0xbc18e26b	-0.009331326
23	0xbc255d8f	-0.010093107
24	0x3cce73b9	0.025201665
25	0x3b11cd47	0.00222476
26	0x3c6788af	0.014131709
27	0xbc74874b	-0.0149248345
28	0xbcac1a99	-0.021008777
29	0x3ce7eddd	0.028311664
30	0xbbc1d2b8	-0.005915012
31	0x3c131313	0.008976716

Const_2 f4 [32]
0	0x3f805491	1.0025808
1	0x3f7c6ebe	0.9860648
2	0x3f7273b1	0.9470778
3	0x3f8144f5	1.0099169
4	0x3f803595	1.0016352
5	0x3f7de28f	0.99173826
6	0x3f7c1380	0.98467255
7	0x3f83818c	1.027391
8	0x3f7f7d8e	0.99800956
9	0x3f82896d	1.0198189
10	0x3f81c4c4	1.0138173
11	0x3f7d6d98	0.9899535
12	0x3f805983	1.0027317
13	0x3f7babf5	0.9830926
14	0x3f806349	1.00303
15	0x3f7b6a0a	0.9820868
16	0x3f7c41b8	0.9853778
17	0x3f816fbf	1.0112227
18	0x3f7ebe58	0.9950919
19	0x3f7fe80c	0.9996345
20	0x3f8123b2	1.0089018
21	0x3f7bee5a	0.9841057
22	0x3f7f29cf	0.9967317
23	0x3f7e9589	0.9944692
24	0x3f82014f	1.0156649
25	0x3f7e758b	0.99398106
26	0x3f7c6f27	0.98607105
27	0x3f7f93c9	0.9983488
28	0x3f79e7b8	0.976192
29	0x3f806c5d	1.003307
30	0x3f81db87	1.014512
31	0x3f819e33	1.0126404

Const_3 f4 [32]
0	0x3c8d6931	0.017262073
1	0xbd0f0828	-0.034919888
2	0xba9f96c3	-0.0012175668
3	0x3cdf6aca	0.0272726
4	0xbd0d1e28	-0.034452587
5	0xbcfb8414	-0.030702628
6	0x3c019a2e	0.007910294
7	0xbb45eed8	-0.0030202176
8	0x3d0f1edd	0.034941543
9	0x3c80d8e0	0.015728414
10	0x3b7f5dc9	0.0038965812
11	0xbcbaaeef	-0.022788493
12	0xbcb4bc78	-0.022062525
13	0xbd09fb10	-0.033686697
14	0xbc8dd80e	-0.017314937
15	0xbc83ef7c	-0.016105406
16	0xbbf13858	-0.007361453
17	0x3bef80a3	0.007309036
18	0xbc955f6b	-0.018233975
19	0x3ba7ef09	0.0051249308
20	0xbc86f0a8	-0.016472176
21	0xbd04f661	-0.032461528
22	0xbcb47558	-0.02202861
23	0xbc83c55a	-0.016085315
24	0x3c0fefd1	0.008785204
25	0xbcba2786	-0.022723924
26	0xbcc1945e	-0.023630317
27	0xbcb1cc1f	-0.021703778
28	0x3d7d0656	0.06177362
29	0xbc17d05f	-0.009265988
30	0xbccbb8a0	-0.02486831
31	0x3c57738e	0.013150109

Const_5 f4 [32]
0	0xbe1c94f9	-0.15291204
1	0x3cb1c010	0.021698028
2	0xbe13d52c	-0.14436787
3	0xbc0cddd8	-0.008597814
4	0x3d64a6ff	0.055823322
5	0xbd5accef	-0.053418096
6	0xbcc0cf01	-0.023536207
7	0x3d620e4f	0.055189427
8	0x3ccdfe18	0.025145575
9	0x3df4df0e	0.11956607
10	0x3e0802f1	0.13282372
11	0xbe30a2c5	-0.17249592
12	0xbd988b64	-0.07448462
13	0xbcc066e2	-0.023486558
14	0xbd88969a	-0.0666935
15	0xbd07efbe	-0.03318762
16	0xbba9a2cb	-0.005176877
17	0xbd5c0b86	-0.053721927
18	0x3e469c42	0.19395545
19	0xbdc15a2f	-0.09441029
20	0xbde49e3a	-0.11162992
21	0xbd0f3915	-0.034966547
22	0x3d69abc6	0.05704858
23	0xbe2bb76c	-0.16769189
24	0xbced7c94	-0.028990068
25	0xbe00628d	-0.12537594
26	0x3e2799e4	0.16367298
27	0x3ddaeda3	0.10689857
28	0xbe21429c	-0.15748066
29	0x3af81a77	0.0018928786
30	0x3d9ea02f	0.07745396
31	0x3d97323b	0.073826276

Const_6 f4 [32]
0	0x3f7e0f09	0.9924169
1	0x3f815169	1.010297
2	0x3f853c9b	1.040912
3	0x3f9d875d	1.2306935
4	0x3f9d51ac	1.2290549
5	0x3f86e7be	1.0539472
6	0x3f7b848a	0.98249114
7	0x3f82b1f5	1.0210558
8	0x3f803d30	1.0018673
9	0x3fbd2175	1.4775835
10	0x3f88b926	1.0681503
11	0x3f84d8ef	1.0378703
12	0x3f79e5bc	0.9761617
13	0x3f86a3c0	1.0518723
14	0x3fa6f55a	1.3043625
15	0x3f755a7f	0.9584121
16	0x3f8d9561	1.1061212
17	0x3fa5ce50	1.2953587
18	0x3fa94045	1.3222739
19	0x3fb1de7f	1.3896025
20	0x3fa9742d	1.3238579
21	0x3f76278e	0.96154106
22	0x3f7bdd4c	0.9838455
23	0x3f7f5d53	0.99751776
24	0x3f85c0de	1.0449483
25	0x3f7f8b9a	0.9982239
26	0x3f8a123f	1.0786818
27	0x3f908f40	1.1293716
28	0x3f8ab5d7	1.0836743
29	0x3f843d13	1.0331138
30	0x3f831d65	1.0243345
31	0x3f84a3f3	1.0362533

Const_7 f4 [32]
0	0xbc693cc5	-0.01423568
1	0x3d102ac7	0.035197046
2	0x3cbfa69b	0.023394873
3	0x3e8586ad	0.26079312
4	0x3e841fd8	0.25805545
5	0x3d23e5ea	0.040014185
6	0xbca0935d	-0.019601518
7	0x3c3a0698	0.011354111
8	0x3be86834	0.0070925
9	0x3ec17793	0.3778654
10	0x3daeb037	0.08529704
11	0x3c889118	0.016670749
12	0xbcd0ea39	-0.025502311
13	0x3d4d929f	0.050188657
14	0x3e9668c4	0.29376805
15	0xbd0bb67e	-0.034109585
16	0x3d963d5f	0.07335924
17	0x3e95cbf6	0.29257172
18	0x3e9ac3bc	0.30227458
19	0x3eac04c4	0.33597386
20	0x3e9a859d	0.30180064
21	0xbcd9d0c7	-0.02658881
22	0xbcd41861	-0.025890531
23	0x3a862b71	0.0010236335
24	0x3d2698cc	0.040673062
25	0xbb878677	-0.0041359025
26	0x3d3aa2ea	0.045565523
27	0x3dbf1f48	0.09332138
28	0x3d5dfd48	0.054196626
29	0x3a9adeab	0.0011815628
30	0x3b82aa15	0.0039875605
31	0x3ca476e5	0.020076225

MatMul f4 [32, 1536]
0	0xbb29c401	-0.002590418
1	0xbc11b762	-0.0088938195
2	0xbb49a49a	-0.0030768276
3	0xbbd2a34e	-0.006428159
4	0xbca97b02	-0.020688538
5	0xbbc8fde0	-0.00613378
6	0xbccb9c85	-0.024854908
7	0xbc593dae	-0.0132593345
8	0x3d0a69a7	0.033792164
9	0x3c0f96c3	0.008763972
10	0x3c46552f	0.01210527
11	0xbc881910	-0.016613513
12	0xbc85f8fd	-0.016354078
13	0x3acafaff	0.001548618
14	0x3c7bbe5a	0.015365208
15	0x3c7aca4d	0.015307021
16	0xbbd75b8b	-0.006572192
17	0x3bfe337c	0.0077576023
18	0x3c405faf	0.011741563
19	0x3a2b4d11	0.0006534616
20	0xbb24a897	-0.0025124901
21	0xbbad1a71	-0.005282693
22	0xbcb23945	-0.021755824
23	0x3c195094	0.00935759
24	0xbbd2584d	-0.0064192177
25	0xbb1f18b1	-0.0024276192
26	0x3b6e6931	0.0036378617
27	0xbc632917	-0.013864777
28	0x3ce8de22	0.028426234
29	0x3cddac29	0.027059631
30	0xbcb9a50b	-0.022661706
31	0xbc17356d	-0.009229046
32	0x3bb3a927	0.005482811
33	0xbb070c4b	-0.0020606692
34	0x3b82b3f5	0.0039887377
35	0xbc11b7ad	-0.008893889
36	0xbb96d1c2	-0.004602642
37	0xbd151721	-0.03639901
38	0xbca912d9	-0.02063887
39	0x39eadfad	0.0004479861
40	0x3bdca5af	0.006733618
41	0x3d3be425	0.045871872
42	0xbb92eb68	-0.004483629
43	0xbcb1cf1e	-0.021705206
44	0xbab3f07a	-0.0013728284
45	0x3c1b6f97	0.009487054
46	0x3a898d21	0.001049433
47	0x3cd1cd05	0.025610456
48	0x3c33a455	0.010964473
49	0x3c415928	0.011801042
50	0xbc357a4b	-0.01107652
51	0xbab76776	-0.0013992626
52	0x3c809213	0.015694654
53	0xbce97bc5	-0.0285014
54	0xbbf81af5	-0.007571573
55	0xbc99ef0c	-0.018790744
56	0xbd0cf8a0	-0.034416795
57	0x3c57fb02	0.0131824035
58	0xbc128a50	-0.008944109
59	0xbb79fdfb	-0.003814577
60	0xbb7ab38a	-0.0038253986
61	0x3bd8a02d	0.0066108913
62	0xbd1d3b3d	-0.038386572
63	0x3bc99f18	0.0061529987
64	0xbc402f44	-0.011730019
65	0xbc0f7538	-0.0087559745
66	0xbc856e03	-0.01628781
67	0x3c0f2184	0.008736018
68	0xbb2c7b1f	-0.0026318503
69	0xbd0ac7ee	-0.033882074
70	0xbcaf8e09	-0.021430032
71	0xbb96842a	-0.004593392
72	0xbc722116	-0.014778396
73	0x3c360497	0.011109493
74	0xbb359d7d	-0.0027712279
75	0x3c3880a1	0.011261136
76	0xba0f6122	-0.0005469491
77	0x3c92742c	0.01787766
78	0xbb254c3b	-0.002522244
79	0xbcc09f1b	-0.023513367
80	0x3d0523fc	0.03250502
81	0x3cf75dce	0.030196097
82	0xbc3a83c4	-0.011383954
83	0xbce4e275	-0.027940014
84	0x3c2a9ba9	0.010413089
85	0x3ccc9ff3	0.024978613
86	0xbc888f8b	-0.01667001
87	0x3c0b02e5	0.008484577
88	0xbba21d57	-0.0049473452
89	0x3c1cb970	0.009565696
90	0xbc92ef62	-0.017936412
91	0x3c31b4f9	0.01084637
92	0x3cc247c0	0.023715854
93	0x3a9b0c01	0.0011829139
94	0xbd00ccd3	-0.031445336
95	0xbaa62f8a	-0.0012678963
96	0x3cd9e05a	0.026596237
97	0xbc85e22d	-0.0163432
98	0x3d2c005f	0.04199254
99	0xbd28e75d	-0.04123627
100	0xbca847d2	-0.02054206
101	0x3cd86125	0.02641351
102	0x3ae39a7b	0.0017364764
103	0x3ca6fad2	0.020383272
104	0x3c4ff39e	0.01269236
105	0xbb132af6	-0.0022456027
106	0x3b16b038	0.0022993218
107	0x3c5ed4fc	0.013600584
108	0xbb514c61	-0.0031936395
109	0xbcd28a05	-0.025700578
110	0xbcbe09a5	-0.023197958
111	0x3d1b6ca2	0.037945397
112	0xbc6dc6fa	-0.014512772
113	0x3ceee4e5	0.02916188
114	0xbc6b3760	-0.014356464
115	0xbc6aa447	-0.014321393
116	0x3cb8ad8d	0.022543693
117	0xbc305913	-0.010763424
118	0xbc6d80c0	-0.014496028
119	0x3c002c19	0.007823014
120	0xbce9dd47	-0.028547896
121	0x3b61ceb5	0.0034455482
122	0xbcaab35a	-0.020837475
123	0x3c0776dc	0.008268084
124	0x3c34453e	0.011002837
125	0x3b7931d6	0.003802409
126	0x3c92cea2	0.017920796
127	0xbbf0345f	-0.007330462
128	0x3b02d185	0.001996131
129	0x3c2cb705	0.010541682
130	0xbc0b4197	-0.008499525
131	0xbaf21a7b	-0.0018471027
132	0x3cb79c04	0.022413261
133	0x3c64c6d8	0.013963424
134	0xba235a63	-0.0006231425
135	0x3ce969aa	0.028492767
136	0x39eba968	0.0004494891
137	0x3c898774	0.016788222
138	0x3c9c91a9	0.019112425
139	0x3ae16559	0.0017196342
140	0xbc2329f9	-0.0099587375
141	0x3d2b99be	0.041894667
142	0xbcc49577	-0.023997052
143	0xbc683466	-0.014172649
144	0xbc656bd6	-0.014002761
145	0xbcdc2da4	-0.026877232
146	0xbc5fc891	-0.013658659
147	0x3d341027	0.043960717
148	0x3b002d5c	0.0019558286
149	0xbc8f0110	-0.017456561
150	0x3ca212b6	0.019784313
151	0xbc6ee5e2	-0.0145811755
152	0xbcdd4542	-0.027010564
153	0x3c357e9d	0.01107755
154	0xbccc92a4	-0.024972267
155	0xbc3d392d	-0.011549276
156	0x3b22cddc	0.002484194
157	0xbbfd0ce1	-0.0077224826
158	0xbd331b7e	-0.04372739
159	0x3b3afe09	0.0028532764
160	0xbb2591fe	-0.002526402
161	0x3c887976	0.01665948
162	0x3c1a3d72	0.009414064
163	0xbb02794c	-0.0019908724
164	0x3c94685b	0.018116167
165	0x3b8dde8d	0.0043295086
166	0x3d27b777	0.04094645
167	0xbc5d5f83	-0.013511541
168	0x3be2c2b6	0.006920184
169	0x3a58bafe	0.000826761
170	0x3bcea9fc	0.006306885
171	0xbc6b3f64	-0.014358375
172	0xbb36ce5f	-0.0027894003
173	0xbb8dbe81	-0.0043256884
174	0xbac428e3	-0.0014965798
175	0xbc858947	-0.01630081
176	0x3c8c3398	0.017114446
177	0xbc47950b	-0.012181531
178	0xb9249d63	-0.0001569889
179	0xbc4e4b2a	-0.012591163
180	0x3c067324	0.008206163
181	0x3c62f228	0.01385168
182	0xbd25c66f	-0.040472444
183	0xba2c7a60	-0.00065795146
184	0xbbb4743e	-0.005507021
185	0xbc64ded2	-0.01396914
186	0xbc282784	-0.0102633275
187	0x3c71a6be	0.014749227
188	0x3aeb5808	0.0017955313
189	0xbc90c733	-0.01767311
190	0xbc9c35c3	-0.019068604
191	0xbb329934	-0.002725196
192	0xbce8dceb	-0.028425654
193	0x3c8166ca	0.015796084
194	0x3c9a8bf2	0.01886556
195	0xbb963aff	-0.0045846696
196	0x3c9fdc39	0.01951419
197	0x3c70bc86	0.014693385
198	0xb976db3b	-0.00023542058
199	0x3d34d466	0.04414787
200	0x3ce81778	0.028331503
201	0x3c1667d1	0.009180025
202	0xb895536f	-7.1204144e-05
203	0x3cd5cb47	0.026097907
204	0x3ce97b21	0.028501095
205	0x3b93f399	0.004515123
206	0x3a70ceaa	0.0009186069
207	0x3cbe08b7	0.023197515
208	0xbce3a7f7	-0.027790053
209	0xbb9218b9	-0.0044585136
210	0xbab71233	-0.0013967216
211	0x3b1d6de2	0.0024021794
212	0x3caa0577	0.020754559
213	0xbc28cb2d	-0.010302347
214	0xbd00578d	-0.031333495
215	0x3c120c5c	0.0089140795
216	0xbc0cbd8f	-0.008590116
217	0xbb395496	-0.0028279177
218	0xbc03d0e0	-0.008045405
219	0x3c8cdf32	0.017196272
220	0xbc872dbe	-0.016501304
221	0x3c84835e	0.016175922
222	0xbcba441b	-0.022737553
223	0xbc101fc2	-0.008796634
224	0xbcd05450	-0.025430828
225	0xbcf3d5aa	-0.029764969
226	0xbca1ba5a	-0.01974218
227	0xbcbd44f2	-0.023104165
228	0xbbea2433	-0.0071454286
229	0x3b707eee	0.003669675
230	0x3b8d6ac4	0.004315706
231	0xbaea42a6	-0.0017872646
232	0xbc82ec91	-0.015981944
233	0xb9dc1f25	-0.00041984874
234	0x3d003a49	0.031305585
235	0xbc859f00	-0.016311169
236	0x3adc34cc	0.0016800403
237	0x3c88ec79	0.016714321
238	0x3c7c8598	0.015412711
239	0x3d4327b7	0.047645297
240	0x3b46ac05	0.0030314934
241	0xbcfaf3ef	-0.030633895
242	0xbc687610	-0.014188305
243	0x3d4342df	0.047671195
244	0xbbb0865b	-0.00538711
245	0xbd4301c9	-0.047609124
246	0x3ba7aba8	0.0051168986
247	0x3b1d7ad1	0.0024029503
248	0x3c9ab99f	0.01888734
249	0x3c144ba8	0.009051241
250	0x3c01291d	0.007883337
251	0xbbd299d4	-0.006427029
252	0xbc7aa1cb	-0.0152973635
253	0x3cb853e7	0.022500945
254	0xbcfa2d49	-0.030539172
255	0xbcc7a8ad	-0.024372423

MatMul_1 f4 [32, 32]
0	0xbe2965cb	-0.16542737
1	0xbc8bad3e	-0.017050382
2	0xbd87deeb	-0.06634315
3	0xbdae3a6d	-0.085072376
4	0x3e2b21aa	0.1671206
5	0xbdc33608	-0.0953179
6	0xbe22538e	-0.15852186
7	0xbdc193ed	-0.09452043
8	0x3e0d1cca	0.13780513
9	0x3dd0d002	0.10195924
10	0x3da59124	0.08084324
11	0xbc9af66f	-0.018916337
12	0x3d17a48c	0.03702216
13	0x3e293c63	0.16526942
14	0x3e1e4dbf	0.15459345
15	0x3de9b70b	0.11411866
16	0xbd6b4540	-0.05743909
17	0x3d99e2dd	0.07513974
18	0xbd4e9139	-0.050431464
19	0x3e0d7967	0.13815843
20	0x395165d1	0.00019969723
21	0x3e02be23	0.12767844
22	0xbc805c3f	-0.015668986
23	0x3e0e9f90	0.13928056
24	0xbdfc4089	-0.123169966
25	0xbe07afde	-0.13250682
26	0x3e0a8839	0.13528527
27	0x3ded97f9	0.11601252
28	0xbde3ce42	-0.11123325
29	0x3d887cbb	0.066644154
30	0xbdffeacf	-0.12495958
31	0x3e0d3707	0.13790523
32	0xbc4bfad9	-0.012449943
33	0xbe250393	-0.16114645
34	0x3d4ae2b6	0.049532615
35	0xbe325ac3	-0.17417435
36	0xbc25dfdd	-0.010124174
37	0x3d9492fe	0.07254599
38	0xbcca9913	-0.024731195
39	0xbe079325	-0.13239725
40	0xbdb0b127	-0.08627539
41	0xbd95e50f	-0.0731908
42	0xbd199e1d	-0.037504304
43	0xbd1112ee	-0.035418443
44	0xbdb5305e	-0.08847116
45	0xbcd57839	-0.026058303
46	0xbdbe0053	-0.092774056
47	0xbc7c2596	-0.015389821
48	0x3be03f69	0.0068434966
49	0x3d0a55b0	0.033773124
50	0xbda099b0	-0.078418136
51	0xbc7072f9	-0.014675849
52	0xbd9951a1	-0.074862726
53	0x3da63783	0.08116057
54	0x3dbc1878	0.091843545
55	0xbde8ac2a	-0.11360963
56	0x3e047f36	0.12939152
57	0xbdc007c3	-0.093764804
58	0x3d0c5001	0.034255985
59	0x3e397ef7	0.1811484
60	0x3e0637d6	0.13107237
61	0x3d91da94	0.071217686
62	0x3c8c8e92	0.017157827
63	0xbd187ca4	-0.03722824
64	0xbe1215a0	-0.14266062
65	0x3c91c27a	0.017792929
66	0xbdd068be	-0.10176228
67	0x3e32de57	0.17467628
68	0x3dbf794e	0.09349309
69	0xbdc8ddf0	-0.09807956
70	0xbd6741c8	-0.05645922
71	0x3e2e4b55	0.17020924
72	0xbc113f92	-0.008865254
73	0xbd9f7c22	-0.07787348
74	0xbcf794a0	-0.030222237
75	0xbda4d036	-0.080475256
76	0xbc6906d7	-0.014222822
77	0x3e06d738	0.13168037
78	0x3c3ca76e	0.011514528
79	0x3d782717	0.060584154
80	0x3e03975f	0.12850712
81	0x3e0b168e	0.13582823
82	0xbdd82f71	-0.10555924
83	0xbe35bf39	-0.17748727
84	0x3d74e242	0.05978609
85	0xbcedb0a8	-0.0290149
86	0x3d35c762	0.0443796
87	0xbd3e6bf5	-0.046489675
88	0x3dce82d4	0.10083547
89	0x3e17f176	0.14838204
90	0xbd161cea	-0.03664867
91	0xbd828386	-0.06372742
92	0x3ca7d957	0.020489378
93	0xbd526011	-0.051361147
94	0x3e138ab8	0.14408386
95	0x3db188a3	0.086686395
96	0x3dc98bbb	0.098411046
97	0x3b058fd4	0.0020379918
98	0x3e2acd89	0.16679968
99	0x3e299b00	0.16563034
100	0xbd6ac88f	-0.057320174
101	0x3e200821	0.15628101
102	0x3da3a286	0.07989983
103	0xbbb219c7	-0.005435202
104	0xbe092a97	-0.13395153
105	0xbbc3ca86	-0.0059750704
106	0x3e2ff732	0.17184141
107	0xbdb3d4eb	-0.08780845
108	0x3d5878c8	0.05284956
109	0x3e0af804	0.13571173
110	0xbcda226f	-0.026627747
111	0xbd0e789a	-0.034782983
112	0xbd5a7428	-0.05333343
113	0x3de70e1f	0.1128199
114	0xbd3df78b	-0.046378653
115	0x3e19fb03	0.1503716
116	0xbd1f6064	-0.038910285
117	0xbdc5bf85	-0.0965567
118	0x3e387b15	0.18015702
119	0xbc84304d	-0.016136313
120	0xbd06b0c5	-0.032883424
121	0x3e05154c	0.12996405
122	0xbd8aba02	-0.067737594
123	0x3c042671	0.008065806
124	0xbdf359c1	-0.118823536
125	0x3e320732	0.17385557
126	0x3d439a1a	0.047754385
127	0xbdd5292b	-0.10408243
128	0xbd8c0393	-0.06836619
129	0xbe15a065	-0.14611967
130	0xbdeb5a3d	-0.11491821
131	0x3e069168	0.13141406
132	0x3caff1d4	0.021477617
133	0xbd9818af	-0.07426583
134	0x3d2e589e	0.04256498
135	0xbe10e3cf	-0.14149402
136	0x3d1faa31	0.038980667
137	0x3e3b976d	0.18319483
138	0x3dbaf645	0.091290034
139	0x3df3436f	0.11878096
140	0x3d911528	0.07084113
141	0x3dce7cdc	0.10082409
142	0xbcdfb749	-0.027309077
143	0x3e2be789	0.16787542
144	0x3da1e4ba	0.07904954
145	0xbda11f8a	-0.07867344
146	0x3db1ec9b	0.08687707
147	0x3dbb89da	0.091571525
148	0xbd461a74	-0.04836507
149	0x3dc8bb5c	0.09801361
150	0x3d2520b8	0.040314406
151	0xbe1b3a8e	-0.15159056
152	0x3db65492	0.08902849
153	0x3dce0a7f	0.10060596
154	0x3e1aad3a	0.15105143
155	0x3b9eeadf	0.004849776
156	0xbe343299	-0.17597426
157	0x3da8715e	0.08224748
158	0xbd9ea601	-0.077465065
159	0xbd440c90	-0.047863543
160	0xbc82fc72	-0.015989516
161	0x3c75bbfe	0.014998434
162	0x3d42824d	0.047487546
163	0xbcded470	-0.027200907
164	0xbd523c6d	-0.051327158
165	0x3b92352d	0.0044619055
166	0xbc0e1687	-0.008672363
167	0x3e24dee2	0.16100648
168	0x3c9eed9b	0.019400408
169	0xbd8ae301	-0.06781579
170	0x3c3f9d51	0.011695222
171	0x3db6d8aa	0.08928044
172	0x3dea1d00	0.114313126
173	0xbcaada7b	-0.020856133
174	0x3d692586	0.05692055
175	0xbdc98e32	-0.09841575
176	0x3dba386b	0.09092792
177	0x3d23b241	0.039964918
178	0x3d1e28c7	0.038613107
179	0x3d3dfe6a	0.046385206
180	0x3d439ca4	0.047756806
181	0xbe0be416	-0.13661227
182	0x3e08d135	0.13361056
183	0xbe103c94	-0.14085609
184	0xbc8ed4b0	-0.017435402
185	0xbda2cccc	-0.07949218
186	0x3c7d63b2	0.015465664
187	0xbcc98bc6	-0.024602782
188	0x3d78097c	0.06055592
189	0xbe350b24	-0.17680031
190	0x3e527763	0.20553355
191	0x3c61217b	0.0137408925
192	0xbdd0b2c6	-0.10190348
193	0x3e338b1b	0.17533533
194	0xbdfc307a	-0.12313934
195	0xbe0473ee	-0.12934849
196	0x3e187c82	0.14891246
197	0xbe0a2aa8	-0.13492835
198	0x3e2fd548	0.17171204
199	0x3e3d3199	0.18475951
200	0x3e46a536	0.1939896
201	0x3ded3383	0.11582091
202	0xbe291b68	-0.16514361
203	0x3dc7f912	0.09764303
204	0xbd7f3721	-0.062308434
205	0xbd9bf16b	-0.07614406
206	0xbddf784e	-0.10911618
207	0xbbb6fb0b	-0.005584126
208	0x3e24b247	0.16083632
209	0xbdacd3b7	-0.08438819
210	0xbd5a04e5	-0.053227324
211	0xbd6a003e	-0.057129137
212	0x3d414b74	0.0471911
213	0x3e30ba89	0.17258658
214	0xbdaef8ce	-0.085435495
215	0xbd6dace3	-0.058026206
216	0xbdd24e25	-0.10268811
217	0x3db9507a	0.09048553
218	0x3e19e689	0.15029348
219	0xbd5f3878	-0.054497212
220	0xbd948c0e	-0.07253276
221	0x3e00b9c1	0.1257086
222	0x3bf05f8f	0.00733561
223	0xbcce1ac6	-0.025159251
224	0xbda2ebe5	-0.079551496
225	0x3d8a1579	0.06742377
226	0xbdd262b3	-0.10272732
227	0x3c7ff3d9	0.015622103
228	0x3dbf00f6	0.09326355
229	0x3cbd7400	0.023126602
230	0x3dc9ea2c	0.09859118
231	0x3e089505	0.13338096
232	0x3c97e5b8	0.018542156
233	0x3cef82ee	0.029237237
234	0xbd9d7500	-0.076883316
235	0x3da3f170	0.08005035
236	0x3dffc988	0.12489611
237	0x3db88621	0.09009958
238	0x3e29b7ff	0.16574095
239	0xbe089aa0	-0.13340235
240	0xbd44c4ca	-0.048039235
241	0xbd757fc2	-0.059936292
242	0x3e263685	0.16231735
243	0xbdd1d57d	-0.10245798
244	0xbce0bfaf	-0.027435152
245	0xbb392d00	-0.0028255582
246	0xbc584a11	-0.013201253
247	0x3e1a1dc1	0.15050413
248	0xbe389e40	-0.18029118
249	0x3d573112	0.05253703
250	0xbd60cca5	-0.054882664
251	0x3da2d8e4	0.07951525
252	0xbcbf66d0	-0.023364455
253	0x3d8591b2	0.0652193
254	0x3e4e393f	0.20139025
255	0x3e16210d	0.14661045

MatMul_2 f4 [1, 32]
0	0x3de94117	0.11389368
1	0xbcb9ca9e	-0.022679623
2	0x3db822a8	0.08990985
3	0xbeb71846	-0.35760707
4	0xbebdf4aa	-0.37100726
5	0x3dc38f55	0.09548823
6	0xbcf4fa48	-0.0299045
7	0x3e08a732	0.1334503
8	0xbc5c87e6	-0.013460135
9	0xbec6511a	-0.3873375
10	0xbdeafcbf	-0.11473989
11	0x3e173b49	0.14768709
12	0x3e112b87	0.1417676
13	0x3e5fe98c	0.21866435
14	0xbea4fb8a	-0.3222316
15	0x3c2b2cd2	0.010447698
16	0x3e169778	0.14706218
17	0xbea5398f	-0.32270476
18	0xbea7ec37	-0.32797405
19	0xbea42f60	-0.32067394
20	0xbea9f49b	-0.33194432
21	0xbe0c35d5	-0.1369241
22	0xbd0c49e3	-0.03425015
23	0xbc622aeb	-0.013804178
24	0x3e4b34d0	0.19844365
25	0x3de8dedb	0.11370631
26	0x3e0a56cf	0.13509677
27	0x3e77ee61	0.24212028
28	0x3e268b7b	0.16264145
29	0x3df4980f	0.119430654
30	0x3e196195	0.14978631
31	0x3ccdf7d0	0.02514258
