wkey/openwakeword_models/tflite/hey_llama.tflite (tflite, 206748 bytes, 9 tensors)

Const_1 f4 [32]
000000 2d ae f0 bb ae 3b 6f 3a c3 19 c6 3c c1 b9 d5 bc
       -0.007344982 0.00091260194 0.024182206 -0.02608955
000010 49 75 e7 bb 01 52 86 3c 0b 15 3d 3c e0 5a 29 3c
       -0.007063542 0.016396524 0.011540662 0.010336608
000020 be e8 48 3c ba 86 51 3a c4 a2 bc 3b 30 73 88 3c
       0.012262521 0.0007992793 0.005756708 0.016656488
000030 27 15 97 3b 30 05 82 bb 8f 29 9f bc 09 b6 10 3c
       0.004610676 -0.0039679036 -0.019428996 0.008832463
000040 e1 6f 4c 3c ed be 21 3c cc 65 3f 3c fd 40 c5 3c
       0.012477846 0.00987218 0.011681985 0.02407884
000050 d3 8f 85 3b f5 8a b1 3c 0e e5 82 bc 01 9e 38 bc
       0.004075983 0.021672705 -0.015978362 -0.01126814
000060 96 87 90 3c b1 c6 00 bb 73 bd 66 bc bc 3a 54 3c
       0.017642777 -0.001964968 -0.014083254 0.0129534565
000070 79 d7 a3 3c b5 c3 43 bc 55 50 f2 3c b4 07 1a 3c
       0.020000206 -0.011948516 0.02957932 0.009401251

Const_2 f4 [32]
000000 60 40 83 3f 2b f6 79 3f f6 15 76 3f bf d7 7b 3f
       1.0254021 0.9764125 0.9612726 0.9837608
000010 0f a2 87 3f c4 ca 7c 3f b8 a5 7b 3f 6b 33 81 3f
       1.0596331 0.98746896 0.9829974 1.0093817
000020 99 74 78 3f dd d3 7c 3f 4b 3f 7d 3f 3d 11 73 3f
       0.97052914 0.9876078 0.989247 0.9494818
000030 2d b6 80 3f e0 ca 74 3f 96 4d 7b 3f 20 9d 79 3f
       1.0055596 0.9562206 0.9816526 0.9750538
000040 f4 3a 7a 3f d2 62 7f 3f 2b ce 7b 3f 9c d8 80 3f
       0.97746205 0.9976016 0.9836146 1.0066104
000050 c9 10 7e 3f 16 2d 7e 3f 7a 72 85 3f 49 9b 70 3f
       0.9924436 0.99287546 1.042556 0.93986946
000060 1a d8 7b 3f a1 45 81 3f ea 9e 7a 3f ce 77 7c 3f
       0.9837662 1.0099374 0.97898734 0.9862031
000070 c0 30 7b 3f bd 3d 81 3f f1 fa 73 3f e9 2e 82 3f
       0.9812126 1.0096966 0.9530478 1.0170566

Const_3 f4 [32]
000000 eb 38 b0 3c ba f2 c8 bc 8b 66 37 bc 5e 8d 8e bc
       0.021511516 -0.024529804 -0.011193882 -0.017401394
000010 ff d5 34 3c df 65 a0 bc 2a 58 8f bc 00 2f 7c bc
       0.011037349 -0.019579826 -0.017498095 -0.015392065
000020 09 40 98 bb 17 8c 6a bc b3 c2 9b bc dc b4 dc 3b
       -0.0046463055 -0.014315627 -0.019013738 0.0067354273
000030 80 2c 8b bc f6 69 17 bb 23 97 8c bc a4 18 a4 bc
       -0.016988993 -0.002310393 -0.017161911 -0.02003128
000040 9a e2 df bc 1e 9b cd bb a5 1e 60 bc 48 7e bd 3b
       -0.027329732 -0.006274595 -0.013679181 0.005782876
000050 6e 2c f5 bb f2 34 3b bc 1b 12 6a bc e5 14 06 39
       -0.007482103 -0.011426197 -0.014286543 0.0001278702
000060 6a 93 62 bc 87 a4 df 3b 1b f2 46 3c 33 7c 7c bc
       -0.013829092 0.006825033 0.012142683 -0.015410471
000070 43 6a 8a bc 7c 9b b8 bb 69 dd 04 3d 15 c8 38 3c
       -0.016896373 -0.0056337696 0.032437716 0.011278172

Const_5 f4 [32]
000000 5d 0c 34 3e 88 cd a2 3d 46 d5 21 be 43 89 e1 bd
       0.17582841 0.07949358 -0.15804014 -0.11012509
000010 39 ad 2a be ca 2a b9 3d 7a c1 c9 3d 52 6a 96 bd
       -0.16667642 0.090413645 0.09851356 -0.07344498
000020 c9 1c 1e bd b5 a6 26 3e e8 2e 86 3d ef a6 da bd
       -0.03860167 0.16274531 0.065519154 -0.10676371
000030 59 a5 9d 3d ee 86 bc 3d b0 4c 2d be 5a e7 01 3e
       0.07697553 0.09205423 -0.16923785 0.1268591
000040 2f 28 fa bd 07 9e 0f bc bd 18 2c 3e 54 6b 2e be
       -0.12214696 -0.008765704 0.16806312 -0.1703313
000050 a3 3b 08 be af db 63 bd b6 fc 9e bc 77 f1 ff 3d
       -0.13304 -0.05562943 -0.019407611 0.12497228
000060 b6 8b 98 bc 48 34 21 be a2 5c 84 3d 83 2f a2 3d
       -0.018621307 -0.157426 0.06462981 0.079192184
000070 88 77 02 be 05 19 92 bc 54 41 6e bd 8d 4c 09 bd
       -0.1274091 -0.017834196 -0.05816777 -0.03352027

Const_6 f4 [32]
000000 b2 b5 82 3f 23 15 a3 3f 68 82 6c 3f f2 0a 88 3f
       1.0211699 1.2740825 0.92386484 1.062834
000010 e4 75 73 3f f1 03 84 3f 7b b4 79 3f 64 a9 84 3f
       0.9510176 1.0313703 0.97541016 1.0364194
000020 5f 8d 80 3f a5 43 9a 3f a3 cc 8a 3f 6e 35 89 3f
       1.0043143 1.2051893 1.08437 1.071943
000030 98 11 80 3f df 61 a6 3f 89 3b b1 3f 48 92 83 3f
       1.0005369 1.2998618 1.3846294 1.0279016
000040 aa 73 84 3f 63 25 84 3f 73 dc 80 3f 36 62 7d 3f
       1.0347798 1.032391 1.0067276 0.98977983
000050 40 e2 9a 3f c6 50 9e 3f ac 02 89 3f e2 1c 9a 3f
       1.2100296 1.23684 1.070394 1.2040064
000060 92 bf 98 3f a3 8e 86 3f 9b ea a3 3f 59 c2 a4 3f
       1.1933463 1.0512279 1.2805971 1.287181
000070 26 a8 8a 3f 37 39 7f 3f 7d c0 81 3f 73 a8 9e 3f
       1.0832565 0.9969668 1.0136868 1.2395157

Const_7 f4 [32]
000000 87 11 8d 3c 15 8a 7c 3e 02 d0 8a bd 9b 84 17 3d
       0.017220272 0.24662049 -0.067779556 0.036991697
000010 67 3d 38 bd 80 26 82 3c 88 3f f7 bc 00 c1 d0 3c
       -0.044980433 0.015887499 -0.030181661 0.025482655
000020 aa 0d b1 3b 7a f9 60 3e 37 6a 13 3d d4 d3 7a 3d
       0.00540324 0.21970168 0.035989966 0.06123717
000030 df 05 62 3a 3e f8 85 3e d0 27 93 3e 5a f4 09 3d
       0.00086220907 0.26165956 0.28741312 0.033680297
000040 a3 32 0c 3d 8c 53 06 3d 27 9e 13 3c 2f aa 35 bc
       0.03422798 0.03279452 0.009009874 -0.011087938
000050 41 37 62 3e 9c 99 71 3e a3 75 50 3d 71 93 61 3e
       0.2209139 0.23593754 0.050893437 0.220289
000060 92 e2 5f 3e d6 e4 bb 3c cc be 80 3e f4 55 81 3e
       0.21863773 0.022936266 0.25145566 0.2526089
000070 d1 51 88 3d 4a 52 d9 bb c0 71 b0 3c 0c 72 76 3e
       0.0665623 -0.006632124 0.021538615 0.24066943

MatMul f4 [32, 1536]
000000 a4 6e 87 3c 2c 94 2b 3d 6b 34 f5 3c 9b bd 5d 38
       0.01653225 0.041889355 0.029932221 5.286709e-05
000010 05 a2 6f 3d 76 55 87 bb d9 1c db 3c cc e4 45 bc
       0.058504123 -0.004130061 0.026747154 -0.012078475
000020 02 89 5f bb 0d e9 40 bc 7a c5 e0 bb 99 74 df bc
       -0.0034108763 -0.011774314 -0.0068594785 -0.027277278
000030 64 cc dd 3c 5a 30 88 bc c4 f8 da 3b 29 8e 1c bc
       0.027075 -0.016624618 0.006682487 -0.009555378
000040 8f 7f 7b bb ca 86 84 bc 9a 47 5b bc f3 07 36 3c
       -0.0038375591 -0.016177554 -0.01338377 0.011110294
000050 a3 0d b7 3c c9 41 f4 3b 68 e8 90 3b bc fe de 3b
       0.02234537 0.0074541313 0.0044222362 0.006805269
000060 ad 9f 15 3d 43 7f 68 3d 9f 0b 9f 3a 16 03 b2 bb
       0.03652923 0.05676199 0.0012134201 -0.005432497
000070 ee e8 24 3d 5a ab 66 3c 06 32 82 bc de bc 0c 3c
       0.0402612 0.014078939 -0.015892994 0.008589951
000080 4e e2 da 3c 95 30 9b bd dc 17 28 ba 9b 4e 4f 3d
       0.026719239 -0.07577626 -0.0006412247 0.050612073
000090 f8 5a 4d bc 37 85 33 3c cb a8 79 3d 2e bc cf 3b
       -0.012533896 0.010957054 0.06095199 0.0063395714
0000a0 55 7a a2 bd 5e f9 6f 3d e5 9f 8f bc 5a 71 d0 3c
       -0.07933489 0.058587424 -0.017532298 0.025444675
0000b0 49 84 9a ba d7 81 fd bb cb 3c 88 bc ec 0a 39 bc
       -0.0011788692 -0.0077364254 -0.01663055 -0.011294108
0000c0 be 6f 50 bc 2e 07 13 3d 5b 80 d1 bc 3a 25 3b bd
       -0.012721954 0.03589552 -0.0255739 -0.0456898
0000d0 a0 54 79 bd b7 e3 a8 3b d8 2f bc 3a 36 2d 94 bc
       -0.06087172 0.005154099 0.001435752 -0.018087965
0000e0 14 a4 1c 3d ce c2 75 bc 87 2a a4 3c 11 b7 18 3d
       0.038242415 -0.015000058 0.02003981 0.03728396
0000f0 07 dd 41 bc 32 43 96 bc df e9 1b bd 3e d3 a3 bc
       -0.011832482 -0.018342588 -0.038064834 -0.019998189
000100 64 69 a1 bb 1c fc d0 bb 92 1d 42 3d d0 d6 6d 3c
       -0.0049258936 -0.00637771 0.04739148 0.014516547
000110 2b ea e1 3b 74 93 d2 3c e7 e5 62 bc 74 93 2a bd
       0.00689437 0.025705077 -0.013848758 -0.04164453
000120 41 5b 7b 3d c3 de 69 bc 0a 30 4d 3c da 5d 69 3d
       0.061366323 -0.014274302 0.01252366 0.05697427
000130 3a 84 6a 3b 2f 0f 01 bc 96 dc 14 3c f7 3a 4b 3c
       0.003578438 -0.007877155 0.009085795 0.012404195
000140 16 a6 ab 3c b1 bf 76 bc f2 e4 d2 3b 41 93 14 3d
       0.02095322 -0.015060351 0.006435984 0.036273245
000150 9d f5 d9 3a 54 a0 1e bd 8d 2a 34 bd 1b 88 8b bd
       0.0016628985 -0.03872712 -0.043985892 -0.068130694
000160 87 c6 04 3c a0 c0 c4 bc 7c 33 1e bc 4d 59 e2 bc
       0.008103973 -0.024017632 -0.0096558295 -0.027630473
000170 39 01 fb 3c be d6 b1 3a 2c 5d fe 3c 39 0e b7 3c
       0.030640231 0.0013568026 0.031050287 0.02234565
000180 c9 28 1e 3d 42 a9 33 3c ba a1 ea 3c 76 f8 d3 bc
       0.038613115 0.010965647 0.02864157 -0.025875311
000190 49 21 17 3d 6b 7d 16 bc 32 9f b3 3b 7d 4f 43 bd
       0.036896978 -0.009185175 0.005481624 -0.047683228
0001a0 30 b3 00 3b 8f 4e 84 bc 08 f9 f6 3c 54 3d 3a 3b
       0.0019638054 -0.01615074 0.030148044 0.0028417902
0001b0 2f 2b 2a ba 45 3d 3c 3b ff 70 57 3d 89 6c b5 bb
       -0.000649142 0.0028723043 0.052597996 -0.00553662
0001c0 3c 1a 4a 3b 84 e1 80 3a 7e 06 c3 3c ac 88 78 bb
       0.003083839 0.0009832834 0.023806807 -0.003792326
0001d0 b2 97 8b 3c ab c8 79 bc 36 5c f5 3b bc 1c a5 bb
       0.017040107 -0.015245597 0.007487799 -0.005038826
0001e0 17 94 02 bd a4 f6 52 3d 7e fa b6 bc 3e 8c 4d 3d
       -0.03187951 0.051504746 -0.02233624 0.050182573
0001f0 91 cb 26 3d 26 de 4e bd be 1b b9 bc fe 9b ba bc
       0.04072148 -0.050504826 -0.022596236 -0.022779461
000200 a1 8f 68 3c a0 e5 06 bc 15 12 84 bd 14 1b 04 3d
       0.0141944 -0.008233458 -0.064487614 0.032252386
000210 23 6c 34 bb 5f b0 d2 3c bf 09 72 3d ad c2 2a bc
       -0.0027530275 0.025718866 0.059091326 -0.010422391
000220 7b 08 ea bb 76 c1 2a 3b 76 9d e9 bc 26 f1 f9 3c
       -0.007142124 0.0026055253 -0.028517466 0.030510496
000230 70 58 91 3b d2 69 53 bb 1f 67 d4 bc 3e 4e ac bc
       0.0044355914 -0.0032259119 -0.025928078 -0.021033403
000240 55 ee 02 3c ad 6b 09 3d 47 cb 3c bc 26 1f c4 3b
       0.007991393 0.033549953 -0.0115230745 0.0059851585
000250 1e 79 47 bd 97 d1 2e 3d 5e d5 55 3c 24 19 22 bd
       -0.04869949 0.04268035 0.013051359 -0.039574757
000260 ac 6d 21 3d d7 08 eb bc 8f e6 54 bb e0 c0 c4 bc
       0.039411232 -0.028690739 -0.0032486056 -0.024017751
000270 c2 50 2b bd 66 d1 dd bc 66 51 00 bd 5b e6 8c bc
       -0.041825064 -0.027077388 -0.031327628 -0.017199686
000280 69 f9 3f 3c 5d 47 57 bc 12 8e 50 3c c9 da e8 3c
       0.011717179 -0.013139573 0.012729185 0.028424637
000290 23 49 51 bd 69 e3 3f 3d 0d 49 3e 3c 5d 4e e0 bc
       -0.05109514 0.046847735 0.011614096 -0.027381117
0002a0 3c 08 6b 3d ca 8a e7 3b 69 3f 0a 3c 8a 74 50 3d
       0.0573809 0.0070661055 0.00843797 0.05089239
0002b0 4a fa 87 3d bb b2 19 bd dc 63 24 3d cc 31 c6 3c
       0.06639536 -0.037523966 0.040134296 0.024193667
0002c0 f3 b7 0c 3b d1 d4 2e bd 72 81 81 bc 86 08 5b 3c
       0.0021471947 -0.042683426 -0.015808795 0.013368731
0002d0 48 01 a2 bc 57 59 1e 3d 48 d5 16 bd b3 c5 19 bd
       -0.019776002 0.03865942 -0.036824495 -0.037542056
0002e0 50 66 e1 39 a6 43 13 3c 56 a3 13 bc a0 ca d2 bb
       0.00042991573 0.008988297 -0.00901111 -0.006432846
0002f0 93 0e 34 3c 16 72 31 3c 52 f2 99 3c 19 62 a3 3b
       0.010989803 0.010830423 0.018792305 0.0049860594
000300 fa 23 85 3b 4f 0e 88 3c 34 a9 00 3c 9f 64 17 bd
       0.0040631266 0.016608385 0.007852841 -0.036961194
000310 88 04 00 3d 78 ae 24 3c ef 2b d2 bb 25 90 1a 3a
       0.03125432 0.010051362 -0.0064139287 0.0005896113
000320 0d 72 90 bc 17 37 8c 3c a8 05 aa 3c b1 4f 1a 3c
       -0.017632509 0.017116113 0.02075465 0.009418414
000330 92 54 c5 bc 37 68 ad bb 59 50 22 bb df 80 18 bc
       -0.024088178 -0.0052919644 -0.002476713 -0.009308069
000340 69 31 f5 bc 6b 52 c6 3c 01 ac bc bc 2a ea f9 bc
       -0.029930787 0.024209222 -0.023031237 -0.030507166
000350 37 99 ae 3c aa a9 06 bc 67 f5 4b bc aa f3 ad 3c
       0.021313293 -0.008219162 -0.012448645 0.021234352
000360 f8 61 d8 bb 7c 4b 0b bc bd 9d c1 bc ff b7 74 3b
       -0.0066034757 -0.008501884 -0.023634786 0.0037341116
000370 42 5e e3 3c 1d 40 56 bc 30 58 32 3c d7 12 2b 3a
       0.027754907 -0.013076809 0.010885283 0.00065259397
000380 7d c8 88 3a 56 fe 86 3c 98 a4 8a bc 72 ad af 3c
       0.0010435727 0.016478699 -0.016924188 0.02144501
000390 34 01 ec bc 92 6a e1 ba 58 8c 10 bd 9a a3 fd bc
       -0.028809167 -0.0017197898 -0.035290092 -0.0309618
0003a0 8a 8a 56 bc a8 38 a4 3c 2b 5c 94 bc fa 49 30 3c
       -0.013094554 0.020046547 -0.018110355 0.010759825
0003b0 1e e0 a1 bc ae 2e 2d bc 99 68 72 bb 8e 6d 88 3c
       -0.019760188 -0.010570211 -0.0036988615 0.016653802
0003c0 75 db 04 bc 6e 29 05 bb 4a af d1 3c c0 f0 56 bc
       -0.008108963 -0.0020318883 0.02559628 -0.013118923
0003d0 5c b8 24 bd 03 4b 78 3d 90 a1 bd 3c cf ca 28 bb
       -0.04021488 0.06061841 0.023148328 -0.002575565
0003e0 59 26 28 3d a3 e1 cd bc cf e5 0a ba 6e fe 16 bc
       0.041052196 -0.025132006 -0.00052985264 -0.009215934
0003f0 33 78 04 3d db 21 8e bd 69 ce b1 bb 49 56 e9 bc
       0.032341193 -0.06940051 -0.0054262173 -0.028483527

MatMul_1 f4 [32, 32]
000000 cd 8c 0a 3d 75 ec 77 3d 2f fd 63 3c 91 87 e6 3d
       0.033825684 0.060528237 0.013915344 0.11256326
000010 68 ef a0 bd e2 69 9d 3d c2 4d 04 be 8c 23 f9 bd
       -0.07858163 0.07686211 -0.12920287 -0.12164983
000020 f4 3f 28 3e 5e 64 1c 3e 6e 7f e8 bd 71 04 1e be
       0.16430646 0.15272662 -0.1135243 -0.15431382
000030 cd 4b 10 3e 37 4a 28 3e 2b 98 e2 3d f9 b2 f0 bd
       0.14091416 0.1643456 0.1106418 -0.11752886
000040 bd 30 45 3d 03 44 85 3d 86 f6 40 3e b5 63 a8 bd
       0.048142184 0.06507113 0.18844041 -0.082221426
000050 85 b4 25 3e 40 e5 db bc a9 1b 4f 3c 57 89 b3 bd
       0.16182144 -0.026842713 0.012640872 -0.0876643
000060 48 f5 55 3d 82 10 90 bd c1 90 2c 3e 21 2e 88 bd
       0.05223587 -0.070343986 0.16852094 -0.066494234
000070 06 de 1b be 92 f6 e3 3d d3 fe 8c ba 59 0b 57 bd
       -0.15221414 0.11131014 -0.0010757096 -0.052501056
000080 aa d6 51 3d 2f 05 29 3d 54 13 20 3e cc c3 c2 bd
       0.05123011 0.04126471 0.15632373 -0.095100015
000090 a1 3b f6 3d 1d 67 77 3d 7b a3 f6 bd 79 9a 3f be
       0.12023092 0.06040107 -0.120429 -0.1871127
0000a0 1a d9 b8 bd 3a 98 02 bd 8b ce 06 3e a2 ba a2 3d
       -0.09025784 -0.031883456 0.13164727 0.07945754
0000b0 e8 c9 27 be 98 18 a0 bd 9d 32 e9 3c 17 af 88 3d
       -0.16385615 -0.07817191 0.028466517 0.06674021
0000c0 ba 43 e3 3d 7b 20 d8 3d 58 d1 10 3d 30 b6 90 bc
       0.11096902 0.1055307 0.035355896 -0.017664999
0000d0 ac 21 89 bc b8 23 19 3e 6a 59 24 be 1c 76 22 3e
       -0.016739689 0.14955032 -0.16049734 0.15865368
0000e0 3b 78 f1 3c 0a 05 7e bb 52 af fc 3d e0 65 25 be
       0.029476276 -0.0038760328 0.12338127 -0.16152143
0000f0 de 7c 83 3d e8 0c 48 bd 0e ab 16 be a6 9f ef 3c
       0.06420301 -0.048840433 -0.1471369 0.029250931
000100 94 f7 2f 3e dd bd af bd 31 c3 f5 bd e1 c6 03 3e
       0.17184287 -0.085811354 -0.120001204 0.12868835
000110 ef 72 47 3c 2f 7c c0 bd 10 58 61 bd 65 c2 23 3e
       0.012173398 -0.09398686 -0.055015624 0.15992124
000120 1d 2a 8b bd fa 88 18 be c2 da c9 bd b0 5b 2e 3d
       -0.06795142 -0.14896002 -0.09856178 0.04256791
000130 f8 6e 49 bd cf 1a b9 bc 86 c4 c5 3c 3f f8 80 bd
       -0.049178094 -0.022595791 0.024141561 -0.06297349
000140 c3 a9 ea bd 77 c2 f4 3d 6e cd 1d be 2e dc b8 bc
       -0.11458161 0.11951154 -0.15410396 -0.022565927
000150 0f 5f 98 bd a2 71 c2 bd b8 d0 80 3d 88 17 83 3d
       -0.07440006 -0.0949433 0.0628981 0.064009726
000160 c0 99 1c be 5d 66 24 3e f3 69 d1 3d 46 ef 13 be
       -0.15293026 0.16054673 0.10225286 -0.14446744
000170 c7 a5 bd bd 91 c6 5d 3b 34 6e b2 bd d7 35 18 be
       -0.09260135 0.0033840279 -0.08712426 -0.14864288
000180 a0 e5 d3 3d 73 c8 f0 3c 54 eb 17 3d 7d 6f d6 bd
       0.10346532 0.029392457 0.03708966 -0.104704835
000190 65 5b 3f be d9 60 0d 3e 13 7f 16 3e 85 c5 b2 3d
       -0.18687208 0.13806476 0.14696912 0.0872908
0001a0 c4 3a be bc 5f 16 fc bd f6 c3 31 3e e3 86 11 3e
       -0.023221381 -0.123089544 0.1735991 0.14211611
0001b0 10 8e 76 3c 2b 86 08 be f9 93 6e 3c fd 93 e3 bd
       0.015048519 -0.13332431 0.014561647 -0.11112211
0001c0 a3 78 3a 3e be 88 af 3d ae cf 2a bc 6a 70 d4 bd
       0.18210082 0.085710034 -0.010425491 -0.10373004
0001d0 b3 ae ef bd 65 71 a4 3d 0b 08 55 3e d3 c7 80 3c
       -0.11703243 0.08029441 0.2080385 0.015720284
0001e0 0b 0a d3 3c d1 b5 03 3d f4 cd 0e 3e 73 92 e7 3d
       0.025761625 0.032155816 0.13945752 0.1130723
0001f0 dd 7e ec bc f4 89 92 bd 25 0b 3b bd 19 e2 e2 3d
       -0.028869087 -0.07155219 -0.045664925 0.11078281
000200 2d 33 db 3d ec a0 03 bd ae c9 3d bd cf 31 1c 3d
       0.107031204 -0.03213589 -0.046334915 0.03813344
000210 29 1e 43 bd 09 84 eb bc c5 c1 0e be 74 65 8e bd
       -0.047636185 -0.028749483 -0.13941105 -0.069529444
000220 8c 32 23 be 39 0a 82 bd be ac c7 bb f0 13 be 3d
       -0.15937251 -0.06349606 -0.0060935905 0.092811465
000230 b2 de 8c 3c 90 e6 92 3d e5 e8 e6 3d 3f 67 71 bd
       0.017196033 0.071728826 0.1127489 -0.058936354
000240 e7 67 ed 3d bb 62 b5 bd 0d 77 26 3d 9f fe 28 be
       0.115920834 -0.08856722 0.04064088 -0.1650338
000250 e3 a2 58 3d 84 67 9f 3d d7 8b ac bd a7 81 01 bb
       0.052889716 0.07783416 -0.0842511 -0.0019761117
000260 a6 47 17 3e ae 7e 1b 3d 20 00 ad 3d dd 24 8c bd
       0.14773425 0.037962608 0.084472895 -0.068429686
000270 34 fd c0 3d ad e1 b1 bc 32 1d fd 3d 58 b2 a8 bd
       0.09423295 -0.021714056 0.12359084 -0.08237141
000280 e4 0e 0d 3e 91 69 14 3d 7a 2d f3 bd a3 f3 f7 bd
       0.13775212 0.03623349 -0.11873908 -0.12107017
000290 16 0a 83 bd 60 75 a5 bd 08 f2 d4 bd 49 5a 0e be
       -0.06398408 -0.08079028 -0.10397726 -0.13901629
0002a0 dd ce dd bd ba ab fd bd d3 cf 22 3e 7a c6 b1 3d
       -0.10830472 -0.1238627 0.15899591 0.086804345
0002b0 1f 01 24 3e 7a b1 57 3c dc 56 83 bd 7a 69 64 3c
       0.16016053 0.013164872 -0.064130515 0.013941163
0002c0 9e 03 69 3d b8 1e da bd 9a 29 a8 bd 5a 3e d9 3d
       0.056888215 -0.106503904 -0.0821106 0.10607596
0002d0 f0 b3 99 bd 0c ee 10 be 2b 08 cd 3b 3e 06 af bd
       -0.075050235 -0.14153308 0.006257077 -0.085461125
0002e0 05 63 89 bd 1a d1 85 3d 07 6d ab bd 71 de 23 be
       -0.067083396 0.065340236 -0.08370405 -0.16002823
0002f0 59 d3 88 bd a2 bd 07 3e 3b ba 1a be 4a 61 f8 bd
       -0.06680936 0.13255933 -0.15110104 -0.121279314
000300 a5 f6 b0 bd 1e 0b 22 3e 25 b2 4b bd f6 0c 1d 3c
       -0.08640794 0.15824553 -0.04973044 0.00958561
000310 6c a3 e7 3d 81 93 7d bd 9a 95 b1 bd 8c 85 8b bd
       0.11310467 -0.06190825 -0.08671112 -0.068125814
000320 f3 f8 81 3c d7 73 7f 3d 96 56 34 bd b7 4e fb 3c
       0.015865779 0.062366333 -0.044027887 0.030677183
000330 e9 3a 2c be ca 3c 30 3d ec 1d d3 bc 72 31 c2 bd
       -0.16819347 0.043026723 -0.025771104 -0.09482087
000340 97 3c 0e be 79 ed 18 be f5 50 93 3d db 64 61 3d
       -0.138903 -0.14934339 0.07193176 0.055027824
000350 a2 e2 bd 3d 33 fe 85 3d 8c e0 99 bd 30 7f e4 3d
       0.092717424 0.06542625 -0.07513532 0.111570716
000360 e8 9e db 3c 9c 60 04 be bc 67 f9 bd 69 05 05 3e
       0.02680917 -0.12927479 -0.12177989 0.12990345
000370 3d 13 b8 bd 76 cd 6b 3d d0 e0 bd bd f1 6f 46 be
       -0.089880444 0.05756899 -0.09271395 -0.1937864
000380 67 e9 46 bd 34 41 96 bd a7 d8 d8 bd 1c 58 a6 bb
       -0.048562434 -0.07336655 -0.10588198 -0.0050764214
000390 d9 06 38 bd 3b e4 e9 3d 44 25 c3 3d 3a 6f d2 3d
       -0.044928405 0.11420485 0.09528592 0.10275121
0003a0 02 5d af 3d 3f 86 f9 3d 7e 99 48 3d 73 17 26 3d
       0.08562662 0.121838085 0.048974507 0.040549707
0003b0 50 1c 18 bd 40 c8 1a be a3 d0 66 3d e8 f7 5b 3d
       -0.037136376 -0.15115452 0.056351315 0.05370322
0003c0 74 b5 28 3e 96 42 68 3c 73 cb 63 3d bf 64 c9 3d
       0.16475469 0.014176032 0.055613946 0.09833669
0003d0 af b9 ac 3d a5 91 24 bd c9 d7 11 3e f7 05 fa 3d
       0.08433854 -0.04017796 0.14242472 0.12208169
0003e0 ae dd 23 bd 2f b7 bb bd 2c 6f 1a 3e 0e eb 26 be
       -0.040006332 -0.09165799 0.15081471 -0.16300604
0003f0 4e f7 43 3e 4a 0e 94 bd 38 8c c2 3d 4c 5b 28 be
       0.19137308 -0.07229288 0.09499401 -0.16441077

MatMul_2 f4 [1, 32]
000000 df ca 44 3e 78 36 9f be 2e 55 4e bb 27 fc 33 3d
       0.19218014 -0.31096244 -0.0031483877 0.043941643
000010 15 3c b3 bd a0 29 f5 3d ed 39 83 3d 73 0d 1e 3e
       -0.08751694 0.1197083 0.06407533 0.15434818
000020 ff 3b 0c bd 81 c5 b1 be a1 90 63 3e a6 69 12 3e
       -0.034236904 -0.34720996 0.2222314 0.14298114
000030 28 f7 f2 bc a1 8d 99 be 77 92 b1 be b7 52 84 3d
       -0.029658869 -0.29990867 -0.34682056 0.06461089
000040 25 bc fe 3c e5 23 f0 3d 73 e1 38 3e 12 39 de 3d
       0.031095574 0.11725596 0.18054752 0.10850729
000050 fa 0d a9 be 83 97 a4 be 0a 5d 44 3e 25 80 a7 be
       -0.33018476 -0.32146844 0.19176117 -0.32714954
000060 f6 db a7 be dd 24 68 3d 6e 36 a4 be 74 3a a4 be
       -0.32785004 0.05667578 -0.32072777 -0.32075846
000070 45 6f 94 3d ad f1 26 bd f8 10 57 3d ce 1a a9 be
       0.072477855 -0.040757824 0.052506417 -0.33028263
