wkey/openwakeword_models/tflite/hey_computer7.tflite (tflite, 860700 bytes, 9 tensors)

Const_1 f4 [128]
00000000: 4312 1c3c 0e70 263c e42f a13c 0e7f 173b
00000010: 2584 6a3b c5ca 803c 6848 ce3c dd4d 373b
00000020: c17c 613c bce1 47ba d756 39bc 32be 513c
00000030: bc84 bf3c b18a 9e3c c830 b73c e739 44ba
00000040: dae6 1ebc 71e9 c43c 6107 b03c 8221 9fba
00000050: d0ff 2cbc 28b5 3c3c 960b 34bc ed1f 0f3c
00000060: 29df d5bc 57f2 c8bc d1e3 86bc 3658 f4bb
00000070: 9395 663c a05d 933c ef22 c43c 4d8f c03b
00000080: a573 9fbc 16d8 18bc 713e cd3c 8949 cd3c
00000090: 095c e73b 4110 b5b9 4c25 b8bb 06dc cf3c
000000a0: 3223 01bc 697c babc 6749 75bc 5918 0cbc
000000b0: 14c7 16bc 6ddf 943c 1ac1 9abc 9f26 bfbc
000000c0: e8d1 94bc b1a8 103c 35f3 c83c 49fd 6bbc
000000d0: 9b01 4bbc 2114 e23c f008 7ebc 5177 93bc
000000e0: b950 c23c e547 9f3c d6b0 943b 5d5b d2bb
000000f0: d3de 1dbc 4484 8ebb 55ed 30bc 158a 4fbc
00000100: c541 5bbc 5126 a53b 9845 8a3c e191 773b
00000110: 0e6d d5b8 5700 783b 1e14 cf3c 745c b63a
00000120: c61b a63c 26ec c93c ba34 a93c 1374 023d
00000130: fc29 a8bc 5095 53bc 9d57 bcbb efb0 daba
00000140: c944 bc3c 40a2 863b 956e c2bc be47 04bc
00000150: fec9 75bc 16a1 d6ba 2f45 9d3c 178c a3bc
00000160: 256d ce3b 899b 933c b23a 4b3c ad0a ec3b
00000170: 52ef 8a3c a49f c13a e44b 873c 6f37 cbbc
00000180: 056b 59ba 7d54 2e3c babd 3bbb 6a4c 0b3c
00000190: 0f28 9b3c 3f13 583c ba72 21bc c109 4c3c
000001a0: 2017 86bc 0879 cd3b 9b8d 57bc 1892 c93c
000001b0: c3cd 1fbc a7a3 c9bc d8ed 063b d4ca cf3c
000001c0: 001a 293b 701f 2ebc 8c15 d1bc 8929 033d
000001d0: 4f33 cdbc c4e5 a83c b46c a73c 8c5c 003d
000001e0: 216a c13c dd7d 95bc b960 88bc b2f0 5cbc
000001f0: 9472 7fbc 5245 c83b e03b d73c d6c0 93bc
0.009525838 0.010158552 0.019676156 0.0023116502 0.003578433 0.015721688 0.02518101 0.0027969994
0.013762654 -0.00076248846 -0.011312208 0.012801694 0.023378722 0.019353243 0.022362128 -0.0007485435
-0.009698594 0.024037095 0.021487894 -0.0012140723 -0.010559037 0.0115178 -0.01098909 0.008735639
-0.026107388 -0.02452962 -0.016466053 -0.0074568046 0.014073747 0.01798898 0.023942439 0.005876458
-0.019464323 -0.009328863 0.025054188 0.025059478 0.007060532 -0.0003453512 -0.0056196805 0.02537347
-0.007881926 -0.022764402 -0.014971114 -0.008550727 -0.009202737 0.018172944 -0.018890906 -0.023333846
-0.018166497 0.008829282 0.024530033 -0.01440365 -0.0123905195 0.027597489 -0.015505061 -0.01800123
0.023720132 0.019443462 0.004537682 -0.0064195828 -0.009635645 -0.0043492634 -0.010798772 -0.012667199
-0.01338238 0.005039968 0.016878888 0.003777616 -0.000101769445 0.0037842 0.025278147 0.0013913051
0.020276915 0.024648737 0.020655025 0.03184898 -0.020527832 -0.012914017 -0.005747749 -0.001668481
0.022982018 0.004108697 -0.02373437 -0.008073745 -0.015001772 -0.0016374912 0.019198028 -0.019964261
0.006299632 0.0180185 0.012404131 0.007203421 0.01695982 0.0014772308 0.01651568 -0.024806706
-0.000829384 0.010640261 -0.0028647021 0.008502105 0.01894 0.013188182 -0.009854013 0.012453497
-0.016368449 0.0062705316 -0.01315632 0.024605796 -0.009753647 -0.024614168 0.0020588543 0.02536527
0.002580285 -0.0106276125 -0.02552297 0.032022033 -0.02504888 0.020617373 0.020437576 0.03133826
0.023610177 -0.018248493 -0.016647683 -0.013485121 -0.015591282 0.0061117793 0.026273668 -0.018036287

Const_2 f4 [128]
00000000: ab5a 7b3f 6ded 853f d75a 7c3f fadc 7b3f
00000010: 2080 7d3f 2c19 7c3f ef9d 7c3f 31ac 7a3f
00000020: 78cb 7c3f 96ec 7e3f 7b73 803f c3a5 7c3f
00000030: 304a 7c3f 84bb 7e3f 04e7 7c3f 9068 7a3f
00000040: baf4 7d3f 6087 7e3f 8e03 7e3f 249b 7b3f
00000050: 0503 7b3f cee7 7e3f 9401 833f 51d1 823f
00000060: e0c8 8d3f 3952 803f 3e45 7e3f 2b7b 813f
00000070: f05d 7f3f 41e7 7a3f fe0e 843f cf12 833f
00000080: 8a08 813f fc19 7e3f ffb9 7a3f 20cf 843f
00000090: 1fbe 7a3f c722 793f bf51 7e3f 53e7 7d3f
000000a0: 08f6 7b3f de83 803f 4c6a 7e3f fea8 7d3f
000000b0: 00d3 863f 0225 7a3f 7318 7f3f 1042 833f
000000c0: 6468 7b3f 33e8 7c3f db40 803f b73b 7b3f
000000d0: abdb 803f 46e9 803f 4e00 873f f964 7e3f
000000e0: e0bf 7d3f a260 843f 9c05 7e3f 7183 7f3f
000000f0: a27a 7d3f 026b 853f 05ec 803f 8ad9 7f3f
00000100: 7ad2 793f 506d 7a3f 6236 783f f027 7e3f
00000110: c564 7b3f e4b0 7d3f ace6 783f 9364 833f
00000120: ea36 7f3f c268 7a3f c2a8 783f fa37 803f
00000130: 5aeb 803f 2d8e 7f3f ae6b 7c3f 6ad7 7e3f
00000140: a0f0 823f b363 7f3f 209c 7d3f c3f5 7d3f
00000150: c259 7e3f c62b 7c3f 595f 7c3f 9c89 7e3f
00000160: 32b6 7c3f a869 7e3f af1a 7f3f 8adb 7c3f
00000170: d61e 823f 3cd3 7d3f 48ed 7a3f 596c 883f
00000180: 7a77 803f 35a2 813f 1471 823f 03c7 7c3f
00000190: 34b6 7a3f df17 7e3f 59ff 7c3f ad19 7f3f
000001a0: 1857 853f 3556 843f f13e 7b3f 7c30 7f3f
000001b0: 11e4 813f ce1d 823f 0000 803f 2a3a 793f
000001c0: bb7e 823f 4498 7d3f d417 7b3f e898 7f3f
000001d0: c1bd 833f 40ec 813f cba3 823f 3e82 803f
000001e0: fa5b 7d3f 62a7 7a3f 2050 7b3f aae6 7c3f
000001f0: 36da 7e3f 021a 7c3f 6efd 7a3f 1e64 823f
0.98185223 1.0463082 0.9857611 0.9838406 0.9902363 0.9847591 0.9867849 0.97918993
0.9874797 0.9957975 1.0035242 0.9869043 0.985507 0.99504876 0.9879 0.978158
0.9920155 0.99425316 0.99224174 0.982836 0.9805148 0.99572456 1.0234857 1.0220128
1.1076927 1.0025092 0.99324405 1.0115713 0.9975271 0.98009115 1.0317075 1.0240115
1.0080731 0.992584 0.9794006 1.037571 0.9794635 0.9731869 0.99343485 0.991811
0.9842229 1.0040243 0.99380946 0.99085987 1.0533142 0.9771272 0.9964668 1.0254536
0.9820616 0.9879181 1.0019792 0.9813799 1.0067037 1.0071189 1.0546968 0.9937282
0.99120903 1.034199 0.9922731 0.9980994 0.9901525 1.0423281 1.0072027 0.99941313
0.97586787 0.9782305 0.9695798 0.9927969 0.9820064 0.9909804 0.9722698 1.0265068
0.9969317 0.978161 0.97132504 1.0017083 1.0071824 0.9982632 0.98601806 0.99547446
1.0229683 0.99761504 0.9906635 0.9920313 0.9935571 0.9850429 0.9858299 0.99428725
0.9871551 0.9937997 0.9965009 0.9877249 1.016566 0.99150443 0.9801831 1.0658065
1.0036461 1.0127627 1.0190759 0.9874117 0.9793427 0.99255174 0.9882713 0.99648553
1.0417204 1.0338808 0.98142916 0.99683356 1.0147725 1.0165346 1.0 0.97354376
1.0194925 0.99060464 0.98083234 0.9984269 1.0292283 1.0150223 1.0206236 1.0039747
0.9896847 0.97911656 0.98169136 0.98789465 0.99551713 0.98477185 0.98042953 1.0186803

Const_3 f4 [128]
00000000: cb54 d5ba ee84 d03b a727 5abc fe6d 76bc
00000010: a661 72bc 3a9f 73bc 7ee3 7abc 4ef0 c4ba
00000020: 56de 78bc d46e 42bc 94b3 9f39 bf30 1fbc
00000030: cbbb b6bc e1c3 91bb 4ede e3bb 5b88 2fbc
00000040: 06f1 13bc 1bf2 32bc 6a88 35bb b32a 64bc
00000050: c30f 3abc 530b 0cba 2bb0 1a3b 9528 833b
00000060: 9ef0 383b 0587 c33b 165e 94bc 48aa 133c
00000070: 5e32 29bc 701f 75bc d6f6 e139 5d78 3e3c
00000080: 5275 6bbb d394 12ba 6b03 87bc baaa dd3b
00000090: eb88 39bc ead5 4dbc 54c3 ed3b 8787 3cbc
000000a0: 2cc7 a5bb fafe 2dbc 11c2 33bc c7b9 133a
000000b0: fcdd bd3b d921 8f3b ead3 51bc 1d36 af3c
000000c0: b579 88bc 0c1c 3eba 46d4 00bb ee56 53bc
000000d0: 2a9d a33b d998 8339 cf64 ba3b 4865 dcba
000000e0: 5cf5 52bb 8402 8e3b ea04 47bc 3add c7ba
000000f0: 745e 7cbc d0f3 f63b 7adf e2bb 9961 7dbb
00000100: 4896 32bc ce24 47ba 7e64 acbc 7712 353a
00000110: 2007 87bc 30ce f739 4491 eabb e5da e53b
00000120: dbbe 99bb b51e 64bc c5eb d3bc e826 d73b
00000130: 29d9 acbb 2747 083c 0474 babc c79b 31bb
00000140: 1667 f23b 96e7 1fba 7e90 d9bb d26e 25bc
00000150: af0b 0cbc 1e5e 20bc 542b 74bc 7879 1fba
00000160: e75e 083b a2c0 e5ba f29e 3c3b edae b23b
00000170: b2cb 043c f4d1 cd3b 13a9 07bc e1f9 8cbb
00000180: faf2 b63a 5594 8b3b 493a f13b fa4b 88ba
00000190: 93f2 2bbb 5e32 d0bb b247 77bc 144e 87bb
000001a0: e656 23bc d4a0 b93b 3815 08bc 03d5 633a
000001b0: 5c24 f43b 6b7c 353c 6b02 e93a 1bbf b5bc
000001c0: fece 483c d203 c4b8 fe53 99bc 0d97 033b
000001d0: 4a3e ee39 d183 533c 94e2 c43b 6cbb 6eba
000001e0: a912 2fbc d019 80bc 1616 58bc 4026 eeba
000001f0: 2428 54ba 449e 9dbb 7830 80bc 0b58 fc3b
-0.0016275881 0.0063635027 -0.013315118 -0.015040873 -0.014793789 -0.014869506 -0.015313027 -0.001502523
-0.015189728 -0.011867244 0.0003046064 -0.009716212 -0.022306344 -0.0044483994 -0.006953991 -0.010713662
-0.009029632 -0.01092198 -0.0027699717 -0.013926196 -0.011356297 -0.00053422636 0.002360354 0.0040026405
0.002821959 0.0059670233 -0.01811127 0.009012766 -0.01032695 -0.014961109 0.0004309925 0.0116253765
-0.0035928083 -0.00055916345 -0.016481122 0.006764737 -0.011324148 -0.012563208 0.007255951 -0.011506922
-0.0050591435 -0.010619873 -0.010971562 0.0005635288 0.005794285 0.0043680486 -0.012806872 0.021388108
-0.016659597 -0.0007252104 -0.0019657775 -0.012899144 0.0049931007 0.00025100147 0.005688287 -0.0016814852
-0.0032189703 0.004333796 -0.012147168 -0.0015248426 -0.015403379 0.007536389 -0.006923613 -0.003866291
-0.010900088 -0.0007596732 -0.021044012 0.00069073535 -0.01648289 0.00047265133 -0.0071584303 0.0070146197
-0.004691941 -0.013923337 -0.02586926 0.0065659173 -0.005274911 0.008317745 -0.022760399 -0.0027100907
0.0073975427 -0.00060998776 -0.0066395393 -0.010097222 -0.008547707 -0.009788064 -0.014902908 -0.0006083469
0.002080852 -0.0017528723 0.0028781262 0.0054529817 0.008105205 0.006281132 -0.0082800565 -0.004302249
0.0013957911 0.004259626 0.0073616845 -0.0010398619 -0.0026237115 -0.0063536605 -0.015092777 -0.0041291807
-0.009969449 0.005664924 -0.00830584 0.0008691104 0.0074506234 0.011077027 0.001777721 -0.022185853
0.012256382 -9.34672e-05 -0.018716808 0.0020079047 0.00045441306 0.012909845 0.0060084555 -0.00091069075
-0.010685601 -0.015637308 -0.013188859 -0.0018169358 -0.00080931396 -0.0048101265 -0.015648112 0.007700925

Const_5 f4 [128]
00000000: 0871 08bd 6147 4f3d 6813 edbc fd65 43bd
00000010: b90d 323c f774 313d 1432 133c 4259 b03d
00000020: 1e8f 94bd d74e 85bd 8973 233d 34fd a1bd
00000030: beda 02bb 5f6b 95bd 3a02 b63d 4760 a23d
00000040: b022 603d f789 1c3d 91b3 843c a5f6 9fbd
00000050: f8b8 06bd b363 fb3c 3b73 7a3c 6719 9c3d
00000060: 7edf 9bbd bd1b 90bd e60d 473d 8c5d 533d
00000070: 11c1 db3c b774 1f3d f605 bc3b 1af9 5bbc
00000080: e88c a9bb dc2d 25bd 5532 a63a eb0d 283d
00000090: 8159 e43c c8e4 92bb 5b80 893d d667 a03d
000000a0: 2251 73bd 8102 d23c 5dbf 21bd 8221 9c3d
000000b0: d985 dfbc ac87 ffbc f78d 663d f663 ac3c
000000c0: f87f 1a3d 8e0c f5bc 0cd6 2d3d aaa3 8c3d
000000d0: 84af bb3a 4282 103d 1504 6c3c 8b5a 2fbc
000000e0: db32 bfbb 211d 1cb9 eca3 ab3c 84a1 233c
000000f0: 6876 1e3d 61a6 09bd aaaa 8c3d a7f1 8fbd
00000100: cad3 44bd dacc 323d 41ef f13c 1c72 bf3b
00000110: 13f3 fd3b 14a1 933c 406c 843d 5790 ac3d
00000120: a590 533d d2b1 aebd 889b 9cbd 6cb9 e0bb
00000130: ac7f 5f3d 8a61 d33c aed3 c2ba 722e 303d
00000140: ee0f 273d 1646 4d3b 238c 3d3d 612b b7bc
00000150: 9b95 8d3d 101b 833d 57af a43d 59cc 52bd
00000160: 3cfc 953b 5f6e 9fbb 6bbe 5dbd 096a 1d3b
00000170: 9c67 4cbd 9c0f adbd 8830 983c 812d f6bc
00000180: 6311 903d b65e 463d 1a36 9abd 0b9b ac3c
00000190: 696a bd3d b9d4 b4bd 20bc 63bb e0f1 7e3d
000001a0: b0e8 16bc 0eca a83d dbb4 89bd c42f 41bd
000001b0: eab8 193c 7467 3a3d 31b8 24bc 89a5 9abd
000001c0: 0486 1ebd 45df 39bd bfe4 7d3d fae5 56bd
000001d0: 51b6 28bc 0f57 b43c 5f5c 7dbd 9166 8cbd
000001e0: 7143 193c 448c 80bc 2def bcbd 7ac8 9bbb
000001f0: f702 e7bc 0682 5f3d 1521 a7bd 0a0b a63d
-0.03331092 0.05060518 -0.028939918 -0.047704685 0.01086753 0.043324437 0.0089841075 0.086107746
-0.0725386 -0.06509178 0.039905105 -0.07909623 -0.0019966806 -0.0729587 0.088871434 0.0792852
0.05472058 0.03821751 0.016198905 -0.078107156 -0.032891244 0.030687189 0.015286262 0.076220326
-0.07610987 -0.07036541 0.04859724 0.051602885 0.02682546 0.038929667 0.0057380153 -0.01342609
-0.005174268 -0.040326938 0.0012679795 0.0410289 0.02787471 -0.0044828393 0.06713935 0.07832305
-0.059403546 0.02563596 -0.03948914 0.076235786 -0.027285503 -0.031192623 0.056287732 0.021043759
0.037719697 -0.029913213 0.04244046 0.06867154 0.0014319276 0.035280474 0.01440527 -0.0107027395
-0.00583492 -0.0001488817 0.020952187 0.009987239 0.03868714 -0.033605937 0.06868489 -0.070285134
-0.04805354 0.043652393 0.02953303 0.0058424603 0.007749924 0.018021144 0.064659595 0.08425968
0.051651616 -0.0853001 -0.07646853 -0.0068580415 0.054565117 0.025803346 -0.0014864111 0.043013044
0.040786676 0.0031322292 0.046276223 -0.022359552 0.069133006 0.06401646 0.08041256 -0.051464412
0.004577188 -0.004865452 -0.054136675 0.00240195 -0.049903497 -0.08450243 0.018577829 -0.030050995
0.07034566 0.048430167 -0.0752985 0.021070024 0.09248812 -0.08829636 -0.0034749582 0.06224239
-0.00921075 0.08241664 -0.067239486 -0.047164693 0.009382466 0.045508817 -0.01005368 -0.075511046
-0.038702026 -0.045378942 0.061985727 -0.052465416 -0.010297374 0.022014169 -0.06185567 -0.068555005
0.009354458 -0.015691884 -0.09225307 -0.0047541233 -0.028199656 0.05456736 -0.08160607 0.08107574

Const_6 f4 [128]
00000000: 926f 8d3f e6ea 953f 102d 813f c630 863f
00000010: 3646 853f 6f5c 933f 0d7b 833f cb02 813f
00000020: 371c 893f 5406 803f 2c15 893f e796 893f
00000030: e9ba 8d3f 9773 873f 67e4 903f ead4 8c3f
00000040: afd2 8c3f 6a7c 863f 63d6 953f 5476 7d3f
00000050: 4d1d 7d3f 597d 8b3f 4c3e 823f 4a30 8e3f
00000060: fe7c 873f a69d 8d3f 1fb7 873f 8f9f 893f
00000070: 5a12 813f cbd2 883f 1a42 823f a7ea 7d3f
00000080: 6fe3 853f a5be 813f 9c29 853f c1d0 8d3f
00000090: 123d 8a3f 3162 893f f1fd 7f3f a728 853f
000000a0: 137c 823f 433d 8e3f 35c9 8f3f 5e6b 8c3f
000000b0: 8d40 843f b985 7d3f 5ea5 8c3f 9b07 923f
000000c0: 3fe2 843f 6229 6f3f acfc 7e3f 4c72 8e3f
000000d0: ce9d 8c3f 6b5a 833f 3f15 803f bc0a 913f
000000e0: 4858 8d3f 3986 853f e6ac 7f3f 1a0c 873f
000000f0: 82ef 8d3f 9651 8b3f c869 763f d103 813f
00000100: f273 8c3f b67a 8a3f 1e0e 853f f63d 833f
00000110: f557 843f 5b07 803f 73a9 8c3f 6e1f 7c3f
00000120: 5e1d 903f c229 8a3f aef4 913f 6f02 8b3f
00000130: cddf 823f 9f2c 833f adf2 883f ed84 713f
00000140: 1b15 833f 4ff2 883f aa0b 823f de6a 833f
00000150: d426 863f ec88 823f 2b82 813f 0f88 8f3f
00000160: 5512 913f 558c 843f 0e17 883f ab17 933f
00000170: a403 863f 4aaa 843f 6edf 8a3f 1829 903f
00000180: f251 883f f738 893f 910d 853f 0954 8a3f
00000190: 2736 8e3f 92cb 8e3f a57d 8d3f c317 843f
000001a0: aaa4 893f 981a 893f a1c3 8c3f b4d3 8f3f
000001b0: 9b57 8b3f 1810 7f3f 84b9 8b3f 25f8 8f3f
000001c0: 539d 803f 10ec 783f 7441 853f 6c8e 8b3f
000001d0: 0142 803f 04cd 823f f063 833f dcc5 953f
000001e0: a97f 843f 6547 863f 3827 893f 3810 883f
000001f0: 7f8e 8b3f 29a5 843f 72aa 833f 4e2f 883f
1.1049674 1.171231 1.0091877 1.0483634 1.0412052 1.1512583 1.0271927 1.0078977
1.0711735 1.0001931 1.0709586 1.0749177 1.1072665 1.058215 1.1319703 1.1002476
1.1001796 1.0506718 1.1706051 0.9900868 0.98872834 1.0897628 1.0175261 1.1108487
1.058502 1.1063735 1.0602759 1.0751818 1.0083725 1.0689329 1.0176423 0.99186176
1.0460032 1.0136305 1.0403323 1.1079332 1.0799887 1.0733091 0.9999686 1.0403031
1.0194114 1.1112446 1.1233279 1.0970266 1.0332199 0.9903217 1.0987966 1.1408571
1.0381545 0.9342252 0.99604297 1.1128631 1.0985658 1.0261968 1.0006484 1.1331401
1.1042566 1.0431587 0.998732 1.0550568 1.1088717 1.0884273 0.9625516 1.007929
1.0972884 1.0818698 1.0394933 1.0253284 1.0339342 1.0002245 1.0989212 0.9848546
1.1258962 1.0793993 1.1402795 1.0860118 1.0224549 1.0247992 1.0699059 0.94343454
1.0240816 1.0698947 1.015981 1.0266988 1.0480599 1.0198035 1.0117849 1.1213397
1.133372 1.0355326 1.0632036 1.1491598 1.0469861 1.0364468 1.0849435 1.1262541
1.0650008 1.0720509 1.0394765 1.0806895 1.1110276 1.1155875 1.1053969 1.0319752
1.0753376 1.0711241 1.0997201 1.1236482 1.088611 0.9963393 1.091599 1.1247603
1.0048012 0.972352 1.04106 1.0902839 1.0020143 1.0218816 1.0264874 1.1701007
1.0351459 1.0490538 1.0715094 1.062995 1.0902861 1.0362903 1.0286391 1.0639436

Const_7 f4 [128]
00000000: 2f32 9c3d 51cd d73d f194 cc3b 8d04 9b3c
00000010: 58d4 5b3c 4ab2 ba3d f672 283c c08d 813b
00000020: 1070 833d 5ea2 ceba 0983 cb3c 8cdd 0c3d
00000030: 8641 9e3d 010c 8e3c 12d0 843d 6195 a73d
00000040: d657 ba3d f573 333c 58ac 7c3d 34d0 6cbc
00000050: 9ab7 75bc bf2a 9d3d 76f2 053c 622e a13d
00000060: aec6 313c a54d c63b 2793 1a3d e47c 0b3c
00000070: 4e64 bd3b 4eed 173d 7367 413c 82e5 10bc
00000080: d4d4 853b 38c4 a83c ea17 973c 8089 a53d
00000090: bcfe 223d 6046 ab3c a135 e5bb 7715 823c
000000a0: e8a5 4d3d 1ae8 ab3d f555 4f3d 8149 da3c
000000b0: 6c37 503c 72c4 6dbc ebc1 a53d 98df b13d
000000c0: b828 cd3c 1945 72bd 82c1 86bc 6671 273d
000000d0: 7327 b63d 6b36 aa3b 5caa f0bb bc7d c63d
000000e0: 3059 a83d 526d c23c 5997 5bbc 18d2 223d
000000f0: de79 ad3d 5757 323d a543 45bd 67ef 0839
00000100: 30cc 473d 9131 e33c 958f b93c 4d3f 0d3c
00000110: b485 853c 8fb0 a1b9 83ae 923d 2159 a5bc
00000120: eb1b f13c a732 063d c427 ca3d 7710 9f3d
00000130: 9300 043c 4bb2 883c 0dc9 3b3d 900d 63bd
00000140: a585 ae3c ddc3 723d e3a2 873c b99f 093c
00000150: a9a4 c93c fb0d ba3b c67c 983c 7ef4 bd3d
00000160: b6c0 a53d 9cb1 f33c f5de 9d3c 28d1 c43d
00000170: efe8 d93c d7ba a43c c629 9e3d 6afd a93d
00000180: 2566 963d f499 603c 8442 8e3c e254 9b3d
00000190: a5dc b03d 76fe c13d 4736 9a3d 1877 0f3c
000001a0: ccee 933d 532c ad3d 2222 a33d 8f9a e13c
000001b0: f599 813d 0540 7dba c890 a13d b119 b03d
000001c0: dc41 a33a 6d3b d7bc da9a d43c 4a7c 993d
000001d0: 8c9e 1abc d4a0 953b 6b76 663c 0532 d53c
000001e0: 0296 263c f177 e23c c2cc c53c d154 da3c
000001f0: c681 a83d c0f0 823c f00b f23b c4b7 b73c
0.07626759 0.10537208 0.006243341 0.018923068 0.013417326 0.09116037 0.010281315 0.0039536655
0.064178586 -0.0015764942 0.024842756 0.03439097 0.07727341 0.017339708 0.06484999 0.08182789
0.090987846 0.010952939 0.061687797 -0.014453936 -0.014997387 0.07674169 0.008175483 0.07870175
0.010850592 0.0060517364 0.03773799 0.008513663 0.0057797795 0.037091546 0.011804449 -0.008843781
0.004084209 0.020601377 0.01844402 0.08082867 0.039793715 0.02090758 -0.0069949185 0.015879376
0.05020705 0.08393879 0.050619084 0.026646378 0.012708526 -0.014512168 0.080936275 0.08685225
0.02504383 -0.059147928 -0.016449694 0.04087963 0.08894243 0.0051944754 -0.007344527 0.09691951
0.08220136 0.023733769 -0.013402783 0.039751142 0.0847051 0.043540325 -0.048160214 0.00013059155
0.048778713 0.027733596 0.022651473 0.008621049 0.016299106 -0.0003083986 0.07162192 -0.020184102
0.029432258 0.03276315 0.09870866 0.07766812 0.0080567775 0.01668658 0.045846034 -0.055432856
0.021303961 0.05926882 0.016557163 0.008399897 0.024614649 0.005677936 0.018614184 0.09275149
0.08093397 0.029747777 0.019271353 0.09610206 0.02660033 0.020108623 0.077228114 0.08300288
0.07343701 0.01370858 0.017365701 0.075845495 0.086358346 0.09472363 0.07529884 0.0087564215
0.07223281 0.0845572 0.07965495 0.02753952 0.06328193 -0.0009660724 0.07888943 0.0859865
0.0012455541 -0.026273454 0.025952745 0.074944094 -0.009437215 0.0045662913 0.014066319 0.026024828
0.010167601 0.027645083 0.024145488 0.026651772 0.08227877 0.01598394 0.007386677 0.022426493

MatMul f4 [128, 1536]
00000000: 98ae e9bc 24a1 2cbc 43bf 7e3c ed91 19bd
00000010: 64ef d33b 0a50 b6bc 34b3 4b35 cdaf 1abc
00000020: 7c45 79bc d24b ccbb 59d9 913c 0814 9f3c
00000030: 2057 173c 0046 57bc f959 e43c 55b5 073c
00000040: 37f1 8c39 122b 5d3c 0bd1 78bb 624c bfbc
00000050: eb5f b23c 325d 0f3c 6200 05bd c4d2 67bc
00000060: 6ad9 12bc d615 87ba add0 d1bc ef9b 243c
00000070: 9a2d 30bc 3190 2e3d d437 3f3c 6230 0b3c
00000080: f69e 24bc 8b2c b73b 1232 2339 e7e7 103c
00000090: c463 f63a b6a2 8c3c f963 943c a4b5 a83c
000000a0: a8cb 2bbc 944c 32bb 7f83 9a3c dff7 e6bc
000000b0: 7e1b e6ba 025d 903c 0560 aebc c77f 233c
000000c0: 5d73 0d3c be76 e3bc de84 87bc 2413 983c
000000d0: db2d 633c 67b4 77bc c0db 71bc 8176 19bc
000000e0: 7f64 1a3c 2885 ce3b 9dd5 093c 624e 363c
000000f0: 4aa4 f93b 2f19 523c 7156 e93c c961 cb3b
00000100: c441 933c ec16 9f3c 878a f53c c36d eabb
00000110: 69e8 213c 0d9f 573c 0a88 e8bc 1e50 e43c
00000120: 021b 69bc 75a8 04bc 5081 30bc e821 14bd
00000130: 96d8 87bc 93a3 d6bb fe47 003c 8b88 043c
00000140: b0e1 253c 55bd 843b cc5a 8a3c 05fd d2ba
00000150: ad2a ad3c 6220 af3c 6917 a1bb 57bc 9c3c
00000160: 121a 3e3c 113a 77bc f1c2 3b3c ff56 d63b
00000170: 1bfb f6bb cbb5 f4bb 9560 e43c f24a b4bb
00000180: 2ffe dbbc d1d2 2cbc 5383 7b3c 3144 003c
00000190: a847 ef3b 5bcf 81bc 362d 85bc b77a 873b
000001a0: f6d2 ac3c a554 91bc d92e aebc 05b3 8a3c
000001b0: 721b c7bb b0fb 5f3c 23fe 64bc 84da 1f3c
000001c0: 50f4 093b 368d 1f39 099d d8bb 9b0e 95bb
000001d0: bade 03ba a533 543c 827d c33b 4762 e0bc
000001e0: e1b7 863c 1418 2c3c b187 3cbb cee7 303c
000001f0: 7efc d0bb 2895 4c3c 7131 0cbc c8c6 bd3b
00000200: d74d c73b 7278 90ba af34 6fbc c20a a93c
00000210: 18be b9bc 7d68 4ebc fa58 85bc 28fb f8bb
00000220: 2079 11bb a51b f83c ef7b 66bc 8917 173c
00000230: 5422 1b3c bc62 a4bc 9d38 573c 943c 0abc
00000240: 4a23 9ebc 38d8 d5bc d814 57bc 6f21 c53c
00000250: b771 82bc d928 d5bc 0ca2 c8bb f58d e2bc
00000260: 134b 973b e9dc a43c 5fb8 bcbc 046f 97ba
00000270: 089a c9bc fd99 713c 673a cabc f2a2 453c
00000280: ec46 793b cd7d b6bc b11b fd3b 1432 943c
00000290: c588 ca3c dc54 9ebc e40c dabc b66d b93b
000002a0: c7ac 99bb 4895 5cbc d0d2 54bc 55bf 193c
000002b0: ebad 163c 5ec6 6b3c 47df 8ebc ee2e 51bc
000002c0: 5795 5a3c c0a3 70bc 96ec fe3b a0bb b13b
000002d0: a092 3f3c fd24 423c d40f 4e3c 4f53 613c
000002e0: 6af7 a7bc e0d6 c3bb 369d c23b 38ca 03bb
000002f0: 9bbb bf3b 06ec 77bc 5150 dd3c 8f8a a6bc
00000300: ffc5 293c 5a10 363c bb02 71bb 8f06 733c
00000310: 09b7 00bd 3836 d13c 89e4 abbc f20d 4a3b
00000320: 1f13 2c3b 3083 dd3a 674a 9fbc dd50 593a
00000330: dfa7 b73c d268 9f3a 9ac6 cebb 3c2d 653a
00000340: 03dd 383d e997 cd3c 2db8 95bc 15e1 06bd
00000350: fba1 383c 9d6f f93c 140b f9bc 46f4 2cbb
00000360: 276f bfbc e610 ac3b 3c4c 05bc c33e 3fba
00000370: 716e 76bc 313b b23c 00ad d0bc 9b1c 09bc
00000380: b7c4 c4bc b9b5 09bd 3186 d23c 9be6 ebbb
00000390: 3cad 99bc 3dff ab3c 3de5 53bc eb8b 74bb
000003a0: 2f10 2cbc ad79 9e3a 37b1 8a3b 9727 8c3c
000003b0: 5073 87bc 6478 e13c c518 20bc 28a1 87bb
000003c0: c53e 01bb 91bc b4bc 1337 cabc 5201 803c
000003d0: 3da9 8e3c 434a 983c 9e2c 73bc 428a 6b3b
000003e0: 311f bcbc 863b 95bc b139 d1bc 9023 84bc
000003f0: 58ef 2c3c 4952 643c 9fc0 d4bc d9ae 823b
-0.028525636 -0.010536466 0.01554853 -0.03749268 0.0064677466 -0.022254962 7.588417e-07 -0.009441328
-0.01521432 -0.0062346244 0.017803835 0.019418731 0.009237081 -0.013139248 0.027874934 0.008282979
0.000268826 0.013499038 -0.0037966396 -0.023351852 0.021774253 0.008750247 -0.03247107 -0.014149372
-0.008962968 -0.001030619 -0.0256122 0.010046943 -0.01075306 0.04261798 0.011671025 0.008495422
-0.010047665 0.0055900267 0.00015563544 0.008844352 0.0018798043 0.01716743 0.018114077 0.020594425
-0.010485567 -0.0027206289 0.01886153 -0.028194366 -0.0017555801 0.017622475 -0.02128602 0.009979195
0.008633462 -0.027766582 -0.016542848 0.018563814 0.013865913 -0.015118695 -0.014761865 -0.009366632
0.009423374 0.0063024946 0.008412746 0.011127086 0.0076184617 0.012823387 0.028483601 0.0062067253
0.017975695 0.01942011 0.029973282 -0.007154198 0.009882071 0.013160479 -0.028385181 0.027870234
-0.014227631 -0.008096804 -0.010773018 -0.036165148 -0.016582768 -0.0065502613 0.007829664 0.008089195
0.010124609 0.0040508904 0.016888998 -0.0016097134 0.021138513 0.021377746 -0.004916121 0.019132776
0.011602895 -0.015089528 0.011460052 0.0065411325 -0.0075372583 -0.0074679605 0.027878085 -0.0055020982
-0.026854603 -0.010548309 0.015351134 0.007828758 0.0073022433 -0.015845945 -0.01625691 0.004134502
0.021096688 -0.017740557 -0.021262573 0.016931066 -0.00607627 0.013670847 -0.013976607 0.009756688
0.0021050163 0.00015216027 -0.006610517 -0.0045488602 -0.0005030442 0.012951766 0.0059658894 -0.027390612
0.016445102 0.010503788 -0.0028767402 0.010797454 -0.0063777557 0.0124867335 -0.00855671 0.005791519
0.0060822773 -0.0011022224 -0.014599963 0.020635013 -0.022673652 -0.012598154 -0.016277779 -0.0075982995
-0.002219744 0.03028662 -0.014067634 0.00922192 0.009468634 -0.020066611 0.013136056 -0.0084372945
-0.019303937 -0.026104078 -0.013127528 0.024063794 -0.015923364 -0.026020454 -0.006122833 -0.027655581
0.004617104 0.02012487 -0.023037134 -0.0011553471 -0.02460958 0.014746186 -0.024686052 0.012062775
0.0038036657 -0.022276783 0.0077242483 0.018090285 0.02472342 -0.019327573 -0.026617475 0.0056588305
-0.004689786 -0.013463326 -0.012989715 0.009383996 0.009196739 0.014390556 -0.017440451 -0.012767537
0.013341269 -0.014687479 0.007779668 0.005423978 0.011692673 0.011849639 0.012577016 0.0137527725
-0.020503718 -0.005976543 0.005939151 -0.0020109545 0.0058512217 -0.015131956 0.027015837 -0.020329742
0.010362147 0.011112297 -0.003677531 0.014833107 -0.031424556 0.025538549 -0.020982997 0.0030831066
0.0026256514 0.0016900059 -0.019444657 0.00082899426 0.022418914 0.0012161976 -0.0063102962 0.0008742397
0.04513265 0.02509685 -0.018276298 -0.0329295 0.011269088 0.03044873 -0.03040079 -0.0026390716
-0.023368431 0.005251038 -0.0081358515 -0.0007295424 -0.01504098 0.02175674 -0.025473118 -0.0083686365
-0.024019582 -0.03362057 0.025698753 -0.007199121 -0.018759362 0.02099573 -0.012933073 -0.0037314843
-0.010501905 0.0012090706 0.0042325514 0.017108722 -0.016534477 0.027523227 -0.0097715305 -0.0041390844
-0.0019721251 -0.022062572 -0.024684465 0.01562563 0.017414683 0.018590098 -0.014842181 0.0035940562
-0.022964092 -0.01821686 -0.025540205 -0.016130239 0.010555111 0.013935634 -0.025970755 0.0039881286

MatMul_1 f4 [128, 128]
00000000: 1539 8ebd b842 8ebd 53aa 76bc 8f67 babd
00000010: 00e0 993c 108e 88bd dbfc 083c 65e2 42bb
00000020: f4f6 5e3d c450 92bd 895d 473c 5c80 b03d
00000030: 7601 8abb cdbe 623d 6863 44bb 2338 233b
00000040: 2ff9 8ebc 7d20 543d 5c9d 9ebd 819b 3dbc
00000050: 3484 e83a 0484 05bd 99bb 253d ac40 123c
00000060: ac03 2fbe 6ccf 79bd 5751 bbbc 5669 263d
00000070: f756 03bd 05dc 5bbd 46c2 4fbc b05d 293d
00000080: d654 893d 87ae a0bb b21c 363c 8c09 13bd
00000090: 26c7 e93c db50 373c a83b 5bbd 26bb 5a3d
000000a0: 40c2 483d cbd1 dd3c 7d69 3bbd bc88 a43d
000000b0: f7c8 a93d 565a 3f3d bb0c 663d 17bd b4bd
000000c0: c862 bbbc bf45 7a3c 3036 593d 44a7 01bd
000000d0: bceb babd ee35 a3bb 08b5 90bd 44db a6bc
000000e0: e130 f9ba a2a6 1abd ab0d 393d 6355 453d
000000f0: 675d 8bbd e65f 8b3d 5ab8 adbd b486 60bd
00000100: f681 6d3d 4616 81bd 6ec0 2c3d db58 17bd
00000110: 82f9 873d 1b9c d83a 5793 be3d dee9 383d
00000120: afe1 c6bc bf3b 7f3d 1c7d 9cbc 61e5 653d
00000130: c224 cf3a 070c 48bd 3ebe 453d 1363 613d
00000140: 951c d23c 715a 93bd ba50 6e3c 3ac7 b33c
00000150: cd4d a5bd 52bd 02b9 cb2d eebc b440 053d
00000160: a2e4 5a3d 979d d6bc eb25 8bbc f87a 463d
00000170: 07f0 533d 14d9 4a3d fb26 01bd e8ef 853c
00000180: fc9a 92bb 713e 1c3d e2c3 2ebd 0a9b 80bd
00000190: 86bc 9b3d 173b 32bc dafc 8b3d 0ff6 8bbd
000001a0: bdb8 86bd 8684 ca3d a04f a2bd 3ecc ac3c
000001b0: 2cf3 5c3d c89e e03b 0088 c1bd a8f0 2d3c
000001c0: c330 b7bd 2f82 98bd 5a7b 8ebd a0cf 79bd
000001d0: 88a4 31bd 99f1 25bd ce95 5a3d f65e bfbc
000001e0: b64a 5d3c cb80 293c c6e3 a1bc a364 a5bd
000001f0: 8811 4dbd cc51 933c bca2 b23c 9936 73bd
00000200: 599e 72bd 92fd 05be bf23 25bb 1f50 253b
00000210: 37a8 99bd 2919 b9bc 43d6 51bc b9db 503d
00000220: 6fc9 843d 633e 98bd e4da 81bc 2cab 7a3d
00000230: 06b1 bbbd e763 4f3d 3d98 85bd fb35 58bd
00000240: 320d 213d 4b3b d93c fee4 2c3d 510d c1bc
00000250: af02 fd3c c104 6dbb 5622 403d bd72 c1bc
00000260: 1939 16be 8e7a bdbd 91a8 01bd 9d3c dcba
00000270: 6430 31bb d1cb 9cbd bfa9 cebd 7149 afbd
00000280: add8 453d 0bb0 7b3d 5c8a a83c 1fd2 09bd
00000290: 22fd ce3c b5f9 273d dc47 46bd 4e2e d43c
000002a0: 05e7 90bd 912d a83c 7a53 54bd a0bb 523d
000002b0: 7219 843d 6740 a7bd f1c7 2fbd 102c f7bc
000002c0: d746 3dbd f26c a83c 34b4 343d 2e81 77bd
000002d0: 129d 683c fd60 c33d cfed 09be d615 8f3c
000002e0: 247b 13bd 42cd b63c 7489 94bd 9fcd 9e3d
000002f0: effe 053d 3778 f8bb ad78 6c3d 22f3 6abd
00000300: 7eca 57bd d555 3bbc cb30 61bd 31c0 8fbd
00000310: af5d 623d 363e fa3c 6b30 85bc abed 6b3d
00000320: c4f0 333d 3cb4 9a3c d447 603d f9f6 963d
00000330: c5f6 48bd 438d a5bd f346 76bd a588 173b
00000340: 7ea9 fdbc a16e 20bd 513f 8dbd ddce 8e3d
00000350: 8350 1cbd 45a1 3e3d c359 833d 2f02 c43b
00000360: 6d82 873d 7216 93bb 0a1d c8bd 1ef7 17bd
00000370: 8da0 6c3d 21b2 86bd 1b79 963d d452 87bd
00000380: 3232 45bd acfa d73d 80c3 b5bc 11c3 403d
00000390: 727f 48bc d9aa f73b 6891 97bd 2bce 20bd
000003a0: e12b 5b3c 88a6 ed3d ddfc 1c3d 99d0 5c3d
000003b0: 2f03 5b3d f138 343c 18c2 3abc dd9b c0bd
000003c0: 80d1 a9bd 41c3 85bc 5418 03bd 82bc 8a3c
000003d0: 1e30 3abd 71ab 8c3c 46ef 95bc f20b 3d3c
000003e0: e7a2 743d d216 20bd def8 1b3c dbc4 b0bc
000003f0: 8942 ddbc d9f1 8ebd 99a1 d1bb e209 c33b
-0.06944481 -0.06946319 -0.015055257 -0.091017835 0.01878357 -0.06667721 0.008361067 -0.0029736992
0.05443473 -0.07144311 0.012168297 0.086182326 -0.0042116 0.055357743 -0.0029966477 0.0024905286
-0.017452804 0.051788796 -0.07744858 -0.01157272 0.0017739595 -0.032596603 0.04046211 0.008926552
-0.17091244 -0.06098883 -0.022865934 0.0406278 -0.032065358 -0.053676624 -0.012680596 0.041349113
0.06705634 -0.004903618 0.01111524 -0.035897776 0.028537344 0.011188711 -0.05352369 0.053401135
0.049013376 0.027077576 -0.0457549 0.080338925 0.08290284 0.04671701 0.056164484 -0.088251285
-0.022874251 0.015275418 0.053030193 -0.031653658 -0.09126994 -0.004980794 -0.07065779 -0.020368226
-0.001901176 -0.03775657 0.04517905 0.048177134 -0.068049245 0.068054006 -0.08482428 -0.054815963
0.05798527 -0.063030764 0.042175703 -0.036949974 0.06639387 0.0016526015 0.093054466 0.045144908
-0.024277536 0.062312838 -0.019102626 0.056126956 0.0015803801 -0.048839595 0.048277132 0.055026125
0.025648395 -0.07194985 0.014545614 0.021945585 -0.0807148 -0.00012468293 -0.02907457 0.03253241
0.053440697 -0.026198192 -0.016985854 0.048457116 0.05174258 0.049523428 -0.031531315 0.016349748
-0.004474042 0.038145486 -0.042667277 -0.06279571 0.07604317 -0.010878346 0.06835337 -0.06834041
-0.06578205 0.09888558 -0.079253435 0.021093484 0.053942844 0.0068548657 -0.09449768 0.010616459
-0.089448474 -0.074467055 -0.06957121 -0.060989022 -0.0433698 -0.04051361 0.05336552 -0.02336071
0.013506582 0.010345648 -0.019761931 -0.080758356 -0.050065547 0.01798334 0.021806113 -0.05937824
-0.059233043 -0.1308501 -0.0025198308 0.0025224758 -0.075027876 -0.022595005 -0.012807432 0.050990794
0.06483733 -0.07433774 -0.015851445 0.0611984 -0.09164624 0.050632384 -0.06523178 -0.052785855
0.039319225 0.02651753 0.04221057 -0.02356592 0.030885069 -0.0036166164 0.046907745 -0.023614282
-0.14670219 -0.09251891 -0.031654898 -0.0016802732 -0.00270369 -0.076560624 -0.1009097 -0.0855893
0.04830234 0.061447185 0.020573787 -0.033647653 0.025267188 0.041009624 -0.048408374 0.025900986
-0.070753135 0.02052954 -0.051837422 0.051448464 0.06450166 -0.08166581 -0.04291529 -0.030172378
-0.046210136 0.020559762 0.044117168 -0.06042593 0.014197605 0.095399834 -0.13469623 0.017466467
-0.036006108 0.022314671 -0.072527796 0.07754063 0.032713827 -0.00758269 0.057732273 -0.057360776
-0.052683346 -0.011434038 -0.054978173 -0.070190795 0.055265125 0.030547243 -0.016258439 0.057599705
0.043930784 0.01888477 0.054756 0.07371325 -0.049063463 -0.08083584 -0.060126256 0.0023122218
-0.03096461 -0.039168004 -0.06896842 0.0697305 -0.03816272 0.046540517 0.06413605 0.0059817056
0.066166736 -0.0044887597 -0.09771164 -0.037100904 0.0577703 -0.06576944 0.07347318 -0.06607595
-0.048143573 0.10545859 -0.022187948 0.04706103 -0.012237417 0.0075582084 -0.07400781 -0.039259117
0.013377161 0.11604029 0.038327087 0.05390987 0.053469833 0.010999904 -0.011398815 -0.094047286
-0.08291912 -0.016328456 -0.032005623 0.01693559 -0.045456044 0.017171593 -0.018302571 0.0115384925
0.05972567 -0.039084263 0.009519784 -0.021578243 -0.027009265 -0.069797225 -0.006397438 0.005952106

MatMul_2 f4 [1, 128]
00000000: e3cb 10be eb31 21be d5b8 a03d a757 9a3d
00000010: a4f6 c03d cc64 17be 7a08 c7bd ea97 8e3c
00000020: ca49 01be 9085 393c aabd 823d e898 133e
00000030: 5307 35be 0ecf 913d d886 153e 9172 31be
00000040: d79a c6bd 1d54 ce3d 6b4b 173e db09 18bd
00000050: ec75 8abb 1d77 0abe e60f b53d cbe0 1abe
00000060: 6525 063e ba47 213e 6d1d bd3d 26cb 133e
00000070: 9a7e c43d e14d a73d 75aa c53d 0a2f da3a
00000080: f471 e03d 4a17 813d b873 ae3d faed 19be
00000090: 0157 c13d 61cd 1c3e 872a 663c d672 e93d
000000a0: cf5a 53bd e801 02be e7d3 c23d 0ca2 e63d
000000b0: e62e b53d 42ca 63ba 3718 f4bd e0d4 1dbe
000000c0: 0289 fb3d dae3 863b 2a6d 36bc b9d0 b13d
000000d0: 512c c3bd 12af e33d c3e2 bb3c e7a9 fdbd
000000e0: 1be5 24be 896e d53c 8f3b b1bc cc4a 0d3d
000000f0: 2b73 06be 4ddf d93d 9369 debc ec18 383d
00000100: ce84 b33d 306c ad3d 77ee c03d 0ee5 543d
00000110: 62fd c73d 06d5 6abc 50c2 23be 858f 78bc
00000120: b1ca 413e 7d6a 153e ba34 1cbe 18de f8bd
00000130: eb75 a23d 50f0 883d 3c93 793d 16e7 033c
00000140: 156d c13c 2957 963d be61 543d 3a91 a23d
00000150: f0cf d13d 86aa 973d e884 a23d e35e 08be
00000160: e8ca 31be 84d0 883d 9f5a 9d3d 9dad 17be
00000170: 5a66 a33d 592c 8f3d 3345 febd d816 11be
00000180: 57b4 dcbd 7975 bc3d 61f9 c53c 1d3b e4bd
00000190: 2fa7 0dbe ab6b f9bd 38d6 32be c418 973d
000001a0: 4281 f6bd 75cd b8bd be9f 0cbe 35d3 0a3e
000001b0: 4ea5 d73d 09a4 333c e06c 06be 07ba febd
000001c0: 6feb b83c 1e08 71bd bce9 8e3d 12e7 24be
000001d0: 179f 763c 7ab8 043d 52c0 0b3d 947d 223e
000001e0: dacc 783d edcc df3d 42d9 d23d ea59 eb3d
000001f0: afe0 f4bd 354a ee3d c2be c63d 36de de3d
-0.14140277 -0.15741698 0.07847754 0.075362496 0.09422043 -0.14784545 -0.09718414 0.017406423
-0.12625805 0.011323348 0.06383832 0.14413798 -0.17678575 0.07119571 0.1460222 -0.1732886
-0.09697502 0.10074637 0.14774863 -0.037118774 -0.004225483 -0.13522 0.08840923 -0.15124814
0.13100202 0.15750018 0.09234128 0.14432964 0.0959446 0.08169151 0.09651653 0.0016646099
0.10959235 0.0630327 0.08518165 -0.15032187 0.09440423 0.15312721 0.014048225 0.11398856
-0.051600274 -0.1269604 0.095130734 0.11261377 0.08846836 -0.00086895016 -0.11918681 -0.15413237
0.122819915 0.0041165175 -0.011134425 0.08682389 -0.09529937 0.111173764 0.022935277 -0.12385922
-0.16103022 0.026053684 -0.021634845 0.03449516 -0.1312987 0.10638294 -0.027149951 0.044945642
0.08765565 0.08467901 0.094204836 0.051976256 0.09765126 -0.014333015 -0.15992093 -0.0151709365
0.18924977 0.14591403 -0.15254489 -0.12151736 0.07932647 0.06686461 0.06093143 0.008050701
0.023611585 0.07340843 0.051851027 0.07937856 0.10244739 0.07405572 0.07935506 -0.13317446
-0.17362559 0.06680396 0.076833 -0.14812322 0.079785064 0.069908805 -0.124155425 -0.1416887
-0.107765846 0.09202094 0.024166765 -0.111440875 -0.13833307 -0.12178739 -0.1746453 0.073777705
-0.12036373 -0.09023563 -0.13732812 0.13557132 0.10529576 0.010964402 -0.1312747 -0.12437826
0.022573201 -0.05884563 0.06978175 -0.16103771 0.015052578 0.032402493 0.034118958 0.15868217
0.060742237 0.10927758 0.10295345 0.11491759 -0.119569175 0.116352476 0.09704353 0.10882227
