wkey/openwakeword_models/tflite/hey_lama_50k.tflite (tflite, 860700 bytes, 9 tensors)

Const_1 f4 [128]
00000000: 2c1b 32bb a2af b73c d575 043d 9798 d13c
00000010: 2ae9 d33c 10ae c7ba 5ca1 913c 9ada 3b3c
00000020: 447c c03c d22d 0fbc c35c 953c e3ae e7bb
00000030: 1a9f 0d3d f5b4 053d ffe5 933c 7943 3b3c
00000040: 3e23 29bc 77ad 21bc be2a 813c fee3 833c
00000050: 5a4e 463c 838f 0bbc a35e 823c 45fb 0c3d
00000060: ed1a 21bc 3a67 85bc 91c3 133c 31a0 383a
00000070: 7fbc 003d d78f 2a3d b9ce d83b db1f ce3c
00000080: c3e3 ea3c c283 543c 6331 0c3c aa48 07bc
00000090: f6c5 75bc 9994 52bb d888 4bbc ffc6 973c
000000a0: 1bb9 64bb c07b 78bc b174 903c 3738 9f3c
000000b0: ac20 52bb 7ec0 843c 39a6 7a3c d3a9 653c
000000c0: f320 f13b 7c5b 9c3b e691 20bc d63a d7bb
000000d0: 40d7 65bb c366 e83b e47b 9f3b 03aa 573c
000000e0: ab70 8d3c 8762 95bc 6f01 383c ee3a adbb
000000f0: dbb3 5f3b 810f 963c 7eaf 813c 36fa 30bc
00000100: da48 d83c c967 833b 6995 143d eb49 8c3b
00000110: 4aa8 50bc 6d4e 06bc 0ee4 2abb eef4 2b3c
00000120: 953b 043d 21d2 73bb ef61 28ba 8eb6 c83c
00000130: c897 c93a d5a6 80bc 8085 b43c 4b42 80bc
00000140: feac 083d 4158 283b e24a e13b b276 bb3b
00000150: e189 a3bc fc1f 5e3c d658 4cb9 7c03 cf3c
00000160: 9c74 183c c6c0 62bc 7f26 e03b 0325 8fb8
00000170: 4658 d53a d2dd 29bb ef34 30bc 76d3 d73c
00000180: 8a56 c53c 097b 4cbc 94d8 973c 2339 893b
00000190: 8a71 1138 d4ba 2d3c 8ab3 22bc 7c6a 913b
000001a0: e724 1c3d 0209 73ba 0642 2e3c 1839 6c3b
000001b0: cf09 ad3b 8fe6 b1bb f2bb 4cbc 64d2 1d3c
000001c0: 6454 4cbc e02c 1c3d 50be 9e3c 4871 b03b
000001d0: 562e f63b 1b0f 61bc 3c85 e03c 3734 6d3a
000001e0: 21a9 05bc 666e 243c 24fc 67bc fe81 1f3b
000001f0: 779f cc3c f8d4 013d ae6c b63c ba0f 3cba
-0.002717684 0.022422615 0.032338936 0.025585456 0.025868017 -0.001523437 0.017777137 0.011465693
0.023496754 -0.008738952 0.018232709 -0.0070704087 0.03457556 0.032643277 0.018054007 0.011429661
-0.010323344 -0.009868017 0.015767451 0.016099926 0.012103641 -0.008518103 0.015914267 0.034419317
-0.00983308 -0.016284574 0.009018795 0.00070429133 0.031429764 0.041641083 0.00661644 0.025161674
0.028673058 0.012970867 0.008556697 -0.008257071 -0.015000811 -0.0032132028 -0.012422763 0.018527506
-0.003490037 -0.015166223 0.017633768 0.019435985 -0.003206293 0.016205069 0.01529842 0.01401754
0.007358664 0.004771648 -0.00980041 -0.006568293 -0.0035070926 0.0070923283 0.004867064 0.013163093
0.017265638 -0.018235458 0.011230811 -0.005286566 0.0034134302 0.01831794 0.015830752 -0.010801842
0.026401926 0.004010175 0.0362753 0.0042812726 -0.012735436 -0.008197409 -0.0026075873 0.0104954075
0.032283384 -0.0037204104 -0.00064232846 0.024501111 0.0015380317 -0.015704552 0.022036314 -0.015656611
0.033368103 0.002568737 0.006875382 0.0057209367 -0.019963207 0.01355743 -0.0001948805 0.025270216
0.009305146 -0.013839906 0.0068405266 -6.825665e-05 0.0016276918 -0.0025919569 -0.010754808 0.02634595
0.024089117 -0.012480506 0.01853589 0.0041877194 3.4676435e-05 0.010603625 -0.009930501 0.0044377428
0.03812113 -0.00092710566 0.010635858 0.0036044773 0.0052807103 -0.005429096 -0.0124959815 0.009632681
-0.012471292 0.038128734 0.019377857 0.005384598 0.007512848 -0.013736512 0.027407281 0.0009048613
-0.008157999 0.010036087 -0.014159236 0.0024338956 0.024978383 0.031697243 0.02226862 -0.00071739743

Const_2 f4 [128]
00000000: 15ec 7f3f 9090 823f c604 843f 202f 863f
00000010: b513 863f 828a 873f d598 853f 99b2 893f
00000020: cff6 823f 08ba 833f 875b 833f 01a0 853f
00000030: 99c4 823f 4d48 813f e9bb 833f eb46 853f
00000040: 0608 7f3f 48d8 8a3f 8229 7a3f d504 803f
00000050: 668e 853f 50af 7a3f 2011 7a3f 8632 7c3f
00000060: 0da4 843f 166c 883f 0297 863f 6272 813f
00000070: a730 803f 6ae1 813f 05dc 883f bb0e 823f
00000080: fc05 843f 876b 833f c3de 843f e731 823f
00000090: f6b5 803f b551 823f b047 7a3f de51 8b3f
000000a0: 2582 8c3f c74d 843f 6ca3 833f 16e1 7c3f
000000b0: 66a7 7e3f 7e56 843f 19fa 7f3f f1f5 7a3f
000000c0: 9d88 7c3f 0d63 813f ffce 803f 72d4 7d3f
000000d0: 0646 7c3f 5eb7 7d3f 8928 873f dfab 833f
000000e0: 88f4 7e3f 2e8b 853f e291 813f fa34 843f
000000f0: ac3a 833f 8810 883f 8c4e 843f 6038 7f3f
00000100: 6629 7e3f 7db9 813f 5b35 803f 4d00 823f
00000110: ccdc 833f b3bc 823f e95e 833f cf4d 833f
00000120: 8729 7f3f 743f 803f 17bb 803f 5f89 8a3f
00000130: 584a 7f3f 1d25 7d3f e05c 803f b147 823f
00000140: d0ec 7c3f 9b43 843f 02a9 823f 870c 803f
00000150: 9f7a 813f 22a4 7c3f 4114 823f d889 7d3f
00000160: 3aa6 7d3f 5217 873f c416 7f3f d783 823f
00000170: 8ffd 7b3f 27aa 7b3f e2c8 7f3f 5620 843f
00000180: 7172 773f 43fd 863f 145b 833f cbe9 7e3f
00000190: b514 8a3f 4109 8e3f 0997 7c3f 9627 833f
000001a0: 4686 823f 123c 823f 1fd8 863f 4bb0 823f
000001b0: 9190 853f ac4e 7e3f fa6e 883f c041 873f
000001c0: e131 823f 3aaa 803f bfef 803f b628 793f
000001d0: cd59 893f 9b3a 853f 1be5 843f 11b2 803f
000001e0: a54e 803f 1cf9 813f 7ee6 893f b301 7e3f
000001f0: 8a0b 803f c7c0 813f afd1 843f 611b 803f
0.9996961 1.0200367 1.0313957 1.0483131 1.0474764 1.0589144 1.0437266 1.0757629
1.023157 1.0291147 1.0262307 1.0439454 1.0216247 1.010019 1.0291721 1.0412267
0.9962162 1.0847254 0.97719586 1.0001475 1.0434082 0.97923756 0.9768238 0.9851459
1.0362564 1.0657985 1.0514834 1.0113032 1.0014848 1.0146916 1.0692145 1.0160745
1.0314326 1.026719 1.0380481 1.0171479 1.005553 1.0181185 0.97765636 1.0884359
1.0977217 1.0336236 1.0284247 0.98780954 0.9947418 1.0338895 0.99990994 0.98031527
0.98645955 1.0108353 1.006317 0.9915229 0.9854435 0.9910792 1.0559245 1.0286826
0.99591875 1.0433099 1.0122645 1.0328667 1.025228 1.0630045 1.0336471 0.99695396
0.9928192 1.0134732 1.0016283 1.0156342 1.0301757 1.0213836 1.0263339 1.025812
0.9967274 1.0019364 1.0057095 1.0823172 0.99722815 0.98884755 1.0028343 1.0178128
0.9879885 1.0333132 1.0207827 1.0003823 1.0115546 0.98687947 1.0162431 0.9903846
0.99081767 1.0553992 0.9964411 1.0196484 0.98433775 0.98306507 0.999159 1.0322368
0.96659 1.0546039 1.026217 0.9957549 1.0787569 1.1096574 0.9866796 1.0246456
1.0197227 1.0174582 1.0534705 1.021005 1.0434743 0.99338794 1.0658867 1.056694
1.0171472 1.0051949 1.0073165 0.97327745 1.073053 1.040851 1.0382417 1.0054342
1.0024 1.0154147 1.0773466 0.9922134 1.0003521 1.0136956 1.037649 1.0008355

Const_3 f4 [128]
00000000: dc12 05bb 8448 fc3b 1cd8 23bc bdee 243b
00000010: 9bc1 f93b 3627 09bc c67e 8eba dca3 0fbc
00000020: 0ddd 1bbb 3683 18bb 84e7 303c 7061 913c
00000030: 0d6b d33b e176 b83b f701 8dba 4c61 d8b9
00000040: f476 5dbc 9708 be3b 82bc d3ba ae36 dfbb
00000050: a438 c33b 23c2 1abc 832b 07bc 37dd debb
00000060: 1f7e 4b3c f13d 5d3c 6e70 8ebb eae8 fd3b
00000070: 872b b73b 2724 e53b 3f34 9a3c 4eab 57bb
00000080: e749 273c 6765 7b3b 2aea 253c 8c31 ceba
00000090: 1ad9 883a 8bff c73b 8b16 9a39 cbbc 0f3c
000000a0: 8988 603b 0f3e 8f3c 0657 973c 9d6e adbb
000000b0: 049e 8bbc dc74 ad3b d0eb d03b 5b72 cfbc
000000c0: e6ae 283b 603d 29bc 2d6f 3e3b 7cf5 40bc
000000d0: f6b3 633b e1f9 74bc 348e 103c 12d3 273c
000000e0: ce3a 70bc 5491 8dbb 6137 10bc 7125 45bb
000000f0: 5951 953b 1cab 7a3b 0611 033c 1b34 47bc
00000100: 940c cbbc b747 233c 70f0 cc3b a0ff 793b
00000110: eafc 693c a24e 4d3c 5bdc 4b3b bc67 e8bb
00000120: 864b 86bb e81e 11bc 64bf 053c 8fe2 5a3c
00000130: 33c9 86bc 09d3 6abc 97aa 76bb 28f9 11bc
00000140: 4512 49bc b02e 143a 76f7 8b3c 7df1 b53b
00000150: 3c83 0cbc 8620 173b 3900 abbb 5e68 21bc
00000160: fe2a 42b9 66ce d83c c387 8838 8c28 173c
00000170: 206a 12bc 6fc3 e6bb a5ba c5bb 0944 42bc
00000180: 0ebe eabc e5f7 5bba cde2 643b 4ca2 4e3b
00000190: 53c3 593c fca8 d93a 7afa 78bc 8406 52bb
000001a0: afd0 de3b 332e 393c b590 053b f748 133c
000001b0: 1a67 5f3c 3c31 623b 329e ebba f2b4 9c3b
000001c0: fe59 5cbb cb5e ca3b c075 32bc 8777 85bc
000001d0: 522a 273c 8cde 333c 0575 253c 6902 e13a
000001e0: 6ca4 d43b f249 9a3b 4a58 c73c 3180 1eb9
000001f0: aad2 6d3b 513a 083b 0236 103c ec41 7ebc
-0.002030543 0.007699074 -0.010000255 0.0025166713 0.0076219565 -0.008371165 -0.0010871522 -0.008767094
-0.002378288 -0.0023271567 0.010797385 0.017746657 0.0064519704 0.005629406 -0.0010758032 -0.00041271222
-0.01351713 0.005799364 -0.0016154202 -0.0068119382 0.00595768 -0.0094457 -0.00825012 -0.006801273
0.012420206 0.0135035375 -0.0043468988 0.007748713 0.0055899057 0.006992835 0.018823741 -0.0032908502
0.010210491 0.003836 0.01012663 -0.0015731319 0.0010440678 0.006103461 0.00029389965 0.008773039
0.0034261069 0.017485647 0.018474113 -0.005292727 -0.017043121 0.0052934717 0.0063757673 -0.025323084
0.0025739013 -0.010329574 0.0029057965 -0.011777278 0.0034744716 -0.014952154 0.008822966 0.010243194
-0.014662458 -0.004320303 -0.008802266 -0.0030082131 0.0045568165 0.0038248962 0.007999664 -0.012158419
-0.024786271 0.009965829 0.0062542483 0.003814675 0.014281491 0.012530955 0.0031106684 -0.007092444
-0.0040983586 -0.008857466 0.008163307 0.01335968 -0.016453361 -0.014332541 -0.00376383 -0.008909501
-0.012272422 0.0005652709 0.017085772 0.0055524693 -0.008576211 0.0023060157 -0.0052185324 -0.009851543
-0.00018517298 0.026465606 6.510273e-05 0.009225976 -0.008936435 -0.0070423405 -0.0060342127 -0.011857041
-0.028655078 -0.0008391126 0.0034925223 0.0031529842 0.013291198 0.0016606147 -0.015196437 -0.003204734
0.0067997794 0.011302519 0.0020380442 0.008989564 0.013635421 0.003451421 -0.0017976223 0.0047823125
-0.0033622975 0.006175851 -0.010892332 -0.016292347 0.010202961 0.010978352 0.0100987 0.0017166856
0.006489327 0.004708522 0.024334092 -0.00015115809 0.0036288896 0.0020786712 0.008801939 -0.015518647

Const_5 f4 [128]
00000000: d315 7d3c 9ff9 e13c 1bcd 7bbd c9c0 233c
00000010: 492b b9bd 1cc6 4c3d 1dbb edbc 50d0 273d
00000020: 572a 603d c56f 60bd 3e50 60bd 0c10 a93d
00000030: 33cc 31bc 6ed8 70bd 07dd 083c 3339 813d
00000040: d9c5 5b3d 7b9c 083d b70f 08bc 70c5 143d
00000050: eba9 93bd b137 9cbd 0bf0 153d c079 983b
00000060: d911 a5bd f556 523d 229e a53d e243 3f3c
00000070: 09df 0abd 9b5e a8bd b643 0dbd c402 a43d
00000080: 2c8c 0a3d 6749 7bbc 9aa7 e63c dcf9 9abd
00000090: 5690 653d 87bc 82bd a128 86bd 0eab 593d
000000a0: e625 1e3d 4601 753d 7586 8a3d 8e8b 843d
000000b0: a5ce 643c 3767 17bd 16d9 a13d 04da 02bd
000000c0: 812e 16bd 791d 40bd 4490 93bd 1cbf 74bd
000000d0: 4756 44bc a62b aebb a327 85bd 61e1 4d3d
000000e0: ef95 1c3d a32b 78bd 3649 2a3c df55 d1bc
000000f0: d86b cabb 8820 bdbc 4eaa adbd 38b5 20bd
00000100: 7274 a8bc 431f ec3c 7b3d 5f3d 923f 863d
00000110: 5d69 b03d bc91 3fbd 70b4 05bd b611 bdbc
00000120: 68ea 3f3d 1b12 353d 8bac 393d 0c53 893d
00000130: d5d4 513d 4ee1 753c bc1a 71bc 4bb7 4abd
00000140: aeba 273a e2bf a63d 2fa3 713c 6ec6 063d
00000150: c4b9 7bbd d4da 0d3d 13e0 2e3d 9e31 333d
00000160: 3897 b93d 4b98 2c3b 2063 abba 5d33 763d
00000170: 8562 eebb 6088 893d 037f abbd 1749 51bd
00000180: ec8b 613d 467a 463c cb98 363d d193 cabc
00000190: 7246 a3bd 72ad 89bd 53a2 dc3c 0569 f13c
000001a0: bf3a 703d 9c86 6fbd db61 733d 35cd abbc
000001b0: 5d3c 45bc 19c6 a6bd 8e79 9d3c 1368 913d
000001c0: 352a 9c3d 32a1 8cbc 1daa 5ebd b6d6 eabc
000001d0: 6370 5dbd dbb0 a23d 0b27 54bc bf3b 733d
000001e0: cd33 f4bb d9fd 55bd b8d1 94bd e260 bb3c
000001f0: 0bf8 7a3d 94a8 10bd 041b 463c 4c7a a93c
0.015447098 0.027584849 -0.0614749 0.009994694 -0.09041459 0.04999362 -0.029019887 0.040970147
0.05472788 -0.05479409 -0.054764025 0.08255014 -0.010851908 -0.058800153 0.008353478 0.06309738
0.05365548 0.033352356 -0.008304528 0.036321104 -0.07210144 -0.0762781 0.036605876 0.0046531856
-0.08060045 0.05135246 0.08086802 0.011673899 -0.03390411 -0.082211696 -0.034488402 0.0800834
0.033825085 -0.015337325 0.02815609 -0.07567188 0.056045853 -0.06383615 -0.06550718 0.053141646
0.03861036 0.059815668 0.06763927 0.064719304 0.0139652835 -0.036963668 0.07902734 -0.031946197
-0.036665443 -0.046903107 -0.07205251 -0.05975257 -0.011983461 -0.005315262 -0.06501701 0.050263766
0.038228925 -0.06058849 0.010393431 -0.025553642 -0.0061774068 -0.023086801 -0.08479749 -0.039235324
-0.020563338 0.0288235 0.05450199 0.06555094 0.086138465 -0.046769843 -0.03264278 -0.023079734
0.046854407 0.04420672 0.045330565 0.06705293 0.051228363 0.01500733 -0.014715847 -0.049491208
0.0006398362 0.081420675 0.014748379 0.03290408 -0.061456457 0.03463252 0.042694163 0.04374849
0.09062046 0.002633589 -0.0013075806 0.060107578 -0.007274928 0.067154646 -0.08373835 -0.051095095
0.05506508 0.012114113 0.04457931 -0.024728687 -0.07972421 -0.06722535 0.026932871 0.029469023
0.058649775 -0.058477983 0.059419494 -0.020971874 -0.0120383175 -0.08143253 0.019223 0.07099929
0.07625238 -0.017166708 -0.05436145 -0.028666835 -0.05406226 0.07943889 -0.012948762 0.05938315
-0.007452464 -0.05224404 -0.07266563 0.022873346 0.06127171 -0.03531702 0.012091402 0.020688199

Const_6 f4 [128]
00000000: dca6 863f 21ce 843f 3a73 893f 7555 883f
00000010: e72e 893f 08ec 893f 95c3 883f bfdf 853f
00000020: bc9c 883f 73d9 8b3f 1ddf 843f 1cc3 853f
00000030: 8d64 893f 04e4 893f 0804 873f e078 883f
00000040: d1bb 843f bd53 853f 7fb9 863f 66a1 883f
00000050: 9402 8a3f 59fb 733f a047 8a3f b3e9 8c3f
00000060: 61c5 883f 27dc 8b3f 8058 893f bd5f 883f
00000070: 64fa 823f 058b 8e3f f779 843f 69f5 863f
00000080: 7870 8a3f db21 893f 4fc6 843f a602 8c3f
00000090: 74ee 7d3f 0a02 8c3f 723e 8b3f 7944 8a3f
000000a0: ce9b 853f 549e 883f b650 8a3f 4bc0 883f
000000b0: f5c3 873f c5fa 813f ec37 873f 8998 8e3f
000000c0: 90fb 933f 493c 843f 81ef 8d3f d1a5 8c3f
000000d0: 7e52 8c3f 2fa7 843f bac1 853f 304d 853f
000000e0: de7c 863f 82b6 8b3f 8ed6 8a3f fc42 863f
000000f0: e38c 863f 37a9 873f 03be 853f 6664 8f3f
00000100: e527 843f 89a7 8a3f 1575 883f 2f57 8a3f
00000110: cb34 863f 6284 893f 8f6d 893f 55ca 833f
00000120: a906 8e3f a686 893f 581a 883f 4f81 843f
00000130: 2ac0 8c3f bf06 923f 100d 893f bbc2 873f
00000140: d587 8c3f d704 923f bb97 8a3f 5e3f 923f
00000150: 4df4 963f 9c95 903f 4e5e 893f 1c67 873f
00000160: eb8e 8c3f 5d1b 7d3f ce8d 8f3f 94e3 883f
00000170: c6ac 873f a79e 873f 5aec 863f 99cb 8a3f
00000180: 5cf8 873f 0103 853f 3dc1 8b3f ab46 873f
00000190: 4b63 833f 9f8e 8b3f eeb2 8b3f d4d8 8c3f
000001a0: e8c4 863f 99cd 833f ac46 823f a155 8e3f
000001b0: 79f5 883f 89ab 8b3f 77d4 8c3f 6a7f 8f3f
000001c0: 985b 8e3f 4cfe 883f 428e 8c3f f281 8e3f
000001d0: 1ca7 943f 5101 813f 1421 913f 201f 893f
000001e0: b574 823f 8ef4 8d3f 1011 873f 84c1 883f
000001f0: c3d0 873f 5421 873f 1d17 863f 0e10 8c3f
1.0519671 1.0375406 1.0738289 1.065108 1.0717438 1.0775156 1.0684687 1.0458907
1.0672832 1.0925735 1.0380589 1.0450168 1.0733811 1.077271 1.0548105 1.0661888
1.0369817 1.041618 1.0525359 1.0674255 1.0782037 0.953054 1.0803108 1.1008819
1.0685235 1.092656 1.0730133 1.0654217 1.0232663 1.1136175 1.0349721 1.0543643
1.0815573 1.0713457 1.0373019 1.0938308 0.99191976 1.0938122 1.0878432 1.0802146
1.0438173 1.0673318 1.0805881 1.0683683 1.0606676 1.0154654 1.0563941 1.11403
1.1561146 1.0330898 1.1088716 1.0988103 1.0962675 1.036352 1.0449746 1.0414181
1.0506856 1.0915072 1.0846727 1.0489192 1.0511745 1.0598515 1.0448612 1.1202514
1.0324675 1.0832378 1.0660731 1.0807856 1.0484861 1.0743525 1.073656 1.0296122
1.1095783 1.0744216 1.063304 1.0351962 1.0996144 1.1408309 1.0707111 1.0606302
1.0978953 1.1407727 1.0827554 1.1425588 1.1793305 1.1295657 1.0731905 1.0578341
1.0981115 0.9886988 1.121515 1.0694451 1.0599601 1.0595292 1.0540879 1.0843383
1.0622668 1.0391542 1.0918347 1.0568441 1.0264677 1.09029 1.091398 1.1003671
1.0528841 1.0297118 1.0177817 1.1119882 1.0699912 1.0911723 1.1002339 1.1210759
1.1121702 1.0702605 1.0980914 1.1133406 1.1613498 1.0078527 1.133822 1.0712624
1.0191866 1.1090257 1.0552082 1.0684056 1.0610584 1.0557046 1.0475804 1.09424

Const_7 f4 [128]
00000000: 4961 ab3c 8718 373d f9d6 963c f042 9c3c
00000010: 6abe c03c 8a89 4c3c d92f 6e3c 7ca1 443c
00000020: 9572 ef3c d173 d93c 8012 9f3c 528d 863c
00000030: 3237 403c ecbb e83c aba1 fa3c b153 193d
00000040: e5e4 473c 7b68 6e3c 731a 873c 36a2 ef3c
00000050: b271 fa3c d71d bbbd e46f 723c 24fb bb3c
00000060: 76c6 253d c976 493d 4d5a 0e3d 0a51 de3c
00000070: 0c5a 273c 4f97 3c3d 9e2e a33c 2941 733d
00000080: accb 0d3d e279 203d fb31 0a3c 066b 7d3d
00000090: 57fb 56bc c494 263d 9546 a03d 4219 123d
000000a0: f2af aa3c 1dd0 1b3d c05c 1d3d 27fa 023d
000000b0: d58e 863c 1a9f 043d e2bd d73b 8508 9a3d
000000c0: a36a b33d e3db 2e3c bbd5 0f3d 5487 173d
000000d0: e956 7f3d c0b6 273c e8d2 713c 3733 d63c
000000e0: 370f db3c 3f20 813d 0866 0f3d c0a9 a93c
000000f0: d09f 5b3d ea6f 3d3c 778f 8f3c 69eb 993d
00000100: be6a cb3c d4ad 0e3d 5779 653d bceb f73c
00000110: 8bf0 293d 13bb 8f3c 22e7 663c 1eac b63c
00000120: 2465 943d 1e9a 2a3d ebd5 8c3d e700 bc3c
00000130: 6bae 9d3d a7eb 973d 447d bc3c cde5 8f3d
00000140: a335 943d c2af b43d fb32 d63c 8feb a33d
00000150: ff34 cc3d 30f6 bf3d 9253 063d 9c2b c33c
00000160: 8f4d 833d 0687 323d fe3d 8e3d 85b8 5a3d
00000170: 9f38 093d 264f d03c 065f ef3c 30ce 903d
00000180: 2e56 b73c de52 6c3c c349 0f3d 7dd2 be3c
00000190: fdf1 0c3c b66d 883d 6b52 0e3d e5a1 973d
000001a0: ba5e 973c be79 333c 2e5f 683d 29f9 023d
000001b0: 51a1 093d 344c a53d ece5 b83c 1a96 8d3d
000001c0: 4a45 913d f6cb d73c 3ae5 843d 76ee 563d
000001d0: 9909 d13d 6ad7 0e3c 399a b43d f109 063d
000001e0: dad2 75ba ab36 8d3d a28b 693c c52e c63c
000001f0: a305 833c b3be 9e3c feae db3c c3f6 933d
0.020920413 0.044701125 0.018413054 0.019074887 0.023528297 0.012483964 0.014537775 0.0120013915
0.029229442 0.026544483 0.019418001 0.016424809 0.01173191 0.02840992 0.030594667 0.03743333
0.012200569 0.014551277 0.016492104 0.029252153 0.030571792 -0.09136551 0.014797185 0.022946902
0.04047247 0.049185548 0.034754086 0.027138252 0.01021434 0.046042737 0.01991969 0.059388313
0.034618065 0.039178737 0.008434768 0.061869644 -0.0131214475 0.040669218 0.078259625 0.03566862
0.02083585 0.03804027 0.03841853 0.031976845 0.01642553 0.032378294 0.006583915 0.07521156
0.08760574 0.010672542 0.03511594 0.036994293 0.062338743 0.010236442 0.014759757 0.026147468
0.026740653 0.063049786 0.035009414 0.020710826 0.053619206 0.011562327 0.017524464 0.07515604
0.024831172 0.034833744 0.05602392 0.030263774 0.041489165 0.017545259 0.014093192 0.022298869
0.072458535 0.041650884 0.06876739 0.022949649 0.07699283 0.07417994 0.02300895 0.07026253
0.07236793 0.08822586 0.026147356 0.080039136 0.09971046 0.093731284 0.032794543 0.023824506
0.064112775 0.0435858 0.06945418 0.053398628 0.033501264 0.025428366 0.029220115 0.07070577
0.02237996 0.014424054 0.034982454 0.023293728 0.008602616 0.06661551 0.03474657 0.07403926
0.018477786 0.010954319 0.056731395 0.0319759 0.03360111 0.08071175 0.022570573 0.06913395
0.07093294 0.026342373 0.06489034 0.052473508 0.10206909 0.008718351 0.08818478 0.032724325
-0.00093774276 0.06895193 0.014254482 0.024192223 0.015993899 0.019378042 0.026816841 0.072248004

MatMul f4 [128, 1536]
00000000: b74b 8a3c 15ec 213c 56d6 94bc 1d8e 27bd
00000010: 18ea 453c 59e6 84bc 07ad 9b3c d401 9cbb
00000020: 0638 d6bc 6f96 353c c2cd 5a3c 526d bebc
00000030: 1735 fa3c 523b 5dbd 7f9d 16bd 190a 28bc
00000040: e52e 2a3d cb8c a43c 6cd1 163c 1b5b aebc
00000050: 9ae8 f6bb 2706 76bc f084 c2bc f479 c63b
00000060: fb02 f83b e5a2 c73c 249a 32bc 0fa5 07bd
00000070: 16ae f73b 9e27 54bd 478e 883c 294c 78bc
00000080: 55ce 783c a76c 82bb 4b71 f1bb 0440 adba
00000090: 3f4c 01bc 553e 853c 90a9 c93b f7d8 6f3b
000000a0: 21e7 e83b b180 7e3c 5d01 b5ba a434 1fbc
000000b0: 5ad2 95bc c9cc c2bc 7296 e4bc 832b 433c
000000c0: 1cd6 c33c c9ee 333d 4a5b a03c 22fd c1bb
000000d0: a768 3bbc 6fe4 db3c e786 523c 2ae8 2ebc
000000e0: 9457 debc 04f9 8a3c c328 a3bc 7d71 aa3c
000000f0: cc00 303d f21e c13c f9ff aa3c 055f 07bc
00000100: ef65 b4bc 8dcf 043d b2b2 be3c 3317 f0bc
00000110: d088 913c c8b6 cd3c 4b3e 643d 3e4e db3c
00000120: 675e 1c3c 8845 adbc c9bd 5e3b caba 6d3d
00000130: bf34 fd3c f78e 5c3d 2ee9 e9bb 95d1 97bb
00000140: d089 023d 2c5b 48bc ba78 8ebb d5b7 2ebc
00000150: 7968 d8bb 255d 16bd eb6c 1c3c 5c68 14bd
00000160: 23d3 853d b183 a13b 6047 123c 9b31 a3ba
00000170: b994 b33b b803 6dbc fce8 23bd 5a11 86bc
00000180: 5776 f93a 4b5a c13c c80a cebb 4d76 18bc
00000190: 5d45 7d3c 371b b73c 5bf6 f53b 78dc babb
000001a0: b5e2 8ebc 625a c03c 7bc7 10bc 5c1f 2ebd
000001b0: 6d54 8cbc f381 d7bb b13f c7ba 17ca 5d3c
000001c0: 18d3 cf3c 65e4 85bc 5b48 213c 9e53 1bbc
000001d0: b684 8dbc af3d b7bc 8226 d83b 49d3 fa3c
000001e0: 056d 86bc 7529 213c 84d1 b3bc fdb7 eabc
000001f0: baec f03b af74 81bc 95cc 2abc 296e 95bc
00000200: af3a 07bd 0121 1cbd fe1c 2bbd 6bbf ecbb
00000210: d779 26bc 5f83 f63c 21d2 b3bc fbac 54bc
00000220: 8620 cdbc 22bc cdba 5f5a 49bc c3d1 a03c
00000230: 2c17 873b 40b5 703a 6bfb efbc a72d 18bd
00000240: 47ad 283c 5402 373d ab7b a7bc c230 ecba
00000250: 5910 923c 9f69 de3b 1e98 6abb 0e18 53ba
00000260: ef0e 5bbc 3f7b 563b aced d5ba d2b7 313c
00000270: 45d3 0f3d 3ffd 333d 4608 9dbc 2f6d e3bc
00000280: 006d 973b 570d a13c ee4f 203c 6671 fd3b
00000290: 5e3f 3dbc e520 a33b cbec 423d e2b7 933b
000002a0: 0b21 203d d57f 5fbc 2bbf 963b 7c9e a83c
000002b0: b738 b638 0b3f 093d 343f 65bb 7819 533c
000002c0: 908c c83b 3454 143c 40c2 1a3d 676c 19bd
000002d0: e61e f03c 0463 3e3c 806d 0a3c 7088 01bc
000002e0: 9f2b de3c 268c 0fbc 1298 b23c bca8 933c
000002f0: 9a46 0f3c d8f1 513b e074 22bc ec8a 2cbb
00000300: 2f6f f8bc 12b4 dd3b 1059 143b dc69 16bd
00000310: b933 cb3b 05dc 8eba 5a88 d5bb f9fd 8d3c
00000320: 8f56 66bc f24c 1bbc 3e42 0d3b c2a3 04bd
00000330: 702b aebb c6a2 c7bc bdba 0d3c 70ae 0dbc
00000340: 2a9a 8f3c bb30 05bc a79c 9ebb aa3a 3cbc
00000350: 41cc 1a3c 84a2 c03c ab93 8abb ae65 b03c
00000360: 6fe7 563b f9f6 5c3c b7ae 70bc 6566 09bd
00000370: 945a 93bc 1d59 e13c caae b63b 906c 0abc
00000380: 0886 48bc 73b8 35bd 9f30 36bd f4ac a23c
00000390: 206b f93c b364 c73c c6ed 053d 9d9a ce3c
000003a0: 3c92 4c3c 164b a83a 686f 6d3c e2be 1cbb
000003b0: ab9c 1dbd 0f9e 8abc e900 b9bc 30c4 ffbb
000003c0: 97cd 4fbb 42d2 603d 9740 cbbc 7efd e1ba
000003d0: af4c 4e3c f2bf de39 2ecd 6e3b 6d4e dabb
000003e0: f9dd 58bd b921 08b9 f9ee 3ebc 37f4 123c
000003f0: 9d89 67bc 600f 993d 3718 e1bc 055c f6bc
0.016881807 0.0098829465 -0.01816861 -0.040907014 0.012079738 -0.01622312 0.019003404 -0.00476096
-0.026149761 0.011083229 0.013354721 -0.023245487 0.030542893 -0.05401165 -0.036771294 -0.010256314
0.04154863 0.020086667 0.0092052035 -0.021283677 -0.0075350525 -0.015016115 -0.02374503 0.0060570184
0.0075687147 0.024369666 -0.010901008 -0.033116397 0.0075585945 -0.051795594 0.016669406 -0.015154877
0.015185912 -0.0039802375 -0.007368242 -0.0013217931 -0.007891714 0.016265074 0.0061542466 0.0036597827
0.007107631 0.015533612 -0.001380961 -0.00971714 -0.01828878 -0.02377929 -0.02790377 0.0119122295
0.023905806 0.043928895 0.01957478 -0.0059200684 -0.011438525 0.026842324 0.012849546 -0.010675469
-0.02714137 0.016964443 -0.019916898 0.020806069 0.04296951 0.023574326 0.02087401 -0.0082624005
-0.022021262 0.0324245 0.023278568 -0.029307937 0.017765433 0.025111571 0.05572347 0.026770707
0.009543992 -0.02115132 0.0033987632 0.058039464 0.03090894 0.05384728 -0.007138393 -0.0046331384
0.03186971 -0.012228768 -0.004347888 -0.010663946 -0.006604251 -0.036709923 0.009547452 -0.036232337
0.06534412 0.004929029 0.00892815 -0.0012450697 0.0054803756 -0.014466219 -0.040017113 -0.016365696
0.001903246 0.023602625 -0.0062879063 -0.009305549 0.015458432 0.022351844 0.0075061745 -0.0057025515
-0.017442087 0.023480598 -0.008836622 -0.042510375 -0.017130101 -0.0065767705 -0.0015201477 0.0135369515
0.025369212 -0.016344259 0.009843911 -0.009480385 -0.017275196 -0.02236828 0.0065963874 0.030618327
-0.016409406 0.009836544 -0.02195049 -0.028652186 0.0073524388 -0.01580271 -0.010424753 -0.018241005
-0.03301495 -0.038117412 -0.041775696 -0.0072249672 -0.010160885 0.03009194 -0.021950783 -0.012980695
-0.025039922 -0.0015696327 -0.012289613 0.019631272 0.0041226353 0.0009182282 -0.02929469 -0.037152912
0.010295219 0.044679955 -0.020444712 -0.0018019902 0.01783006 0.0067874934 -0.0035796235 -0.00080525957
-0.01337026 0.003272727 -0.0016321442 0.010847049 0.03511359 0.043942686 -0.019168984 -0.027762024
0.004621148 0.019659681 0.009784682 0.0077344654 -0.011550752 0.0049782866 0.047589105 0.0045080045
0.039094012 -0.013641317 0.0046004257 0.020583384 8.689e-05 0.033507388 -0.00349803 0.01288449
0.006120272 0.009053279 0.037782907 -0.037456896 0.029311609 0.011620287 0.008448958 -0.007906064
0.02712041 -0.008761441 0.021801028 0.018024795 0.00874486 0.003203502 -0.0099155605 -0.002632792
-0.030326454 0.006765851 0.0022636093 -0.03672205 0.006201234 -0.0010899311 -0.0065164985 0.017333018
-0.014058723 -0.009478794 0.0021554376 -0.032382734 -0.0053152367 -0.024369609 0.008650479 -0.008647546
0.017529566 -0.008129294 -0.0048404518 -0.011488596 0.009448112 0.023514993 -0.004229029 0.02153286
0.0032791754 0.013486617 -0.014690093 -0.033544917 -0.017987527 0.027508313 0.0055750357 -0.008448735
-0.012238987 -0.044365358 -0.044479962 0.019857861 0.030446589 0.02434001 0.03269746 0.02522021
0.012486037 0.001283976 0.014491893 -0.0023917486 -0.03847949 -0.016921071 -0.022583442 -0.00780537
-0.0031708234 0.054888017 -0.024811072 -0.0017241684 0.012591525 0.0004248615 0.0036438215 -0.006662181
-0.052946065 -0.00012982533 -0.011653655 0.008969358 -0.014131931 0.07473636 -0.027477367 -0.030073175

MatMul_1 f4 [128, 128]
00000000: 7a7b b93c 842d e8bc 36fa 0cbd 9a67 613d
00000010: 82f9 063d 341d 843d bb78 db3d 6f59 0ebd
00000020: cf07 023e 9d11 9b3d b494 03ba 8454 27bd
00000030: 7f87 1e3d e59d fcbc 8beb 3abd a90d 073e
00000040: adac 033d 6a36 bc3c 90fe 73bc 8851 ccbc
00000050: b16e 123b 1516 e73c e862 b23d 954b 6b3d
00000060: 9545 b3bc 74d5 9dbc c39e 37bd a44a ac3c
00000070: 3505 82bd 5b1c 82bc 23ab e03d 633b 6d3c
00000080: 6498 793d 9e43 dbba 36a4 073d eb9c 073d
00000090: 67ce 843d 8eb2 8fbd af89 afba 506e 9c3d
000000a0: 493e 023e d428 bc3d a970 7c3d c5cd a23b
000000b0: 8654 d9ba a448 fe3d 8756 9d3c 21de d43c
000000c0: ec69 d3bc e320 bc3d b972 aa3d 89e0 ae3d
000000d0: 54c1 793d 1206 a13c 1ab0 ea3d 63ab 01bd
000000e0: 3400 093d 78ca ff3d 07fc ba3a 8c8c db3d
000000f0: ad94 b7bc 9dfd 293e 24a6 8d3d d385 793c
00000100: 126d 74bb 4dd6 f43c 6dbb 113c 41cf b6bc
00000110: 7905 663d 2cec a93b 4c7d 623d 21fc 053d
00000120: 8978 9dbd 1418 c83d 4700 7abd 3cf5 edbd
00000130: 1137 123d 9312 0b3d ea4d bc3d 01c7 ae3d
00000140: 95ed ac3d ac08 533d 95c0 183c ede1 57bd
00000150: 3e21 ecbc 4d7f 17bd 8e16 c43d e430 443d
00000160: 58aa ae3d 347c 083d 8dc3 afbd 298b c7bd
00000170: eb0d 5dbc 0be7 13bd 8580 c13d fd2a a93c
00000180: d803 4a3d 1ab0 e13d 6def b63d 351e bbbc
00000190: f080 f03d 97c4 8f3c 8d48 d73c 1429 ef3d
000001a0: 3320 9bbc d536 ad3d dc1f 003e 847c c8bd
000001b0: 7636 803d fedf 9a3d a748 ee3c 9ce6 d5bb
000001c0: d589 413c 2d71 11bd 1500 d4bc 8601 fc3c
000001d0: 8522 f33c f94e 1c3d 1754 8abd b5e7 8e3c
000001e0: 7d3b 81bd eea4 9f3d 06b7 2c3e e037 86bd
000001f0: 8422 273d 4ec1 2b3b b535 31bd c1a2 e83d
00000200: cd52 4abd 32aa a33d b30e 64bd db6a 613b
00000210: 0f68 483c 82b0 a2bc 95db 6d3c e154 f73c
00000220: 74aa c8bd 8bfa ba3c 3e58 f6bc e3ea 79bd
00000230: 7633 7b3a 8493 08bd 823f c5bd f0b3 0bbe
00000240: cf15 4abc 9183 7dbb db8f 453d a4d7 d33c
00000250: 50e0 83bd 2def b8ba 23c3 9abc d159 89bd
00000260: a4ee a73c 8c6f 91bd b226 70bd 3d71 7cbc
00000270: ec95 9e3d 40bf 3e3d d6ad b8bd 5805 fabb
00000280: 81a1 9f3c 78c8 aa3c 1944 0b3d 931d 49bd
00000290: 5809 343c 984b 33bd 3844 7cbd e0ad 6cbd
000002a0: 9205 7d3b 52d3 623d 2077 a0bd b319 a6bc
000002b0: 0e8a 3b3d c2f1 4dbc e23c 83bc c338 93bc
000002c0: 7276 4d3d d164 103d aaa6 2bbd 714b 6d3c
000002d0: b50a 42bd e464 d1bc b54e e1bd 49b9 a5bc
000002e0: 41eb 80bd 168b 62bd 9e8d cebd 6178 8abd
000002f0: 3658 90bd 85e7 c7bd 11f0 dcbd 3f69 553d
00000300: 5a81 743b e891 f83c f8c8 863d 8293 fdbc
00000310: 271d a93c 668d 91bd 1529 aebc 1734 dcbb
00000320: 3075 ff3c 353a 0f3d 4169 c53c aa51 b43d
00000330: be20 933b fff7 7cbd 179c 27bd 08e7 f3bc
00000340: f514 1c3d b1b7 b43c ac8d 033d 65a7 ba3c
00000350: d4cb 2f3d 8eda 6ebd bb46 d7bd a82c 16bc
00000360: 3d0b 85bc d10e 9ebd a7e5 fbbc 0368 673d
00000370: d3b1 c5bd d3d6 d6bc db27 9abc d4c3 c6bc
00000380: 4653 0f3d efcc f0bb d7f4 bb3c 23de 69bc
00000390: d810 773b 8ef4 a5bb 2a5a 0a3d 1fb2 ad3d
000003a0: 07fc 5b3c e620 663d 856c 8bbd cefd 4f3d
000003b0: b58f 55bd 1da8 1e3d 8c60 0c3d aacb aabb
000003c0: 2b05 74bc ff00 833d f0ca 0a3d 15f7 c23c
000003d0: acc3 e0bb 17ec 54bc 9005 ac3b eed1 04bb
000003e0: 6d08 a13d 8bda 1a3d 522d 24ba d969 8c3c
000003f0: ffa9 a83d ff24 093d 6a66 0fbd c279 823a
0.022641886 -0.028342016 -0.034418307 0.055030443 0.032952793 0.064508826 0.10716387 -0.03475326
0.12698291 0.07571719 -0.0005019412 -0.040852085 0.038703438 -0.030837009 -0.045634788 0.13188805
0.0321471 0.022975165 -0.014892235 -0.02494122 0.002234381 0.028208772 0.08710271 0.057445128
-0.021883765 -0.019266821 -0.04482914 0.021031685 -0.063486494 -0.015882662 0.10970142 0.014479491
0.060936347 -0.0016728526 0.033115588 0.033108633 0.064846806 -0.070164785 -0.0013392473 0.07638228
0.12719072 0.09187475 0.06163088 0.0049683773 -0.0016580976 0.12416199 0.019206299 0.025984826
-0.025807343 0.0918596 0.08322663 0.085389204 0.060975388 0.019656215 0.1145937 -0.031657588
0.03344746 0.1248979 0.0014265784 0.107201666 -0.022409761 0.16600652 0.069164544 0.01522966
-0.0037296456 0.029887343 0.008894783 -0.022315623 0.056157563 0.0051856246 0.055295274 0.032711152
-0.07689006 0.097702175 -0.06103542 -0.1161904 0.035697047 0.03395326 0.091945484 0.08534051
0.08443753 0.051521942 0.009323259 -0.052705694 -0.028824445 -0.036986638 0.095746145 0.04789819
0.08528584 0.033321574 -0.0858222 -0.097433396 -0.013492088 -0.03610901 0.09448341 0.020650381
0.049320072 0.11019917 0.089323856 -0.022841552 0.11743343 0.017549796 0.026279712 0.11677757
-0.018936252 0.08457724 0.12512153 -0.097893745 0.062603876 0.07562254 0.029087378 -0.006527735
0.011812647 -0.035508323 -0.025878945 0.030762445 0.029679546 0.03816125 -0.0675432 0.01744447
-0.063101746 0.0779513 0.16866693 -0.06553626 0.0408044 0.0026207748 -0.04326411 0.11359168
-0.04939537 0.079914466 -0.05567808 0.0034395966 0.012231841 -0.019859556 0.0145176845 0.03019184
-0.09798136 0.022824546 -0.030071374 -0.06101502 0.00095825584 -0.033343807 -0.09631254 -0.1364286
-0.012334301 -0.0038683156 0.048232894 0.025859661 -0.064392686 -0.0014109366 -0.018891877 -0.06706584
0.020499535 -0.07101354 -0.058630653 -0.0154078575 0.07743439 0.04656911 -0.090175316 -0.0076300316
0.01948619 0.020847544 0.03400049 -0.04910047 0.010988556 -0.043773264 -0.061588496 -0.057783008
0.0038608056 0.055377312 -0.07835221 -0.020275926 0.045785956 -0.012569847 -0.016020242 -0.017971402
0.050161786 0.035252396 -0.04190699 0.014483319 -0.047373492 -0.025560804 -0.1100134 -0.020229952
-0.06294871 -0.055308424 -0.10085605 -0.06761242 -0.07048075 -0.09760956 -0.107879765 0.052102324
0.0037308545 0.030343011 0.065813005 -0.030954126 0.020643784 -0.07107048 -0.021259824 -0.006720077
0.031183809 0.03496762 0.02409804 0.08804639 0.004489987 -0.061759945 -0.040920343 -0.02977325
0.038105924 0.022060247 0.03211753 0.022784898 0.042918995 -0.0583139 -0.10511538 -0.00916592
-0.01624071 -0.0771767 -0.030749155 0.056495678 -0.09653058 -0.026225483 -0.018817833 -0.0242633
0.034991525 -0.0073486487 0.022943897 -0.014274153 0.0037699249 -0.0050645536 0.033777393 0.084812395
0.013426787 0.05618372 -0.06807808 0.050779156 -0.052139003 0.038734544 0.03427176 -0.005212267
-0.01489381 0.06396674 0.033884943 0.023799459 -0.0068592634 -0.012995741 0.0052496865 -0.002026673
0.07862935 0.037806075 -0.0006262857 0.017140316 0.08235549 0.033482548 -0.03500978 0.00099545

MatMul_2 f4 [1, 128]
00000000: be9e 963d a618 96bd 820b b03d 021d 583d
00000010: fb1f a73d 3111 103e 2141 e93d af06 013e
00000020: ba43 bb3d e861 263e 54bb f13d 3a97 c33d
00000030: 4292 bf3d aeca e73d dfd5 743d 3596 803d
00000040: 555a e53d c603 da3d 1800 e13d 451a 873d
00000050: d5c8 e53d 9042 c53c c079 a93d 38e0 fd3d
00000060: d600 103d ed5a 0d3e 752f 103e bee6 183e
00000070: 62cc 033d c073 003e b058 e33d 09bc e6bd
00000080: c744 003e cec3 873d efdc d3bd 4e51 29be
00000090: 498c 053c e7cf b63d e413 afbd 5940 153e
000000a0: b626 ea3d c03b 993d 7b8c d13d 08b4 6f3d
000000b0: d6c7 8a3d 60b2 673d 2ce7 f33d 1536 3dbe
000000c0: 6058 16be f76f 9b3d 80d4 c83d 731d 2d3e
000000d0: c7dd 1c3e aa5a 2d3d c423 c83d 375b 223d
000000e0: 1d45 4d3d d5c0 0cbe b995 013e fb78 b13d
000000f0: 0a5a a6bd 84e0 c53d 9898 053e 11e9 43be
00000100: 2cd0 d73d 19bb 093e 196b 7e3d cacd 9f3d
00000110: 3b89 673d 71b1 ea3d d2f1 c13d 2597 bbbd
00000120: 5d2c 22be d508 923d f67f b2bd 3d03 e5bd
00000130: e8b4 f7bd 34cc 24be 8778 133e 65db afbd
00000140: 957e dabd 75ad 1fbe 0c2a da3d 9e72 29be
00000150: a770 30be 4efe 25be a0ef 8b3d 8471 373d
00000160: d4de 26be 17d8 0cbc ac72 993d c484 17be
00000170: dfdd 893d 8093 ac3d a535 ee3d 9e44 b9bd
00000180: 307d 6b3d a794 7e3d b998 c83d 6a16 693d
00000190: 9e0b 813d c2f1 26be cf8d da3d 1b3b 11be
000001a0: cdd4 a43d bc94 5e3d 52e3 3dbd 1df9 3e3e
000001b0: 157e 093e 955b ccbd 8fb0 bb3d 3954 3dbe
000001c0: 8df8 2bbe 7998 ec3d 5529 2cbe bd5f bf3d
000001d0: 39e3 6cbe ebf2 cb3c e050 02be 0d93 063e
000001e0: a080 423d 76d4 3bbe 3b19 b83d 1948 073e
000001f0: 7b11 133e 3a39 6b3d 92db 8d3d d55a 01be
0.073544964 -0.0732892 0.08595945 0.05276204 0.08160397 0.14069058 0.113893755 0.12600206
0.09143777 0.16248286 0.11803308 0.095503286 0.09354068 0.11317955 0.059774276 0.0627865
0.1119887 0.10645251 0.10986346 0.065968074 0.11219946 0.024079591 0.08275175 0.12396282
0.035157047 0.13804217 0.14080603 0.14931771 0.032177337 0.12544155 0.111009 -0.112663336
0.12526236 0.06629144 -0.10344874 -0.16534922 0.008151122 0.08926373 -0.08548716 0.14575328
0.11433165 0.074820995 0.10231873 0.0585213 0.06776397 0.056566596 0.11909327 -0.18477662
-0.1468215 0.07589715 0.09806156 0.16905765 0.15318976 0.042322792 0.09772447 0.03963777
0.05011474 -0.13745435 0.12654771 0.08665653 -0.08122642 0.096619636 0.13046491 -0.19131877
0.105377525 0.13450278 0.062113855 0.07802923 0.056527358 0.114596255 0.09469952 -0.09159688
-0.15837236 0.07130591 -0.08715813 -0.11182258 -0.12095052 -0.16093522 0.14401446 -0.08586768
-0.10668675 -0.15593512 0.10652551 -0.16547629 -0.17230473 -0.16210291 0.06832814 0.04478599
-0.1629594 -0.008596442 0.07492575 -0.1479674 0.06731772 0.08426571 0.11631326 -0.09046291
0.057492435 0.062153485 0.097947545 0.05690614 0.06301044 -0.16303161 0.10671579 -0.14182703
0.08048401 0.054341063 -0.046359368 0.18649717 0.13427003 -0.099784054 0.09164535 -0.1848916
-0.16794033 0.11552519 -0.16812642 0.093444325 -0.23133554 0.024896106 -0.12726164 0.13142033
0.047485948 -0.18342766 0.08989187 0.13211097 0.14362137 0.057427622 0.06926645 -0.12632306
