wkey/openwakeword_models/tflite/hey_lama_pos_train.tflite (tflite, 860700 bytes, 9 tensors)

Const_1 f4 [128]
000000 0e 30 cf bb f7 1e b2 bb 53 84 f8 bb 23 82 ac ba
       -0.0063228672 -0.00543582 -0.0075841337 -0.0013161342
000010 08 9d 8b bc b6 ca fb 3c d5 82 8c 3b df 69 83 3b
       -0.017042652 0.030736309 0.0042880573 0.0040104236
000020 43 50 c4 3c 54 ff 75 3b ea 9b 14 3d 4d 4b a6 bb
       0.023964053 0.003753622 0.036281504 -0.0050748945
000030 32 f9 95 bb b6 31 92 3b e3 1c a1 3c 10 aa 6b 3c
       -0.0045768255 0.0044614924 0.019667095 0.014383808
000040 dc 5f 39 bc b5 19 dd 3c d5 49 fa 3b 5f 44 07 3d
       -0.011314359 0.026989797 0.007638196 0.033024188
000050 f3 57 b7 3b 16 cf 7f 3c 93 dd b1 3c 21 ea c8 3c
       0.005595201 0.015613338 0.0217121 0.024525704
000060 a3 1d b6 3c fe c4 ef 3c e7 8b 6e 3c a5 d4 1d bc
       0.022230929 0.029268738 0.0145597225 -0.009633218
000070 f3 76 03 3d 78 a6 45 3c a3 bb 37 bc 8c cc 89 3c
       0.03209586 0.012063615 -0.01121417 0.016821168
000080 6e ad 94 3c e3 84 cf bb cb 1e 5b 3c 9b b2 da 3c
       0.018149104 -0.00633298 0.013374041 0.026696494
000090 c3 9c 4c 3b 0b 42 89 3c 18 d1 6b bc 35 52 c4 3c
       0.0031221367 0.016755125 -0.014393114 0.02396498
0000a0 7d 41 87 ba cd fb a4 3c f4 6d 71 3c 8f ed d3 3c
       -0.00103192 0.0201396 0.0147356875 0.025870113
0000b0 4c 93 82 bc 39 a7 8c 3b 27 a2 05 bb b6 16 3c 3a
       -0.015939377 0.0042923954 -0.002039084 0.0007175015
0000c0 8d 30 0a 3c 4a ab ae 3a fa 75 07 3c c8 07 5b 3c
       0.008434427 0.0013326195 0.008267874 0.013368554
0000d0 95 45 3f 3c a4 cb 92 3c 3f 00 46 bc 73 b6 26 3c
       0.0116743045 0.017919369 -0.01208502 0.010175335
0000e0 a8 cc b5 b8 1d 09 8b 3c e4 6e 72 bc 88 15 02 bc
       -8.668873e-05 0.016972119 -0.014796946 -0.007939704
0000f0 1f 90 d4 3c b0 89 f1 3c 1d 54 d2 3b 49 aa b2 3b
       0.025947629 0.0294846 0.0064187185 0.0054524285
000100 a8 86 f5 3c 3b 6f ff 3c e5 eb 72 bb dd c3 d2 3c
       0.029971436 0.031180969 -0.0037066874 0.02572816
000110 1a 56 7e 3a 79 31 f6 bb 5d cb 04 3d e2 e8 0e ba
       0.0009702161 -0.007513222 0.032420505 -0.00054515724
000120 5d 75 62 3c 18 62 b7 3c 84 e8 f7 bb 13 ad 38 bc
       0.013821927 0.022385642 -0.00756556 -0.011271733
000130 52 09 a1 bc 39 8a 9e 3c 53 95 ff 3c a9 40 f8 3c
       -0.019657765 0.01935302 0.031199133 0.03030427
000140 ae 6c 1a 3d 12 30 dc 3c f7 40 8a 3c 66 09 d1 3b
       0.0377013 0.02687839 0.01687668 0.006379294
000150 75 c0 b4 3b 97 1d 80 3c e2 d0 e9 3b fd b0 d0 3c
       0.0055161067 0.01563911 0.0071354965 0.02547502
000160 51 e4 97 3c e4 04 88 3b fc 7c d4 3c 5b bd 3c 3c
       0.018541487 0.0041509736 0.025938503 0.011519755
000170 9a a8 8b 3c a6 fe f5 3c cf df 21 3a 7b e1 ac bb
       0.017048169 0.030028652 0.00061750127 -0.005275903
000180 d6 1b 42 3c 3d ec a3 3c e5 90 e5 3b c4 a2 ca bc
       0.011847457 0.020010108 0.007005798 -0.024735816
000190 44 91 04 3d 75 ab 1b 3d 14 e5 0b 3d 66 ac 05 bc
       0.0323651 0.03800531 0.034154013 -0.008158779
0001a0 4e ca fc 3a f0 7f 78 3c b9 e0 d9 bb 94 2f 4c 3c
       0.0019286366 0.015167221 -0.0066491035 0.012462515
0001b0 dc cd 77 3c c3 75 0e bc 1f f4 bf 3c 9c c8 c7 3c
       0.015124764 -0.008695069 0.023431836 0.02438765
0001c0 70 08 dc 3c 69 49 bc ba 94 70 01 3d c4 78 5a 3c
       0.026859492 -0.001436514 0.031601503 0.013334457
0001d0 f3 1e 9e 3b 7f 22 00 3b 28 24 58 3c af 37 68 39
       0.004825467 0.0019551811 0.013192214 0.00022145988
0001e0 6f b5 1e 3d c8 ea fe 3b b0 e3 2b 3c 3f d5 94 3c
       0.038747247 0.007779453 0.010491297 0.01816809
0001f0 d2 43 ae 3b bb b2 69 bc 54 6c bc 3c e6 8d d3 3c
       0.0053181434 -0.014263804 0.023000874 0.025824498

Const_2 f4 [128]
000000 44 01 82 3f 7d f2 78 3f 41 ca 80 3f 34 4c 7d 3f
       1.0156636 0.9724501 1.0061723 0.989444
000010 8b 0a 83 3f af b9 76 3f 8d b6 85 3f ac d3 83 3f
       1.0237592 0.9637708 1.0446335 1.0298972
000020 23 86 7a 3f c2 b1 87 3f 7e a5 80 3f 99 e3 7a 3f
       0.97860926 1.0601122 1.0050504 0.98003536
000030 57 17 81 3f 15 89 7c 3f d8 72 86 3f 41 b2 83 3f
       1.0085248 0.9864667 1.0503798 1.0288774
000040 9c c3 89 3f 87 21 81 3f 9e 5a 7d 3f 6c d6 87 3f
       1.076282 1.0088357 0.98966396 1.0612311
000050 9c 34 86 3f 72 c3 80 3f 16 f2 83 3f 28 f6 81 3f
       1.0484805 1.0059645 1.0308254 1.0153246
000060 db d1 81 3f f6 95 7a 3f 19 db 80 3f 71 49 74 3f
       1.0142168 0.9788507 1.0066863 0.9542456
000070 6b bf 84 3f 91 5e 7b 3f 2b aa 83 3f 43 2c 7b 3f
       1.0370916 0.9819117 1.0286306 0.98114413
000080 08 dd 83 3f ff e1 82 3f b7 83 7d 3f 61 ea 79 3f
       1.0301828 1.0225219 0.99029106 0.9762326
000090 12 5a 7e 3f d4 4a 83 3f f9 47 7e 3f 69 74 7f 3f
       0.99356186 1.0257211 0.9932857 0.99787
0000a0 13 91 85 3f 5a 1c 85 3f 83 67 79 3f a4 9c 84 3f
       1.0434898 1.0399277 0.9742357 1.0360303
0000b0 bb 11 84 3f 89 f4 81 3f 49 8e 78 3f f9 6e 86 3f
       1.0317911 1.0152751 0.9709211 1.0502616
0000c0 e8 36 85 3f c4 3e 7b 3f 86 bb 75 3f 18 f8 7c 3f
       1.0407381 0.9814265 0.95989263 0.9881606
0000d0 6d 71 80 3f 1b cb 80 3f 5b f8 7c 3f 44 3e 82 3f
       1.0034615 1.0061983 0.9881646 1.0175252
0000e0 9b 04 81 3f 32 98 85 3f ba b1 7c 3f 97 b6 7b 3f
       1.007953 1.0437071 0.9870869 0.98325485
0000f0 67 e6 82 3f 66 df 7a 3f bf 52 7f 3f 11 71 82 3f
       1.0226563 0.9799713 0.99735636 1.0190755
000100 3a 38 7a 3f 03 66 80 3f f6 2c 83 3f 3f 06 81 3f
       0.97742045 1.0031132 1.0248096 1.0080031
000110 7a 81 7c 3f 22 84 7b 3f f5 bd 76 3f d0 e5 7c 3f
       0.98635066 0.98248494 0.963836 0.98788166
000120 47 24 84 3f d9 01 80 3f 18 2e 80 3f eb 73 80 3f
       1.0323571 1.0000564 1.0014067 1.0035375
000130 ca 00 80 3f 09 53 82 3f fc 26 82 3f 80 80 80 3f
       1.0000241 1.018159 1.0168147 1.0039215
000140 ca 03 7d 3f b0 2d 7d 3f 3a 78 83 3f 7e de 7f 3f
       0.98833907 0.9889784 1.0271065 0.9994887
000150 d2 a4 7f 3f cd 6d 84 3f 27 9a 85 3f cd c4 88 3f
       0.9986087 1.0346009 1.0437669 1.0685059
000160 43 54 83 3f f3 ee 84 3f b8 5b 83 3f 7e 45 81 3f
       1.026009 1.0385422 1.0262365 1.0099332
000170 4c da 83 3f aa a3 7a 3f 6e bd 84 3f 32 57 85 3f
       1.0300994 0.9790598 1.0370309 1.0417235
000180 c7 5e 81 3f 5e be 7d 3f 2e bf 7c 3f 24 6a 88 3f
       1.0107049 0.991186 0.9872922 1.0657392
000190 a0 97 77 3f bd 1e 8a 3f cf cb 7c 3f df 64 81 3f
       0.96715736 1.079063 0.9874849 1.0108908
0001a0 6d 82 83 3f 5a c1 81 3f 73 44 79 3f 4f 2c 7f 3f
       1.0274178 1.0137131 0.9737007 0.99676985
0001b0 1e fb 81 3f fd 88 87 3f a0 e1 7f 3f 81 29 83 3f
       1.015476 1.058868 0.9995365 1.0247041
0001c0 61 49 86 3f fd 44 86 3f 9d e3 83 3f e7 ea 83 3f
       1.0491143 1.0489804 1.0303837 1.0306062
0001d0 64 c5 85 3f 8c 89 7c 3f 6d ae 7c 3f d7 5d 84 3f
       1.0450864 0.9864738 0.9870365 1.0341138
0001e0 06 a5 7e 3f b8 e4 79 3f 7f e0 80 3f f6 e6 82 3f
       0.99470556 0.9761462 1.0068511 1.0226734
0001f0 30 79 82 3f 95 3e 83 3f 02 c8 78 3f 3f 37 82 3f
       1.0193233 1.0253474 0.9718019 1.017311

Const_3 f4 [128]
000000 95 ee bf 3b 8e 81 97 bb 3c ea 0b 3c 47 db 4a bc
       0.0058572986 -0.0046235984 0.008539733 -0.012381381
000010 f0 f7 47 b9 3c 87 eb bb 89 1e 1c 3c a5 44 2d 3c
       -0.00019070483 -0.007187752 0.0095287645 0.010575448
000020 1a 56 a8 bc 75 61 24 3c 8e 1f 84 3b aa a0 65 bc
       -0.020548869 0.010033001 0.004032082 -0.014015356
000030 18 81 88 3a 52 6a 64 bc 49 b3 2b 3c c5 9b 25 bb
       0.001041445 -0.013941364 0.010479757 -0.0025269848
000040 b0 01 02 3c 8f f8 9b 3a bd de 19 bc 4e 62 2b 3c
       0.007934973 0.0011899638 -0.009391484 0.010460449
000050 43 44 19 3c b0 14 b2 bb 14 18 c7 bb 90 9a 06 3c
       0.009354654 -0.005434595 -0.0060758684 0.0082155615
000060 7e a7 e0 3a dc f8 a6 ba 96 7d b3 3b da da af bb
       0.001713976 -0.0012738961 0.0054776175 -0.0053666653
000070 c7 e7 05 3c c8 2a ca bc 85 bf 1c bc 86 b6 52 3b
       0.008172936 -0.024678603 -0.009567146 0.003215225
000080 c9 61 33 3b a9 06 39 bb 99 f0 57 bc dc 00 af bc
       0.0027371517 -0.002823273 -0.013179922 -0.021362714
000090 67 96 13 3b ff 1f f0 bb bd 11 7e bb 6a 87 27 3b
       0.0022520067 -0.007328033 -0.0038767897 0.002556289
0000a0 d5 b2 15 bb ef 0d 6a 3b 92 e9 e8 bc 35 af e0 3a
       -0.0022842188 0.0035713871 -0.028431688 0.001714206
0000b0 1e 2e f5 bb 5f 3a c2 bb da e6 8d bc c5 1e 0b bc
       -0.0074823042 -0.0059273685 -0.017321993 -0.008491223
0000c0 dd f7 9f bb fe 6f 9e bb 7a a8 45 bc a8 e7 8b bc
       -0.0048818425 -0.004835128 -0.012064094 -0.017078236
0000d0 35 04 8b ba 6e 2f 15 ba 50 95 68 bc 0f 3f 29 bc
       -0.0010606112 -0.00056909665 -0.014195755 -0.010329976
0000e0 ec 0b 0c 3b ee 1e 23 3c a7 8b 89 bc 16 1a 8a bc
       0.002136941 0.009956105 -0.016790224 -0.016858142
0000f0 7b fd ad ba e5 cb f5 bb 7d bd 16 bc ce 77 50 bb
       -0.0013274396 -0.0075011128 -0.009200451 -0.003180969
000100 24 08 a8 bc 97 1f 26 3c 90 65 29 bc 77 0a 4d bb
       -0.020511694 0.010139368 -0.010339156 -0.0031286755
000110 fa 39 3a bb 75 e9 2d 3b a1 1f 68 bc 75 93 b4 bb
       -0.0028415904 0.0026536856 -0.014167697 -0.0055107423
000120 69 36 f5 3b 7e ad 1f bc c9 e5 b0 3b 3c 5d 11 bc
       0.007483293 -0.009745954 0.0053984863 -0.008872326
000130 54 8d 75 bc e9 35 51 3b 36 ce 40 3c 44 41 06 3c
       -0.0149873085 0.0031923002 0.0117679145 0.0081942715
000140 55 ce 0d bb d8 69 8f bb d6 d4 8c 3b fc 75 2c 3b
       -0.0021637876 -0.004376631 0.004297833 0.0026315441
000150 58 9f 0f bc 12 be a3 3b b8 f8 ae 3b 65 14 cb 3b
       -0.008766018 0.0049970234 0.005339708 0.0061974996
000160 71 d0 5f ba 93 41 ab bb 12 73 8b bb 31 93 f0 3b
       -0.0008537835 -0.005226323 -0.004255661 0.0073417653
000170 b1 4a 64 bc b1 c1 e3 bb dd 3c 06 bb 8f ec f6 39
       -0.013933823 -0.00695058 -0.0020483055 0.00047097026
000180 79 b5 91 bc cc 92 78 3b e1 4d 88 bc 5d b1 54 3c
       -0.017786728 0.0037929295 -0.016638698 0.01298174
000190 a3 f4 48 bc 95 9a 63 3c 00 00 13 bc 20 fb ce 3b
       -0.012265357 0.013891836 -0.008972168 0.0063165575
0001a0 08 34 20 3b 7e ac cb bb c1 5a 9f bc 7c 9c ad 3b
       0.0024445076 -0.006215631 -0.019452455 0.0052981954
0001b0 ea 91 23 3c 06 ee 30 bb a3 eb d8 bb 0b 8e 2f bb
       0.009983519 -0.0026997342 -0.006619887 -0.0026787545
0001c0 c9 75 f8 3b c6 5a 0b 3c 89 af 21 3c 5e ef 4a 3c
       0.0075824005 0.008505529 0.009868511 0.012386171
0001d0 c8 16 a2 39 7e 10 9a bc 38 de 14 bc 0d 7e b1 3c
       0.0003091602 -0.018806692 -0.009086184 0.021666551
0001e0 f1 b4 29 3b 6c 2f d8 bc 43 a0 50 3c 9a 15 6c bc
       0.0025895203 -0.0263898 0.012733522 -0.014409447
0001f0 c9 c3 82 ba 41 b8 0f bc c4 ce 51 bb d8 6c a6 bc
       -0.0009976561 -0.008771957 -0.003201411 -0.020315573

Const_5 f4 [128]
000000 bb fd 5b 3d 68 b3 15 3d a3 8d b1 3d 02 0a 80 3d
       0.053708773 0.03654805 0.08669593 0.06251909
000010 6a 30 24 bd f8 9b 1f 3d c4 e7 a6 ba e9 2c db bc
       -0.040085234 0.038967103 -0.0012733866 -0.026754813
000020 ec 21 9b bd e0 c4 81 3c f3 e1 98 bd 2e 79 1e 3d
       -0.075748295 0.015840948 -0.074649714 0.038689785
000030 fd 33 83 bd 32 dd 8b bd 7e c7 28 3c ab a4 a8 bc
       -0.064064 -0.06829299 0.010301469 -0.020586332
000040 82 fd f5 bc 7a 7c 4e 3d 1d e7 7c 3d 2e 97 51 3d
       -0.030028109 0.05041168 0.061743844 0.051169567
000050 86 e5 a1 bd a8 4a a8 3d 62 03 06 bd b0 7f 5f bd
       -0.07905106 0.082173645 -0.03271807 -0.05456513
000060 0b 03 7b 3d 07 0e 5f bd d1 00 7c 3d 61 a4 8e bc
       0.0612822 -0.054456737 0.061524216 -0.017412366
000070 52 45 29 3d b2 fa 9d bd 12 e7 d1 ba 4e b3 19 3d
       0.041325875 -0.07713832 -0.0016014299 0.037524514
000080 61 de 49 bd 9d 92 4d 3c 2d 70 81 3d f2 d3 c5 bc
       -0.049284343 0.012547162 0.06320224 -0.024148915
000090 73 15 bb bd 66 d0 80 3d 33 92 fd ba cf c1 6e 3b
       -0.091349505 0.06289749 -0.0019345939 0.0036431437
0000a0 d6 09 2a bd 54 d8 59 bd ad 1e 1b 3d 69 9f 99 bd
       -0.041513287 -0.053184822 0.03787105 -0.07501108
0000b0 30 1a b1 3c 36 4d 40 bd a7 7a 7a bd a3 40 38 3d
       0.021618932 -0.046948634 -0.061152127 0.044983517
0000c0 9c b3 bc 3b 33 c5 88 3c 74 1a 61 3d f1 70 38 3d
       0.005758716 0.016695594 0.05495687 0.045029584
0000d0 4b 07 9a 3d 16 5a a5 bd 3f 2e ca 3c 75 2a e4 bb
       0.07520922 -0.08073823 0.024680255 -0.006963069
0000e0 37 fa c4 bc e9 ee 30 3c f0 cc bf 3b 94 20 4c 3a
       -0.024045093 0.010799148 0.005853288 0.0007786837
0000f0 c3 d3 af 3c 22 c4 5f bd ac 1b 38 3c c7 38 ba 3b
       0.02146328 -0.054630406 0.011237066 0.005683038
000100 2c da 31 3d 03 08 c8 3c 0e 60 a5 bd fd b8 40 3d
       0.043420956 0.024417883 -0.080749616 0.04705142
000110 06 c5 64 3c 1a 1d 65 3d 5f 5e 3d ba 1e bd 64 3d
       0.01396299 0.055935957 -0.000722384 0.05584442
000120 66 b7 19 3d 05 4b ab 3d d3 7e 90 3d 38 ff 61 3d
       0.037528418 0.08363918 0.0705544 0.055175036
000130 12 c6 87 3d d6 65 09 bd 9c a3 d8 3c 8b 02 af bc
       0.06629576 -0.033544384 0.026445203 -0.021363517
000140 2b 05 54 3d 87 ac 92 bc 25 0b 86 bd 2c 0a 45 bd
       0.05176274 -0.017904533 -0.065450944 -0.048105404
000150 0d 20 ba bd fd ab 8f 3d 5f a6 96 3d ab c8 9c bd
       -0.090881445 0.07015226 0.073559515 -0.07655462
000160 4f 5e 68 bd 00 10 9f bc b2 a1 ef 3c 7f 79 e5 3c
       -0.056730565 -0.01941681 0.029251907 0.028012035
000170 0c 24 7d 3d b6 27 8e bd 35 75 9c bc 7e f3 2b bd
       0.061801955 -0.06941168 -0.019098857 -0.04198026
000180 ab 43 4b bc d1 bb 96 bd 74 b3 3c 3d fa 0e c0 3d
       -0.01240627 -0.07360042 0.046069577 0.093778566
000190 fd bf 74 bd 11 fa b0 bc b1 77 a4 bc d8 64 69 bd
       -0.059753407 -0.021603616 -0.020076605 -0.056980938
0001a0 61 a5 84 bd b8 4d 4b bd ea 61 1f 3c 4c 94 a6 3d
       -0.06476856 -0.049634665 0.009727934 0.08133754
0001b0 c8 32 b0 bd 88 45 a0 bd 21 57 05 3d 0f e5 05 3d
       -0.08603436 -0.07825762 0.032553796 0.03268915
0001c0 66 fe a8 bd 2f ff 5b bd 95 f8 35 3c 9f 1d 71 bd
       -0.08251648 -0.05371016 0.01110663 -0.05886614
0001d0 31 9b 88 3c 1c 54 89 bd 4b 84 0e bd fa ae 28 bc
       0.016675564 -0.06705496 -0.034794133 -0.010295624
0001e0 4e db d9 bb af a6 75 3d f6 9d 96 bd 9f 15 9a 3c
       -0.0066484576 0.059973415 -0.073543474 0.018809138
0001f0 a0 1d db bc f2 38 10 bd 79 43 53 bd bd 10 82 ba
       -0.026747525 -0.035210557 -0.05157802 -0.0009923201

Const_6 f4 [128]
000000 68 aa 87 3f 43 31 89 3f 0e da 8c 3f cf 4e 8c 3f
       1.0598879 1.0718158 1.1004045 1.096155
000010 e1 fe 89 3f 64 c9 87 3f c5 95 87 3f 1c b2 8a 3f
       1.0780908 1.0608335 1.0592581 1.0835605
000020 b8 70 86 3f e6 18 8f 3f 6a aa 89 3f 17 39 84 3f
       1.0503149 1.1179473 1.0755131 1.0329922
000030 5f 71 7b 3f 8e 91 86 3f 9d 5c 8a 3f 85 a2 8b 3f
       0.98219866 1.051317 1.0809513 1.0908972
000040 7d 68 88 3f 45 07 8c 3f 13 20 84 3f 72 38 8d 3f
       1.0656887 1.0939718 1.0322288 1.1032851
000050 0f 19 87 3f 00 45 89 3f fd f4 8a 3f 8b a4 90 3f
       1.0554522 1.0724182 1.0856014 1.1300215
000060 7d 1f 83 3f 36 cf 8b 3f bf d5 89 3f a5 f3 86 3f
       1.0243984 1.0922611 1.0768355 1.0543104
000070 76 c5 8c 3f fe a2 71 3f 3b 54 8f 3f 61 62 88 3f
       1.099776 0.9438933 1.119758 1.0655023
000080 c2 1c 77 3f 28 55 8d 3f 20 1e 85 3f 92 fb 89 3f
       0.96528256 1.1041613 1.0399818 1.0779898
000090 05 e1 84 3f c8 59 85 3f d8 0f 87 3f f1 ba 89 3f
       1.038117 1.0418024 1.055171 1.0760175
0000a0 3d b4 85 3f 7e b8 86 3f ea 4b 8b 3f 84 73 87 3f
       1.0445629 1.0525053 1.0882542 1.0582128
0000b0 ba 29 88 3f 7a 42 8b 3f b3 35 8e 3f 00 35 83 3f
       1.0637734 1.0879662 1.1110138 1.0250549
0000c0 13 87 83 3f 41 f4 89 3f a3 a4 8b 3f c8 44 84 3f
       1.0275596 1.0777665 1.0909618 1.033349
0000d0 d6 d5 83 3f 1a ea 88 3f 9a 38 8e 3f 03 2d 7d 3f
       1.0299633 1.0696442 1.1111023 0.9889681
0000e0 67 2c 8d 3f 81 31 8f 3f b2 2b 8f 3f e7 20 7d 3f
       1.1029176 1.1186982 1.118521 0.9887833
0000f0 17 ed 84 3f 3a cd 8c 3f 34 e6 8e 3f ed f8 85 3f
       1.0384854 1.100013 1.1164002 1.0466591
000100 39 4e 8b 3f 87 ce 8b 3f 46 cf 8b 3f 4c a6 85 3f
       1.0883247 1.0922402 1.092263 1.0441375
000110 eb 6e 8a 3f a4 31 72 3f 8f a5 8e 3f 2c 95 86 3f
       1.08151 0.94606996 1.1144274 1.0514274
000120 01 7f 88 3f 5e 6c 87 3f a6 6f 8d 3f b8 68 88 3f
       1.0663759 1.0579946 1.1049697 1.0656958
000130 97 5e 86 3f 59 69 77 3f b7 e7 90 3f 26 02 8c 3f
       1.0497617 0.9664512 1.1320714 1.0938156
000140 6f 78 85 3f f4 44 8f 3f 2d da 86 3f e3 e5 88 3f
       1.0427378 1.1192918 1.0535332 1.0695156
000150 9a c6 85 3f 87 fe 8b 3f 92 90 87 3f bc 09 8d 3f
       1.0451233 1.093705 1.0590994 1.1018596
000160 bf 7b 86 3f ca 0e 84 3f 10 94 84 3f 62 2a 85 3f
       1.0506514 1.0317013 1.0357685 1.0403559
000170 97 ce 8a 3f 8a fa 8b 3f fc 8f 88 3f 2a 00 79 3f
       1.0844296 1.0935833 1.066894 0.97265875
000180 cb 69 8e 3f 45 44 80 3f ac 50 7d 3f 35 a8 8d 3f
       1.1126035 1.0020834 0.9895122 1.1066958
000190 fc 9b 86 3f 6d 50 87 3f 33 04 83 3f 4d 5b 89 3f
       1.0516353 1.0571419 1.0235656 1.0730988
0001a0 e2 67 84 3f 5b 4d 95 3f 37 0d 8a 3f d5 1c 87 3f
       1.0344203 1.1664232 1.0785283 1.0555674
0001b0 8a 50 87 3f 87 e8 86 3f e1 07 8b 3f 48 6a 86 3f
       1.0571454 1.0539712 1.086178 1.0501184
0001c0 87 67 85 3f 6c 3f 8d 3f a2 78 8c 3f 68 12 84 3f
       1.0422219 1.103498 1.0974314 1.0318117
0001d0 b8 e1 87 3f 90 e8 8c 3f 72 39 8d 3f c8 42 89 3f
       1.0615759 1.1008472 1.1033156 1.0723505
0001e0 c3 e5 89 3f ba 91 8c 3f e0 bc 8c 3f a7 3c 89 3f
       1.0773243 1.0981972 1.099514 1.0721635
0001f0 e3 aa 81 3f 40 2a 7e 3f 54 63 8b 3f 9e 12 8e 3f
       1.0130275 0.9928322 1.0889688 1.1099432

Const_7 f4 [128]
000000 9b 3b bf 3c bf b0 7e 3d d4 0e 8c 3d fd 2b 5b 3d
       0.023343852 0.062180277 0.06838766 0.053508747
000010 36 1a c7 3c 7c f5 98 3c dd 0c 89 3d fa f7 19 3d
       0.02430449 0.018671744 0.066919066 0.037590005
000020 5e 4e 86 3c d6 e2 a4 3d b2 ee ce 3c 72 d1 d3 3c
       0.01639479 0.08051078 0.025260303 0.025856707
000030 37 ab bc bc e4 cf 17 3d f8 87 08 3d ec 7d 84 3d
       -0.02303086 0.037063494 0.033332795 0.0646933
000040 c1 17 b7 3c b0 6e 9f 3d b7 53 ad 3b 54 3e 94 3d
       0.022350194 0.07784784 0.0052895206 0.07238451
000050 cf d9 81 3c f7 4f d8 3c 83 d5 8b 3d 55 3c ad 3d
       0.01585093 0.026405318 0.068278335 0.08458773
000060 f0 8e b7 3c 1c c8 14 3d 34 37 71 3d f4 d5 e3 3c
       0.022407025 0.03632365 0.058890536 0.027811982
000070 e1 d9 99 3d ad ac 95 bd ad fa 9f 3d 54 94 13 3d
       0.0751226 -0.07308326 0.078114845 0.03603013
000080 01 c2 2a bd a8 b7 8a 3d b3 c3 ad 3c f3 7c 89 3d
       -0.041688923 0.06773311 0.02121148 0.06713285
000090 95 b7 c3 3c 4c f4 b1 3c 5f 92 86 3c e2 80 12 3d
       0.02389125 0.021722935 0.016427217 0.035767443
0000a0 0e ee cc 3c 8d 52 98 3d 64 f0 9e 3d 62 84 5c 3d
       0.025015857 0.0743762 0.077606946 0.053837188
0000b0 6f 9f 1b 3d 31 5e 1b 3d d1 e0 9f 3d 27 ef bd 3c
       0.037993845 0.037931625 0.07806552 0.023185326
0000c0 c2 c0 8d 3c 10 ad 39 3d 35 b4 8d 3d b1 ee 12 3c
       0.017303828 0.04533106 0.069191374 0.008968041
0000d0 de 21 11 3c cd af ca 3c 02 9a 03 3d 0c f8 96 bc
       0.008858172 0.024742031 0.032129295 -0.018428825
0000e0 b0 2a 8c 3d 2b c0 47 3d 43 7f 18 3d 2e cb 20 bd
       0.068440795 0.04876725 0.03723074 -0.039256267
0000f0 9d 09 5c 3c ec 80 97 3d 3d cf 2a 3d 90 b8 98 3c
       0.013430026 0.07397637 0.041701544 0.018642694
000100 de d0 a0 3d bf a7 a0 3d 4f 31 ab 3d 97 dc e3 3c
       0.07852338 0.07844495 0.08359014 0.027815146
000110 69 f1 92 3d 8a 85 65 bd ed 5d 31 3d 68 47 0d 3d
       0.071749516 -0.056035556 0.043302465 0.034491926
000120 e0 53 1c 3d fd cb 02 3d ad 41 b2 3d 96 e0 cd 3c
       0.038165927 0.03193282 0.08703933 0.025131505
000130 e3 b5 fc 3c 23 4d 46 bd 64 59 4e 3d e7 99 96 3d
       0.03084845 -0.048413407 0.05037822 0.07353573
000140 15 d8 de 3c 36 18 7d 3d 5b df c9 3c 35 af e5 3c
       0.027202645 0.061790667 0.024642637 0.028037647
000150 c4 89 3c 3d 9c 38 a2 3d 6c 3a e1 3c df 60 8b 3d
       0.04602982 0.07920954 0.027493678 0.06805586
000160 a2 e1 c7 3c b5 64 2a 3d 70 8c 98 3c fc 64 92 3c
       0.024399582 0.041599948 0.018621653 0.017870419
000170 f6 82 6a 3d 4c 72 28 3d c4 1b ae 3c 8c 7c 0f bd
       0.0572538 0.041124627 0.021253474 -0.035030887
000180 15 ff a5 3d 2a d2 4f bc 5e 27 cd 3c 3f 8b 96 3d
       0.08105294 -0.012684384 0.025043186 0.07350778
000190 be f4 f1 3c 67 0e 48 3c dc d1 8b 3c 3a f3 c4 3c
       0.029535647 0.012210465 0.017067842 0.02404176
0001a0 70 44 6e 3c 70 cc da 3d 85 be 8c 3d d5 bc 95 3c
       0.014542684 0.106835246 0.06872276 0.018278519
0001b0 e7 af b2 3c b6 24 b4 3c e2 d2 2d 3d 22 8a 97 3c
       0.021812392 0.021990161 0.04243744 0.018498484
0001c0 3b 61 c9 3c 67 cf 98 3d fa ac a1 3d b8 20 bb 3c
       0.024582496 0.07461434 0.07894321 0.02284275
0001d0 7b 27 2e 3d e6 cd 29 3d 86 ab a6 3d 3e a8 92 3c
       0.04251812 0.041456126 0.08138184 0.01790249
0001e0 c6 c9 45 3d 62 af 39 3d f0 2b a0 3d c1 ac 04 3d
       0.04828813 0.045333274 0.078208804 0.032391313
0001f0 4d 4b 06 3c e4 82 b5 bc 13 83 85 3c 62 f5 9e 3d
       0.008196664 -0.02215714 0.016297853 0.07761647

MatMul f4 [128, 1536]
000000 7a 07 70 bc 01 fc 84 3c f2 58 57 3d 1c 61 3f 3c
       -0.01465022 0.016233446 0.05257506 0.0116808675
000010 5a 59 89 3c b3 90 72 3c 21 d5 99 3c e0 4c 2a bd
       0.016766239 0.014805007 0.018778386 -0.04157722
000020 d0 dd 8f 3b 06 29 a5 3c 72 70 06 3c 59 e1 54 bc
       0.004390456 0.020161163 0.00820552 -0.01299318
000030 2d 8b 02 3d b4 24 90 bc b7 4a 78 bb b2 73 a0 3c
       0.03187101 -0.017595626 -0.003788633 0.019586418
000040 23 71 1d bc e7 df 43 3c 9b 85 ee 37 fa d2 a2 3b
       -0.009609493 0.011955238 2.8434026e-05 0.004968998
000050 94 99 5e 3b c1 d7 80 3c b6 b3 00 bd 8f b0 0f bd
       0.0033966051 0.01572788 -0.031421386 -0.03508049
000060 8d 59 8c bc 2f 50 e7 3b 35 89 f0 39 a5 59 b9 3c
       -0.017132545 0.007059119 0.00045878594 0.022625754
000070 9c a0 6e 3d c7 9c b3 3d 11 53 9d bc 79 99 20 bb
       0.058258638 0.08770137 -0.019204648 -0.002450554
000080 37 22 48 bb 04 1b 27 3d 56 4b 09 3c 18 cb ff 3b
       -0.0030537972 0.04079725 0.008379778 0.007806193
000090 ca e4 bc ba 1a ad 6c bc 18 91 1c bd 05 03 1e bc
       -0.0014411446 -0.0144455675 -0.03822431 -0.009644275
0000a0 3e d0 87 bd 79 04 87 3d fd 35 24 3c 5d e6 b1 bc
       -0.06631516 0.0659265 0.010022637 -0.021716291
0000b0 e2 75 24 bd b4 93 16 bc 46 13 a2 bc a7 41 c0 bc
       -0.040151484 -0.009190489 -0.01978458 -0.023468805
0000c0 5e 7c 49 3d 6d 60 d9 bc 67 cc d2 bc b3 42 e1 bc
       0.04919087 -0.026535237 -0.025732232 -0.027497625
0000d0 6a 79 42 3d 42 d3 66 ba 04 e2 54 bc 96 87 ff bc
       0.04747907 -0.00088052836 -0.012993339 -0.031192582
0000e0 5c ad 9e bc eb 2e 89 3c e4 e9 3b bc b5 34 88 3d
       -0.019369774 0.016746005 -0.011469338 0.06650678
0000f0 61 db 0d 3d 61 91 ef 3c ab 10 90 bb 64 f3 d8 bc
       0.034633044 0.029244127 -0.004396518 -0.026483245
000100 70 07 e5 3c ce e0 0d bc e7 d0 4a bd 21 cf ee 3b
       0.027957648 -0.008659555 -0.04951563 0.0072878753
000110 38 30 46 bd 5d 45 4a 3c 9e 4b 0a 3d 09 0c 06 bd
       -0.04838583 0.012345639 0.03376352 -0.03272632
000120 12 2e 41 bd 79 89 dc bc 4a 2b 16 3d b3 f6 bb 3c
       -0.047163077 -0.02692102 0.036662377 0.022944784
000130 36 37 8e 3c e4 5e 1d 3b a6 04 48 bc b8 90 89 bb
       0.017360311 0.0024012858 -0.0122081395 -0.00419816
000140 6b 2a 8e bc e1 df 8f bb 79 db 6c 3c 6e a5 f4 bc
       -0.01735421 -0.004390702 0.014456623 -0.02986404
000150 63 f1 35 3b b2 0d 99 3b 7d 6a b3 bb 8a bd c0 3b
       0.0027762286 0.004670822 -0.005475341 0.00588197
000160 25 6d 45 3c 0c d4 1b bb 7e cb 80 bb 41 bd 14 bc
       0.012049948 -0.0023777513 -0.003930508 -0.009078325
000170 c0 94 cf bc a7 1f 8a bc b6 71 77 ba 01 18 37 3b
       -0.025339484 -0.016860796 -0.00094392465 0.0027937891
000180 f6 a5 d9 bb 83 0e 36 bb 5c f1 e8 3c 1b b5 d2 bb
       -0.0066420985 -0.0027779646 0.028435402 -0.006430281
000190 d6 7c 1b 3d 93 12 1b 3d 6d 0e 1a 3c d4 7d 98 bb
       0.03796085 0.03785951 0.009402853 -0.0046536718
0001a0 cf 15 80 3c d3 d8 8a 3c dd 16 f4 bc 0e e1 18 bd
       0.0156354 0.016949093 -0.029796058 -0.037324004
0001b0 2c 61 d1 bc 90 1e e4 3b 29 27 a8 3c 8c 9f fa 3b
       -0.02555903 0.006961651 0.020526486 0.007648414
0001c0 37 ff 00 3d b7 c1 a3 bb 85 78 98 3b 14 94 c5 3b
       0.03149339 -0.004997458 0.004653039 0.006029615
0001d0 e4 c1 2b 3c b0 42 94 3c ae bf a9 bc 2f 09 8d 3c
       0.010483239 0.018098205 -0.020721283 0.017216293
0001e0 80 13 eb bc 97 ac e7 3c 6c c1 42 3b 9f 85 97 3d
       -0.028695822 0.02828054 0.002971734 0.07398533
0001f0 81 69 90 3c 73 aa 92 3d 7c 89 e9 bb b4 32 72 3c
       0.017628433 0.07161417 -0.007126985 0.014782596
000200 eb f4 18 bd 30 2e dc 3c c1 e3 e6 bc fa 64 97 bb
       -0.037342947 0.026877493 -0.028184773 -0.0046201916
000210 7b a9 07 3b 17 e2 07 3b 72 22 e8 bc d4 ec b5 bb
       0.0020700383 0.0020734125 -0.028336737 -0.0055519138
000220 1d a1 26 bb 37 ec 0a bc 59 32 27 3d 50 17 cd bb
       -0.002542562 -0.00847917 0.0408195 -0.0062588826
000230 ba a9 8a bc 29 c4 33 bd 16 3c 36 3c fe ab 25 bb
       -0.016926635 -0.043888245 0.011122724 -0.0025279517
000240 2a 78 ac 3c d4 0f bc bb 16 27 01 bb a3 35 8d bb
       0.021053392 -0.0057391915 -0.0019707135 -0.0043093725
000250 1e b2 34 3c ec d6 4c bb e5 71 09 bb 8e a2 08 bd
       0.011028795 -0.0031256033 -0.0020972427 -0.03335815
000260 f7 db 23 bc 59 0c 00 3d 53 de d5 39 fb be 16 3d
       -0.010001174 0.031261776 0.0004079217 0.036803227
000270 68 e8 a1 3b b1 fa 0a 3d df 08 3d bb a4 dc 19 bd
       0.004941035 0.033930484 -0.00288444 -0.037563935
000280 4f 4a 6a 3c 07 24 bc 3c 94 44 49 bc d4 99 e4 3b
       0.014299943 0.022966398 -0.012284417 0.0069763456
000290 bf 49 57 bc 0a fe cb bc 4f 0f d4 bc 2e b4 15 bc
       -0.013140141 -0.024901409 -0.025886206 -0.0091371965
0002a0 0c f9 ad bc 58 dc f5 bc 75 c9 43 3c 20 e4 41 bc
       -0.021236919 -0.030012295 0.011949887 -0.011834174
0002b0 52 5c d7 3a ab 42 93 3c 2a 4a 04 bc 72 af 5e bc
       0.0016430712 0.017976126 -0.008074323 -0.013591634
0002c0 2d da 46 bc fb 80 a2 3b 29 01 1c bb 4a 6d 02 bd
       -0.012136978 0.0049592233 -0.0023804402 -0.031842507
0002d0 19 88 52 ba dc 04 4d 3d 5d 07 1e 3d 34 f6 80 bc
       -0.00080311444 0.050053462 0.03858124 -0.015742399
0002e0 7e ab a3 3c d6 6d 1e 3c 42 ad 9a bc fd 19 a3 3c
       0.019979235 0.009669742 -0.018881444 0.019909853
0002f0 4b cf 18 3a 4a 1a 2c bc 9b 0d 0f 3b a1 68 c2 ba
       0.0005829229 -0.010504315 0.0021828178 -0.0014832207
000300 9a 14 37 bc 61 19 f0 3b fe cf c7 3c f0 ad bd ba
       -0.011174345 0.007327244 0.02439117 -0.0014471393
000310 59 fb 41 3d 4c 97 06 3b 86 04 65 3c 42 09 2e 38
       0.047358844 0.0020536957 0.013978129 4.1493455e-05
000320 6c c9 0b 3c 9b 81 e7 3c 30 14 4f bc ef 64 1e 3c
       0.008531909 0.028260043 -0.01263909 0.009667619
000330 82 5b 73 bb 68 21 91 3b 3e 20 e0 bc fa 0f 44 3d
       -0.00371334 0.004429031 -0.027359124 0.0478668
000340 45 95 46 ba 62 74 1f bd 01 a0 1b 3c 3d 13 4f ba
       -0.00075753435 -0.03892935 0.009498597 -0.000789929
000350 2e 30 50 bc f9 65 88 bb 0b 8f a5 bb 84 45 67 3c
       -0.012706799 -0.0041625467 -0.0050524524 0.014115695
000360 6d d0 71 bd b1 ce b4 bb c3 d4 c0 3b f0 f6 6c 3b
       -0.05903666 -0.0055178036 0.005884738 0.0036157928
000370 35 38 1d 3d b4 55 26 3d 77 34 80 bb 76 d8 c1 3c
       0.03838368 0.040609077 -0.0039125043 0.023662787
000380 f6 1e 0e 3c c5 42 a6 3c c6 95 ea bc 90 58 41 3c
       0.008674374 0.02029551 -0.02863587 0.0118009
000390 f8 90 e4 3c da 65 8d 3c c5 fc ae 39 e4 d7 eb 3a
       0.027901158 0.01726048 0.00033376194 0.0017993418
0003a0 95 b9 be 3c 6a 4c 47 bd 79 7d 40 3d d0 a9 08 bd
       0.023281852 -0.04865686 0.04699466 -0.03336507
0003b0 dc 94 b4 bc 64 4b fa bc 3c 24 1e bc 41 88 84 bc
       -0.022043638 -0.030553527 -0.009652194 -0.016178252
0003c0 1d ca 2a 3d e5 7e 98 3a 9b c0 cf bc ba c4 3b 3c
       0.041696656 0.0011634497 -0.025360396 0.0114604775
0003d0 15 fe a5 3c 1d 2c bb bc 16 ca 23 3c e0 e7 c4 ba
       0.020262757 -0.022848183 0.0099969115 -0.0015022717
0003e0 46 85 02 3d 84 1f f7 3c e9 a0 b0 bc 25 3e 89 3c
       0.03186538 0.030166395 -0.021561103 0.016753266
0003f0 f8 0d ce 3c 17 7b 4b bc 1b b4 d6 bc a8 48 1b 3d
       0.025153145 -0.012419484 -0.026208928 0.037911087

MatMul_1 f4 [128, 128]
000000 f9 12 c9 bd 7d 47 51 3d bb f8 51 3d a6 ec 2b 3d
       -0.09818072 0.051093567 0.0512626 0.041973732
000010 ec 37 8e 3d 07 b9 e5 bc 59 f5 d4 3b 58 b0 63 bd
       0.0694426 -0.02804233 0.0064989743 -0.055588096
000020 8e f7 c5 3d a7 11 3d 3b c8 f4 b4 bc 80 3b 74 3c
       0.09666358 0.0028849633 -0.022089377 0.014906764
000030 dd 25 5a bc b2 33 43 3d b2 8c 04 3e 11 41 ea 3d
       -0.013314691 0.047656722 0.12944296 0.11438192
000040 c3 13 3e 3d f0 44 e7 3d 87 84 d4 3c 0b 49 77 bd
       0.046405565 0.11292446 0.0259421 -0.060372394
000050 e7 6b 97 3d be 07 5c 3d 49 02 88 bd 0d a6 02 3d
       0.073936276 0.05371832 -0.06641061 0.03189664
000060 97 c4 f7 bc a4 90 57 3d 4a 54 8b bd c2 16 58 bd
       -0.030245109 0.052628174 -0.06803186 -0.05275608
000070 38 c3 4b 3d da 36 c1 3d cd 57 20 bc 40 c9 90 bd
       0.049746722 0.0943429 -0.009786558 -0.070696354
000080 89 c7 83 3d 0a 48 0d 3d e4 1f 91 bc 7d c3 ad 3d
       0.06434543 0.03449253 -0.017715402 0.08484552
000090 92 1d 91 3d 43 f5 3a bd 8b 58 53 3c 5f 12 f0 bc
       0.07085718 -0.045644056 0.012899528 -0.029305635
0000a0 bd 74 83 bd 15 69 d4 3d 6a ab 95 bd 5c ce 0a 3d
       -0.064187504 0.10371605 -0.07308085 0.033888206
0000b0 d8 18 26 bd 1d 9e 9a bc 2b c2 78 3c f1 3e f4 3d
       -0.040551037 -0.018874222 0.015183012 0.119260676
0000c0 b1 05 07 3d be ca 9c 3d c4 a0 8e 3d d8 ed 79 3d
       0.032964412 0.076558575 0.06964257 0.06101784
0000d0 17 7a 9b bc 7e e4 97 3d f0 0f 83 bb b0 f4 ce 3b
       -0.018979115 0.07416628 -0.0039997026 0.00631579
0000e0 bc 03 09 bd cc 38 37 bc 3b 8c 26 bd de f0 f7 bc
       -0.033450827 -0.011182975 -0.040661078 -0.030266222
0000f0 1b 2e 13 3d 2f f9 13 bd e4 ab 25 3d dc 23 b1 3c
       0.03593264 -0.036126312 0.04044713 0.021623544
000100 e1 70 b6 3b 98 80 13 bc 5d f9 1a 3d 29 95 94 3d
       0.0055676554 -0.009002827 0.037835468 0.072550125
000110 55 40 68 3d 77 77 84 bd af 4e 8a bd 08 40 aa bd
       0.056701977 -0.064680986 -0.06753289 -0.08312994
000120 41 7f 95 3c 4b a3 b1 3d 3f 8d 29 bd de 98 46 3d
       0.018249156 0.08673724 -0.04139447 0.04848563
000130 d3 b6 c5 3d 40 0d 68 3d 18 bd 4a bd fc 3b 0e bd
       0.096540116 0.05665326 -0.04949674 -0.034725174
000140 9c 1b 15 bb f8 de be 3d e3 1d 1f 3d 10 5a a2 3d
       -0.0022752052 0.09319872 0.03884686 0.07927334
000150 bc 38 ac 3d dc 32 2b bd cb 1f f3 3c a8 64 f8 3d
       0.08409259 -0.04179655 0.029678246 0.12128574
000160 ce 56 3b bd 18 ed 9e 3c df b0 74 3d d0 1a 61 bd
       -0.04573708 0.019400164 0.05973899 -0.05495721
000170 40 bc ce 3c 5f e0 5b bd 75 33 99 3d 9e 0f 03 3d
       0.025236249 -0.053680774 0.07480518 0.031997316
000180 e2 bb 84 3c c8 f4 75 bd 94 c7 65 bd 16 bf f9 3d
       0.01620287 -0.060047895 -0.056098536 0.1219465
000190 70 6d b3 bb 6e bd c3 bc 8b 6e f5 bc 15 56 b5 ba
       -0.0054756925 -0.023894038 -0.029959938 -0.0013834859
0001a0 c1 7e 09 3d 44 95 cf 3d 54 d7 a7 bb 55 21 b0 3d
       0.033568148 0.10135892 -0.0051221047 0.086001076
0001b0 97 a1 09 3d 49 91 f3 3d c4 1a 5e bd 59 54 0d 3e
       0.03360137 0.11892945 -0.054224744 0.13801707
0001c0 4b b6 c6 bc 78 48 ae 3c b6 56 c1 bd 85 be 56 bd
       -0.024256846 0.02127479 -0.09440367 -0.052427787
0001d0 04 2a eb 3d 36 d6 8b 3d 3a 91 69 bd 93 54 00 3e
       0.11482623 0.06827967 -0.057023264 0.12532263
0001e0 72 1e a4 bd 56 57 40 bd df 3c 50 3d ee 0b da 3d
       -0.080136195 -0.04695829 0.0508393 0.10646807
0001f0 1c be 9d 3d f2 b4 40 3d d7 44 8a 3c 46 3b d1 3d
       0.07702276 0.047047563 0.016878529 0.10216384
000200 fc 3d 31 bd d9 38 48 3d 10 23 ad 3d 3e 7f fb bc
       -0.043272004 0.04888234 0.08453953 -0.030700322
000210 2f b9 fe bc 0c bb 52 bd 1a 70 a6 3d ff 4d 4d 3d
       -0.031094162 -0.051447913 0.081268504 0.05012321
000220 9c 8e d8 bd a8 12 91 3c e4 cb ab 3d df 45 aa 3c
       -0.105740756 0.017709091 0.083884984 0.02078527
000230 eb e3 0f bd d9 2a 99 3c 39 93 82 bd 36 c1 4c bc
       -0.03512947 0.01869719 -0.06375737 -0.012497237
000240 25 05 e2 bd 21 95 c1 bd 1e 7b 44 3d 5d 63 5d 3d
       -0.110361375 -0.09452272 0.047968976 0.05404984
000250 e7 31 d9 bd 56 ba b7 3c fa ad 3b bd d0 5c 8a 3d
       -0.10605221 0.02242772 -0.045820214 0.06755984
000260 0a 75 bc 3b b6 45 19 3d 18 b0 73 3d 99 10 3b bd
       0.005751257 0.037419997 0.059494108 -0.045670126
000270 6b 63 e8 bc d9 4f 41 3c aa 7d 9f bd b3 05 07 bc
       -0.028367719 0.011798822 -0.077876404 -0.008241105
000280 85 36 55 bd da 89 33 3d 79 cf 69 3d dc 5c 5b 3d
       -0.052053947 0.043832637 0.057082627 0.053555354
000290 e0 ed ea ba 07 90 06 be 50 44 7b bd 21 00 69 3c
       -0.0017923675 -0.1314088 -0.061344445 0.014221222
0002a0 67 29 69 bd 4c d2 70 bc c6 75 7e 3d 5c dc 90 bd
       -0.05692425 -0.014698576 0.062124036 -0.0707328
0002b0 26 d2 12 3d 18 9f ac bc f6 8d 61 bd a1 86 8f 3c
       0.035844944 -0.021071956 -0.055067025 0.01752025
0002c0 ed a9 08 be 0d a0 8d bd a4 e5 42 bc 23 f5 1b 3c
       -0.13346072 -0.06915293 -0.011895571 0.009518894
0002d0 fe ca 9c 3c e6 bd f3 bd e0 66 d1 3c 54 78 ba bd
       0.019139763 -0.11901455 0.02556175 -0.09104982
0002e0 b1 39 61 bc ab fe 08 bd 4a c2 88 bd ce 7d 13 bd
       -0.013746665 -0.033445995 -0.06677683 -0.03600865
0002f0 36 58 c3 3c 46 be 44 3d 75 82 1d bd 9a c1 86 3d
       0.023845773 0.04803302 -0.03845449 0.06579895
000300 fc 7a e6 bc 33 46 8d 3c ec 4d 0c bd 93 02 81 bd
       -0.028134815 0.017245388 -0.034254 -0.06299319
000310 a3 a4 06 3d c3 8d 05 bd 3c a3 9a 3d 37 19 9f bd
       0.032871854 -0.032605898 0.07550666 -0.07768481
000320 7c cb 18 bd 0c dc 22 bd e5 e4 b8 bd 95 d0 23 bd
       -0.037303433 -0.039760634 -0.09028033 -0.03999384
000330 8c 4e 79 3c 0d 8b 93 3b b1 f7 c7 bc 01 3a 4c bb
       0.015216481 0.00450266 -0.0244101 -0.0031162503
000340 30 21 8c bd 6d 58 fb 3b 8b d3 35 3c 8c 62 98 3d
       -0.068422675 0.0076704533 0.011097799 0.07440671
000350 0e fa ae bd c9 7e 49 bd c4 c2 d4 3b 1b a0 ad bd
       -0.08543788 -0.049193177 0.0064929444 -0.08477803
000360 13 27 bb bb 35 05 b5 bc 92 cb d0 bd ed c0 b0 3d
       -0.005711445 -0.02209721 -0.10195078 0.08630548
000370 ff e0 d4 bd e3 22 df bc 99 a0 bb bd 46 14 5f bd
       -0.10394477 -0.027238315 -0.09161491 -0.054462694
000380 22 ed 68 3d 5c 5b 8d 3d 1d 81 98 3c d8 62 eb bd
       0.056866772 0.06902191 0.018616254 -0.11493462
000390 00 e0 4b bd 9f 77 3f 3d f3 1d 66 3c 2a ce b8 3d
       -0.04977417 0.04674494 0.014045226 0.09023698
0003a0 3d b9 f2 bd 97 5f d5 39 f7 f9 af bd 7a e4 02 bd
       -0.11851738 0.00040697746 -0.08592599 -0.031956173
0003b0 69 17 8c bb 3c 9e 80 bc 95 e7 d2 3c 87 62 9c bd
       -0.0042752516 -0.015700452 0.025745193 -0.0763598
0003c0 5f c8 c1 bd ef a8 ae 3c 80 08 80 3d b2 ec 1b bc
       -0.09462046 0.021320788 0.06251621 -0.009516882
0003d0 38 34 10 bd e3 4a 97 bb 55 3c a4 bd a7 2a 17 bd
       -0.03520605 -0.0046170815 -0.0801932 -0.03690591
0003e0 5c 29 a7 3d 89 f7 b0 bc 2f eb c3 bd 25 1d 14 3c
       0.081621855 -0.021602409 -0.09566342 0.009040152
0003f0 d3 a2 8e bd 03 03 89 bd 1b ac 8b bd 13 d5 c9 39
       -0.0696465 -0.066900276 -0.06819936 0.0003849646

MatMul_2 f4 [1, 128]
000000 5f 89 0f 3e 8c 72 e5 bd b9 3d 34 be f4 6d a5 3d
       0.14017247 -0.11203489 -0.1760167 0.080776125
000010 91 31 7e 3d bc bb f3 3d 3a f5 91 bd 4f 28 c9 3d
       0.06205899 0.11901042 -0.071268514 0.098221414
000020 84 76 50 3d af d3 f3 bd 4a 61 0c 3e 24 a0 78 3d
       0.050894275 -0.1190561 0.13708988 0.060699597
000030 60 09 df bc 61 76 01 be 8e 13 f9 3d 05 2a 12 be
       -0.02722615 -0.12642814 0.12161933 -0.14273842
000040 16 05 05 3e 68 1d 25 be 2c fd ec 3d 57 27 1a be
       0.12990221 -0.16124499 0.11571726 -0.1505407
000050 da 8f 0d 3e a2 93 ef 3d 6a 78 13 be 4a 18 1e be
       0.13824406 0.116980806 -0.14401403 -0.15438953
000060 ca 6f b4 3d a5 52 e8 3d 44 d5 19 be 8a a9 b0 3d
       0.088103846 0.11343888 -0.1502276 0.08626087
000070 ee 0f 15 be 3b 1f 8c bc 1e e3 40 be ab e9 0d 3e
       -0.14556858 -0.017104736 -0.18836638 0.13858669
000080 8d c6 ce 3c 4b 42 29 be 00 e5 c0 3d 18 6e 9b 3d
       0.02524116 -0.16529195 0.09418678 0.07589358
000090 10 62 86 3d af 78 da 3d 60 f8 83 3d 96 90 fb 3d
       0.06561673 0.1066755 0.06443858 0.12283437
0000a0 34 9a cf 3d f2 a0 a4 bd cf 7a 01 be 54 a1 f9 bd
       0.10136834 -0.080385104 -0.12644504 -0.12188974
0000b0 0e 51 af 3d 38 3d 02 3e 5c 65 0e be 3f ff 98 3d
       0.08560382 0.12718666 -0.13905853 0.07470559
0000c0 a1 a5 29 3d 69 d0 bb 3d 9c 79 20 be f9 39 f1 3d
       0.04141772 0.091706105 -0.1567139 0.117786355
0000d0 c7 00 34 3d bb 77 88 3d 4e 61 d4 3d d9 ab 5f 3c
       0.043946054 0.06663462 0.10370122 0.0136518115
0000e0 1d 8f 1e be b0 3c c6 3d b5 9a 0d 3e b3 dd 0e bd
       -0.15484281 0.09679544 0.13828547 -0.034879398
0000f0 a0 78 fb 3d 55 57 ea bd 84 87 bc 3d 48 50 43 3d
       0.12278867 -0.114424385 0.09205535 0.047683984
000100 0b d5 05 be 33 19 1f be 3b e1 dc bd e7 77 57 3d
       -0.1306955 -0.15536956 -0.10785147 0.052604582
000110 a1 49 14 be db ae d8 bb 6f 7e cc 3d 33 5d 8d 3d
       -0.14481212 -0.0066126413 0.09985053 0.06902542
000120 ef 50 d3 3d 29 07 b9 3d b0 9c 10 be db 50 64 3d
       0.10318171 0.09034569 -0.14122272 0.055741172
000130 bb a4 79 3d 01 ce a0 3b 77 ce d9 3d c7 ac 09 be
       0.060948115 0.00490737 0.10635083 -0.13444816
000140 58 51 cf 3d 12 6c de 3d 24 66 06 3e 2b ca 0d be
       0.10122937 0.108604565 0.13124901 -0.13846652
000150 03 2d 4a 3d f9 74 09 be 79 43 84 3d 8b 30 1a be
       0.049359333 -0.13423528 0.06458182 -0.1505758
000160 99 76 ba 3d e2 b5 87 bd a8 65 e1 3d 87 37 eb 3d
       0.09104652 -0.06626488 0.110057175 0.114852004
000170 53 e5 e4 3d 78 54 e5 3d 52 bd 12 3e 24 0a af ba
       0.111765526 0.11197752 0.14330032 -0.0013354463
000180 60 52 03 be 9f a8 28 3d 40 eb e9 3c 90 e5 22 be
       -0.12824392 0.041176435 0.028554559 -0.15907884
000190 f8 cd 77 3d 46 2a 86 3d e4 ac c3 3d 03 3d 0d 3e
       0.06049916 0.06551032 0.09554461 0.13792805
0001a0 51 ae f2 bd bb 58 25 be 21 e5 08 be 62 d3 cc 3d
       -0.118496545 -0.16147129 -0.13368656 0.100012556
0001b0 db 31 b0 3d e2 3c 8d 3d fe 7d 04 3e cb cf 58 3d
       0.08603259 0.06896378 0.12938687 0.05293254
0001c0 e3 51 e3 3d f3 d4 11 be a1 f0 29 be 39 84 6d 3d
       0.11099603 -0.1424139 -0.16595699 0.057987425
0001d0 49 5a 6a 3d f4 cc a2 3d 2a 7f 08 be 3e b5 ce 3d
       0.05721501 0.07949248 -0.13329759 0.10093163
0001e0 22 32 cf 3d cb ab c1 3d 34 07 16 be 92 1b e8 3d
       0.10116984 0.09456595 -0.14651185 0.113333836
0001f0 f0 98 18 3d 35 cc 07 3d f9 63 b8 3d 0d 85 38 be
       0.037255228 0.03315373 0.09003443 -0.18019505
