wkey/openwakeword_models/tflite/hey_computer (1).tflite (tflite, 860700 bytes, 9 tensors)

Const_1 f4 [128]
0.013990525 0.010339986 0.020099914 -0.00083130674 0.017753871 0.019794373 0.007476038 0.011152968
0.028338276 0.014356156 0.0048696967 -0.012844486 0.0034461108 0.021625524 -0.009022866 0.0046367384
-0.015220985 0.0027680637 0.020334845 0.0040460415 -0.0095867785 -0.0062778178 -0.004057286 0.0019203173
0.019861488 -0.023648078 0.0016640063 0.029999882 -0.0054303966 0.018926803 0.017243277 0.02507189
-0.007913436 -0.025672132 -0.009240407 -0.01971078 -0.014039404 -0.0034455985 0.012389984 -0.010376535
-0.027361782 0.0007060979 0.026863897 0.013010833 -0.009621058 0.024398258 -0.011065037 0.005770546
0.014513064 0.0071758362 -0.002320675 0.017759975 -0.0026431873 0.0073253163 0.006629604 -0.017363682
0.022784835 -0.0067520933 -0.013270388 -0.0007423006 -0.0077171177 0.018233532 0.026944693 0.009673611
0.0066740667 -0.016252348 -0.012745424 0.00889401 -0.0064397873 0.01737219 0.02721877 -0.0069077765
0.020740174 -0.008661691 0.010828393 -0.016985081 -0.00721109 0.00074800855 -0.017039448 -0.013142417
5.4544722e-05 0.0045150598 0.015150285 0.021137664 0.022235543 0.0018862749 0.018925792 0.0034199897
-0.013027968 0.00034716754 -0.0076272152 0.0038095878 0.009220823 -0.013238057 -0.004115781 -0.0068235057
-0.009429797 0.017567126 0.021814438 -0.02017702 -0.013200806 0.007781152 -0.018486958 -0.018439583
0.022438418 0.016634988 0.010827934 -0.012403828 0.00090314617 0.01165165 -0.004958216 0.014031695
0.020725602 -0.01722206 -0.016957613 -0.005620066 -0.0143262055 0.0038392108 0.0059587033 -0.024196316
0.0220933 0.022586918 0.012910065 0.006507144 -0.0041144835 -0.0064256834 -0.0010584472 -0.0058943
00000000: 8438 653c 0b69 293c 93a8 a43c 0dec 59ba
00000010: 9170 913c cf27 a23c 8df9 f43b f0ba 363c
00000020: ac25 e83c 1536 6b3c fa91 9f3b ae71 52bc
00000030: 25d8 613b 0328 b13c a5d4 13bc c8ef 973b
00000040: 7061 79bc 6768 353b 4395 a63c a894 843b
00000050: dd11 1dbc 27b6 cdbb fbf2 84bb 28b3 fb3a
00000060: 8fb4 a23c 9db9 c1bc c91a da3a 50c2 f53c
00000070: 78f1 b1bb 620c 9b3c c641 8d3c 9063 cd3c
00000080: 5ba7 01bc 5d4e d2bc 1365 17bc 8078 a1bc
00000090: 8705 66bc 8dcf 61bb 5cff 4a3c 5802 2abc
000000a0: d125 e0bc 6e19 393a ad11 dc3c 642b 553c
000000b0: a4a1 1dbc dbde c73c 214a 35bc d916 bd3b
000000c0: 34c8 6d3c 4723 eb3b 7716 18bb 5e7d 913c
000000d0: 5339 2dbb 3509 f03b 263d d93b 483e 8ebc
000000e0: 43a7 ba3c aa40 ddbb 0b6c 59bc f396 42ba
000000f0: e0df fcbb 7d5e 953c 1ebb dc3c 117e 1e3c
00000100: 21b2 da3b a523 85bc 2fd2 50bc 2fb8 113c
00000110: da04 d3bb 1f50 8e3c e6f9 de3c a15a e2bb
00000120: 4ce7 a93c c4e9 0dbc 9269 313c 4c24 8bbc
00000130: 024b ecbb 0116 443a 5096 8bbc 4b53 57bc
00000140: f3c6 6438 11f3 933b e738 783c e528 ad3c
00000150: 5027 b63c e23c f73a 430a 9b3c e821 603b
00000160: 4273 55bc 0a04 b639 b8ed f9bb 47aa 793b
00000170: ef12 173c 6fe4 58bc acdd 86bb b797 dfbb
00000180: 6f7f 1abc efe8 8f3c 31b4 b23c 474a a5bc
00000190: 3248 58bc 09f9 fe3b f671 97bc 9c0e 97bc
000001a0: c6d0 b73c 1946 883c a667 313c 6d39 4bbc
000001b0: 1dc1 6c3a 90e6 3e3c 8878 a2bb 32e5 653c
000001c0: bdc8 a93c 4715 8dbc b1ea 8abc 8828 b8bb
000001d0: 76b8 6abc 459b 7b3b 3a41 c33b 5a37 c6bc
000001e0: 02fd b43c 3308 b93c bd84 533c e139 d53b
000001f0: cad2 86bb 8a8e d2bb 98bb 8aba f924 c1bb

Const_2 f4 [128]
0.98589736 1.0012281 1.0107754 1.0019002 0.9904661 0.99471194 1.0304552 0.98964673
0.995992 1.02534 0.9871434 0.9903466 0.9948844 0.987701 0.98534596 0.99805844
0.9933463 1.0198754 0.9999562 0.9979952 1.0029689 1.0050387 0.9991524 1.008162
0.99863774 0.9874329 0.9983965 1.0276299 1.0099462 0.9977959 0.9857649 1.0051672
0.99310195 1.0114831 0.9831058 1.0112168 0.9877775 0.98384553 0.9799286 1.0115721
1.0069109 0.98312956 0.973873 0.9875075 0.993426 0.98962486 1.0010071 0.99247384
0.99076664 1.0004587 0.98592275 1.0124526 0.9794167 1.0037355 0.9821525 1.0307939
0.9887034 1.0140271 0.9915821 0.993396 0.97703403 0.9982055 0.9881512 0.98593384
0.99900657 0.9953484 0.9898492 0.98768485 1.0199869 1.0310189 1.002903 1.0078838
1.0020738 0.9974925 0.9961474 0.9988841 1.0060093 0.993388 0.9958312 0.98975056
0.9910487 0.9898451 1.0058478 0.9907601 0.9911449 0.9969273 1.0068023 0.99543166
0.997305 0.9943934 0.9825966 0.9921537 0.9970061 1.000749 1.0038258 1.0018773
0.996387 0.9909448 0.9896273 0.98838633 1.0006291 0.99833345 1.0049213 0.997158
0.9980679 0.998808 0.995946 1.0075135 1.000891 0.9850392 0.99784076 0.9947966
1.0224915 0.9871935 1.0151931 0.98882425 1.0077331 0.9895492 0.99659795 0.99284947
1.0845461 0.9955953 0.98522806 1.0011984 0.99808556 0.99083036 1.0311649 0.99353856
00000000: c563 7c3f 3e28 803f 1761 813f 443e 803f
00000010: 308f 7d3f 71a5 7e3f f5e5 833f 7d59 7d3f
00000020: 55f9 7e3f 573e 833f 6eb5 7c3f 5b87 7d3f
00000030: beb0 7e3f f9d9 7c3f a23f 7c3f c280 7f3f
00000040: f14b 7e3f 478b 823f 21fd 7f3f 9d7c 7f3f
00000050: 4961 803f 1ca5 803f 74c8 7f3f 740b 813f
00000060: b9a6 7f3f 67c8 7c3f ea96 7f3f 6089 833f
00000070: eb45 813f 8d6f 7f3f 175b 7c3f 52a9 803f
00000080: ee3b 7e3f 4778 813f d2ac 7b3f 8d6f 813f
00000090: fcde 7c3f 4ddd 7b3f 9adc 7a3f 327b 813f
000000a0: 75e2 803f 61ae 7b3f be4f 793f 4bcd 7c3f
000000b0: 2b51 7e3f 0e58 7d3f 0021 803f c412 7e3f
000000c0: e2a2 7d3f 080f 803f 6f65 7c3f 0c98 813f
000000d0: 0ebb 7a3f 687a 803f 596e 7b3f 0ef1 833f
000000e0: ab1b 7d3f a4cb 813f 53d8 7d3f 334f 7e3f
000000f0: e71e 7a3f 658a 7f3f 7af7 7c3f 2966 7c3f
00000100: e5be 7f3f 27cf 7e3f c266 7d3f ead8 7c3f
00000110: ee8e 823f 6df8 833f 205f 803f 5602 813f
00000120: f443 803f ab5b 7f3f 8403 7f3f deb6 7f3f
00000130: eac4 803f ad4e 7e3f cbee 7e3f 4b60 7d3f
00000140: 5eb5 7d3f 7d66 7d3f 9fbf 803f 74a2 7d3f
00000150: acbb 7d3f a136 7f3f e6de 803f 9cd4 7e3f
00000160: 614f 7f3f 9190 7e3f 738b 7b3f c9fd 7d3f
00000170: cb3b 7f3f 8b18 803f 5d7d 803f 843d 803f
00000180: 3813 7f3f 8fae 7d3f 3758 7d3f e306 7d3f
00000190: 9d14 803f c892 7f3f 43a1 803f bf45 7f3f
000001a0: 6181 7f3f e2b1 7f3f 51f6 7e3f 34f6 803f
000001b0: 321d 803f 872b 7c3f 7e72 7f3f fdaa 7e3f
000001c0: 00e1 823f b7b8 7c3f d9f1 813f 9623 7d3f
000001d0: 66fd 803f 1953 7d3f 0b21 7f3f 622b 7e3f
000001e0: 68d2 8a3f 55df 7e3f e837 7c3f 4527 803f
000001f0: 8982 7f3f 0fa7 7d3f 36fd 833f 8b58 7e3f

Const_3 f4 [128]
-0.00025276907 0.0036951632 0.006641165 0.0049977084 -0.008439283 -0.0054999264 -0.0017882226 -0.008515218
0.00092986954 0.0027758796 -0.009392283 -0.0060060928 -0.0056601022 -0.0081919795 0.0001134118 -2.23779e-05
-0.008090317 0.009910255 -0.000119277705 -0.0015906671 -0.0015725588 0.010038516 -0.0037427496 0.0040386724
0.009004485 -0.0073881806 -0.008019713 0.010497343 0.0011777409 -0.0064055007 -0.013403651 -0.0019949642
-0.0075284503 0.013787481 -0.0130681945 -0.006194474 -0.010093365 -0.006580835 -0.00777855 0.0044829166
0.0024293873 -0.021573806 -0.015239009 -0.009260572 -0.009089905 -0.008463194 0.0015793421 -0.0037066482
-0.010834035 -0.0017264497 -0.030939145 0.0018687171 -0.02369698 -0.0011938 -0.0069452715 0.002141857
-0.009373363 0.012447814 -0.0070599704 8.926953e-05 -0.009328025 -0.0044893664 -0.0011289541 -0.0040446213
-0.003720708 -0.00263188 -0.006856176 -0.016756848 0.008093216 0.0032290926 -0.00034238357 0.01726971
0.0043459176 0.0014332384 -0.005977708 -0.0033610621 0.00019609494 0.0005773594 0.005385427 -0.0010011562
-0.001701504 -0.009390871 -0.0020396605 -0.006111433 -0.012448811 -0.005734207 0.0038178556 -0.0067067584
-0.002665933 0.00440655 0.00046580817 -0.01006437 -0.0077219214 0.0042608134 -0.0011433531 0.0033521443
-0.0027248708 -0.0014955137 -0.00022020086 -0.011876426 0.00077282096 -0.0056735897 0.0037383353 -0.0018569789
-0.005340391 -0.0032641178 -0.0052504283 0.001056837 -0.004544717 -0.0052011404 -0.0006816442 -0.0027028893
-0.0065419436 -0.0111763785 -0.0010328804 -0.0030162663 0.0042401263 0.0005007314 -0.0010845795 -0.0061407215
0.021050217 -0.0056025623 -0.0066347085 0.00031399325 -0.007151905 -0.014161891 0.014631144 -0.009838171
00000000: 1786 84b9 8d2a 723b 219e d93b d1c3 a33b
00000010: eb44 0abc ba38 b4bb cb62 eaba 6a83 0bbc
00000020: 7dc2 733a 88eb 353b 17e2 19bc c2ce c4bb
00000030: 6178 b9bb a737 06bc 7fd7 ed38 2db8 bbb7
00000040: 408d 04bc 9f5e 223c bb24 fab8 ee7d d0ba
00000050: 511e ceba 9678 243c eb48 75bb d756 843b
00000060: 8c87 133c 8d18 f2bb 1d65 03bc 0cfd 2b3c
00000070: 6d5e 9a3a 3ce5 d1bb fd9a 5bbc f2bd 02bb
00000080: 38b1 f6bb e3e4 613c fb1b 56bc 04fb cabb
00000090: a45e 25bc 0ca4 d7bb 35e3 febb 6ee5 923b
000000a0: 5b36 1f3b 8dbb b0bc 09ad 79bc a7b9 17bc
000000b0: d3ed 14bc 35a9 0abc ed01 cf3a 3deb 72bb
000000c0: 3d81 31bc 0a4a e2ba 1774 fdbc beef f43a
000000d0: 2b20 c2bc 4879 9cba 2995 e3bb 665e 0c3b
000000e0: bc92 19bc ebf1 4b3c 5357 e7bb 3736 bb38
000000f0: 93d4 18bc 891b 93bb 6af9 93ba be88 84bb
00000100: 1fd7 73bb 9f7b 2cbb c6a9 e0bb a845 89bc
00000110: 6999 043c 2f9f 533b f281 b3b9 3579 8d3c
00000120: 3368 8e3b 80db bb3a a6e0 c3bb 4445 5cbb
00000130: d69e 4d39 ef59 173a 3c78 b03b 3a39 83ba
00000140: 0005 dfba 2bdc 19bc d3ab 05bb 6a42 c8bb
00000150: 19f6 4bbc 04e6 bbbb fd34 7a3b 5ec4 dbbb
00000160: efb6 2ebb d264 903b b737 f439 07e5 24bc
00000170: 2c08 fdbb 4b9e 8b3b 90dc 95ba a6af 5b3b
00000180: bf93 32bb 1d05 c4ba b8e5 66b9 5795 42bc
00000190: 2397 4a3a 85e9 b9bb dcfe 743b df65 f3ba
000001a0: 72fe aebb cfea 55bb c90b acbb 9185 8a3a
000001b0: d9eb 94bb 546e aabb 5eb0 32ba f522 31bb
000001c0: cd5d d6bb 211d 37bc b761 87ba 8dac 45bb
000001d0: c2f0 8a3b 8443 033a 7328 8eba 1b38 c9bb
000001e0: 8171 ac3c b395 b7bb f867 d9bb 769f a439
000001f0: 875a eabb 4707 68bc 77b7 6f3c 4830 21bc

Const_5 f4 [128]
-0.08389989 0.05955396 -0.03616846 -0.00032060395 0.0042484333 -0.02462215 0.00964619 -0.0797082
-0.018566024 0.030911483 -0.0045894105 0.056558173 0.014036368 0.0016603345 -0.011559217 -0.023941746
-0.066082396 0.048166692 -0.051106777 -0.03976143 -0.08460728 -0.08007448 -0.074660346 0.08688174
0.055390675 0.05147611 -0.041976757 -0.05217513 -0.06675999 0.087654196 0.0077663185 0.053854525
0.092195205 -0.058812812 -0.021007983 -0.017116627 0.06949558 -0.012780107 -0.04067897 0.048014946
-0.027489664 0.083262905 0.011391653 0.0067837727 -0.023006355 0.04112515 0.048020437 0.009974401
0.032924023 0.0773603 -0.061221886 0.015137163 -0.05831152 -0.024184506 -0.012250564 0.07858918
-0.0011149276 0.023884475 -0.052566085 -0.07090432 -0.044428654 -0.027353529 0.06520384 0.028358096
-0.060990922 0.00600512 -0.067468405 0.08207268 0.0034470493 -0.047197074 -0.013480521 -0.0037785918
0.00093375717 -0.060905263 0.005922333 -0.071732335 -0.07353403 -0.015023974 0.05487267 -0.008891148
0.02853174 -0.034702133 -0.0827503 0.056280494 0.0468107 -0.008285251 -0.038921002 0.010118221
0.03158247 -0.004271659 0.0053433976 -0.017321687 0.01616417 0.06417707 0.09465409 -0.07361942
0.08502317 -0.043074302 -0.037275203 -0.0412066 -0.05864935 -0.012115746 0.043762587 0.021136252
-0.009895107 0.06158984 -0.04991645 -0.01463791 0.05761807 0.0731556 -0.07646725 -0.030131439
-0.07576072 -0.004276501 -0.024123497 0.037753593 0.007116845 0.07375274 0.024824696 0.04348307
-0.028306829 -0.029338704 -0.034276627 -0.022439556 0.07962523 -0.005190654 0.06332475 -0.03134056
00000000: b5d3 abbd daee 733d 6125 14bd bc16 a8b9
00000010: 7136 8b3b 64b4 c9bc 0e0b 1e3c 0e3e a3bd
00000020: c617 98bc 143a fd3c c462 96bb 8ba9 673d
00000030: cbf8 653c 959f d93a df62 3dbc 7b21 c4bc
00000040: 3556 87bd 704a 453d 5755 51bd e2dc 22bd
00000050: 9546 adbd 17fe a3bd 86e7 98bd 0eef b13d
00000060: 55e1 623d 9dd8 523d d2ef 2bbd 97b5 55bd
00000070: 76b9 88bd 0b84 b33d 9a7c fe3b 9096 5c3d
00000080: d7d0 bc3d b4e5 70bd ef18 acbc 2b38 8cbc
00000090: b353 8e3d a763 51bc fe9e 26bd 52ab 443d
000000a0: 0132 e1bc be85 aa3d 0ea4 3a3c 694a de3b
000000b0: d377 bcbc d872 283d 14b1 443d ac6b 233c
000000c0: 57db 063d 146f 9e3d cdc3 7abd dd01 783c
000000d0: 0fd8 6ebd 961e c6bc 97b6 48bc 5df3 a03d
000000e0: c322 92ba 60a9 c33c 894f 57bd 4936 91bd
000000f0: d2fa 35bd 8214 e0bc 9789 853d 3d4f e83c
00000100: 9ed1 79bd 99c6 c43b e02c 8abd b915 a83d
00000110: e4e7 613b b851 41bd 67dd 5cbc 40a2 77bb
00000120: 62c7 743a cc77 79bd 2110 c23b 67e8 92bd
00000130: 0299 96bd 1d27 76bc 2ac2 603d 2dac 11bc
00000140: 65bb e93c d323 0ebd fd78 a9bd 6086 663d
00000150: 94bc 3f3d ddbe 07bc a16b 1fbd e5c6 253c
00000160: 9f5c 013d 46f9 8bbb ab17 af3b 36e6 8dbc
00000170: b96a 843c 456f 833d 01da c13d c7c5 96bd
00000180: a120 ae3d ae6e 30bd e2ad 18bd 40c8 28bd
00000190: 4d3a 70bd 1f81 46bc 6640 333d ef25 ad3c
000001a0: 161f 22bc a145 7c3d 3175 4cbd d8d3 6fbc
000001b0: ed00 6c3d 9ad2 953d dd9a 9cbd 35d6 f6bc
000001c0: 7028 9bbd e421 8cbb a49e c5bc 83a3 1a3d
000001d0: 6c34 e93b ad0b 973d 295d cb3c 4e1b 323d
000001e0: b9e3 e7bc b957 f0bc a665 0cbd 29d3 b7bc
000001f0: 8d12 a33d 5d16 aabb 68b0 813d f65e 00bd

Const_6 f4 [128]
0.98408896 1.0015761 1.0269248 1.0296661 1.0043454 1.0416322 1.0566453 1.00827
1.0633485 1.0360153 1.0436505 0.99836844 1.1390355 1.0471656 1.0504225 0.9967804
1.0089121 1.0275065 0.9960904 1.0201784 1.0607548 1.0559946 1.1160408 1.0492235
1.0967563 1.0003788 1.042272 1.0467293 1.0262463 1.0732572 1.0252113 1.1178991
1.0810639 1.0040232 1.0882928 1.0081394 1.0257627 0.97647953 1.0067232 1.0631726
0.9969514 1.0811795 1.0542816 1.0034726 1.0052648 1.0766221 1.0328187 1.0685743
1.0059313 1.0705575 1.0523758 1.0007387 1.0057445 1.0371997 1.0776789 1.0429679
1.0726098 1.0414214 1.055807 1.0733439 1.0555861 1.0161039 1.104202 1.1101621
1.0782303 1.0179331 0.99745077 0.99832004 1.061508 1.0668038 1.0179981 1.0145656
1.0073591 1.0616351 1.0526646 1.0318292 1.0196201 1.0021038 1.0943943 1.029917
1.01299 1.0823071 1.0791725 1.0232259 0.9977838 1.0915798 0.9753459 0.99991465
1.0524765 0.9971319 1.0344719 1.0629762 1.0920407 1.0010371 1.1573746 1.1316286
1.016798 1.0383521 1.1148413 1.0413692 1.0774342 0.99782 1.014473 1.0748391
1.0968843 1.0489922 1.0329922 1.0387049 1.0127876 1.0589706 0.97614175 1.044189
1.0405166 1.0048152 1.0919693 1.152208 1.038489 1.017502 1.0038403 1.0070724
0.98966265 1.0282243 1.05097 0.99444336 0.9976996 1.008952 1.0157595 1.0244188
00000000: 41ed 7b3f a533 803f 4672 833f 19cc 833f
00000010: 648e 803f 3454 853f 2740 873f fe0e 813f
00000020: ce1b 883f 269c 843f 5796 853f 1395 7f3f
00000030: eacb 913f 8609 863f 3f74 863f 002d 7f3f
00000040: 0824 813f 5585 833f c8ff 7e3f 3595 823f
00000050: d0c6 873f d52a 873f 6dda 8e3f f54c 863f
00000060: 8362 8c3f 6a0c 803f 2b69 853f 3afb 853f
00000070: 0a5c 833f 7e60 893f 203a 833f 5117 8f3f
00000080: 4d60 8a3f d583 803f 2e4d 8b3f b60a 813f
00000090: 314c 833f 90fa 793f 4edc 803f 0a16 883f
000000a0: 3538 7f3f 1764 8a3f b3f2 863f ca71 803f
000000b0: 84ac 803f c1ce 893f 6733 843f 0bc7 883f
000000c0: 5bc2 803f 0708 893f 40b4 863f 3518 803f
000000d0: 3cbc 803f f6c2 843f 62f1 893f f97f 853f
000000e0: 474b 893f 4c4d 853f af24 873f 5563 893f
000000f0: 721d 873f b10f 823f 7e56 8d3f cb19 8e3f
00000100: 7303 8a3f a24b 823f ef58 7f3f e791 7f3f
00000110: 7fdf 873f 078d 883f c34d 823f 49dd 813f
00000120: 25f1 803f a9e3 873f b7bd 863f fb12 843f
00000130: e982 823f f044 803f 1d15 8c3f 52d4 833f
00000140: a8a9 813f 0a89 8a3f 5322 8a3f 11f9 823f
00000150: c26e 7f3f e3b8 8b3f 45b0 793f 68fa 7f3f
00000160: 8db7 863f 0944 7f3f 9369 843f 9b0f 883f
00000170: fdc7 8b3f fc21 803f da24 943f 35d9 903f
00000180: 7026 823f b9e8 843f 1fb3 8e3f 964b 853f
00000190: 5de9 893f 2271 7f3f 40da 813f 5494 893f
000001a0: b466 8c3f 6045 863f 1739 843f 48f4 843f
000001b0: 06a3 813f 598c 873f 6de4 793f fca7 853f
000001c0: a62f 853f c99d 803f a6c5 8b3f 8d7b 933f
000001d0: 35ed 843f 813d 823f d77d 803f c0e7 803f
000001e0: 885a 7d3f db9c 833f 2f86 863f d793 7e3f
000001f0: 3e69 7f3f 5725 813f 6804 823f 2820 833f

Const_7 f4 [128]
-0.003954205 -0.00632616 0.005209686 0.0146737285 0.008044339 0.02006183 0.06088231 0.0064785373
0.023311239 0.013669374 0.03364812 -0.005879993 0.07860051 0.017979927 0.019599378 -0.006879211
0.0052927085 0.011220111 -0.002098404 0.0038698602 0.021831753 0.056613263 0.08954025 0.02055382
0.08156967 -0.0022521217 0.02035504 0.01945751 0.01741993 0.07440282 0.06414882 0.09152398
0.07159866 0.0040212655 0.085762724 0.013018212 0.015237687 -0.028299078 0.0062288037 0.06246834
-0.008130015 0.068731956 0.057517834 0.0013267169 0.006304558 0.06906509 0.031179573 0.06509828
0.000930751 0.060930654 0.067776226 -0.0014074525 0.004952329 0.01866437 0.07004514 0.024422767
0.053465348 0.021357287 0.017494328 0.07275003 0.06254297 0.0033610987 0.07765787 0.08839613
0.071020156 0.010296874 -0.0016024488 -0.0076026563 0.058233373 0.067078054 0.011709312 -0.013563895
-0.0044649295 0.07007785 0.039163757 0.01245918 0.008918385 -0.005215383 0.08064257 0.0105655445
0.043705095 0.036818568 0.07232472 0.008877668 0.010646791 0.07444501 -0.019868668 -0.00066049316
0.0074498453 0.0013629714 0.01673442 0.031178335 0.08676687 0.0024168454 0.1044269 0.09235547
0.008346027 0.023142967 0.0882413 -0.0057033906 0.07852791 -0.005270219 0.0031740558 0.06592935
0.08390504 0.01844323 0.017715681 0.008740112 0.0062170783 0.064631805 -0.0121480925 0.012379619
0.025808265 0.0018760714 0.082840264 0.09426512 0.06411271 0.0011857209 -0.00053726917 -0.0003485346
-0.010107191 0.012863668 -0.0022805128 -0.0063941926 0.009144803 -0.0048953933 0.018664194 0.014035977
00000000: 4792 81bb ad4b cfbb 03b6 aa3b 146a 703c
00000010: 67cc 033c b558 a43c bb5f 793d e949 d43b
00000020: 36f7 be3c 83f5 5f3c 9cd2 093d f5ac c0bb
00000030: 4ef9 a03d a44a 933c e08e a03c 016b e1bb
00000040: 756e ad3b 8ed4 373c 6185 09bb 7b9d 7d3b
00000050: 81d8 b23c 4fe3 673d e160 b73d 7c60 a83c
00000060: 000e a73d 5598 13bb 9dbf a63c 5b65 9f3c
00000070: 3eb4 8e3c 8160 983d 7560 833d ed70 bb3d
00000080: 51a2 923d d2c4 833b 5ea4 af3d 574a 553c
00000090: 7ea7 793c 78d3 e7bc fe1a cc3b cdde 7f3d
000000a0: c133 05bc 57c3 8c3d d297 6b3d 3be5 ad3a
000000b0: 7796 ce3b ff71 8d3d 4e6c ff3c 3f52 853d
000000c0: a4fd 733a 6c92 793d 43ce 8a3d 457a b8ba
000000d0: 2647 a23b 05e6 983c d473 8f3d 4112 c83c
000000e0: 7bfe 5a3d 7af5 ae3c 4450 8f3c f8fd 943d
000000f0: 8716 803d e145 5c3b 170b 9f3d 0809 b53d
00000100: 0473 913d 38b4 283c 4209 d2ba b41f f9bb
00000110: 1e86 6e3d 3860 893d 6ad8 3f3c 193b 5ebc
00000120: 8b4e 92bb fa84 8f3d 2d6a 203d 9721 4c3c
00000130: 6b1e 123c cee5 aabb ef27 a53d 1b1b 2d3c
00000140: 1d04 333d 11cf 163d fc1e 943d a373 113c
00000150: e16f 2e3c a076 983d 9ec3 a2bc f224 2dba
00000160: d51d f43b bba5 b23a 9f16 893c b569 ff3c
00000170: d4b2 b13d f063 1e3b c5dd d53d dd24 bd3d
00000180: c6bd 083c 5296 bd3c dbb7 b43d 82e3 babb
00000190: 3ed3 a03d cdb1 acbb d203 503b f805 873d
000001a0: 68d6 ab3d 4216 973c 7a20 913c b032 0f3c
000001b0: a2b8 cb3b ae5d 843d cb08 47bc e3d3 4a3c
000001c0: db6b d33c 83e6 f53a 28a8 a93d 120e c13d
000001d0: 864d 833d 316a 9b3a 86d7 0cba 86bb b6b9
000001e0: a298 25bc 22c2 523c a874 15bb 6086 d1bb
000001f0: 15d4 153c 8969 a0bb a7e5 983c 28f7 653c

MatMul f4 [128, 1536]
0.013919141 0.002666887 0.020570574 0.002374193 -0.004645088 -0.018528882 -0.025932867 -0.012620377
0.0040885177 0.010925122 0.012385187 -0.03596509 -0.0037103698 -0.023814216 0.0204933 -0.008153077
0.05069492 0.0006985949 0.01843709 0.014933802 -0.0033653139 0.003107991 -0.021949604 -0.015412493
0.006035346 -0.018391132 -0.022447275 0.026079541 0.01503875 0.013967767 -0.0068895146 -0.0056017996
0.00035160023 -0.005220173 -0.00080902147 -0.01174092 -0.0091426205 -0.024090834 -0.0007244171 0.023427673
0.007988937 0.013052 -0.01171745 0.020264035 0.013274301 0.00081545784 0.011191108 0.012346113
-0.010234047 -0.018085089 0.014910238 -0.0014872178 0.0009645679 0.0019326907 0.012070362 0.0059630433
-0.016619507 0.021292478 -0.026628515 -0.016970329 -0.017015902 0.0258886 0.0059833387 0.0031525886
-0.016695363 -0.015720503 -0.011891126 0.01304384 -0.014943578 -0.010450725 -0.022095297 -0.019152952
-0.0066271983 -0.014867268 0.007494664 0.0034204265 0.00252961 0.012051662 0.017517583 -0.02464279
-0.027407076 0.0021076237 0.019259026 0.011964066 0.019280834 0.0048350324 -0.0065405485 -0.016789215
-0.0043373564 0.022530437 0.021593625 0.022380048 -0.01803958 0.014857056 -0.022138435 0.016726656
0.0053743515 0.016615497 -0.0022604528 -0.005247268 0.022611652 0.02314227 -0.020122785 0.017647734
0.036239505 0.021341663 -0.006410344 -0.009402541 -0.0042284834 0.021438666 0.0039815567 -0.029073847
0.036334068 -0.03397144 0.01777655 -0.015235092 0.005808697 0.016843759 0.0062215356 0.003961862
-0.019715123 0.0035295684 0.016013894 -0.002104303 -0.0035253502 -0.004250969 -0.007008066 0.021873051
0.0061612907 0.01121903 -0.029150069 -0.01629815 0.007232264 0.008099072 -0.0057445318 -0.011268318
-0.00018557844 -0.028376643 -0.009603328 -0.00385682 0.0030328222 0.01763065 -0.003456522 -0.013663268
0.008251638 -0.03244351 -0.0018146164 -0.020306319 -0.017699266 -0.029319836 0.011741924 0.016633356
-0.029904006 -0.005647614 -0.01590258 0.015240632 -0.023203617 -0.008139559 0.014786288 0.018495237
0.023608534 0.019330285 -0.03670707 -0.0031438281 -0.018029513 0.007206513 -0.0029644116 -0.012336573
0.015121554 -0.02397857 0.019554328 -0.024200449 -0.0027502833 -0.008561675 0.010084025 -0.022828938
-0.010396232 0.020680621 0.009021018 -0.027933883 0.010306667 0.018973798 -0.01708549 0.021206807
0.018746883 -0.008512486 0.016605172 0.023708593 0.027380733 0.0039274213 -0.02283783 -0.0038923468
-0.0064537697 -0.0071581188 0.0009032879 0.013921333 0.005372655 -0.01792067 0.003993548 -0.016366309
-0.0036053043 -0.004024681 -0.016549183 0.0072974283 -0.026315974 -0.041720837 -0.00078886223 0.013466057
-0.012969015 -0.013430481 0.021738153 0.014517023 -0.010868822 -0.020448959 -0.006385433 -0.0015783196
-0.009868363 -0.00939368 -0.0004746292 0.0060175173 -0.013719558 -0.019356677 0.0067293937 0.027700579
0.019562948 -0.002548347 -0.008676356 -0.011714911 0.00809683 -0.0060934904 -0.003627672 -0.008475833
-0.015979052 -0.0046054376 0.01594859 0.003617002 -0.0060173115 0.028173225 -0.009577684 0.013761339
-0.0092259925 -0.0051477524 -0.013763263 -0.01513668 -0.0027144293 0.0027264787 -0.013761184 0.017936181
-0.030084863 0.008062012 -0.008314287 0.013499604 0.028822994 0.0052918633 -0.009963623 0.0009731241
00000000: 1c0d 643c f0c6 2e3b 9f83 a83c 5998 1b3b
00000010: d335 98bb e2c9 97bc 2a71 d4bc b3c5 4ebc
00000020: f9f8 853b 48ff 323c 3deb 4a3c 2150 13bd
00000030: ad29 73bb 0816 c3bc 91e1 a73c 7c94 05bc
00000040: 7aa5 4f3d e921 373a 6109 973c e8ac 743c
00000050: 998c 5cbb 70af 4b3b a8cf b3bc ae84 7cbc
00000060: 27c4 c53b 00a9 96bc 59e3 b7bc c3a4 d53c
00000070: 1765 763c 10d9 643c 70c1 e1bb 4d8f b7bb
00000080: fc56 b839 fc0d abbb 8314 54ba fd5c 40bc
00000090: eeca 15bc 245a c5bc cfe6 3dba 64eb bf3c
000000a0: 08e4 023c 0ed8 553c 8cfa 3fbc c300 a63c
000000b0: 747c 593c 73c4 553a e95a 373c 5a47 4a3c
000000c0: b4ac 27bc 2e27 94bc 124a 743c c0ee c2ba
000000d0: 0edb 7c3a 5752 fd3a c5c2 453c a265 c33b
000000e0: a225 88bc 906d ae3c 0b24 dabc 5c05 8bbc
000000f0: ef64 8bbc 5414 d43c e20f c43b a99b 4e3b
00000100: b7c4 88bc 49c8 80bc ffd2 42bc d5b5 553c
00000110: e9d5 74bc 8539 2bbc 3201 b5bc a7e6 9cbc
00000120: f828 d9bb d795 73bc cc95 f53b 3c29 603b
00000130: d0c7 253b 5674 453c 0981 8f3c addf c9bc
00000140: ce84 e0bc 0f20 0a3b 1bc5 9d3c ee04 443c
00000150: d7f2 9d3c 316f 9e3b 1952 d6bb 8989 89bc
00000160: 6220 8ebb c091 b83c 1de5 b03c 5d56 b73c
00000170: bec7 93bc 026b 733c aa5b b5bc 5706 893c
00000180: 541b b03b 391d 883c 1b24 14bb 46f1 abbb
00000190: 123c b93c dc94 bd3c 8ad8 a4bc fb91 903c
000001a0: e06f 143d b6d4 ae3c dd0d d2bb 1e0d 1abc
000001b0: 178f 8abb 24a0 af3c b877 823b 472c eebc
000001c0: 08d3 143d a325 0bbd 21a0 913c 9b9c 79bc
000001d0: e256 be3b ecfb 893c 06de cb3b 82d2 813b
000001e0: 9c81 a1bc 5550 673b 922f 833c 59e8 09bb
000001f0: 9009 67bb b64b 8bbb eba3 e5bb 1d2f b33c
00000200: a7e4 c93b 06d0 373c 20cc eebc b383 85bc
00000210: a1fc ec3b f8b1 043c a03c bcbb c09e 38bc
00000220: d597 42b9 2276 e8bc 4757 1dbc b4c2 7cbb
00000230: 50c2 463b 276e 903c d186 62bb e6db 5fbc
00000240: e131 073c 7ce3 04bd 6cd8 edba 7059 a6bc
00000250: 0dfe 90bc 2730 f0bc 3361 403c ad42 883c
00000260: 3ff9 f4bc 9f0f b9bb 2146 82bc d8b3 793c
00000270: 8315 bebc c95b 05bc 3042 723c 5383 973c
00000280: af66 c13c 8c5a 9e3c 275a 16bd af08 4ebb
00000290: a1b2 93bc 9d24 ec3b 9346 42bb 561f 4abc
000002a0: 65c0 773c b56e c4bc 6630 a03c 0540 c6bc
000002b0: 193e 34bb 4546 0cbc 7737 253c c103 bbbc
000002c0: f554 2abc 686a a93c e4cc 133c 99d5 e4bc
000002d0: 4bdd 283c f06e 9b3c dff6 8bbc e6b9 ad3c
000002e0: 1093 993c f477 0bbc 9207 883c 8638 c23c
000002f0: 8f4d e03c 99b1 803b 6716 bbbc be16 7fbb
00000300: 257a d3bb a78e eabb a0ca 6c3a 4d16 643c
00000310: 190d b03b 5ece 92bc 4fdc 823b a312 86bc
00000320: f846 6cbb 79e1 83bb 2792 87bc 441f ef3b
00000330: 9994 d7bc 78e3 2abd a6cb 4eba bda0 5c3c
00000340: fe7b 54bc 850b 5cbc 3614 b23c cfd8 6d3c
00000350: 2513 32bc 9384 a7bc e53c d1bb 9edf ceba
00000360: eaae 21bc f3e7 19bc a7d7 f8b9 982e c53b
00000370: ffc7 60bc e591 9ebc 3f82 dc3b 53ec e23c
00000380: 7a42 a03c 2b02 27bb 4627 0ebc e6ef 3fbc
00000390: 91a8 043c e7ab c7bb 3dbe 6dbb 38de 0abc
000003a0: 80e6 82bc 36e9 96bb 9ea6 823c 390b 6d3b
000003b0: de2c c5bb 89cb e63c b8eb 1cbc 3d77 613c
000003c0: 9e28 17bc 7aae a8bb 4f7f 61bc d6ff 77bc
000003d0: 91e4 31bb b9ae 323b 9776 61bc e6ee 923c
000003e0: 8874 f6bc 8716 043c a638 08bc 712d 5d3c
000003f0: 331e ec3c 5e67 ad3b 773e 23bc 4119 7f3a

MatMul_1 f4 [128, 128]
-0.038775582 0.017706446 0.026159672 -0.0067185382 -0.06339136 0.025846515 -0.068203725 0.05863671
-0.014822949 0.009634414 -0.052423473 -0.078480005 -0.08040935 0.022608578 -0.07340664 0.07770113
-0.07101866 -0.04445992 0.05062707 -0.050831534 0.06287192 -0.013824314 -0.02742047 -0.07011837
0.035139266 -0.01839143 0.04372567 0.008992709 -0.0011198162 -0.08201161 -0.02612952 -0.056192808
0.06649785 -0.0554551 -0.0066306097 -0.03258825 0.07330752 0.047429286 -0.027410017 0.0031345747
0.019146262 -0.03134548 0.0039789416 0.02893294 0.08011197 0.021744672 -0.009171294 0.06222679
-0.027182918 0.013444242 0.022473782 0.010233979 -0.050244145 0.015453426 -0.06700184 0.06287675
-0.039400104 -0.032576878 0.072950244 0.015108303 -0.049511187 0.017671634 -0.08575932 0.056095295
0.028748915 0.043800324 0.061251864 0.030907115 0.060764547 -0.037701935 -0.0836032 0.018336728
0.033370942 0.019227069 -0.0053487173 -0.00870674 -0.041558728 -0.022251107 0.014899632 -0.054918442
-0.03099691 -0.031943697 -0.067944214 -0.020425132 0.039572604 -0.07503835 -0.013940055 0.08199571
-0.04450643 -0.053962942 0.05862293 -0.013323713 0.006357966 0.08291657 0.013286481 -0.051538065
0.067906596 -0.05804415 0.015546258 0.08440753 -0.016479114 -0.080798335 0.057423215 0.009959598
-0.03612109 -0.084713764 -0.017010087 -0.057668276 0.10642692 0.07199086 0.06819226 0.022359047
-0.054785717 -0.019496823 -0.06466816 -0.03905261 0.07763654 0.024887448 0.015704077 -0.03161753
-0.046784353 -0.007579963 -0.042861182 -0.045822755 0.059899677 0.032046724 0.021231435 -0.020444037
-0.01106612 -0.02028517 0.04652181 -0.054746874 -0.024529079 0.029894628 0.043570004 -0.036926486
0.004330268 0.08114176 -0.08358477 -0.03397765 -0.016620368 -0.08332774 -0.018301846 -0.04504306
0.080749154 0.039118964 -0.03983396 0.049947113 0.031091092 0.03948662 -0.025202006 -0.016596168
0.0020235325 -0.040757418 0.06098989 0.0073497538 -0.0098258555 -0.08393692 -0.05601581 0.028043438
0.0049893064 -0.02949357 -0.015764115 0.038230594 0.06773567 -0.033691168 -0.01692529 -0.02569685
-0.021851132 0.01622871 0.024497075 -0.03771586 -0.06972254 -0.056196135 -0.09528339 -0.07145673
-0.057581477 -0.027526034 -0.05693456 -0.00043847668 -0.04051799 0.010482445 0.040435657 0.036641497
-0.0347398 0.057987634 0.018445218 0.046636287 0.054199822 -0.011139016 -0.05671312 -0.055483114
-0.050531752 0.018312078 -0.04623866 0.06478077 -0.026500452 0.027007107 -0.020410411 -0.06032647
0.08861819 -0.02790302 0.008389848 -0.050627246 0.051579643 0.061091863 -0.010601055 -0.048305888
-0.0071605733 0.009062469 0.033821493 0.014256423 0.024455406 -0.071357876 -0.014317773 0.045222655
-0.04390214 -0.06657822 -0.037162688 -0.041982748 0.021585368 -0.0113933105 -0.06981025 0.0016445878
0.040923703 -0.011586803 -0.011493452 0.08596353 -0.038488213 -0.06644956 0.023871282 -0.07505311
0.008666766 -0.005248971 0.05206069 0.02920468 -0.013717264 -0.04427433 0.050181914 0.06977503
-0.075241886 0.037837446 0.004019328 0.049624577 -0.06644512 -0.06282548 0.08177371 0.029117916
0.022187255 0.08657013 -0.028266273 -0.043690372 0.029090881 -0.015171707 -0.07996365 -0.0053591793
00000000: 25d3 1ebd 1c0d 913c cf4c d63c 2f27 dcbb
00000010: 54d3 81bd 12bc d33c 65ae 8bbd 0c2d 703d
00000020: f4db 72bc a9d9 1d3c ffb9 56bd 20ba a0bd
00000030: a8ad a4bd a035 b93c 3856 96bd c521 9f3d
00000040: 3b72 91bd 9b1b 36bd 555e 4f3d ba34 50bd
00000050: fec2 803d 607f 62bc e5a0 e0bc 389a 8fbd
00000060: 31ee 0f3d a0a9 96bc b019 333d 2856 133c
00000070: ccc6 92ba b4f5 a7bd 930d d6bc 6e2a 66bd
00000080: 0630 883d e324 63bd 9645 d9bb 427b 05bd
00000090: 4122 963d 3645 423d f98a e0bc 706d 4d3b
000000a0: 9fd8 9c3c 1e64 00bd c861 823b c604 ed3c
000000b0: bf11 a43d e221 b23c 3243 16bc 85e1 7e3d
000000c0: b6ae debc 3d45 5c3c f01a b83c 6bac 273c
000000d0: cecc 4dbd 5e30 7d3c 4338 89bd 87c5 803d
000000e0: 0162 21bd 556f 05bd f066 953d d188 773c
000000f0: 3ecc 4abd 1ac4 903c 95a2 afbd 2ec4 653d
00000100: d882 eb3c f867 333d 3ce3 7a3d eb30 fd3c
00000110: 3fe4 783d 586d 1abd 2838 abbd e836 963c
00000120: f8af 083d 1682 9d3c 4b44 afbb b7a6 0ebc
00000130: 7c39 2abd f447 b6bc 961d 743c 29f2 60bd
00000140: 3bed fdbc 65d7 02bd 5626 8bbd 9b52 a7bc
00000150: e216 223d b5ad 99bd d464 64bc 5eed a73d
00000160: 604c 36bd 3f08 5dbd 991e 703d b44b 5abc
00000170: 7c56 d03b 2ad0 a93d 8aaf 593c 9419 53bd
00000180: 9d12 8b3d b4bf 6dbd bbb5 7e3c dbdd ac3d
00000190: 35ff 86bc 9979 a5bd 9b34 6b3d 952d 233c
000001a0: b5f3 13bd 697e adbd bd58 8bbc 9235 6cbd
000001b0: 5bf6 d93d f26f 933d 62a8 8b3d 522a b73c
000001c0: fd66 60bd cdb7 9fbc be70 84bd a1f5 1fbd
000001d0: e8ff 9e3d c3e0 cb3c d6a5 803c 6281 01bd
000001e0: f3a0 3fbd 5761 f8bb 358f 2fbd a4b0 3bbd
000001f0: 5d59 753d 6d43 033d 8ced ad3c 417a a7bc
00000200: ac4e 35bc 162d a6bc a78d 3e3d 423e 60bd
00000210: 35f1 c8bc 94e5 f43c 7676 323d 3a40 17bd
00000220: ece4 8d3b a72d a63d 7e2e abbd 262c 0bbd
00000230: 7027 88bc bca7 aabd c1ed 95bc 127f 38bd
00000240: d05f a53d 353b 203d ef28 23bd 5895 4c3d
00000250: bfb2 fe3c b9bc 213d 7074 cebc b0f4 87bc
00000260: 3e9d 043b 40f1 26bd 89d0 793d 34d6 f03b
00000270: a0fc 20bc 1fe7 abbd d670 65bd 5abb e53c
00000280: 567d a33b 809c f1bc bf23 81bc af97 1c3d
00000290: 00b9 8a3d c0ff 09bd e8a6 8abc 3382 d2bc
000002a0: 2501 b3bc 12f2 843c 17ae c83c f27b 1abd
000002b0: b1ca 8ebd eb2d 66bd f023 c3bd e857 92bd
000002c0: 8eda 6bbd 477e e1bc 3734 69bd 58e3 e5b9
000002d0: 31f6 25bd 90be 2b3c dc9f 253d 6515 163d
000002e0: 524b 0ebd 7184 6d3d 6d1a 973c b105 3f3d
000002f0: a200 5e3d 6b80 36bc 044c 68bd 4342 63bd
00000300: 62fa 4ebd 3603 963c c064 3dbd c8ab 843d
00000310: 7a17 d9bc 023e dd3c bc33 a7bc e318 77bd
00000320: 747d b53d e094 e4bc 9375 093c 845e 4fbd
00000330: 2d45 533d 763b 7a3d 0cb0 2dbc 65dc 45bd
00000340: 3ea3 eabb c07a 143c 6888 0a3d c693 693c
00000350: b456 c83c 1424 92bd 1895 6abc 643b 393d
00000360: bbd2 33bd 295a 88bd e737 18bd 1af6 2bbd
00000370: ccd3 b03c 02ab 3abc adf8 8ebd 368f d73a
00000380: 9d9f 273d 93d6 3dbc 084f 3cbc a60d b03d
00000390: d1a5 1dbd b516 88bd b58d c33c 72b5 99bd
000003a0: 0dff 0d3c 8fff abbb 973d 553d a73e ef3c
000003b0: 60be 60bc 0059 35bd 8d8b 4d3d 36e6 8e3d
000003c0: 6b18 9abd 70fb 1a3d 91b4 833b 2443 4b3d
000003d0: 6114 88bd a5aa 80bd fa78 a73d b288 ee3c
000003e0: 0cc2 b53c ae4b b13d ac8e e7bc adf4 32bd
000003f0: 0050 ee3c c092 78bc fbc3 a3bd 0e9c afbb

MatMul_2 f4 [1, 128]
0.022432571 0.017320614 0.07660921 0.10695342 0.04336386 0.03791731 -0.10619653 0.017927112
0.1013394 0.08304631 0.09439027 -0.015727142 -0.19558583 0.09740203 0.049185418 0.04922974
0.02402158 0.033142716 -0.011657144 0.0056358115 0.08979786 -0.13419494 -0.15725696 0.100656345
-0.11782132 0.005515225 0.057388175 0.01926778 0.082038954 -0.10228031 -0.048537873 -0.14723954
-0.12509401 0.035529993 -0.099527106 0.01695202 0.051400535 -0.04981012 0.084238164 -0.10844067
0.00479152 -0.116898865 -0.12289024 0.066112034 0.040381465 -0.11879698 0.05134173 -0.10436727
0.04391239 -0.12974499 -0.076993376 0.007496309 0.030416932 0.05709232 -0.10763918 0.07183545
0.08263561 0.09238332 0.062118914 -0.121378005 -0.1093854 0.03418149 -0.11368116 -0.15033421
-0.10043528 0.05297898 -0.02010021 0.0018622275 -0.137699 -0.09672075 0.01517029 0.041543458
0.07545373 -0.07472958 0.047223836 0.11786189 0.10169951 -0.07510602 -0.1121592 0.11460926
-0.03661675 0.10708433 -0.14200608 0.050628223 -0.00053156784 -0.15383118 -0.04371346 -0.016783567
0.12759745 -0.06643057 0.054532014 0.049090892 -0.10411752 -0.014719603 -0.13797708 -0.1330702
0.08017964 0.08949283 -0.14463767 0.08569017 -0.083610885 -0.0111654475 0.09134873 -0.14468442
-0.1287137 0.04039613 0.048459083 0.07929178 0.058409855 -0.06584653 -0.034453146 0.09627172
0.12447262 0.06427455 -0.11387893 -0.13946174 -0.061170254 0.064604536 0.006306362 0.04101808
0.020616435 0.035407867 0.122255705 -0.00014589462 -0.0050823884 -0.08134512 0.02388828 0.111811444
00000000: 83c4 b73c f6e3 8d3c 4ae5 9c3d 650a db3d
00000010: 4e9e 313d 2e4f 1b3d 917d d9bd e1db 923c
00000020: 088b cf3d 2f14 aa3d b04f c13d 35d6 80bc
00000030: a747 48be b77a c73d a676 493d 20a5 493d
00000040: e8c8 c43c a8c0 073d 9bfd 3ebc 9dac b83b
00000050: f1e7 b73d 666a 09be f807 21be ea24 ce3d
00000060: 4e4c f1bd 10b9 b43b dd0f 6b3d 77d7 9d3c
00000070: 0a04 a83d 5778 d1bd a6cf 46bd f6c5 16be
00000080: a518 00be e687 113d ded4 cbbd f6de 8a3c
00000090: 5e89 523d b205 4cbd 0f85 ac3d 2416 debd
000000a0: 2f02 9d3b ac68 efbd e1ad fbbd bf65 873d
000000b0: 0967 253d d54b f3bd b54b 523d 82be d5bd
000000c0: 7add 333d dfdb 04be b4ae 9dbd 99a3 f53b
000000d0: ee2c f93c a3d9 693d ee71 dcbd 771e 933d
000000e0: dc3c a93d 7733 bd3d 6770 7e3d 0895 f8bd
000000f0: 7405 e0bd e401 0c3d abd1 e8bd 36f1 19be
00000100: 03b1 cdbd 7d00 593d 32a9 a4bc fc15 f43a
00000110: f700 0dbe 8715 c6bd cf8c 783c 7929 2a3d
00000120: 7c87 9a3d d20b 99bd c86d 413d 9361 f13d
00000130: d547 d03d 2fd1 99bd b9b3 e5bd 42b8 ea3d
00000140: 72fb 15bd 074f db3d 0b6a 11be 8a5f 4f3d
00000150: ea58 0bba ec85 1dbe e30c 33bd b17d 89bc
00000160: e8a8 023e c00c 88bd f65c 5f3d 8813 493d
00000170: 913b d5bd 7d2a 71bc dd49 0dbe 8e43 08be
00000180: 3935 a43d 0448 b73d e61b 14be 547e af3d
00000190: 2f3c abbd 48ef 36bc 0b15 bb3d 2728 14be
000001a0: 86cd 03be 6a76 253d 087d 463d bb63 a23d
000001b0: 2c3f 6f3d 8cda 86bd be1e 0dbd 1c2a c53d
000001c0: 80eb fe3d 60a2 833d 5b39 e9bd 0fcf 0ebe
000001d0: a98d 7abd 624f 843d 99a5 ce3b 9302 283d
000001e0: cce3 a83c d707 113d 3361 fa3d 4afb 18b9
000001f0: 2a8a a6bb 4598 a6bd 5bb1 c33c 66fd e43d
