wkey/openwakeword_models/tflite/heycomputer1.tflite (tflite, 206748 bytes, 9 tensors)

Const_1 f4 [32]
0	0x3c8fcbb8	0.017553195
1	0x3a3f113b	0.00072886393
2	0x3ca9a8a4	0.020710297
3	0xbcd99773	-0.026561474
4	0x3ca3aeb3	0.019980764
5	0x3ca49e75	0.02009509
6	0x39f24688	0.00046210387
7	0x3c257337	0.01009827
8	0x3c815f4b	0.01579251
9	0xbc4fd388	-0.01268471
10	0x3c870e20	0.016486228
11	0xbbfa5a1e	-0.0076401373
12	0x3c89808d	0.01678493
13	0xbb8b7770	-0.0042561814
14	0xbcaad2c1	-0.020852448
15	0x3c3d2a0c	0.011545669
16	0xbb2d1136	-0.0026407964
17	0xbce4755b	-0.02788799
18	0x3b8dcdae	0.0043274974
19	0xbc4a1d0d	-0.012336028
20	0x3c7b8604	0.015351776
21	0xbbd47fba	-0.0064849528
22	0xbbd456d6	-0.006480078
23	0x3cd22f4e	0.025657322
24	0x3c08b670	0.008344278
25	0xbabfc541	-0.001463093
26	0xbc7a78c5	-0.015287583
27	0x3c746284	0.014916066
28	0x3cc5ee28	0.024161413
29	0x3c8a4154	0.016876854
30	0xbca83701	-0.02053404
31	0x3d001fc9	0.031280313

Const_2 f4 [32]
0	0x3f762702	0.9615327
1	0x3f82a2c5	1.0205923
2	0x3f809634	1.0045838
3	0x3f797f51	0.97459894
4	0x3f77e1ea	0.9682909
5	0x3f7b9566	0.9827484
6	0x3f7a122b	0.9768397
7	0x3f8058b0	1.0027065
8	0x3f7ae381	0.98003393
9	0x3f77dc54	0.9682057
10	0x3f82b86f	1.0212535
11	0x3f80d24d	1.0064179
12	0x3f848aca	1.0354855
13	0x3f8040b2	1.0019743
14	0x3f7bdeed	0.9838703
15	0x3f881c14	1.0633569
16	0x3f7c7871	0.9862128
17	0x3f81fa62	1.0154536
18	0x3f796104	0.9741366
19	0x3f81cc1c	1.0140414
20	0x3f8159ec	1.0105567
21	0x3f79769d	0.97446615
22	0x3f72e18a	0.94875395
23	0x3f7a6c3e	0.97821414
24	0x3f7c68d3	0.9859745
25	0x3f7b1234	0.9807465
26	0x3f79c9be	0.9757346
27	0x3f7a918e	0.9787835
28	0x3f7a8e0c	0.97872996
29	0x3f7d7cd4	0.990186
30	0x3f770672	0.9649421
31	0x3f883e31	1.0643979

Const_3 f4 [32]
0	0x3cba526f	0.022744386
1	0x3d6e5c75	0.058193643
2	0xbc266102	-0.010154964
3	0xbd6b168c	-0.05739455
4	0x3c54144d	0.012944293
5	0xbc63203e	-0.013862668
6	0xbd6bcb6b	-0.05756704
7	0x3b40217c	0.0029316833
8	0xbc859650	-0.016307026
9	0x3d1d7f60	0.038451552
10	0x3c063ca4	0.008193169
11	0x3be31217	0.0069296467
12	0x3c65eb07	0.014033086
13	0xbbedce5e	-0.007257267
14	0x3bcddca7	0.0062824073
15	0x3c87bd0b	0.016569635
16	0xbbdc2afe	-0.0067189923
17	0x3c25cc62	0.010119529
18	0xbd267db0	-0.04064721
19	0x3ca1dbb0	0.019758075
20	0x3b0ac1f8	0.0021172743
21	0x3a4be157	0.00077774137
22	0xbd18c745	-0.037299413
23	0x3bd30772	0.0064400965
24	0xbc6e0019	-0.0145263905
25	0xbc87bdbb	-0.016569963
26	0xbd749661	-0.059713725
27	0xbcb6df65	-0.02232332
28	0xbcf10d77	-0.029425366
29	0x3c981abc	0.018567435
30	0xbc43b492	-0.011944907
31	0x3cb8d0e2	0.02256054

Const_5 f4 [32]
0	0x3d52cb77	0.05146357
1	0xbcbe5ef1	-0.023238631
2	0xbd9fa11d	-0.07794402
3	0x3ce80cbe	0.028326388
4	0x3e0bc596	0.13649592
5	0x3d9ad342	0.075598255
6	0x3d7fc573	0.06244416
7	0xbc402ab6	-0.011728933
8	0xbc9182f3	-0.017762637
9	0xbb850a87	-0.004060093
10	0xbca94834	-0.020664312
11	0xbe20a72b	-0.1568877
12	0xbe13ed6b	-0.14446037
13	0xbdf6b5bc	-0.12046382
14	0xbd05b342	-0.032641657
15	0x3b498fd7	0.0030755901
16	0xbda33a3b	-0.07970091
17	0x3d9a53b5	0.07535497
18	0xbe2332c8	-0.1593734
19	0xbd84ce61	-0.06484676
20	0x3e15afc4	0.1461783
21	0xbcb68242	-0.022278909
22	0x3dfae07d	0.12249849
23	0x3ded00cb	0.11572417
24	0xbcfa6f73	-0.030570721
25	0xbd8e53d9	-0.069495864
26	0x3d8eaa4e	0.06966077
27	0xbe0dd3b2	-0.13850287
28	0xbd18fa77	-0.037348237
29	0x3ded35ac	0.11582503
30	0x3daa8887	0.08326822
31	0x3d76dc6d	0.06026881

Const_6 f4 [32]
0	0x3fa61c83	1.2977451
1	0x3f9703c8	1.1798029
2	0x3f809651	1.0045873
3	0x3fa9f48b	1.3277754
4	0x3f85cf8f	1.0453967
5	0x3faac41e	1.33411
6	0x3f9394d6	1.1529796
7	0x3f837e81	1.0272981
8	0x3f8ff11a	1.1245453
9	0x3f89a8d0	1.0754642
10	0x3f8a6c95	1.0814387
11	0x3f801c88	1.0008707
12	0x3faffd5a	1.3749192
13	0x3f85f159	1.0464278
14	0x3f8570e0	1.0425072
15	0x3f839bb9	1.0281898
16	0x3f8a5866	1.0808227
17	0x3f84939f	1.035755
18	0x3fa56138	1.2920294
19	0x3f91da08	1.1394663
20	0x3fa5ec51	1.2962743
21	0x3f8dd3b6	1.1080234
22	0x3f7cc392	0.98735917
23	0x3f84e280	1.0381622
24	0x3f8b7a21	1.0896646
25	0x3f8d476a	1.1037419
26	0x3fb446be	1.4084089
27	0x3f81c16a	1.013715
28	0x3f99a500	1.2003479
29	0x3f8a4311	1.0801717
30	0x3f954318	1.16611
31	0x3f87cfc3	1.0610279

Const_7 f4 [32]
0	0x3e9c49a0	0.3052492
1	0x3d87e4fd	0.06635473
2	0xbc07b855	-0.008283694
3	0x3ea184e9	0.31546715
4	0x3cac0af7	0.021001322
5	0x3ea7daff	0.32784268
6	0x3e204de2	0.1565471
7	0x3ce295b3	0.027659273
8	0x3d94cd9e	0.07265781
9	0x3d6aa8bb	0.05728982
10	0x3d128e60	0.03578031
11	0xbc0e82a5	-0.00869814
12	0x3eae0b62	0.3399306
13	0x3d128d46	0.03577926
14	0x3d0e00b8	0.034668654
15	0x3c35290d	0.011057151
16	0x3d7c064f	0.061529454
17	0x3c31a80d	0.010843289
18	0x3e9d3d1d	0.30710688
19	0x3df1a9b1	0.11799944
20	0x3e9a6e2a	0.30162174
21	0x3d8ff407	0.070289664
22	0xbd01e4c1	-0.031712297
23	0x3c766c99	0.01504054
24	0x3d10e5e8	0.035375506
25	0x3d6dc24e	0.05804663
26	0x3eb1ad8c	0.34702718
27	0x3c84a9ac	0.016194187
28	0x3e07fb89	0.13279547
29	0x3d3ca99d	0.046060193
30	0x3dae67d3	0.08515897
31	0x3d09c68c	0.033636615

MatMul f4 [32, 1536]
0	0xbc5e378e	-0.01356305
1	0x3b1cabd4	0.0023906128
2	0xbca2f436	-0.01989184
3	0xb990dc9a	-0.0002763018
4	0x3c839a86	0.016064893
5	0xbc009b6f	-0.007849558
6	0x3c87e7f7	0.016590102
7	0xbc30501a	-0.010761285
8	0x3c36b9a3	0.011152658
9	0x3cbff012	0.023429904
10	0x3bb1afbc	0.0054225605
11	0xbc22def4	-0.0099408515
12	0x36b64005	5.4314755e-06
13	0xba1b0dc9	-0.0005914835
14	0xbc63b96d	-0.013899189
15	0x3c359a5b	0.0110841645
16	0xbc858a98	-0.016301438
17	0x3cc4e635	0.024035553
18	0x3b4f5916	0.0031638793
19	0xbc51bb82	-0.012801053
20	0x3c9ca4ce	0.019121554
21	0xbb03be1c	-0.0020102328
22	0xbb6e4218	-0.0036355313
23	0x3b8ae94a	0.004239236
24	0x3c237469	0.009976485
25	0x3cd448c3	0.025913602
26	0x3c1ab085	0.0094415
27	0xbc0f599c	-0.008749392
28	0x3ca5c69c	0.020236306
29	0xbb37bae3	-0.0028034977
30	0xbc61ba2b	-0.013777296
31	0xbbd47b61	-0.0064844345
32	0xbc32548c	-0.010884415
33	0xbcaa7bab	-0.020810923
34	0xbcc59071	-0.024116727
35	0xba04ad57	-0.000506123
36	0x3ca7fcba	0.020506252
37	0x3cb7cee1	0.022437515
38	0x3b8bb2ff	0.0042632814
39	0x3c16bb30	0.009199902
40	0xbc78ed81	-0.015193344
41	0x3cdfaac7	0.027303113
42	0xbca0880a	-0.019596118
43	0xbcb90e90	-0.022589952
44	0x3c2deb56	0.0106151905
45	0xbcea40cb	-0.028595349
46	0x3bc2fc2b	0.005950471
47	0x3b735eaa	0.0037135282
48	0x3cb0caf1	0.021581145
49	0x3c684f32	0.014179038
50	0xbc09b68a	-0.008405337
51	0x3c68092a	0.014162341
52	0x3c8f4feb	0.017494163
53	0x3c6f448b	0.014603744
54	0xbb436787	-0.0029816346
55	0x3bd70099	0.0065613505
56	0xbc8caaac	-0.017171226
57	0x3cdadfe0	0.02671808
58	0x3c3d18c4	0.011541549
59	0x3abd0a68	0.0014422657
60	0x3aea7a54	0.001788924
61	0x3c09520b	0.008381377
62	0xbb48af7f	-0.0030622182
63	0xbc5d1f84	-0.013496283
64	0xbb7ccd88	-0.0038574655
65	0xbc3c3671	-0.011487589
66	0x3be59d82	0.007007302
67	0xbcba58c8	-0.022747412
68	0x3c4a258f	0.012338056
69	0xbc5d4897	-0.013506076
70	0xba920e39	-0.0011143155
71	0x3baae92f	0.005215786
72	0x3ce2523e	0.027627107
73	0xbcd878ca	-0.026424784
74	0x3a61e4c3	0.0008617157
75	0x3c0c7d2c	0.008574765
76	0xbb60fe43	-0.003433124
77	0xbc4acebf	-0.012378394
78	0xbc76b7b4	-0.015058447
79	0xbaa338d3	-0.0012452848
80	0xba943524	-0.0011307341
81	0xbc28324b	-0.010265897
82	0x3affb57c	0.0019509043
83	0x3cac3a37	0.021023853
84	0x3c8bb9e2	0.01705641
85	0x3c1d47cf	0.00959964
86	0xbc501b2b	-0.01270179
87	0xbad414de	-0.0016180535
88	0x3c7676d9	0.015042984
89	0x3cba6b9f	0.022756396
90	0x3ca67b8e	0.020322587
91	0x3c3582be	0.011078535
92	0x3ae97ba9	0.0017813343
93	0xbca2fd34	-0.019896127
94	0xbc1aacec	-0.009440642
95	0xbc591e3a	-0.0132518355
96	0x3c7038b5	0.0146619575
97	0x3b1f82a0	0.0024339333
98	0x3c85a7b8	0.016315326
99	0x3c16e644	0.009210173
100	0x3cbdfc84	0.023191698
101	0x3c60c615	0.013719101
102	0xbb652ee1	-0.003497057
103	0x3c0d7900	0.008634806
104	0x3acb6b73	0.0015519693
105	0x3c4481b2	0.011993812
106	0xbc68ec78	-0.014216535
107	0xbb36122c	-0.0027781827
108	0x3a0df433	0.00054151117
109	0xbcba59ae	-0.02274784
110	0x3c907e4a	0.017638344
111	0x3ccdab4d	0.025106097
112	0x3c97196b	0.018444737
113	0x3c1f74c6	0.009732431
114	0xbc3c2229	-0.011482754
115	0xbb9d38c9	-0.004798029
116	0xb993b79a	-0.0002817482
117	0xbb647b03	-0.003486336
118	0xbb506efd	-0.0031804435
119	0x3b840ed5	0.0040300884
120	0x3bd4758e	0.00648374
121	0xba551337	-0.00081281684
122	0xbb7b38bf	-0.0038333384
123	0x3ccb5eb9	0.02482544
124	0xbc787290	-0.015164033
125	0xbc003643	-0.007825437
126	0xbc962c21	-0.01833159
127	0x3bef24d5	0.007298092
128	0x3c13686c	0.008997064
129	0x3c655fd1	0.013999895
130	0x3a618358	0.00086026406
131	0xbc496955	-0.0122931795
132	0x3c59ac3d	0.013285694
133	0x3cbd5692	0.023112569
134	0x3c20ac6f	0.009806736
135	0x3c8fbfb2	0.017547462
136	0x3cac1168	0.021004394
137	0x3b1c0c7c	0.0023811152
138	0x3bfce22e	0.0077173924
139	0x3c9901e7	0.018677665
140	0xbc8e6313	-0.017381227
141	0x3bd6f93c	0.006560473
142	0xbbd20b06	-0.0064100055
143	0x3c9c38cd	0.019070053
144	0xbc91fdec	-0.017821275
145	0x3ca89472	0.020578597
146	0xbce3561a	-0.027751017
147	0xbb9d35f6	-0.0047976924
148	0x3c053007	0.008129126
149	0x3cf0fca0	0.029417336
150	0xbcc714f9	-0.024301993
151	0x3c88fcef	0.01672217
152	0x3c5d12f1	0.0134932855
153	0xba78651c	-0.00094755157
154	0x3af680bd	0.0018806678
155	0xbcae4493	-0.021272933
156	0x3c568d39	0.013095194
157	0xbc8076ad	-0.015681589
158	0x3cd44f41	0.025916697
159	0x3ba94c89	0.0051665944
160	0x3bd87d77	0.0066067534
161	0x3c813601	0.015772821
162	0xbcb4ee55	-0.022086302
163	0xbc1ae71e	-0.009454517
164	0xbc8823c7	-0.016618622
165	0xbb408573	-0.0029376417
166	0x3b3ebac8	0.002910303
167	0xbb8185c3	-0.003952713
168	0x3b6f07f2	0.0036473242
169	0x3b8bbb73	0.004264289
170	0x3c4ef520	0.012631685
171	0x3c85aefd	0.016318792
172	0xbc3986b1	-0.011323617
173	0xbc42686c	-0.011865716
174	0xbcb8268a	-0.022479314
175	0x3c1a99ca	0.00943608
176	0x3cae43bd	0.021272535
177	0x3cc71532	0.024302099
178	0xbba6b0a7	-0.0050869766
179	0x3a5bfb85	0.00083916663
180	0xbc0f4af3	-0.008745897
181	0x386de94e	5.6722485e-05
182	0xbc85d94f	-0.016338972
183	0x3c628797	0.013826272
184	0xbce5cf7e	-0.028053042
185	0x3b29a847	0.0025887655
186	0xbbd5d053	-0.0065250783
187	0xbc3963b8	-0.011315279
188	0x3be1fa57	0.006896298
189	0xbb42fc44	-0.0029752413
190	0xbc8dc56c	-0.017306052
191	0x3c16244e	0.009163929
192	0xbc048de9	-0.008090475
193	0x3cd8d70e	0.026469734
194	0xbb915a73	-0.004435831
195	0xbbc6ae3d	-0.0060632513
196	0x3c07d15a	0.008289659
197	0x3c532970	0.012888297
198	0x3bea8943	0.007157476
199	0x3bf6f64f	0.0075366865
200	0xbc5380df	-0.012909143
201	0xbb10361d	-0.002200491
202	0x3c953da9	0.018217878
203	0x3c1da621	0.009622128
204	0xbcc1738f	-0.023614673
205	0xbca823d2	-0.020524893
206	0xbccc326b	-0.024926385
207	0x3c4caceb	0.012492399
208	0xbaeb3469	-0.0017944697
209	0xbbfe1497	-0.0077539193
210	0x3c26a077	0.010170094
211	0x3b149460	0.0022671446
212	0x3ba40a4e	0.005006111
213	0x3c41d56d	0.01183067
214	0x3b422f9b	0.0029630426
215	0xbafc152f	-0.0019232387
216	0x3bd314c5	0.006441685
217	0xbb1fa76a	-0.0024361261
218	0x3c67c32e	0.014145656
219	0xbb258b47	-0.0025260018
220	0xbc55cceb	-0.0130493445
221	0xbc7e9281	-0.015537859
222	0xbcb0f77d	-0.021602387
223	0x3cc8ee25	0.024527619
224	0xbc5257f1	-0.01283835
225	0xbc8b0d50	-0.016974121
226	0xbc8fcb16	-0.017552894
227	0x3c8fe197	0.017563624
228	0x3c0473ce	0.008084251
229	0x3ba34d15	0.004983554
230	0xbce65666	-0.02811737
231	0x3cc59506	0.024118911
232	0xbb1ca999	-0.00239048
233	0x3c77cb7d	0.015124199
234	0x3be790df	0.0070668305
235	0x3c6451c9	0.013935515
236	0xbc6d4965	-0.014482831
237	0x3c150a4b	0.009096692
238	0xbc006c1e	-0.007838277
239	0x3bf38d4c	0.0074326154
240	0x3bdfecca	0.0068336474
241	0x3ca19147	0.019722594
242	0xbb60c6f7	-0.003429828
243	0x3cdab2c7	0.026696576
244	0x3cde92f3	0.02716968
245	0xbbfe57ad	-0.0077619166
246	0x3cc00a2d	0.023442352
247	0x3c6dcff0	0.014514908
248	0xbca5c839	-0.020237075
249	0x3c5890d5	0.013218124
250	0x3a551671	0.0008128649
251	0xbba0a627	-0.0049026194
252	0x3bb6a3a2	0.005573706
253	0x3ca27e76	0.019835692
254	0x3ab69af7	0.0013931681
255	0x3b69396f	0.0035587212

MatMul_1 f4 [32, 32]
0	0xbe12afa5	-0.14324816
1	0xbdd51714	-0.104047924
2	0xbe3bf3b5	-0.18354686
3	0x3dbe8eef	0.09304606
4	0x3d8ece81	0.06972981
5	0x3e03f7ff	0.12887572
6	0x3d93dfc3	0.072204135
7	0x3dc2b45c	0.09507057
8	0x3d954af2	0.07289685
9	0xbcd19fff	-0.025588987
10	0x3d00bfe1	0.03143299
11	0xbe0b12bd	-0.13581367
12	0xbdf88496	-0.12134664
13	0xbd24030f	-0.04004198
14	0x3dd1b5ec	0.10239777
15	0x3d8e9428	0.06961852
16	0xbd39f576	-0.045400105
17	0x3dedb86d	0.11607442
18	0xbe23099a	-0.15921631
19	0x3d2efbce	0.04272061
20	0xbe35cbab	-0.17753474
21	0x3e30b2f3	0.17255764
22	0x3c8569c9	0.016285794
23	0xbe0ff3ad	-0.14057799
24	0xbcbb4ee1	-0.02286476
25	0x3e1c4568	0.15260851
26	0x3dc4599b	0.095874034
27	0x3de89c9f	0.11357998
28	0x3d81c242	0.0633588
29	0x3e1683df	0.14698742
30	0x3c332c7d	0.0109359
31	0x3e101607	0.14070903
32	0x3e1daad4	0.15397197
33	0x3dfcbf40	0.123411655
34	0xbe093b94	-0.13401634
35	0x3e5b9e44	0.21447092
36	0x3d0d941a	0.03456507
37	0xbe1ac5fe	-0.1511459
38	0x3df32254	0.11871782
39	0xbe0c67d2	-0.1371148
40	0x3daa2808	0.083084166
41	0x3d6d173d	0.05788349
42	0x3da6663b	0.08124968
43	0xba8d1528	-0.0010763751
44	0x3d39f776	0.045402013
45	0x3d297667	0.041372683
46	0x3da2549f	0.079262964
47	0xbe59feba	-0.21288577
48	0x3e05d3c0	0.13069057
49	0xbc728d1c	-0.014804151
50	0x3d59446d	0.05304377
51	0x3d9f4902	0.07777597
52	0xbcd2b7ce	-0.02572241
53	0x3c86e960	0.016468704
54	0xbdfc046d	-0.12305532
55	0xbd20efca	-0.03929118
56	0xbe23ec83	-0.16008191
57	0x3d6c6339	0.057711814
58	0x3e0608bf	0.13089274
59	0x3dac549d	0.08414576
60	0xbd4dc4a2	-0.05023635
61	0xbc6d8b76	-0.014498582
62	0xbc25fc96	-0.010131022
63	0x3d79bbe2	0.060970195
64	0x3d55cc03	0.052196514
65	0xbc387311	-0.011257903
66	0x3c10e368	0.00884328
67	0x3ca6aaf7	0.020345194
68	0xbc666edc	-0.014064517
69	0x3dcf9318	0.10135478
70	0x3d3c1daf	0.045926746
71	0xbd9f6111	-0.07782186
72	0x3db3d595	0.08780972
73	0xbe06b97f	-0.13156699
74	0x3e11dc7e	0.14244267
75	0x3c9fa801	0.01948929
76	0xbe162947	-0.14664184
77	0xbc16b2d4	-0.009197909
78	0xbdf1ae54	-0.118008286
79	0x3da692f1	0.081334956
80	0xbdb8848c	-0.09009656
81	0x3d9678d0	0.07347262
82	0xbde0aa5f	-0.10969996
83	0xbd386db9	-0.045026515
84	0xbd810540	-0.062998295
85	0x3da52973	0.080645464
86	0xbd30b689	-0.04314283
87	0xbe23fcc8	-0.16014397
88	0x39030e08	0.0001249836
89	0xbdfa9eb1	-0.12237299
90	0x3c7a37fc	0.015272137
91	0x3d879860	0.0662086
92	0x3c0495b8	0.008092336
93	0xbdc8a158	-0.09796399
94	0x3d97244e	0.073799714
95	0x3de72a3d	0.11287353
96	0x3e22007e	0.158205
97	0xbdbcbcc1	-0.092156895
98	0xbdfdac3c	-0.12386367
99	0xbded3621	-0.1158259
100	0x3dfc676f	0.12324416
101	0x3c8382b8	0.016053542
102	0xbdd73fdf	-0.10510229
103	0x3d4ee624	0.050512448
104	0xbc647f88	-0.013946421
105	0x3b7b71ec	0.0038367463
106	0xbdf61b91	-0.120169766
107	0xbdd08dd8	-0.101833045
108	0xbe3d3a03	-0.18479161
109	0x3e16cd7b	0.14726822
110	0xbdc0a68d	-0.09406767
111	0xbd0cce9f	-0.034376737
112	0xbda534ce	-0.08066712
113	0xbe310785	-0.17288025
114	0x3d66bae1	0.056330565
115	0x3e0793a9	0.13239922
116	0x3d6a7e28	0.05724922
117	0x3d9883f2	0.074470416
118	0xbdbeaecf	-0.09310686
119	0x3e1713bb	0.1475362
120	0x3cca17cf	0.024669556
121	0x3da724f1	0.08161343
122	0x3da003fe	0.078132614
123	0xbd733c2e	-0.059383564
124	0xbdf072c4	-0.1174064
125	0xbdf1b318	-0.118017375
126	0x3e0dd06c	0.13849038
127	0x3e1e5f1f	0.15465973
128	0xbe0b1987	-0.13583957
129	0x3e348867	0.17630158
130	0xbd3074e7	-0.043080237
131	0x3daf2bb6	0.08553259
132	0xbdd3eac4	-0.10347512
133	0x3d2b498a	0.04181818
134	0x3e170734	0.14748842
135	0x3dd4634d	0.103705026
136	0x3c5c6f25	0.013454233
137	0xbe18ef04	-0.14934927
138	0xbd40d0b1	-0.047074024
139	0x3dba8793	0.0910789
140	0xbd8b1c61	-0.06792522
141	0x3d4faf53	0.05070431
142	0x3d3d1f02	0.04617215
143	0xbc41f579	-0.01183831
144	0x3df8ebf6	0.12154381
145	0x3dab5d8a	0.083674505
146	0xbcd6625d	-0.02616995
147	0xbe0a3e95	-0.13500436
148	0xbcc80a09	-0.024418848
149	0x3d5d3ddc	0.05401407
150	0x3e131bf1	0.14366128
151	0xbd7d040d	-0.06177144
152	0x3bdac1cd	0.006675935
153	0x3d6b012b	0.05737416
154	0xbe04f7c9	-0.12985148
155	0x3dce9dea	0.100887135
156	0x3e0e183f	0.13876437
157	0x3e1674d9	0.14693011
158	0xbd8a0a0e	-0.06740199
159	0xbe0aa082	-0.13537791
160	0xbdf100e4	-0.11767748
161	0x3da65077	0.08120816
162	0xbe0dca6b	-0.13846748
163	0xbd6ebfa4	-0.05828823
164	0x3db67ec6	0.08910899
165	0x3cd26430	0.025682539
166	0x3bbef9ea	0.005828132
167	0xbd0bbbab	-0.03411452
168	0x3e091081	0.13385202
169	0x3d8c0834	0.06837502
170	0xbe3f2d6f	-0.18669675
171	0xbdc84676	-0.09779064
172	0x3d9d280b	0.07673653
173	0x3dff214d	0.124575235
174	0xbe6127de	-0.21987864
175	0x3dba243d	0.09088943
176	0x3c1588cb	0.009126852
177	0x3d071c0f	0.032985743
178	0xbdb28b71	-0.087180026
179	0x3d6f63e6	0.05844488
180	0x3a729813	0.0009254228
181	0xbcbdfd39	-0.023192035
182	0x3c52f320	0.012875348
183	0x3be17706	0.006880644
184	0xbdc5ac6a	-0.09652026
185	0xbd82a546	-0.0637918
186	0xbe2dbab6	-0.16965756
187	0xbe24baf0	-0.16086936
188	0xbde8dafc	-0.11369893
189	0x3da08af4	0.07839003
190	0x3dbc30cd	0.091889955
191	0x3dbb1b97	0.09136122
192	0xbdc52550	-0.096262574
193	0xbdd4704f	-0.10372984
194	0xbd84f5dd	-0.06492207
195	0x3da4f648	0.08054787
196	0x3aabb3af	0.0013099815
197	0xbceac956	-0.028660458
198	0x3e29efa6	0.16595325
199	0x3e22fae1	0.15916015
200	0xbd9f176a	-0.07768138
201	0xbd7f73ba	-0.062366225
202	0x3dbe2f9b	0.09286424
203	0xbca51ded	-0.020155871
204	0xbdf33ea4	-0.11877182
205	0xbe15c434	-0.14625627
206	0x3d92bd2b	0.07164987
207	0x3e085688	0.13314259
208	0xbe14f43a	-0.1454629
209	0x3de38e62	0.11111142
210	0xbd80932d	-0.062780716
211	0xbd5b2f48	-0.053511888
212	0xbd1ec9e0	-0.03876674
213	0x3c884bc5	0.016637692
214	0x3e1b526f	0.15168165
215	0xbcc488fd	-0.023991102
216	0x3bde4576	0.0067831827
217	0x3deaec1a	0.11470814
218	0xbcad74d7	-0.021173878
219	0x3dd47b38	0.103750646
220	0xbcaf841b	-0.021425297
221	0xbdba21f5	-0.09088508
222	0xbd940800	-0.072280884
223	0x3d2e67af	0.04257935
224	0x3d7cfc66	0.061764143
225	0x3ddb545d	0.107094504
226	0xbe104383	-0.14088254
227	0xbe385d1a	-0.18004265
228	0xbdd6bb8c	-0.104849905
229	0x3d78434f	0.060611065
230	0xbdc452c7	-0.09586101
231	0xb9d8b5be	-0.0004133414
232	0x3d673d1a	0.056454755
233	0xbe11d26d	-0.14240427
234	0xbd7e6987	-0.062112357
235	0xbdaef676	-0.085431024
236	0xbc9ecc63	-0.019384569
237	0x3af92b6e	0.0019010135
238	0xbcefb314	-0.029260196
239	0xbe1a28d9	-0.15054645
240	0xbd87aac6	-0.06624369
241	0xbd3c513f	-0.04597592
242	0x3b8e3466	0.0043397425
243	0xbdef12b7	-0.116734914
244	0x3d330345	0.04370429
245	0x3d0f8d0c	0.035046622
246	0x3da59194	0.080844074
247	0x3e073ddd	0.13207193
248	0x3e1cba0b	0.15305345
249	0xbd02659f	-0.031835195
250	0x3d919a22	0.071094766
251	0xbe2323a1	-0.1593156
252	0x3c8aaa39	0.016926872
253	0x3da46517	0.08027094
254	0xbd19a867	-0.037514117
255	0x3d8dc62a	0.069225624

MatMul_2 f4 [1, 32]
0	0xbeb9e164	-0.36304772
1	0x3e85e37c	0.2615012
2	0x3ce23046	0.02761091
3	0xbebaf451	-0.36514524
4	0x3e3cb821	0.18429615
5	0xbea5de05	-0.3239595
6	0xbe830ee5	-0.255973
7	0x3d518f48	0.051162034
8	0x3e3bb708	0.1833154
9	0x3df413dc	0.119178504
10	0x3e3bfdf6	0.18358597
11	0x3db4d276	0.08829205
12	0xbeb7252d	-0.3577055
13	0x3e3f17c3	0.18661408
14	0x3d914e67	0.07095032
15	0x3e02c3ba	0.12769976
16	0x3e3c657c	0.18398088
17	0x3e3017e3	0.17196612
18	0xbea76edf	-0.32701775
19	0x3deeccc3	0.11660149
20	0xbec024fa	-0.3752821
21	0x3d47baca	0.04876212
22	0x3d09aaef	0.03361028
23	0x3e251ea0	0.16124964
24	0x3de6421e	0.112430796
25	0x3e6174c5	0.220172
26	0xbec3d0e7	-0.38245317
27	0x3d9d9f37	0.076963834
28	0x3ea1e302	0.31618506
29	0x3dc91e79	0.09820265
30	0x3ea68b71	0.3252826
31	0x3dc492ad	0.09598289
