wkey/openwakeword_models/tflite/heycomputer.tflite (tflite, 206748 bytes, 9 tensors)

Const_1 f4 [32]
0.008799766 -0.0056019076 0.009244853 -0.005811529 0.017873839 0.017235177 -0.00014870215 -0.0073587955
0.007820237 -0.019633466 -0.011800371 0.0060500833 -0.015710441 -0.005199924 -0.010444923 0.0048294594
0.003198695 0.007756652 0.020542404 0.0025140003 0.008855418 0.013437009 -0.007980942 0.015382827
-0.006369307 0.014197855 -0.0023580375 0.019880889 8.801382e-05 0.019110642 -0.008970272 -0.018618092
00000000: e52c 103c 3590 b7bb b977 173c a36e bebb
00000010: 286c 923c c930 8d3c eeec 1bb9 0d22 f1bb
00000020: 7420 003c 5dd6 a0bc 5856 41bc c73f c63b
00000030: 2fb3 80bc 2064 aabb 2f21 2bbc 7140 9e3b
00000040: 32a1 513b 832b fe3b 8b48 a83c edc1 243b
00000050: 5116 113c e726 5c3c 7fc2 02bc 4108 7c3c
00000060: 9fb5 d0bb 1f9e 683c 4e89 1abb 3fdd a23c
00000070: 0f94 b838 ec8d 9c3c 0cf8 12bc f884 98bc

Const_2 f4 [32]
0.97531056 0.99363047 0.99978304 0.9764676 0.99628675 0.99368274 1.0496402 0.98577476
0.9781017 1.0053142 0.998525 0.99346155 1.0039535 0.9993687 1.0059861 0.9800724
0.9773076 1.003228 0.99612284 1.0287399 0.9378191 0.9959701 0.99213874 0.9974049
1.0093517 0.9950121 1.020927 0.98868376 1.0029659 0.9640247 0.9955122 1.004899
00000000: f4ad 793f 915e 7e3f c8f1 7f3f c8f9 793f
00000010: a60c 7f3f fe61 7e3f 9c5a 863f bc5b 7c3f
00000020: df64 7a3f 23ae 803f 569f 7f3f 7f53 7e3f
00000030: 8c81 803f a1d6 7f3f 27c4 803f 06e6 7a3f
00000040: d530 7a3f c669 803f e801 7f3f c0ad 833f
00000050: ea14 703f e5f7 7e3f cefc 7d3f ed55 7f3f
00000060: 7032 813f 1db9 7e3f bcad 823f 611a 7d3f
00000070: 3061 803f 53ca 763f e3d9 7e3f 88a0 803f

Const_3 f4 [32]
-0.01610455 -0.014398184 0.0071966792 -0.012093345 -0.0180879 0.016956488 0.009348544 -0.0074421796
0.0021354377 0.0033460176 -0.018791001 -0.016057735 0.004730639 -0.014452138 0.00036386467 0.0069722957
0.0046266885 -0.00018531244 -0.013491928 0.014981001 -0.06392786 0.030292096 0.010833991 -0.015067553
0.0029576828 -0.018736714 -0.011319255 -0.016941072 0.023709629 -0.001305469 -0.021060867 0.008388687
00000000: b0ed 83bc 5ce6 6bbc 1fd2 eb3b 2a23 46bc
00000010: 132d 94bc 55e8 8a3c a32a 193c 87dd f3bb
00000020: b3f2 0b3b dc48 5b3b 96ef 99bc 838b 83bc
00000030: 7a03 9b3b a9c8 6cbc 17c5 be39 db77 e43b
00000040: 7a9b 973b 6e50 42b9 3f0d 5dbc df72 753c
00000050: 9cec 82bd 2127 f83c 0d81 313c e6dd 76bc
00000060: afd5 413b bd7d 99bc 6674 39bc 01c8 8abc
00000070: b23a c23c 451c abba d787 acbc b470 093c

Const_5 f4 [32]
0.052385915 0.13900164 0.11651656 -0.10226734 -0.02084349 0.14962369 -0.16253448 -0.08013934
-0.15966801 -0.030022174 0.13169345 0.14430869 0.042571913 0.13876775 0.13770221 -0.0022930582
0.1418839 -0.10159492 0.07420225 -0.010780955 0.08324533 0.07109662 -0.028023914 -0.15732111
-0.17299351 0.1187693 0.03162006 0.1805122 0.16490208 -0.0704104 0.019206284 0.11259254
00000000: 9d92 563d 7256 0e3e 3ca0 ee3d 8a71 d1bd
00000010: f7bf aabc f436 193e 706f 26be 1820 a4bd
00000020: 0380 23be 10f1 f5bc a6da 063e a8c5 133e
00000030: e35f 2e3d 2219 0e3e cf01 0d3e 2247 16bb
00000040: 034a 113e ff10 d0bd 59f7 973d 9aa2 30bc
00000050: 877c aa3d 1b9b 913d 6892 e5bc c918 21be
00000060: 3625 31be 523d f33d 0984 013d 31d8 383e
00000070: 17dc 283e 5433 90bd 7f56 9d3c eb96 e63d

Const_6 f4 [32]
1.0007789 0.9967155 1.3077662 0.9929358 0.9939438 0.99977183 1.0392226 0.9978218
1.1422384 0.9976591 1.0686839 1.2243196 1.3004158 1.2249634 1.0763538 1.2427293
1.0511916 0.94246596 0.9071912 1.2858517 1.0037761 1.2548754 1.2120261 1.0489309
0.9962486 0.99724126 1.2179475 0.984968 1.0792882 0.9844778 1.2187213 0.9984279
00000000: 8619 803f bf28 7f3f e264 a73f 0a31 7e3f
00000010: 1a73 7e3f 0cf1 7f3f 3f05 853f 4071 7f3f
00000020: de34 923f 9666 7f3f a2ca 883f 81b6 9c3f
00000030: 0674 a63f 9acb 9c3f f6c5 893f c111 9f3f
00000040: 728d 863f 7345 713f af3d 683f ca96 a43f
00000050: bc7b 803f c29f a03f ac23 9b3f 5e43 863f
00000060: 260a 7f3f 344b 7f3f b4e5 9b3f dd26 7c3f
00000070: 1e26 8a3f bd06 7c3f 0fff 9b3f f998 7f3f

Const_7 f4 [32]
-0.0027374148 -0.0046611847 0.2611617 -0.010449562 -0.0045472262 -0.0035000567 0.028551342 0.0045568706
0.07742574 -0.004161383 0.048827615 0.2286497 0.2603778 0.22837234 0.069728635 0.23759533
0.03263545 -0.054589394 -0.09571688 0.25229558 0.016380046 0.24234074 0.22397882 0.04783986
-0.0031225902 -0.02356843 0.2276018 -0.018897582 0.0414767 -0.03059932 0.22636889 -0.006205148
00000000: 3366 33bb dabc 98bb fdb6 853e a434 2bbc
00000010: e600 95bb 3561 65bb 81e4 e93c cd51 953b
00000020: 6391 9e3d 365c 88bb 77ff 473d 2623 6a3e
00000030: 3d50 853e 70da 693e e3cd 8e3d 314c 733e
00000040: c0ac 053d 2199 5fbd 3607 c4bd e32c 813e
00000050: 722f 863c 2c28 783e b45a 653e bbf3 433d
00000060: 5fa4 4cbb 9512 c1bc 7210 693e 1acf 9abc
00000070: 79e3 293d 6dab fabc 3fcd 673e 8e54 cbbb

MatMul f4 [32, 1536]
0.0034402513 -0.011302082 -0.02219052 -0.028303407 0.0072929 -0.030900873 -0.0018855394 0.010254807
-0.02122848 -0.0066559566 -0.008006839 0.0144871045 0.00947079 0.0007931006 0.0066755163 -0.009697412
-0.0024056183 -0.02268572 -0.008501006 -0.0049941335 -0.037253335 0.013660767 0.008920367 -0.032531496
0.0068349196 -0.01510047 0.01970173 -0.023516856 -0.013065034 -0.0246625 -0.008162044 -0.011945215
0.019718293 -0.021304812 -0.024532493 -0.00025807484 -0.001350525 -0.01844205 -0.026917594 -0.016190745
0.0040057017 -0.01603897 -0.016155932 0.0016724204 0.0010371519 -0.023336418 -0.008614374 -0.0013700004
-0.03132311 0.05017255 0.022408644 -0.0056776856 0.020047389 0.032690104 -0.0033745535 0.009420422
0.027389277 0.00042922478 -0.021497712 0.005828618 0.02076437 -0.017372321 0.0026366548 0.009434628
0.007885455 -0.021022268 0.0040456797 0.022995358 0.0003072657 -0.0022685034 0.01810977 -0.012827671
-0.0058149886 -0.0028913026 0.019205116 0.010436785 -0.035591938 0.01124421 0.022776747 -0.007943371
0.014588354 0.021212794 -0.0018159453 -0.00074013916 0.0021399155 -0.013811419 -0.0041909926 -0.009888739
-0.0016683147 0.015880302 -0.008562051 -0.018797554 -0.025173707 -0.012871459 0.0052297376 -0.003411095
0.022194762 0.0036543414 -0.00849173 -0.02517697 -0.010809385 0.0014380086 -0.0061950344 0.02643531
-0.044064086 0.022119718 0.016603358 0.013970838 -0.0077404124 -0.013802349 -0.010248693 -0.019851262
0.009648591 0.014182598 0.004307919 -0.017751755 -0.015738796 -0.014902536 0.021971717 -0.031251792
-0.0028886457 0.0058961613 -0.02130078 0.014259207 -0.003161274 -0.01939078 0.011042943 -0.013756343
-0.0058528204 -0.0094391955 0.015291238 0.046645347 0.011905469 0.0021238616 -0.0005652488 -0.016069947
-0.0019400299 0.0035782102 -0.024471773 -0.00883595 -0.0040761055 0.02492419 -0.004951538 0.0004902227
-0.0061241733 -0.0019134537 0.0027155469 -0.024645716 -0.003162101 -0.0090387 0.010804475 -0.0124801425
0.0043871556 -0.027550828 0.024408653 -0.0010398303 0.023897639 -0.02861361 0.0005893224 0.019510247
-0.01130545 -0.012216818 -0.013588323 0.0028969725 0.009358289 0.0061005875 0.011220291 0.017365592
-0.008361355 -0.0024905642 0.007988445 0.033946723 -0.021636035 -0.0121222185 0.0021781016 0.024475843
-0.014870668 0.017870177 0.007816173 -0.0013635163 -0.031228239 -0.004430772 0.010274938 0.012286752
-0.016589085 0.023183776 0.03433184 0.017887857 0.01941059 0.006229954 -0.011186203 0.016863
-0.00924988 -0.009866375 -0.016448721 0.0064995787 0.018640002 -0.008908082 -0.015908077 -0.020881213
-0.009278321 -0.019938463 0.008994178 -0.011053643 -0.0009810774 0.0018191434 -0.00749217 -0.007128911
-0.024158943 0.016963312 0.025111107 -0.009333529 0.025578257 -0.02488773 0.023127494 -0.048478134
-0.024190983 -0.010491964 0.012765601 -0.009601625 0.0051674247 0.013205051 -0.011629878 -0.026097115
0.001551759 -0.016330061 -0.0054763267 0.0055607613 -0.010773527 -0.0054520564 -0.017313218 0.0162901
-0.017458275 0.023263225 0.004897966 0.012268656 -0.010615794 0.02142722 -0.018412627 -0.0035919473
-0.024873443 0.0012368963 0.03504931 -0.005613862 -0.0047232644 0.00041892173 0.010843797 -0.02154471
0.012696607 -0.02682764 0.0017265612 -0.007481098 0.029983724 -0.0039366744 0.04943489 0.0048407423
00000000: d775 613b 5e2c 39bc e5c8 b5bc 8cdc e7bc
00000010: 47f9 ee3b d423 fdbc 3424 f7ba c703 283c
00000020: 59e7 adbc 361a dabb 1e2f 03bc 525b 6d3c
00000030: 5f2b 1b3c 15e8 4f3a 4abe da3b e5e1 1ebc
00000040: 94a7 1dbb 67d7 b9bc ce47 0bbc d4a5 a3bb
00000050: f496 18bd 69d1 5f3c bb26 123c bf3f 05bd
00000060: 76f7 df3b f667 77bc 8665 a13c 6ca6 c0bc
00000070: b90e 56bc 0309 cabc 18ba 05bc ddb5 43bc
00000080: 4288 a13c 6e87 aebc 5ef8 c8bc 384e 87b9
00000090: 1904 b1ba c813 97bc 4982 dcbc 74a2 84bc
000000a0: 4342 833b 2864 83bc 7259 84bc 1e35 db3a
000000b0: 0bf1 873a 042c bfbc 4e23 0dbc 9691 b3ba
000000c0: a94c 00bd bb81 4d3d 5592 b73c e10b babb
000000d0: 6c3a a43c 0fe6 053d 9d27 5dbb 1d58 1a3c
000000e0: 7a5f e03c 9309 e139 f81b b0bc fefd be3b
000000f0: 0a1a aa3c 6650 8ebc bacb 2c3b b393 1a3c
00000100: ff31 013c e436 acbc 9f91 843b c360 bc3c
00000110: 8118 a139 2cab 14bb f15a 943c 272b 52bc
00000120: a98b bebb 027c 3dbb 0c54 9d3c 0dff 2a3c
00000130: dac8 11bd a339 383c 4d96 ba3c ea24 02bc
00000140: fe03 6f3c 74c6 ad3c 0305 eeba e605 42ba
00000150: d33d 0c3b 4a49 62bc 9854 89bb 6104 22bc
00000160: 5aab daba 6817 823c d847 0cbc 54fd 99bc
00000170: 1739 cebc d0e2 52bc 385e ab3b ad8c 5fbb
00000180: cad1 b53c ad7d 6f3b e620 0bbc ef3f cebc
00000190: d919 31bc 907b bc3a b7ff cabb dd8e d83c
000001a0: 8b7c 34bd 6934 b53c c403 883c f1e5 643c
000001b0: 49a3 fdbb 3f23 62bc 22ea 27bc 1d9f a2bc
000001c0: 2015 1e3c 215e 683c 7229 8d3b 216c 91bc
000001d0: a6ee 80bc c429 74bc 08fe b33c e101 00bd
000001e0: 6f4f 3dbb 9634 c13b f97e aebc 739f 693c
000001f0: 602d 4fbb 6ad9 9ebc 76ed 343c 4962 61bc
00000200: 04c9 bfbb dba6 1abc 1a88 7a3c 310f 3f3d
00000210: 280f 433c 7c30 0b3b 342d 14ba 1fa5 83bc
00000220: 9a48 feba 6880 6a3b 0779 c8bc a9c4 10bc
00000230: da90 85bb d12d cc3c 8340 a2bb 4a82 003a
00000240: 4aad c8bb dacc faba 51f7 313b d0e5 c9bc
00000250: 403b 4fbb 0e17 14bc 4105 313c 8379 4cbc
00000260: 21c2 8f3b 46b2 e1bc a8f4 c73c ea4a 88ba
00000270: fbc4 c33c 1767 eabc c27c 1a3a f4d3 9f3c
00000280: 7f3a 39bc 0c29 48bc 8fa1 5ebc 22db 3d3b
00000290: 8253 193c 70e7 c73b 50d5 373c 4942 8e3c
000002a0: 11fe 08bc bc38 23bb f8e1 023c b80b 0b3d
000002b0: 0e3e b1bc 459c 46bc 7bbe 0e3b 9081 c83c
000002c0: 1aa4 73bc 7a64 923c 680f 003c 04b8 b2ba
000002d0: 5dd2 ffbc 0230 91bb 3758 283c 604e 493c
000002e0: d5e5 87bc e7eb bd3c 8b9f 0c3d 8e89 923c
000002f0: f502 9f3c a424 cc3b 5646 37bc 4624 8a3c
00000300: cf8c 17bc 93a6 21bc 78bf 86bc 6bfa d43b
00000310: ebb2 983c 34f3 11bc a851 82bc 140f abbc
00000320: 1904 18bc fd55 a3bc 515c 133c 571a 35bc
00000330: 7f97 80ba 5370 ee3a e180 f5bb a499 e9bb
00000340: fae8 c5bc a5f6 8a3c cfb5 cd3c a8eb 18bc
00000350: 7e89 d13c 5ae1 cbbc df75 bd3c 0291 46bd
00000360: 2b2c c6bc 7de6 2bbc d026 513c 2250 1dbc
00000370: 8053 a93b 005a 583c 3e8b 3ebc 9ec9 d5bc
00000380: 6464 cb3a 9fc6 85bc c272 b3bb 0c37 b63b
00000390: 7383 30bc 2aa7 b2bb 73d4 8dbc d172 853c
000003a0: a804 8fbc 8592 be3c 1e7f a03b 7902 493c
000003b0: deed 2dbc 2388 af3c 14d6 96bc e066 6bbb
000003c0: 64c3 cbbc 5a1f a23a de8f 0f3d 7df4 b7bb
000003d0: 9dc5 9abb b9a2 db39 2eaa 313c 887e b0bc
000003e0: 6e05 503c a4c5 dbbc c84d e23a 0024 f5bb
000003f0: 6da0 f53c 38ff 80bb 3d7c 4a3d 179f 9e3b

MatMul_1 f4 [32, 32]
-0.1145145 0.08652379 0.055719286 -0.009250084 -0.02927432 -0.13274164 0.02565538 0.15328889
-0.05244669 -0.14698994 -0.0060242843 0.1251154 -6.420273e-05 0.089946166 -0.074225 -0.0789321
0.0409568 0.109355584 0.040220227 0.06763847 0.078375615 0.06731585 -0.06723372 0.16513929
-0.15039067 0.07476309 0.13700007 -0.11387899 -0.027803175 0.044421665 -0.1325292 -0.048307803
0.06457183 0.010776261 -0.14723036 0.049721405 -0.14289187 -0.12883864 -0.12298658 -0.03526366
0.00086142146 0.08616881 0.11310082 -0.024267124 0.02755445 -0.0075142607 -0.025782773 -0.07284974
-0.01767854 -0.03759029 0.07580898 0.05690824 0.013306797 0.00061737903 -0.08233616 -0.043153293
0.016979346 0.06486799 0.020855201 -0.060776997 -0.007294592 0.112246886 -0.10961911 0.062226873
-0.0996303 0.11350522 0.14745265 0.02388123 0.043913197 -0.026217926 -0.10559397 0.13462894
0.030948764 0.1148475 0.03645648 0.06036238 0.07721573 0.12624545 0.021123385 0.08616912
-0.08807283 -0.07356049 0.10013592 0.22052687 0.120321535 -0.04697349 -0.009280535 0.04877069
0.09295247 -0.06298359 0.013678088 0.0023952336 -0.0484176 -0.020816308 -0.09100487 -0.08303045
0.07516627 0.011196798 0.037070934 0.12204569 0.076450415 0.12232422 -0.056737855 -0.111312136
-0.020583816 -0.12330775 0.13424082 -0.008820962 0.105084285 -0.04628272 0.14022386 -0.06852228
-0.05264068 -0.14459544 -0.16030638 0.06470859 0.15549302 -0.13671061 -0.14385341 -0.075556606
-0.103812486 0.049933255 0.003999757 0.12284639 0.068930045 0.1287449 -0.046527516 0.13666509
-0.046056174 -0.008167159 -0.07658544 -0.18219444 0.06119297 0.047673266 0.012978105 0.10359902
0.09770887 0.00786539 0.0058496315 0.025181051 -0.04800417 -0.028205933 0.09524581 -0.12285931
-0.02033975 0.049704697 -0.17165464 0.03463521 0.122105464 -0.18879485 -0.08507717 0.06909159
0.08547691 -0.08250081 0.17972276 0.11625885 -0.19132304 0.1002877 -0.13389514 -0.028518781
0.105601 0.14038543 -0.15825623 -0.11268365 0.13237014 -0.116941914 -0.042739242 -0.144014
0.10023208 0.07930042 0.03682623 0.0564064 -0.09986361 -0.13023426 -0.045922842 -0.028339906
0.107476555 -0.1341442 -0.06083331 0.04712186 0.02253204 -0.14909291 -0.034745075 0.08322917
0.032026403 -0.07357717 0.11628026 0.013685037 -0.13292654 -0.14109504 -0.17684825 0.054501925
0.16900964 0.088696845 -0.069501035 -0.15329355 0.15322262 0.04440171 0.18683438 0.0009831423
0.13798119 0.0018017124 -0.07803086 0.14521502 -0.13822176 -0.16328485 0.079963095 -0.037269745
0.052961264 0.099919215 0.016406959 -0.123192504 0.107258834 -0.13016362 -0.037977554 0.08483117
-0.11875263 0.01498831 0.18904354 0.13761367 0.0068290257 0.11088111 -0.11118016 -0.15914904
-0.07777517 0.09593204 -0.045871247 0.07419583 0.013580708 0.12128427 0.12049753 -0.024627902
-0.09764864 0.15183398 -0.025830414 0.0141955055 0.05184848 0.07086714 -0.011189768 0.038096532
-0.10700255 -0.005869966 0.03991164 -0.14508772 -0.11085738 0.14955938 0.16354407 0.067672886
-0.1669028 0.14686206 -0.116965584 -0.17649059 0.10450627 -0.068945244 -0.01880772 -0.16259763
00000000: 9486 eabd 6333 b13d e839 643d aa8d 17bc
00000010: b3d0 efbc 6ded 07be 3b2b d23c c3f7 1c3e
00000020: 57d2 56bd 8884 16be 5c67 c5bb 401e 003e
00000030: 94a4 86b8 b235 b83d 4703 98bd 27a7 a1bd
00000040: 51c2 273d d2f5 df3d f7bd 243d 0a86 8a3d
00000050: 6583 a03d e4dc 893d d5b1 89bd 461a 293e
00000060: 0300 1abe 641d 993d bf49 0c3e 6339 e9bd
00000070: 7cc3 e3bc 7ef3 353d bcb5 07be 67de 45bd
00000080: 3c3e 843d ea8e 303c 8ec3 16be aca8 4b3d
00000090: 3f52 12be 47ee 03be 63e0 fbbd a170 10bd
000000a0: 04d1 613a 4679 b03d 67a1 e73d d9cb c6bc
000000b0: dfb9 e13c 303a f6bb 6536 d3bc 3f32 95bd
000000c0: 96d2 90bc 47f8 19bd bd41 9b3d 9d18 693d
000000d0: c004 5a3c 9bd7 213a dc9f a8bd 82c1 30bd
000000e0: 4518 8b3c 82d9 843d 87d8 aa3c 4df1 78bd
000000f0: 7907 efbb b2e1 e53d fc7f e0bd 9be1 7e3d
00000100: f90a ccbd 6d75 e83d d4fd 163e 92a2 c33c
00000110: 53de 333d fac6 d6bc a741 d8bd 2bdc 093e
00000120: 4388 fd3c 2b35 eb3d 6453 153d 8b3e 773d
00000130: 4823 9e3d 7d46 013e f30a ad3c 7079 b03d
00000140: 875f b4bd e2a6 96bd 1014 cd3d ccd1 613e
00000150: 236b f63d 4667 40bd 630d 18bc c6c3 473d
00000160: dd5d be3d 8afd 80bd 0f1a 603c 5af9 1c3b
00000170: 8951 46bd f686 aabc c360 babd de0b aabd
00000180: c6f0 993d c672 373c b1d7 173d 17f3 f93d
00000190: 0992 9c3d 1f85 fa3d f465 68bd 9ef7 e3bd
000001a0: 649f a8bc c688 fcbd 6d76 093e cc85 10bc
000001b0: 6e36 d73d f392 3dbd d896 0f3e 6955 8cbd
000001c0: c19d 57bd d410 14be 5b27 24be f085 843d
000001d0: 9039 1f3e defd 0bbe 4f4e 13be 6cbd 9abd
000001e0: a49b d4bd d086 4c3d 6510 833b e396 fb3d
000001f0: 322b 8d3d b4d5 033e a393 3ebd eff1 0b3e
00000200: 66a5 3cbd 8ccf 05bc d4d8 9cbd 2e91 3abe
00000210: 7ba5 7a3d 0b45 433d 1ea2 543c b92b d43d
00000220: 971b c83d d6dd 003c 44ae bf3b 7e48 ce3c
00000230: 05a0 44bd 2110 e7bc 3c10 c33d a99d fbbd
00000240: 8c9f a6bc 2797 4b3d 3cc6 2fbe a6dd 0d3d
00000250: 6e12 fa3d 7053 41be f03c aebd e47f 8d3d
00000260: 850e af3d 2ff6 a8bd 3e09 383e 1f19 ee3d
00000270: 30ea 43be a363 cd3d cf1b 09be 38a0 e9bc
00000280: 5645 d83d 33c1 0f3e ec0d 22be afc6 e6bd
00000290: 0a8c 073e 3e7f efbd 580f 2fbd 6878 13be
000002a0: 7a46 cd3d 4268 a23d 1ad7 163d 660a 673d
000002b0: 4b85 ccbd 215c 05be 9719 3cbd 1729 e8bc
000002c0: ab1c dc3d 195d 09be 592c 79bd da02 413d
000002d0: 1d95 b83c d0ab 18be da50 0ebd 0e74 aa3d
000002e0: 1e2e 033d a1af 96bd 5824 ee3d 3537 603c
000002f0: e51d 08be 387b 10be b517 35be 693d 5f3d
00000300: dd10 2d3e b1a6 b53d 8f56 8ebd fcf8 1cbe
00000310: 64e6 1c3e 91de 353d 8351 3f3e c8dc 803a
00000320: f14a 0d3e 7027 ec3a a5ce 9fbd 3fb3 143e
00000330: 018a 0dbe 2534 27be b1c3 a33d 29a8 18bd
00000340: e9ed 583d 72a2 cc3d e367 863c 5a4c fcbd
00000350: 85aa db3d 9d49 05be 5a8e 1bbd f7bb ad3d
00000360: 9434 f3bd 8791 753c a194 413e 99ea 0c3e
00000370: 05c6 df3b a315 e33d 6cb2 e3bd f7f7 22be
00000380: 9748 9fbd 0478 c43d 7de3 3bbd fcf3 973d
00000390: 9e81 5e3c e363 f83d 69c7 f63d 74c0 c9bc
000003a0: 03fc c7bd 5e7a 1b3e 4e9a d3bc 4494 683c
000003b0: 125f 543d cb22 913d 4a55 37bc 1c0b 1c3d
000003c0: 2724 dbbd d858 c0bb 637a 233d e091 14be
000003d0: 3209 e3bd 1826 193e 1978 273e 1598 8a3d
000003e0: 91e8 2abe 0263 163e a78b efbd f3b9 34be
000003f0: 6207 d63d 2a33 8dbd a612 9abc fe7f 26be

MatMul_2 f4 [1, 32]
-0.08789589 0.10963435 -0.33037546 -0.10063661 -0.024940614 -0.06519312 0.10880871 0.0029797833
0.28812957 0.007973735 0.23207451 -0.34660614 -0.3157879 -0.3497319 0.196764 -0.33719704
0.10456479 -0.017451465 -0.059651937 -0.32451263 -0.020758828 -0.32168004 -0.35619906 0.038271047
0.0004639236 0.099928685 -0.3415549 0.032499745 0.20742744 -0.09226654 -0.3538455 -0.035513278
00000000: c302 b4bd f987 e03d f926 a9be 911a cebd
00000010: 4250 ccbc f883 85bd 1ad7 de3d 7848 433b
00000020: b885 933e 45a4 023c f1a4 6d3e 5c76 b1be
00000030: f4ae a1be 0f10 b3be 817c 493e 17a5 acbe
00000040: 1126 d63d 60f6 8ebc 9755 74bd 8526 a6be
00000050: 6b0e aabc 3fb3 a4be b95f b6be 1ac2 1c3d
00000060: c63a f339 69a7 cc3d 49e0 aebe 741e 053d
00000070: dc67 543e 3df6 bcbd 3d2b b5be 5f76 11bd
