wkey/openwakeword_models/tflite/heylama.tflite (tflite, 860700 bytes, 9 tensors)

Const_1 f4 [128]
000000 d0 ac 3d bc 10 b8 ea 3b 4d f5 d1 ba fd 87 ef 39
       -0.011576846 0.0071630552 -0.001601854 0.00045686951
000010 9a 50 d6 3b 5a 28 90 3b 2b a3 16 bc 00 15 ed 3c
       0.00654037 0.0043993415 -0.009194176 0.028940678
000020 c0 15 35 bc 9e c9 34 bc 64 f5 58 bc 6c 07 b0 3b
       -0.011052549 -0.011034397 -0.013242099 0.0053719785
000030 d5 61 1e bc 76 18 c6 3c aa d3 9b bb 82 06 6a bb
       -0.00966688 0.024181586 -0.004755457 -0.0035709445
000040 4a fc be bc b2 ea 3d bc 52 68 75 3c 58 8b 75 3b
       -0.02331366 -0.0115916 0.014978485 0.0037467089
000050 8f c9 db 3c 2a 47 5b 3c ee 96 c8 3b a4 b6 8e 3a
       0.026829509 0.013383666 0.006121508 0.0010888171
000060 94 89 b1 3c fd be 8a bc 1e d4 52 3c 4c d1 b6 bc
       0.021672048 -0.016936773 0.0128679555 -0.022316597
000070 cd 15 0f 3c 4b 17 0f 3c 80 36 a6 bc c7 8f 48 3b
       0.008733225 0.008733581 -0.02028966 0.0030603276
000080 db 50 cc bb 08 2a 92 3c 0e 9a e0 ba 4a b5 6a 3c
       -0.0062352247 0.017842308 -0.0017135756 0.014325449
000090 46 40 1c bc e0 d8 ad bc b0 a7 00 3b 08 4e 50 3c
       -0.009536808 -0.021221578 0.00196312 0.012713917
0000a0 96 af 7b bb 4a dd 39 bc 89 76 c6 3a 81 eb 83 3c
       -0.0038404218 -0.011344263 0.0015141527 0.016103508
0000b0 db 79 c7 3c 8f b2 c6 bb 33 a5 59 bc 5e 8c f8 bb
       0.024350097 -0.0060637663 -0.0132840155 -0.0075850924
0000c0 19 a0 a0 bc 89 b0 8d bc 44 26 55 bc 82 f1 df 3c
       -0.01960759 -0.017296093 -0.0130096115 0.02733684
0000d0 67 1a a1 3b 36 88 91 3a 34 48 88 bc a9 1a a7 bb
       0.0049164775 0.0011103216 -0.016635992 -0.0050996137
0000e0 f3 d6 57 3b 37 7b 08 bb 17 76 da 3c 2f d4 0c bc
       0.0032934516 -0.0020825395 0.026667638 -0.00859551
0000f0 26 31 2a bc 2d e7 63 3b 6c b9 e6 3b bc f5 31 bc
       -0.010387694 0.0034775243 0.007041147 -0.01086181
000100 02 a0 94 3b da ee 2d 3c 1d 78 84 3c dd fb e1 3c
       0.004535676 0.010616029 0.016170556 0.027585918
000110 ce 3a 90 3c 88 80 3f 3c 47 d4 53 3c 3e cd ca bb
       0.017606165 0.011688359 0.012929029 -0.0061890176
000120 af ea a0 3c ac 95 95 bc f5 d2 27 3c d5 58 d3 ba
       0.019643156 -0.018259846 0.010243167 -0.0016124496
000130 ee 01 17 bc 7f 6f 53 3b dd 36 83 bc 65 59 fa bb
       -0.009216769 0.0032262502 -0.016017372 -0.007640051
000140 a0 a1 13 ba 58 54 8e 3c af 35 72 3b f1 7c c8 3c
       -0.0005631689 0.017374203 0.0036958267 0.02447364
000150 ab d7 81 bc 98 37 88 39 e4 a5 76 3c b4 a0 90 bc
       -0.015849909 0.00025981362 0.0150542 -0.017654754
000160 97 53 5e 3c 1c 27 bf 3c f4 6e 83 bc e6 30 df ba
       0.013569734 0.023334078 -0.016044118 -0.0017028123
000170 49 4e 8e bc f3 af 42 3b d9 ac 11 3c 53 4f 0e bc
       -0.017371314 0.0029706925 0.008891308 -0.008685905
000180 0b 85 c0 3b fd 6f c5 bc e8 c2 db 3c f4 40 dd bc
       0.005875235 -0.024101252 0.026826337 -0.027008511
000190 f3 7d 8f bc 55 07 01 bc 23 06 d5 3c 71 a2 38 bc
       -0.017516112 -0.007875283 0.026003903 -0.011269198
0001a0 08 17 95 3c 5e 8b 6a bb 37 78 97 bc da dc 13 3c
       0.018199459 -0.0035788636 -0.01848994 0.009024823
0001b0 c6 10 2b 3c 80 d3 8e bc 85 b6 86 bc 28 63 10 bc
       0.010441011 -0.017434835 -0.016444454 -0.008812703
0001c0 7b cd a9 3c 72 9c 52 bc 0c ec b5 bc 80 9b 61 bc
       0.020727864 -0.012854682 -0.022207282 -0.013769984
0001d0 1d 07 a5 3c 64 dc 6f 3c 08 3a c0 3c 50 ce ae 3c
       0.020144993 0.014639948 0.023465171 0.021338612
0001e0 91 55 c6 bc 8e 88 b6 3b 1d 04 cc 3b 3c 00 87 bb
       -0.024210723 0.005570478 0.0062260763 -0.004119901
0001f0 fc e5 af ba c4 a4 b3 bb 70 83 c2 bc fc a7 bf bc
       -0.0013419981 -0.005482288 -0.023744315 -0.02339553

Const_2 f4 [128]
000000 b5 d5 82 3f ae de 7b 3f 06 d7 80 3f f9 b9 7c 3f
       1.0221468 0.9838666 1.006562 0.9872127
000010 11 94 7f 3f ac b3 81 3f cc cf 7a 3f dd 9e 84 3f
       0.99835306 1.0132957 0.9797332 1.0360981
000020 78 62 7b 3f f1 9c 80 3f 64 d5 7f 3f 14 08 7f 3f
       0.98197126 1.0047895 0.99934983 0.996217
000030 1e 7a 7b 3f a8 82 7b 3f 81 2c 78 3f 49 dc 7c 3f
       0.9823321 0.9824624 0.9694291 0.9877363
000040 2d 5e 7e 3f e2 94 7c 3f 87 35 87 3f 08 47 81 3f
       0.9936245 0.9866468 1.056321 1.0099802
000050 c3 d6 72 3f 8d 25 7c 3f c1 7c 80 3f df 89 7c 3f
       0.9485895 0.984948 1.0038072 0.98647875
000060 a1 39 7b 3f b6 9d 80 3f fe f2 7e 3f d8 8b 7d 3f
       0.9813481 1.004813 0.99589527 0.9904151
000070 e9 01 80 3f 89 93 7b 3f cf 9a 7c 3f 9b a2 7e 3f
       1.0000583 0.98271996 0.9867372 0.99466866
000080 e9 4e 78 3f f8 3b 7d 3f 6b 05 7f 3f 82 aa 80 3f
       0.9699541 0.9891963 0.9961764 1.0052035
000090 d1 7a 7e 3f d0 d8 79 3f 8e 7b 7e 3f 19 10 7b 3f
       0.9940615 0.97596455 0.9940728 0.9807144
0000a0 a4 4f 7f 3f 0a 6a 7e 3f b0 41 79 3f 68 3e 80 3f
       0.99730897 0.9938055 0.97365856 1.0019045
0000b0 ca b3 7d 3f 34 f6 7c 3f 4b 53 7d 3f 7b 4b 81 3f
       0.9910246 0.98813176 0.9895522 1.010116
0000c0 08 b7 7a 3f 08 94 7f 3f 34 f2 7d 3f 4e b8 7e 3f
       0.97935534 0.9983525 0.991977 0.99499977
0000d0 48 0a 81 3f ed f6 80 3f 0c e9 7a 3f 1b 3c 7d 3f
       1.0081263 1.0075356 0.9801185 0.9891984
0000e0 9f 78 83 3f a4 db 7e 3f 94 45 7b 3f 2d 87 7f 3f
       1.0271186 0.99553895 0.9815304 0.99815637
0000f0 7c 9b 80 3f a7 c3 7c 3f 34 7e 7d 3f d7 d6 7d 3f
       1.004745 0.9873604 0.99020696 0.99155945
000100 cc db 7b 3f fb 3c 7d 3f 5c 79 7d 3f bf 84 86 3f
       0.9838226 0.98921174 0.99013305 1.0509261
000110 94 c0 81 3f 85 21 7e 3f 23 bd 82 3f b5 31 7d 3f
       1.0136895 0.99269897 1.021397 0.9890397
000120 24 b5 7d 3f cf a6 7d 3f c7 c3 7d 3f 85 cb 81 3f
       0.99104524 0.99082655 0.9912686 1.0140234
000130 1a a0 7e 3f 31 10 80 3f e1 2c 7f 3f 24 77 81 3f
       0.99463046 1.0004941 0.99677855 1.0114484
000140 06 5f 7d 3f 57 3f 7e 3f 2f e4 81 3f 35 a7 7d 3f
       0.9897312 0.993154 1.0147761 0.9908326
000150 25 25 78 3f 4a 51 7b 3f 3c 0e 81 3f e7 d5 7c 3f
       0.9693168 0.9817091 1.0082469 0.9876389
000160 2a 46 7a 3f 06 31 7e 3f 47 f9 7b 3f f8 3c 84 3f
       0.9776331 0.99293554 0.9842724 1.0331106
000170 76 bc 82 3f 5c b8 7b 3f d6 e1 7e 3f 49 6d 77 3f
       1.0213764 0.98328185 0.9956335 0.9665113
000180 e8 10 7f 3f ba ab 7c 3f 24 f9 7f 3f 67 f0 7c 3f
       0.9963517 0.98699534 0.99989533 0.98804325
000190 4b 27 7e 3f f8 71 7d 3f 81 0b 7f 3f f8 df 7e 3f
       0.99278706 0.9900203 0.9962693 0.995605
0001a0 c4 7d 7b 3f 82 c4 7b 3f 3f 30 80 3f 60 c3 7e 3f
       0.9823878 0.9834672 1.0014724 0.9951687
0001b0 df 34 7f 3f b6 07 81 3f e8 0d 7f 3f 74 f3 80 3f
       0.9969005 1.0080478 0.99630594 1.0074296
0001c0 6c 53 87 3f cd 9d 7c 3f 7b 34 7e 3f b1 12 7e 3f
       1.0572333 0.98678285 0.9929883 0.9924727
0001d0 81 69 7d 3f 91 52 7f 3f 66 60 79 3f ce e1 7d 3f
       0.9898911 0.9973536 0.9741272 0.99172676
0001e0 c7 fc 7d 3f ff e7 80 3f 29 2c 7d 3f e6 18 7a 3f
       0.9921383 1.00708 0.9889551 0.9769424
0001f0 57 9e 7e 3f 73 81 7d 3f 06 6d 77 3f 5c 14 7e 3f
       0.9946036 0.9902565 0.9665073 0.99249816

Const_3 f4 [128]
000000 b6 eb e4 ba 69 85 8c bc 94 04 82 ba 5f 3d 13 bc
       -0.0017465267 -0.017153459 -0.0009919577 -0.0089868
000010 55 8d d2 3a ce 8b ce 3b 9c 80 a9 3b b6 ad b5 3b
       0.0016063849 0.006303287 0.005172802 0.0055443896
000020 d6 e7 e4 bb 0a 13 25 3c e9 cb 3d 3b 16 8a dc 3a
       -0.006985645 0.01007534 0.0028960651 0.0016825821
000030 ad 33 1d bc a7 91 af bb 5e 10 bc bb f4 8d c0 bb
       -0.00959484 -0.0053579393 -0.005739256 -0.005876297
000040 39 4a 4b bc 42 32 95 bc 41 df 04 3c 25 eb 79 3b
       -0.012407833 -0.018212441 0.0081098685 0.0038134542
000050 d9 89 a2 bb 34 52 43 bc 8a 1a a6 3a a7 85 9b bc
       -0.0049602804 -0.011921454 0.0012672704 -0.018984629
000060 fe 39 2b bc 92 2e 17 3b 7e 4a fb bb 6c 79 a3 bc
       -0.010450838 0.002306853 -0.0076687923 -0.01995536
000070 a4 4b b4 bb a9 3e b4 ba f7 31 09 bc eb 6d 02 bc
       -0.005502181 -0.0013751584 -0.008373729 -0.007960777
000080 d8 bc 05 bc df 36 0f bc b3 89 68 3b 60 42 93 3b
       -0.0081627 -0.00874111 0.0035482466 0.0044939965
000090 cb da 07 3b 3f 08 9d bb b2 7b d0 bb ba 54 c7 39
       0.0020729776 -0.004792243 -0.006362402 0.00038019364
0000a0 66 c2 0e bc 25 c0 0c bc 86 8f 49 bc ea 91 99 3b
       -0.00871334 -0.008590733 -0.012302285 0.0046865838
0000b0 2d 82 e1 bb 73 e4 ea bb cf ec ac bb 20 66 25 3b
       -0.0068819732 -0.0071683466 -0.005277253 0.0025237873
0000c0 d5 20 10 bc d8 56 dc bb aa 58 cd bb 0b 3b c8 3a
       -0.00879689 -0.00672422 -0.006266673 0.0015276385
0000d0 11 b2 a8 3a 52 7d 55 3c 6c ab 3b bc 1e 85 b5 bb
       0.0012870451 0.013030367 -0.011454444 -0.0055395504
0000e0 05 26 39 3b 61 12 d6 bb 33 a3 91 39 b9 95 0d 3b
       0.0028251421 -0.0065329527 0.00027778148 0.0021604134
0000f0 90 f7 dc 3a d6 4a 41 bc 03 c1 7f 3b a8 d5 36 bc
       0.0016858447 -0.011797627 0.0039024956 -0.011159338
000100 83 87 01 bc fa 89 7a 3b 31 fe 8e bc f4 30 bf 3b
       -0.007905844 0.0038229213 -0.017455192 0.005834693
000110 3d ff a9 39 ee 63 5d bb ba 6e e3 3b a3 c0 e4 bb
       0.0003242436 -0.0033781487 0.00694069 -0.006980972
000120 3f 32 54 bc 3f e1 1a bc b4 e9 4e bc 8b 92 f7 bb
       -0.012951433 -0.009453117 -0.012628961 -0.007555311
000130 b4 3b 05 bc d1 ba 1e 3c 64 d5 c3 ba 0a 29 a6 3b
       -0.00813191 0.009688095 -0.0014940915 0.00507081
000140 ff c7 09 3c bf de b0 bb d8 14 81 3b 77 ba 87 bc
       0.008409499 -0.005397647 0.0039392523 -0.016568406
000150 39 cf 47 ba db 3b 0c bc 8c a3 ab 3b bf 26 42 bc
       -0.0007622126 -0.0085591925 0.005238002 -0.011850058
000160 6e 12 d2 bb 10 7f 16 ba 2c 5b 2c bc 2c ef 10 3c
       -0.0064108884 -0.00057409797 -0.010519784 0.0088460855
000170 0f 94 e3 3b 4f 5f 83 bc 65 7b 6b bc 29 a8 6e 3b
       0.00694514 -0.016036658 -0.014372681 0.003641615
000180 29 fb 3d b9 89 9c 39 bc 13 a0 c6 3b 1c cc 2b bc
       -0.00018118009 -0.011328825 0.006061563 -0.010485675
000190 3e 3e 8d bb 0a 9e 3c bc 13 d4 3c 3b 45 c4 23 bc
       -0.0043103984 -0.011512289 0.002881293 -0.009995525
0001a0 04 b8 83 bc 3a 54 09 bc 10 74 f2 3a 8c 2f 33 bb
       -0.016078956 -0.008381898 0.0018497724 -0.0027341573
0001b0 f8 ca 89 3b c7 ed 0d 3b 80 a0 4e bc 60 44 9f 3a
       0.004205104 0.002165662 -0.012611508 0.0012151115
0001c0 90 20 06 3c 53 80 f5 bb a0 48 90 bc 0f 53 36 bb
       0.008186474 -0.007492104 -0.017612755 -0.0027820503
0001d0 54 ec b5 ba 7f 85 97 bb b2 99 93 bc 59 f0 a7 ba
       -0.0013879635 -0.0046240683 -0.018017624 -0.0012812718
0001e0 d7 e4 04 bd 01 a0 b2 3b ab 37 0a bc ab be 0b bc
       -0.0324448 0.005451203 -0.008436124 -0.0085293455
0001f0 53 63 06 bc 82 94 18 bc 68 90 99 bc a3 3c bb bb
       -0.008202392 -0.009312751 -0.018745616 -0.0057140156

Const_5 f4 [128]
000000 8e a1 61 bb a1 fc cd 3c 59 50 a4 39 e7 30 1c 3d
       -0.003442857 0.025144877 0.0003134038 0.038132574
000010 37 1b ac bd 2a 08 88 bd 57 2a 1f bd 07 f0 1e bd
       -0.08403628 -0.06642182 -0.038858738 -0.038803127
000020 6b 6a e5 bc 73 61 74 3d 41 31 7b 3d 1d 5d c0 bd
       -0.028004846 0.059663247 0.06132627 -0.0939276
000030 4c ec 56 3d 73 b4 b4 bd 2e 4c 70 bd d6 22 b4 bd
       0.052471444 -0.088234805 -0.0586664 -0.08795707
000040 d2 8c f2 3c e7 62 90 bb 9e 04 0a 3d 6d 92 40 bd
       0.029608164 -0.0044063213 0.03369581 -0.047014643
000050 ef 27 27 bd b8 91 9d 3c 28 14 b4 bd 5c b7 03 bd
       -0.040809568 0.019234523 -0.08792907 -0.032157287
000060 fc 2c 3c 3d bb 26 e8 3c 36 d6 7e 3d 87 f8 b5 3d
       0.045941338 0.02833878 0.062216006 0.088852935
000070 a9 db 83 bd 74 10 9a 3d b7 a4 89 3d ba c3 12 bd
       -0.06438381 0.075226694 0.0672087 -0.03583119
000080 c2 ca 98 bd e4 fa 6f 3d 74 cf 95 3d 60 3d d6 bb
       -0.07460548 0.058588877 0.07314959 -0.006538078
000090 b4 35 dc 3c b9 cf 78 3d 00 89 cc 3c 97 00 1d 3d
       0.026881076 0.060744975 0.02496767 0.03833064
0000a0 ec 44 b5 bd 61 16 34 ba 06 74 33 bd 03 bb 69 3d
       -0.088510364 -0.000686979 -0.04381182 0.057063114
0000b0 eb 70 a8 3d dd e1 1a 3d 31 61 3f bd e8 26 50 bd
       0.082246624 0.037813056 -0.04672355 -0.050818354
0000c0 a4 f5 26 3d 4a 1f aa 3d ff 06 88 3d a9 ff 81 3d
       0.040761605 0.08306749 0.066419594 0.063475914
0000d0 1d 05 24 bd 7d ae 09 bc b8 79 0a bc bb f0 e4 bc
       -0.04004394 -0.008403418 -0.008451872 -0.02794682
0000e0 d3 1b cd 3c 23 e6 90 bd b1 de bb bc 7b f4 9e 3c
       0.025037682 -0.07075145 -0.022933336 0.019403687
0000f0 d1 0e 76 bd 0f 2a 6f bd 5e 35 21 3d 91 7d cd 3c
       -0.060072724 -0.05838972 0.039357536 0.025084289
000100 b8 81 4e bc 17 8c 71 bd 2a 56 61 3c 7a 31 69 bd
       -0.01260417 -0.05897149 0.013753453 -0.05693195
000110 87 0c a3 bc db e6 95 3d 71 66 79 3d c0 7e 85 3d
       -0.019903434 0.07319423 0.06088871 0.06518316
000120 0c 9f 7b 3d c9 62 07 3c 10 72 13 bd e3 2f a3 3d
       0.061430976 0.008263298 -0.03599745 0.07968118
000130 a4 49 43 bd 7c d7 83 bc ed 62 89 bd 8f d9 d5 3c
       -0.04767765 -0.016093962 -0.06708322 0.026104717
000140 57 1f 12 bd 98 f6 8c bd d4 12 6f 3d 8b dd 9a 3d
       -0.03567442 -0.068829715 0.058367565 0.07561787
000150 28 c7 8a bd a2 9e 35 3d 8a b7 90 bd 17 84 63 bd
       -0.06776267 0.044340737 -0.07066257 -0.055545893
000160 c1 5e 81 3c 71 39 83 bd 34 8a ef ba 1b 77 9b bd
       0.015792252 -0.064074405 -0.0018275441 -0.07591077
000170 06 2f 98 3c 21 81 5c bd 11 41 bb 3b 34 f5 3e 3c
       0.01857711 -0.053834084 0.0057145436 0.011655141
000180 c2 3c 45 bd b2 aa ce 3c c1 47 c3 3b 66 82 ac 3d
       -0.048153646 0.025227878 0.0059594815 0.08423309
000190 90 30 79 bd 88 fb 83 bc e2 d6 1b 3c b0 0e 91 3d
       -0.06083733 -0.01611115 0.009511681 0.070828795
0001a0 5c 27 16 3d 2d 0a c6 3c 16 c6 a8 3d f1 8e 23 39
       0.03665863 0.024174774 0.08240907 0.00015598141
0001b0 ec 89 e9 3c c5 b4 cc bb e2 52 ab 3d b5 ff 56 3d
       0.02850815 -0.0062471353 0.08365418 0.052489955
0001c0 72 e2 47 3d b5 bf 54 bd d7 60 6f bd bc 88 33 bd
       0.04879994 -0.05194064 -0.058441963 -0.043831572
0001d0 b6 a4 b7 3c 6f 1f a5 bd 25 f9 ce 3c 38 28 f5 3c
       0.022417407 -0.08062636 0.025265286 0.029926404
0001e0 83 5f 5d bd 68 ab db 3c b3 ed b8 bc 5f 5f 39 bb
       -0.054046165 0.026815131 -0.022574281 -0.0028285605
0001f0 5b 92 ad bd 6c b7 8f bd f4 c1 40 bd 32 84 b9 bc
       -0.08475181 -0.07017407 -0.047059968 -0.022646043

Const_6 f4 [128]
000000 94 98 82 3f cc 71 80 3f 31 a5 8b 3f 28 15 8a 3f
       1.0202813 1.0034728 1.0909787 1.0787706
000010 6f 4a 81 3f 01 d6 86 3f 6d 34 92 3f 4b dd 8c 3f
       1.010084 1.0534059 1.1422249 1.1005033
000020 f7 d0 82 3f 45 5f 83 3f 24 67 84 3f 76 7e 7f 3f
       1.0220021 1.0263449 1.0343976 0.9980234
000030 ea a2 81 3f d8 5d 7d 3f cc 21 88 3f 46 d8 83 3f
       1.0127842 0.9897132 1.0635314 1.0300376
000040 34 5c 85 3f f4 e0 86 3f f2 af 86 3f 0b c1 80 3f
       1.0418763 1.05374 1.0522444 1.0058912
000050 f2 88 81 3f 5a d1 82 3f e2 9a 85 3f ff fa 8d 3f
       1.0119917 1.0220139 1.0437891 1.1092223
000060 8c 21 86 3f 4a 50 85 3f da 41 85 3f 34 ad 8b 3f
       1.0478988 1.0415127 1.0410721 1.0912232
000070 7f 82 87 3f 5a 9b 92 3f 9e 25 80 3f 6b 72 8b 3f
       1.0586699 1.145366 1.001148 1.0894293
000080 04 50 78 3f 92 f2 8f 3f 31 65 81 3f 6b 47 82 3f
       0.96997094 1.1245902 1.0109006 1.0178045
000090 6e 1e 7b 3f e2 2a 82 3f e5 ec 80 3f 9b 8d 82 3f
       0.98093307 1.0169337 1.0072294 1.0199465
0000a0 a3 a1 89 3f bd 1e 7f 3f a5 c6 8c 3f 1c 7b 8e 3f
       1.0752453 0.9965628 1.0998122 1.113132
0000b0 ec fb 7f 3f d4 ee 7d 3f 48 55 81 3f 3c 79 7e 3f
       0.9999378 0.9919255 1.0104151 0.9940374
0000c0 99 55 96 3f c2 ff 8a 3f e9 24 81 3f 82 61 90 3f
       1.1744872 1.0859301 1.0089389 1.1279757
0000d0 8f ae 81 3f 11 7b 8c 3f 96 bd 79 3f 34 2a 86 3f
       1.0131396 1.0975057 0.9755491 1.0481629
0000e0 7f 57 7c 3f b9 71 8d 3f 99 d1 81 3f 95 00 81 3f
       0.9857101 1.105033 1.0142089 1.0078303
0000f0 a1 c5 8b 3f 9e 8e 8a 3f b2 e8 89 3f 61 a7 85 3f
       1.0919687 1.0824773 1.0774138 1.0441705
000100 03 f1 80 3f 93 05 78 3f 81 60 8a 3f 5e 01 80 3f
       1.0073551 0.96883506 1.0810701 1.0000417
000110 3d f9 88 3f b4 6a 8e 3f 52 1a 84 3f 49 d0 84 3f
       1.0701061 1.1126313 1.0320532 1.0376064
000120 6a 39 85 3f 78 29 82 3f af 23 80 3f a6 1f 86 3f
       1.0408146 1.0168905 1.001089 1.0478408
000130 a8 04 88 3f 30 7d 89 3f 59 92 86 3f cd 5f 84 3f
       1.0626421 1.0741329 1.0513412 1.0341736
000140 d3 5d 88 3f 9e c9 7f 3f 15 80 81 3f 11 86 7f 3f
       1.0653633 0.9991702 1.0117213 0.99813944
000150 3a 16 83 3f f2 1f 86 3f ba 5a 8a 3f 16 d2 8d 3f
       1.0241158 1.0478499 1.0808938 1.1079738
000160 8f e6 86 3f 69 be 8f 3f 0d 31 90 3f 69 d6 83 3f
       1.0539111 1.1229984 1.1264969 1.0299808
000170 f8 7a 83 3f d0 16 82 3f cd 44 87 3f a4 03 82 3f
       1.0271902 1.0163212 1.0567871 1.0157361
000180 b7 27 89 3f 6a 32 91 3f 90 60 89 3f d1 c2 7f 3f
       1.0715245 1.134351 1.0732594 0.9990664
000190 9b a7 89 3f ee 1d 83 3f f8 8c 7f 3f 05 57 8c 3f
       1.0754274 1.0243509 0.99824476 1.0964056
0001a0 da 1b 80 3f 1b 2e 7b 3f 6c ac 7e 3f 30 c7 89 3f
       1.00085 0.98117226 0.99481845 1.0763912
0001b0 26 e0 8c 3f 7c 18 81 3f c6 1c 81 3f b4 6a 88 3f
       1.1005905 1.0085597 1.0086906 1.0657563
0001c0 55 62 79 3f d8 53 84 3f 87 45 81 3f a3 6b 8c 3f
       0.9741567 1.0338087 1.0099343 1.0970348
0001d0 42 9a 81 3f 20 2c 93 3f 22 00 84 3f 20 a7 8d 3f
       1.0125201 1.1497841 1.031254 1.1066628
0001e0 7a 82 81 3f c7 78 88 3f a4 fc 89 3f 59 bd 8c 3f
       1.0117943 1.0661858 1.0780225 1.0995284
0001f0 97 a3 80 3f e7 d9 86 3f 47 27 84 3f 39 59 7f 3f
       1.0049924 1.0535249 1.0324486 0.9974552

Const_7 f4 [128]
000000 d4 b9 0e 3c c3 57 43 ba 0b 42 a3 3d 4f 9e a4 3d
       0.008711297 -0.0007451737 0.07971581 0.080380075
000010 6c 96 09 3b 32 0b 8e 3d 15 4f e1 3d 3d d5 44 3d
       0.00209942 0.06935729 0.11001412 0.048054922
000020 23 e6 17 3b 94 15 57 3c ab 6e 0d 3c 68 a2 0b bc
       0.0023177944 0.013127703 0.008632342 -0.008522607
000030 19 e9 20 3c 81 a4 4a b9 d1 3e f0 3c bf 0e 3b 3c
       0.0098212 -0.00019325504 0.029326828 0.01141709
000040 17 5e 9a 3c a8 e7 98 bb 0b 50 8a 3d 07 4e d9 3b
       0.018843694 -0.0046662875 0.06753548 0.006631616
000050 b7 a8 bd 3a 8e e2 b8 3c 10 b8 25 3c 48 e4 ac 3d
       0.0014469837 0.022568967 0.010114685 0.08441979
000060 85 48 a2 3d 67 45 dd 3b 6f 7f 50 3c 92 ef 20 3d
       0.07923988 0.006752658 0.012725695 0.039290972
000070 0f 42 ee 3c e8 8a db 3d c0 61 71 3c cf 18 8b 3d
       0.029084234 0.10719854 0.014732778 0.06791841
000080 b8 3b c3 bc d5 c8 d8 3d 93 ae 34 3b 74 d2 2a 3c
       -0.023832187 0.10585181 0.0027569875 0.0104261525
000090 3b 4f 3b bc f3 a0 1c 3c 61 c2 34 3b 97 35 31 3c
       -0.011432464 0.009559858 0.002758168 0.0108159995
0000a0 55 4f 8c 3d 30 4c 62 bc 78 02 12 3d a6 e6 53 3d
       0.06851069 -0.01381211 0.035646886 0.051733635
0000b0 c9 86 23 3b ba bf 05 bc 2e 69 ad ba fb 0d 0b bc
       0.0024952164 -0.008163387 -0.0013230199 -0.00848722
0000c0 55 46 e4 3d e6 83 91 3d fe ae 07 3c 12 b3 cc 3d
       0.11146227 0.07105236 0.0082814675 0.099950925
0000d0 07 da 60 3d 0b 8c 9d 3d f0 d7 42 bd 91 e7 d6 3c
       0.054895427 0.07692727 -0.047569215 0.026233466
0000e0 6e 7d c1 bc d9 12 af 3d f0 20 cb 3b 62 49 5b 3b
       -0.02361938 0.08548517 0.006198995 0.0033460488
0000f0 5e 0f 6d 3d 51 90 f8 3c 4f 8e 35 3d a5 15 f8 3c
       0.057875983 0.030342253 0.04432517 0.030283758
000100 d8 d9 bc bb 50 25 63 bc 19 53 8c 3d b5 8b ef ba
       -0.0057632737 -0.013863876 0.06851787 -0.0018275889
000110 2b 87 ce 3c 3a 79 b1 3d c5 a7 8e 3c 98 19 c7 3c
       0.025210937 0.086657 0.017413983 0.024304196
000120 b6 f6 96 3d 37 15 00 3c bc b1 5f bb 27 56 2c 3c
       0.07371275 0.007817558 -0.0034133038 0.010518587
000130 dc 03 ab 3d 02 aa 68 3d 48 bf a5 3c 7f b2 8f 3c
       0.083503455 0.056802757 0.020232812 0.017541168
000140 33 2c 21 3d 08 a2 3a ba 59 1e 59 3c 88 e1 0d 3c
       0.039348792 -0.00071194815 0.013251864 0.008659728
000150 63 53 5b 3c 88 a0 ac 3c c5 02 92 3d 40 fc a9 3d
       0.01338658 0.021072641 0.071294345 0.08300066
000160 d2 53 98 3d 4c 0e bc 3d 10 92 a5 3d 1c f8 c1 3b
       0.074378625 0.091824144 0.080845 0.0059194695
000170 58 6e 44 3b 03 0a 73 3b 0d 31 9a 3d 51 fb 23 3c
       0.0029972997 0.0037084825 0.07528887 0.010008649
000180 fa 7c f4 3c 9a 1e cd 3d 34 3e f0 3c 0e 29 9f bb
       0.02984475 0.100156024 0.029326536 -0.004857189
000190 a5 0b c2 3d 77 b7 4d 3b ee a7 19 bb 3e 77 a1 3d
       0.09474877 0.003138987 -0.002344604 0.07884072
0001a0 fb ca 76 3c 06 46 33 bc 18 19 9b bb d7 ed 9a 3d
       0.015063043 -0.010941988 -0.004733216 0.075648956
0001b0 c1 e8 92 3d 9c 7a 7e 3c 19 e2 7f 3c 9b df d7 3c
       0.071733005 0.015532162 0.015617871 0.02635174
0001c0 ae 3a a4 bc db eb 87 3c 8e 82 71 3b d1 d4 96 3d
       -0.020047512 0.016591957 0.0036851498 0.0736481
0001d0 0a 53 cc 3b b3 a2 e1 3d a7 f8 91 3c 2a f5 b7 3d
       0.006235485 0.110173605 0.017818762 0.08982308
0001e0 c8 6d 90 3b b9 ec 89 3d fb 5e a6 3d 80 f6 c1 3d
       0.004407618 0.067346044 0.08123585 0.09470844
0001f0 f5 36 e5 ba 89 39 96 3d 12 3a 8b 3c f2 23 2f bb
       -0.0017487692 0.07335193 0.016995464 -0.0026724306

MatMul f4 [128, 1536]
000000 58 fa 35 bc 9a a1 f8 ba 05 b5 a5 39 de 64 e8 bc
       -0.01110705 -0.001896906 0.00031606123 -0.02836841
000010 27 81 dc 3c 12 05 b0 bc 82 11 4f bb af 17 47 3c
       0.026917053 -0.021486793 -0.0031596129 0.012151643
000020 b4 da 1f bc 5e 58 f1 3a 96 34 75 bc d3 14 2e bd
       -0.009756733 0.0018413176 -0.014966151 -0.04250033
000030 ab e6 90 bc 7a dc c6 bc cf b8 24 3c 7e 3f 96 3b
       -0.017688116 -0.024275053 0.010053827 0.0045852056
000040 44 9f b1 3b a4 4e 87 bb 07 78 ee bb 2e fa 81 bc
       0.0054205973 -0.0041292477 -0.007277492 -0.015866365
000050 41 77 b4 bb 24 44 5f bb 84 6d 81 bc 5e 8b 03 3d
       -0.0055073802 -0.0034067715 -0.015799291 0.032115333
000060 06 60 87 3c db cd e0 3b c9 a4 d7 3c 16 b7 00 bd
       0.01652528 0.0068604774 0.026323693 -0.031424604
000070 74 13 ec bc 61 12 d5 3c e7 75 a9 ba bb c2 35 3b
       -0.02881787 0.02600974 -0.0012928814 0.0027734477
000080 37 44 6b bc a1 16 af bc c0 35 05 bc b0 86 77 3c
       -0.014359525 -0.021373095 -0.008130491 0.015107796
000090 b8 23 98 bc a5 ec 28 3b 55 92 01 3d 5c 35 53 ba
       -0.01857172 0.0025775817 0.031633694 -0.00080569624
0000a0 dc c5 1a 3d 7b 07 84 3c cc e6 d1 3b 0c e6 ad ba
       0.03778635 0.016116848 0.006405687 -0.0013267412
0000b0 d4 08 44 ba 2a 35 d1 3c ff ee 2d 3b 3d 70 dc bb
       -0.0007478122 0.025538046 0.0026540158 -0.006727247
0000c0 97 61 ef bc 51 fb 78 3d 76 7c 94 bc a4 a4 85 bc
       -0.02922134 0.06078655 -0.018125754 -0.016313858
0000d0 7d c4 13 bc 4e ad 74 3d 3c f2 63 3c 26 d3 b9 3c
       -0.009019014 0.05973559 0.013912734 0.022683691
0000e0 e6 96 e8 bc a5 b3 36 3b 93 60 33 3c f7 20 d8 bb
       -0.028392266 0.0027878073 0.010948318 -0.0065957266
0000f0 07 c4 48 bc 08 1d cc 3c f5 36 14 bd 89 8e 9a bc
       -0.012253768 0.024916187 -0.036185224 -0.018866794
000100 25 16 3e 3c c6 0a 7b 3c eb 26 18 bd 59 86 80 3c
       0.011601959 0.015322393 -0.03714649 0.015689062
000110 89 83 09 3d 0b fd c6 3b 72 7e b3 3c 41 a8 5b 3b
       0.033572707 0.0060726455 0.02191088 0.0033517035
000120 d7 e6 8f 3c 02 39 15 ba 17 8a 61 bc 1b 3d 63 3c
       0.017566128 -0.0005692394 -0.013765833 0.013869549
000130 c1 6c f0 3c 71 e4 09 3c 54 f9 d3 3c a3 67 3f 3b
       0.029348733 0.008416281 0.025875725 0.002920606
000140 5d ea e9 3c 6c 8a 5e 3c b2 ce 04 3d 83 f5 8a 3b
       0.028554136 0.013582807 0.032423683 0.004240693
000150 9b b8 8f bb 16 13 9e bb 6e e9 dc 3c 9a 97 f0 bb
       -0.0043860204 -0.0048240526 0.026966777 -0.007342291
000160 98 28 e7 3c a9 c4 93 3c 46 88 84 bc 06 4b 16 3d
       0.028217599 0.01803811 -0.016178261 0.03669264
000170 d5 08 84 3c 13 75 cf 3c d4 00 05 bd ce 2f 48 bc
       0.016117493 0.02532438 -0.032471493 -0.012218429
000180 0d ee 80 bc d4 05 90 bc c4 25 96 3c 1e 02 4d bd
       -0.015738511 -0.017580904 0.018328555 -0.050050847
000190 fe f6 b4 3c 89 07 2f bc c0 9d b2 3b 4e a4 8a 3c
       0.022090431 -0.010682949 0.005450934 0.01692405
0001a0 db 48 fd bc 09 b1 8d 3c 31 6f c1 bc 95 13 cd 3c
       -0.03091853 0.017296331 -0.02361259 0.025033752
0001b0 e1 40 de bb 78 e5 5e bd 1c 11 cb 3c 4a b9 14 3d
       -0.0067826365 -0.054418057 0.024788432 0.036309518
0001c0 7c e2 b1 bb 20 aa 07 3d 87 6f cf bc fa 05 04 bd
       -0.0054286104 0.03312123 -0.025321735 -0.032232262
0001d0 92 f4 ab bc 6a 4e 06 3d 01 9d 70 ba 8e b5 7a 3c
       -0.020990644 0.032789625 -0.0009178669 0.015302075
0001e0 f9 e2 dc bc b6 11 58 bc 44 89 fe 3c d7 ed 36 bc
       -0.026963698 -0.013187816 0.031071313 -0.011165104
0001f0 e8 da 29 bd d7 d6 9b bc 90 96 57 3b 3e 76 f0 bb
       -0.04146853 -0.019023342 0.0032896139 -0.0073383143
000200 8a 7e 8d bc 48 05 50 bb 8a 7d 74 bc 3e 77 83 bc
       -0.017272253 -0.003174143 -0.014922509 -0.01604807
000210 90 45 89 3a bf c5 33 3c 7a b6 a6 bb e2 e0 c3 b9
       0.0010473002 0.010972439 -0.005087671 -0.0003736085
000220 81 12 3c 3c 96 fd 3f bc 89 3e 78 b8 e8 d2 a6 bb
       0.011479021 -0.011718174 -5.9186048e-05 -0.00509106
000230 2d 4c 4b 3c a5 66 63 3b 81 d8 95 b9 9e 91 de 3c
       0.012408298 0.0034698632 -0.00028580803 0.027169045
000240 bc dc d1 3b 00 5c ef 3c 04 7a 35 3c f3 b0 33 bc
       0.0064044874 0.029218674 0.011076454 -0.010967481
000250 77 23 95 3a 62 b7 b3 3c 15 85 8e bb d4 a9 d2 bb
       0.0011378367 0.02193803 -0.0043493607 -0.0064289365
000260 a9 a2 bf bc 5a 57 c5 3c 2e bf 14 3c e8 f0 ed 3b
       -0.023392992 0.024089504 0.009078784 0.0072613843
000270 5c 18 d9 bc 99 3d 28 3c 81 73 2a bc 1d 1b f4 bc
       -0.026500873 0.010268592 -0.010403515 -0.029798085
000280 88 46 e1 3b 8d fa 9e 3c 36 32 08 bb 45 7b d2 bb
       0.006874863 0.019406581 -0.0020781881 -0.0064233863
000290 44 7c 26 3d c7 27 9d bb 82 08 94 bc 94 32 bc bc
       0.040645853 -0.0047960016 -0.018070463 -0.022973336
0002a0 0d 70 2d bc af ae ca 3c eb 9c 49 3c 7b e0 62 ba
       -0.010585797 0.024741499 0.012305479 -0.0008654666
0002b0 16 fe 63 3c aa 35 0a 3d 7a b7 8a bc fb 5e 92 bc
       0.013915559 0.033742584 -0.016933192 -0.017867556
0002c0 1b 66 90 bc 33 1d 9c 3c 06 f2 39 bc 9d 55 40 bc
       -0.017626813 0.019056892 -0.011349207 -0.011739162
0002d0 37 85 19 bc 29 a3 fb bc 53 eb f3 bc 6a 11 d8 bb
       -0.00937014 -0.03071745 -0.029775297 -0.006593873
0002e0 cb 3b 27 3c 79 aa b6 bc c6 56 81 3b 25 b2 05 3c
       0.010207127 -0.022298085 0.003947112 0.008160149
0002f0 01 27 c9 3a 32 ae e2 3c 83 aa fc bc aa d8 3e 3c
       0.0015346707 0.027670953 -0.030843025 0.011648336
000300 2a ba 39 bb 8a cd 2a bc 92 e3 1d 3d b7 6f a3 bc
       -0.0028339722 -0.010424981 0.038547106 -0.01995073
000310 f1 cf da 3c 0b 7c d2 3a b8 f8 e6 bc a8 1f 35 3c
       0.026710482 0.0016058696 -0.02819477 0.011054911
000320 3a d0 34 bd 15 b1 b6 bb 1a 7a aa 3c 96 a3 32 3b
       -0.044143893 -0.005575309 0.020810176 0.002725815
000330 67 5a 2e bc 98 2b d2 bc ee 0d 2e bc 72 fe ef 3b
       -0.010641671 -0.025655553 -0.010623438 0.0073240334
000340 f9 c8 82 3b 60 b4 ac 3c 74 8a 85 bc 7a 8e df bc
       0.003991243 0.021082103 -0.016301371 -0.027289618
000350 bf fa ad 3c aa 66 7b bc 1f 5e e8 b7 fa e9 9c 3c
       0.02123773 -0.015344301 -2.7700384e-05 0.019154537
000360 b5 f6 d1 ba 13 24 0e 3d 13 9d ce 3c 4a 22 31 3c
       -0.0016018959 0.03470237 0.025221383 0.010811398
000370 53 95 8d 3b 1d 1b 94 3c e1 fb a5 bc c5 7b c0 3b
       0.0043207793 0.018079335 -0.020261707 0.0058741295
000380 01 74 b1 ba a8 9a 44 3c 52 c9 e0 bb 6d e3 df bb
       -0.00135386 0.011999764 -0.0068599368 -0.006832531
000390 11 60 c1 bc 2a b1 a5 3c c1 4b c5 bb 4c 10 79 b9
       -0.023605378 0.02022608 -0.0060209935 -0.00023752562
0003a0 fd 08 cf 3b 9a bb 9a bb f3 65 90 bc 80 50 49 bc
       0.00631821 -0.004722071 -0.017626738 -0.012287259
0003b0 6f 8b 47 3a 42 7e 7f bb 6e 44 eb bb 9e d2 5d 3a
       0.0007612025 -0.0038985168 -0.0071797883 0.00084618654
0003c0 85 c0 f4 3a b8 93 1c 3d cc ba 84 bc f5 79 93 bb
       0.0018673098 0.038226813 -0.016202353 -0.0045006224
0003d0 74 46 88 b9 f4 ad 6b 3c 2e e7 75 3c 2f bf 14 3c
       -0.00025992433 0.014384735 0.015008731 0.009078785
0003e0 ed f8 30 bb 9b de 7b 3c 64 e1 45 3c f9 02 57 bc
       -0.002700384 0.0153728975 0.012077663 -0.013123267
0003f0 c5 6f a4 bb d4 e5 df 3c fd f6 ee bc 20 42 e8 bc
       -0.005018207 0.02733127 -0.029170508 -0.028351843

MatMul_1 f4 [128, 128]
000000 7f 71 5d bd 01 fb 6a 3d c1 e1 8f bd 59 29 2d 3d
       -0.054063316 0.057368282 -0.07025481 0.04227576
000010 35 e8 88 bc 21 49 8b bd d4 34 02 bd df 04 a0 bd
       -0.016712287 -0.068010576 -0.031788662 -0.07813429
000020 3c 6a 28 3d ae 18 96 3d d4 cc 9e bd dc c7 34 bd
       0.041116938 0.07328926 -0.077539116 -0.044135913
000030 b6 2d 2f 3c 56 9e 7d bb 65 21 96 3c 1b a9 ad 3c
       0.010692051 -0.0038699112 0.01832647 0.0211988
000040 51 f5 57 3d c1 29 ec bb fc c7 4e bc 65 0c 64 bd
       0.052724186 -0.007207126 -0.012620922 -0.055675883
000050 47 21 1a bd 0a 7d 7d 3d c0 44 26 3d 7b 2a ba 3d
       -0.037629392 0.061886825 0.04059291 0.09090134
000060 57 6e f8 bc 04 1c e2 bc 80 53 ab bd 7c 86 32 3c
       -0.030326052 -0.02760125 -0.08365536 0.010896321
000070 e0 96 03 3d 90 0f 43 bd 37 c3 91 3d 9f 65 50 bd
       0.032126307 -0.047622263 0.071173124 -0.050878163
000080 bb 36 a1 3d 32 72 4a bd b4 31 06 3d 71 3a f6 3b
       0.07871767 -0.04942531 0.032762244 0.007514291
000090 32 7a 77 bc 32 15 3b bd 80 7d b5 bd a4 16 80 3d
       -0.015104817 -0.04567451 -0.08861828 0.06254318
0000a0 fc 2a 40 3d 57 1c 1b bc 70 84 11 bd be 20 0a bd
       0.046915993 -0.009467206 -0.035526693 -0.03372263
0000b0 10 a5 77 3d ef b9 55 bd db 2a a3 bd d7 9b 93 bc
       0.06046015 -0.052179273 -0.079671584 -0.018018646
0000c0 5b 0a 18 3d 64 ee 99 3d 13 cc f0 bc e6 51 e9 3b
       0.03711925 0.075161725 -0.029394185 0.0071203588
0000d0 29 f6 83 bc dc 5e 91 3d 1c 53 2f 3a e9 03 1e bc
       -0.01610859 0.07098171 0.00066881045 -0.009644487
0000e0 ae d9 9d 39 c4 20 03 bc a5 93 46 bd 62 e7 b4 bc
       0.00030107558 -0.008003417 -0.04848065 -0.022082988
0000f0 6b d5 c7 3b 92 36 9d bd d1 58 74 3d 5f 7e 82 3c
       0.0060984395 -0.07676424 0.059655014 0.015929399
000100 1e 3a 2c 3d f8 a4 20 3d 78 5a 94 bc 45 1c 88 3d
       0.042047612 0.039219826 -0.018109545 0.06646017
000110 09 04 7f 3d 1c 06 21 3d 3a 06 52 bd 62 3f 6e 3d
       0.062259708 0.039312467 -0.05127547 0.058165915
000120 49 44 26 3c 34 5e 49 b9 c5 37 9c 3d 07 30 2b bd
       0.010148116 -0.00019203947 0.07627825 -0.04179385
000130 e8 38 ec 3c 09 53 f4 bb 4d ce 61 bd eb 58 2b 3d
       0.028835729 -0.0074561876 -0.055128384 0.041832846
000140 eb 08 9c 3d ca 9e 1c bd d5 a2 5a bc 35 6b 8c bb
       0.076188885 -0.03823737 -0.013344486 -0.004285241
000150 a4 08 3d bd d0 e0 98 3c 0f fd 23 bc 58 19 7c bc
       -0.04615082 0.018661886 -0.010009064 -0.015386902
000160 70 53 8f bd 35 9a ac bd 2a f8 26 bc 4c 79 07 bd
       -0.06998336 -0.0842785 -0.010191003 -0.033074662
000170 53 73 c4 3d b2 08 7a 3d e2 9f 26 bd df a3 bb 3d
       0.09592309 0.06104345 -0.04067982 0.09162115
000180 62 a3 70 3d dd e4 e6 bc 98 08 5a 3d 9a 70 1c 3d
       0.058749564 -0.028185302 0.053230852 0.038193323
000190 f2 85 b4 3d f0 92 b3 bc e1 6f 20 3d 83 57 76 3d
       0.088146105 -0.021920651 0.039169196 0.06014205
0001a0 19 1c ce 3c 2f a9 92 3d ed 88 a1 bc 68 9b 97 3d
       0.025159882 0.071611755 -0.019718612 0.07402688
0001b0 82 37 81 bc ee 9b 10 bd 0b 1c b6 ba 11 c3 24 3d
       -0.015773539 -0.035304956 -0.0013893856 0.040225092
0001c0 80 0b 8d bd 51 4c 05 bd 6b 60 86 bd 22 ef 96 3d
       -0.06886959 -0.032543484 -0.06561359 0.0736983
0001d0 94 2b ea 3b 7d 8b 44 3b 10 bf 8d ba 78 29 03 3d
       0.007146308 0.0029990368 -0.0010814387 0.03202197
0001e0 61 d9 79 3c 22 7e 1a 3d dd dd 93 3d b0 61 b8 3d
       0.015249581 0.037717946 0.072200514 0.090030074
0001f0 2f bf ac 3d 79 bd 4c 3d 5b 3d ad 3d 03 07 8f 3d
       0.08434903 0.049985383 0.08458968 0.06983759
000200 06 97 28 bc e4 9f 31 3d 48 a7 e8 3c ea 8b 3c bc
       -0.010289913 0.043365374 0.028400078 -0.0115079675
000210 dd c0 31 3d 06 5a c7 bc 0b b3 84 3d cd c8 4c bb
       0.04339682 -0.024334919 0.06479462 -0.0031247616
000220 40 54 45 3d e2 ad ff 3c fb 0d 5b ba b6 1c 0c 3c
       0.04817605 0.031210843 -0.000835627 0.008551767
000230 97 77 cd bc 09 1e 59 3d 2f 66 a8 bc 3a 75 58 3d
       -0.025081439 0.05300716 -0.020556537 0.05284617
000240 5a 2c 9f 3d 9c 30 a1 bd 21 3a 2c bd ed 2b c7 bc
       0.07772131 -0.078706 -0.042047624 -0.024312938
000250 b3 e5 eb bc 07 0c 93 bd 9d a8 a0 3d a2 8e 59 bb
       -0.028796053 -0.071800284 0.078446604 -0.0033196588
000260 ae bc ef bc 13 1d a2 3d b2 49 eb bc 5a 5b 92 3d
       -0.029264774 0.07915702 -0.028721664 0.0714633
000270 ba 8b f2 bb 0b 36 32 bc 44 a7 16 bd e8 dc bc 3d
       -0.0074019106 -0.010877143 -0.03678061 0.09221822
000280 b9 4b ab 3d f3 23 26 3d 13 ae 3f bd ac ba a4 3c
       0.08364052 0.040561628 -0.04679687 0.020108543
000290 39 17 bd bd 64 cd 5a bc e3 92 a0 bd d5 06 b2 bc
       -0.09232945 -0.013354633 -0.078405164 -0.021731773
0002a0 0f 1c 99 3d 5c 0c 4e bd 44 4e 0e bd 26 48 b4 3d
       0.07476055 -0.050304756 -0.03474261 0.08802824
0002b0 0e 9a a4 3d 25 95 a1 bc af c5 c7 3b f5 b1 43 3d
       0.08037196 -0.019724438 0.006096564 0.047777135
0002c0 e2 75 08 bd 7a e6 51 3d 94 7f 03 3c 8f e4 bb bd
       -0.033315547 0.05124519 0.008026022 -0.091744535
0002d0 bf da 6c 3d 35 83 17 bd 0e 12 72 3d 3c 3f d6 bc
       0.0578258 -0.036990363 0.05909925 -0.0261532
0002e0 ad f1 81 3d aa 24 95 bd 8c 3c 7e bd 6b 1f 51 bd
       0.06344924 -0.07282384 -0.06206946 -0.051055353
0002f0 bc ec 92 bd 19 b9 87 bc 77 f0 6b bb 14 1a 56 bd
       -0.0717406 -0.016567754 -0.0036001483 -0.052270964
000300 ab 12 a7 3d 97 8f 6d 3d f4 7f 25 bc eb 26 ba 39
       0.081578575 0.057998266 -0.010101307 0.0003550568
000310 c2 08 b1 3b 74 20 d8 bc 82 f8 1a bc 72 c5 0c bc
       0.0054026553 -0.026382662 -0.009458663 -0.0085919965
000320 7b d2 6f bc 05 53 1e bd 9b 96 b2 bd 16 dd b3 3d
       -0.014637585 -0.038653392 -0.08720132 0.08782403
000330 29 bb 43 3d 5f 63 53 bd c6 ad 01 3d 23 f9 41 bd
       0.04778591 -0.05160844 0.031659864 -0.047356736
000340 ee 00 be bd 2e 49 96 3d df 50 f8 bc 72 5f 72 3d
       -0.09277521 0.07338177 -0.030312 0.059173055
000350 c5 97 10 3d 26 69 4d bd bf 75 39 bc 34 bc 6a 3d
       0.03530099 -0.050149105 -0.011319577 0.05730839
000360 db 7d 36 ba 6b c6 2b 3d ab a2 60 bd 38 14 95 bc
       -0.0006961503 0.041937273 -0.054842632 -0.018198118
000370 2d 58 b5 bc 8f cc 8d bd 54 8c 53 bd b2 e2 74 3d
       -0.022136772 -0.06923782 -0.0516475 0.059786506
000380 dd da ff 3c d9 6d ce bc 16 b6 ac bd 1c 2b 86 3d
       0.031232292 -0.025198864 -0.08433168 0.06551191
000390 ed c6 20 3c 7f 0c 2c 3d 06 cd 80 bd 6c 7e 56 3d
       0.009813053 0.042004105 -0.06289105 0.05236666
0003a0 68 22 a7 3d c0 47 79 bd a3 8a 48 bd 3c 76 63 bc
       0.08160859 -0.06085944 -0.04896034 -0.01388317
0003b0 4a 5c eb 3b 27 fd 4b bd bb e2 eb 3a 2f 4f b3 3d
       0.0071826326 -0.04980197 0.0017996648 0.087553374
0003c0 f9 3c bd 3c 9f ec 93 3d 2e 8b f9 3c f0 0a 88 bd
       0.023100363 0.07222866 0.030461874 -0.06642711
0003d0 6c df 0e bc b2 ed 89 bd 30 f9 a8 3d 68 fd 8a 3c
       -0.00872026 -0.0673479 0.08250654 0.016966537
0003e0 eb 3d bd 3d 57 8f 93 3d 41 79 01 bc e5 0a 80 bd
       0.092403255 0.07205074 -0.007902444 -0.06252078
0003f0 0f 3c 89 bc 55 00 90 bd 46 a9 27 bd fe 62 87 3d
       -0.016752271 -0.07031313 -0.040932916 0.06610678

MatMul_2 f4 [1, 128]
000000 1a e2 97 3d 77 bc 1b 3d eb 98 02 be ef 2c d6 bd
       0.07416172 0.03802153 -0.12753646 -0.10457789
000010 32 a0 7f 3d 09 6a ca bd 49 1b f4 bd 8c 74 06 3e
       0.062408634 -0.09883506 -0.11919267 0.13130397
000020 5c ac ca 3d 52 78 1a 3d 5e 92 ed 3d dd e9 6f 3d
       0.09896156 0.037712403 0.11600183 0.05857264
000030 60 85 c4 3d 43 c7 8b bb 43 60 19 3e bc 2f d4 3d
       0.09595752 -0.004265697 0.14978127 0.10360667
000040 cf d7 11 3d a5 54 96 3d c0 97 e9 bd 05 8a 3b bc
       0.0356062 0.073403634 -0.11405897 -0.011446481
000050 e1 e2 86 3c 06 02 a9 3c f9 51 12 3d ea e3 1c be
       0.016465606 0.020630848 0.035722706 -0.15321317
000060 ce c7 85 bd cb c4 e1 3d ae 16 94 3d c6 a7 1d 3e
       -0.0653225 0.110238634 0.07230888 0.15396032
000070 91 53 0d 3e d4 89 23 be 52 c0 83 bd 0f d5 9f 3d
       0.1380141 -0.15970546 -0.064331666 0.078043096
000080 44 1e 96 38 8b 1f 45 be 4e 04 c9 3d 13 1e a0 3c
       7.158195e-05 -0.19250314 0.09815274 0.01954559
000090 78 f3 74 bc df 6e 82 3d da 47 fd 3b 58 6d c6 3d
       -0.014950626 0.06368803 0.0077295126 0.096888244
0000a0 52 0a 04 be 21 95 15 3d 6b 74 a5 3d d1 ce b8 3d
       -0.12894562 0.036519174 0.080788456 0.09023822
0000b0 d4 eb 89 3d f8 44 1f bc e5 f2 97 3d 77 f2 d9 bb
       0.06734434 -0.009721033 0.07419375 -0.0066512185
0000c0 f5 86 20 be 9e 90 15 be 13 2b b9 3d 40 85 28 be
       -0.15676482 -0.14605948 0.09041419 -0.16457081
0000d0 67 81 0e bd 57 7a 02 be 8e 2b 0d bd ed ea 33 3d
       -0.034791376 -0.12741981 -0.034465365 0.043925215
0000e0 02 68 3c 3c 75 e5 0b be 76 67 83 3d 75 9a 86 3c
       0.011499407 -0.1366175 0.06416218 0.016431073
0000f0 89 92 fa 3d d4 20 a9 3d 8c 8d ea 3d 98 de 01 3d
       0.122349806 0.082582146 0.11452779 0.031706423
000100 e9 e8 47 3c 80 1a 2e 3c ef 99 20 be d0 7b 0e 3d
       0.012201526 0.010626435 -0.15683721 0.034786046
000110 f2 f8 04 3e 98 91 2c be 8f 8c bc 3d dc 33 d4 3d
       0.1298559 -0.16852415 0.09206497 0.10361454
000120 e2 4e 96 bd c7 ca ca 3d 7a 43 93 3d bb 15 b9 3d
       -0.073392645 0.09901958 0.071906045 0.09037348
000130 18 31 9a bd f8 80 98 3d 04 99 01 3e b3 ad d1 3d
       -0.07528895 0.07446474 0.12656027 0.102382086
000140 21 b8 86 3d de 0c 95 bc 52 2e ae bd 91 0c 80 3d
       0.065780886 -0.018194612 -0.08504929 0.06252397
000150 24 a0 d6 3d 18 11 07 3d 90 d3 19 be 50 7d 06 be
       0.10479763 0.032975286 -0.15022111 -0.1313374
000160 ce 91 b5 bd 6e 5a 08 be 4c c8 22 be 96 89 5d 3d
       -0.08865701 -0.13315746 -0.1589672 0.05408629
000170 e7 83 f3 3c 1a c2 c3 3d c7 e7 a3 bd 5e bd 90 3d
       0.029725982 0.09558506 -0.080031924 0.07067369
000180 ff 80 bd 3d d6 a5 f8 bd df a4 1f 3e 94 c0 f2 3c
       0.0925312 -0.12141006 0.15590237 0.029632844
000190 d9 4e 29 be 27 02 d0 3d 2e 9c 1d 3d d8 0a 12 be
       -0.16533984 0.101566605 0.038479023 -0.14261949
0001a0 94 6c 9d bc 03 a1 a9 3a c7 e8 9f bd d5 aa 04 be
       -0.019216813 0.0012941662 -0.07808071 -0.12955792
0001b0 9e 8e 2a be 4d 85 ca 3b 4d d0 bb bc ae 1e 71 3d
       -0.16655967 0.0061804415 -0.022926474 0.05886715
0001c0 17 98 c8 bc 4f c1 6e 3d df cc 05 3d 5c 94 21 be
       -0.024486585 0.058289822 0.032666083 -0.15779251
0001d0 0c 95 96 3d 73 9d 04 be b7 d8 d2 3d ef d6 f8 bd
       0.07352647 -0.12950687 0.10295241 -0.1215037
0001e0 d8 22 f7 3c 96 36 09 be 83 a3 09 be ce b8 2f be
       0.030167982 -0.13399729 -0.13441281 -0.17160341
0001f0 cc 43 8e 3d f3 23 b2 bd bf d4 d6 3d 6b ac 41 3a
       0.06946525 -0.08698263 0.10489797 0.0007388058
